sat-code/models/maddpg_20250712-135635/checkpoint_900/actor_agent_1.pth (torch, 21533 bytes, 6 tensors)

fc1.weight f4 [64, 4]
00000000: d5d1 81bd 1639 513e 7445 d6be 6b17 b1be
00000010: 0125 bfbe 2f2c b53e dc1a 31bf 8d01 4bbe
00000020: 5ce9 773c df46 ba3d 7eab fabe 3fe7 063f
00000030: b242 0a3e 0ee5 333c 44f9 00bf 3fc4 113f
00000040: ec91 f53d ef39 063e d32d 3cbe 2240 c4be
00000050: a7a1 febe 814b f23c 22e5 263f 8fc7 9dbe
00000060: cb20 99be 9df1 623e 7b39 823e c387 edbe
00000070: 762f dc3e 2dc3 0fbe ba27 a63d 53bf a3be
00000080: 2e47 47bf 5e0a 5c3d c8a2 973d 838b 30be
00000090: 33a1 95be 78a5 e33e 03c7 0c3f c36e 32bf
000000a0: 088b efbd 6383 e73e 5fe0 20bf b30e 4a3d
000000b0: db2e 0e3e 8c72 a7be 5f01 1e3d 41eb a8be
000000c0: 1980 953e 77c9 bc3d 5eb1 00bf d877 91bd
000000d0: 41a1 36be b969 843e 0820 2c3e 2405 8a3e
000000e0: 3380 d23e cc4a 303c 736e 05bf 86e4 11be
000000f0: d6c4 9ebc b178 763d 0fe4 0abf 9314 56bf
00000100: 57a4 c83e 91f2 55bd 5bd7 813e d6e2 01bf
00000110: f4c5 97bc 9452 02bf 5649 1abe faa3 123f
00000120: 1208 503e 1766 c73d d504 15bf 7272 db3e
00000130: abea 79be 18f9 0ebe f71c 10bc 248e bc3e
00000140: 6c9c 993e 1ac0 dd3e a21f efbd e455 72be
00000150: bd29 76be d84e cc3e 4135 09bf 947f ca3e
00000160: 8ecc 5e3e 20b9 8ebe 4dd4 58be ba65 023f
00000170: 9fd1 f03e c641 283e 0ca9 1abf ce1e 873d
00000180: fd93 c63e 4e9c 9bbe 055a 7abe ffff 813d
00000190: 1824 f7bd b85f b7be 72ff bd3e dce5 b93e
000001a0: e7ad c23b 6e35 b53e e80d 293f 74eb dcbd
000001b0: 081c dc3e efd0 673d 8e28 41bd 9812 d3be
000001c0: 1acd 4b3d f040 f23d 2772 d13d 29a9 10bd
000001d0: 51f2 05bf 9fdc 163d e6a9 2c3f e9b3 00bf
000001e0: b47f debe 6845 d73e 3f2e d23e 8f64 d6be
000001f0: e4c6 9b3e 7697 50be ff63 d33e c010 2abe
00000200: c327 983e 5bc5 ba3e 84cd e6bd d978 253e
00000210: cb13 5abe abe7 113f 2767 b9be 37a3 debe
00000220: 0b7c 03bf 516a 99bb 47d5 05bf 10df 143f
00000230: 4332 083e 32f5 973e d5c0 d9be 3db5 97bd
00000240: a302 41be 3aef 5f3e babc 183f 084b c2be
00000250: 6c69 ca3e 58dd ec3e 316c afbe 1654 d03e
00000260: c1a3 ab3e e419 40be d410 543f 38b9 44be
00000270: 7915 1dbf aa9d ee3d c582 52bf 4af0 c33d
00000280: efe9 6abe 256a c03e cae6 87be c558 12bd
00000290: 8c31 073f a632 cdbe 2ba3 483f 212d e1be
000002a0: 7e39 84be d786 d63e 66bb 1abf 4198 01bf
000002b0: f940 50be 1f1f 343e 150c de3e f987 97be
000002c0: 3ff0 cebd d3e3 36be 7b10 ecbd 0d06 3b3e
000002d0: 4efe a83d b1d2 8c3e c0e1 ed3e fd4f ea3d
000002e0: d442 883c e3db 88be e15f c6be 8eb4 98bd
000002f0: e14c 9a3b 66f4 273e 964d c6be 2b22 a83e
00000300: 3cbc 49be 1159 143f 5ca6 713c abd1 2cbe
00000310: 2f52 33be 3597 073f e570 34bf d2ab c03b
00000320: 3327 4c3e 87fb ddbd 121e 27be 501a 07be
00000330: 793d 03be 86e7 cebd ac91 23bd a972 a63d
00000340: ef48 e2be 7565 88be 836c 7dbe b67e 21bf
00000350: 8141 f53e 7fa2 e83d 03b4 05be e664 6dbe
00000360: 3c6c cb3d b3e8 c93d 0b4d 44bd 1db9 bbbe
00000370: 0f53 bd3c 38d9 c0be 0b8b 1c3e e376 efba
00000380: b06c 473e 4eb5 663e 6f2a 0d3d 69d7 673e
00000390: 2a64 8abe 5dc6 473d 8c97 debe 206e e53e
000003a0: e284 a5be 1315 063f cf10 5abe da20 133e
000003b0: 889c b0bc 07d0 053e 07b5 343e 9f33 4cbe
000003c0: 1add 243e 91b7 86bd 262f fc3e 0725 a23e
000003d0: 2e14 d43e fdf3 aabd a2fb d1be a1eb f13e
000003e0: cf7e 873e f957 a53e 4e34 5bbe 3bbc fe3e
000003f0: ee5c 64be 5e78 a53e 511c dabe 6c20 eb3e
-0.063388504 0.20431933 -0.41849864 -0.3458818 -0.3733292 0.35385272 -0.6918161 -0.1982481
0.015131321 0.09095549 -0.48958963 0.52696604 0.13502005 0.010979904 -0.5038035 0.5694007
0.11990723 0.13108037 -0.18376856 -0.3833018 -0.49732706 0.029577019 0.6519338 -0.30816314
-0.29907832 0.2216248 0.2543448 -0.4639264 0.4300496 -0.14039297 0.08113046 -0.31981906
-0.77842987 0.053720824 0.07404095 -0.1724072 -0.29224548 0.4446218 0.5499117 -0.6970026
-0.1169644 0.45217428 -0.62842363 0.049330425 0.13885061 -0.3270458 0.038575526 -0.32991984
0.29199293 0.09218114 -0.5027064 -0.071029365 -0.17834951 0.2586191 0.16809094 0.26957047
0.41113433 0.01076002 -0.5212166 -0.14247331 -0.019380968 0.060173694 -0.5425424 -0.83625144
0.3918788 -0.052233282 0.25359616 -0.5073675 -0.018527009 -0.50907254 -0.15067038 0.5728146
0.20315579 0.09736269 -0.582105 0.42860752 -0.24405925 -0.13962209 -0.008795968 0.36827195
0.30002153 0.43310624 -0.11675955 -0.23665577 -0.2403936 0.39903903 -0.53596884 0.3955046
0.21757719 -0.27875614 -0.21174736 0.5093647 0.47034928 0.1643134 -0.60414195 0.065976724
0.3878478 -0.3039269 -0.24448402 0.063476555 -0.12067431 -0.35815215 0.37108952 0.3630818
0.005941141 0.35392326 0.66036844 -0.107870966 0.42990136 0.05659574 -0.047157817 -0.41225123
0.049756147 0.11828792 0.10226851 -0.035317574 -0.5232287 0.036831494 0.67446744 -0.5027452
-0.43456805 0.4204514 0.41050908 -0.41873595 0.3042518 -0.20370278 0.41287228 -0.16607952
0.29717836 0.36478695 -0.11269668 0.16159381 -0.21296613 0.5699412 -0.36211511 -0.43483898
-0.5136115 -0.0046818634 -0.5227856 0.58152866 0.13300423 0.29679257 -0.42529932 -0.07407615
-0.18848662 0.21868601 0.59662974 -0.3794787 0.39533556 0.46262622 -0.3426223 0.40689152
0.33523372 -0.18759876 0.8283818 -0.1921128 -0.6136089 0.11651166 -0.8223079 0.09567316
-0.22940801 0.37580982 -0.26543266 -0.03572919 0.5280998 -0.40077704 0.78373975 -0.43979743
-0.25825113 0.4189975 -0.604422 -0.50622946 -0.20337285 0.17589997 0.43368593 -0.29595926
-0.10104417 -0.17860346 -0.11526581 0.18264027 0.0825163 0.27504495 0.46461296 0.11441038
0.016633429 -0.2673026 -0.38745025 -0.07456313 0.0047088717 0.16401824 -0.38731068 0.32838568
-0.19700712 0.57948405 0.014749136 -0.16876857 -0.1751182 0.529651 -0.70484763 0.0058798576
0.19936828 -0.10838991 -0.16320065 -0.13193631 -0.12816419 -0.10102753 -0.039933845 0.081273384
-0.4419627 -0.26639906 -0.24748425 -0.6308397 0.47901538 0.11359119 -0.1305695 -0.23183021
0.099327534 0.09858837 -0.047925036 -0.36664668 0.023110894 -0.37665725 0.15287416 -0.0018269684
0.19475055 0.225301 0.034464296 0.22640766 -0.27029544 0.04877316 -0.43474996 0.4481058
-0.32327944 0.52375907 -0.21295474 0.14368 -0.021559015 0.13067637 0.17647181 -0.19941567
0.16099969 -0.06577981 0.4925472 0.31668875 0.41421646 -0.08347318 -0.41012293 0.47250083
0.26463935 0.3229368 -0.21406671 0.49752983 -0.22301075 0.32318395 -0.4259973 0.45923173

fc1.bias f4 [64]
00000000: 6788 883f b480 b03e 7fc6 803f 74be 8f3f
00000010: e808 1a3f 9add 453f f489 283f 6447 98be
00000020: 952d 823f f3c5 d1bc 26f0 643e c46d 313e
00000030: 04e9 a7bf a9ee 003f bd99 283f 1f2f 70be
00000040: 1926 0bbf 05bf 0a3f 63ee 88bf 5dd1 81be
00000050: 6c8d 983e 0734 213f 7972 c33e 56b2 cfbf
00000060: 35d9 50be 386f 96be 3f4e 9a3f 79ca 913f
00000070: 42be 8cbe 2d6a 4e3f 1373 18be 3d6d 91be
00000080: c990 123e 4528 0fbd 4820 2e3f 5a3b c13f
00000090: 3d11 26bf 5ace 86bf 1a01 69be 7abe 963e
000000a0: 128d 413d 1639 3a3f 0964 45be 760d a53e
000000b0: 4504 3a3f 799d 9fbe 8517 42bd cce2 5abf
000000c0: 6697 ddbe 3c65 3f3e 3c8c 263f 7579 303f
000000d0: 2fd2 21be 6c7d 30bf 3a2d db3f 6460 413f
000000e0: 7eb3 65bf 2130 1c3f 1e3d dfbe 6ac9 ab3f
000000f0: e9a0 2dbe 2c9d a5be 7da8 25bf 22b1 fc3d
1.0666627 0.34473193 1.0060576 1.1229997 0.6016984 0.7729126 0.658355 -0.29741967
1.017016 -0.025607085 0.22357234 0.17327029 -1.3117986 0.50364166 0.65859586 -0.23455475
-0.5435501 0.5419772 -1.069775 -0.25355044 0.29795396 0.6297001 0.38173273 -1.6226299
-0.20395358 -0.29381728 1.2055129 1.1389915 -0.27488905 0.8063076 -0.14887647 -0.28403655
0.14313044 -0.034950513 0.6801801 1.5096238 -0.64870054 -1.0531723 -0.22754326 0.29442197
0.047253676 0.72743356 -0.19276442 0.32236832 0.72662765 -0.3117483 -0.04738571 -0.85502315
-0.4327957 0.18690962 0.6505773 0.6893533 -0.15802835 -0.6894138 1.7123177 0.75537705
-0.8972701 0.6101094 -0.43601316 1.3420842 -0.16955914 -0.32346475 -0.6471022 0.12338473

fc2.weight f4 [64, 64]
00000000: ef8f 3c3e d41c 17bc 6866 80bd 5ec3 913d
00000010: 7809 5b3d 6d80 c2be 93d7 e93d 56f0 c33d
00000020: 200b dbbd 1f76 c53d 2fb6 dabd 1dc0 ff3d
00000030: 39cd 5abd e236 b1be 88e0 b83d 7e65 bfbd
00000040: 703c a33d 14dc 9abd 94c6 793d 3e43 b3bd
00000050: c617 97bd 8da3 10be b747 613d d513 2fbd
00000060: 222f 873d 1894 a33d 1986 163d e3bc 7abc
00000070: 8c97 a8bd a03f 2bbd 9cea ef3d c694 f83d
00000080: 8dfc d53d c6e6 23be 9215 9cbe 91bf 893c
00000090: 9260 9cbc c4e2 c73d bff9 063d 971a b7be
000000a0: 1582 f4be 4d95 043e 2ce5 37bb c5ca ba3d
000000b0: 885c 0e3e 9e1c 333e 34a5 0bbb 225b 9dbe
000000c0: 24cc c83c 4f21 03be 4c3a 133b 96ce 1e3e
000000d0: 7379 d03d 7fdf dbbc cb62 4b3e b761 a8be
000000e0: d8fa dc3c 9215 c0be ac18 b8be 3104 993e
000000f0: 1a4e 023e d30b ac3d 6b00 9abd 5951 09bf
00000100: 1cc8 953e d1ac f93d 6cd5 503e 3a3f 863c
00000110: 78e6 9d3d 0bda 9d3e 06a7 113e 5d21 9b3d
00000120: 5fd9 db3e 98b2 333d 79b8 af3c cd40 273e
00000130: c395 1cbd 2921 c13c ab49 213e 2ef9 e23e
00000140: ef65 0bbe f6cb 7abe 1b2e 0ebe 178e b03d
00000150: 4cb4 603d 9301 b53c 3f2c 3e3e 8537 15be
00000160: 2952 cabd d015 7a3d f018 f83d a0f5 a23c
00000170: 3682 8c3b fefb 533e ba5e aabd a928 d5bd
00000180: 2bcf 8d3d 1094 623d 5301 16be 0b63 b63d
00000190: 6871 79be b77a 04be b630 2bbe 230a 3f3e
000001a0: 402a 22be a4db ec3d ee69 87bc 955d ac3c
000001b0: ce9f f6be d8e3 423c 83be 8f3e 44b0 23be
000001c0: 6f4a 813d bfc6 383c db04 4e3e 790f cfbe
000001d0: 0663 1f3e 48b0 debc 2fa2 103d 1824 0cbf
000001e0: a326 a1bc 6308 003e a33d dd3c 7b8b c63e
000001f0: 6971 4abd 5a59 e7bc b098 243d 6b81 36be
00000200: f088 75bc cb2e 3fbe 60b7 f5bd acf3 5d3d
00000210: 9de8 b33d 076b babe 932a 023e 6996 673d
00000220: 4946 a6bd 237f 4d3e 37bb 7c3d 46be d83d
00000230: 10bd 973d 9105 173d e504 5f3d a8d8 81be
00000240: 491d 48bd f32f 04be 6205 bd3d 27b9 95bc
00000250: e6ac b83d 39fc dcbd d3c2 6abd 1bfa 833d
00000260: 2d8e 2a3e 5447 02bd b792 c53c 9a27 0e3d
00000270: e44b b4bd 4a8a a5be fcaa c53c 3b87 2a3d
00000280: 8a1c 87bb 6011 8e3c fa1f 80be b876 373d
00000290: 978c e93d 6e5a b23d 4ac5 0a3e 1b06 85be
000002a0: 8f74 38be 3681 613d 36a5 aabc b967 433e
000002b0: f938 e03e 93c9 49b8 abed 83be 6037 f3bd
000002c0: c017 99bd 967d af3d b854 b43d ed94 b93e
000002d0: 8556 98be 20f7 d9bc aa1a 0fbd 2153 c33e
000002e0: 26ae 99bd bc5d cbbd a83b b3bd d5b7 babb
000002f0: 90b0 593e ed4a e93d 1783 e1bc 1ccb a6bd
00000300: 2b78 3d3d e52c 3a3e ab0d b33d 7662 45bc
00000310: ae21 643c d0ff d53e 1b85 313d 570c 023d
00000320: 9ecf a43e de07 84be 1bb8 83bd a41c 073e
00000330: 3999 9bbd 13ca 73be ffd4 a5bc ca69 0b3f
00000340: a64e 57bd f5f6 46be 201f 6dbe 9ac7 e3bd
00000350: 4aae d23d 5695 b0bd e629 813e 3ae7 0d3d
00000360: a523 df3c 0060 193a 3102 773d c46b 863d
00000370: 38de afbd 1317 973e fe41 debc ff02 393d
00000380: 4856 c1bd df93 04bd 9db9 9fbc 587e 88bc
00000390: dff6 1cbe b5e1 bfbb e027 2dbd 676b c63e
000003a0: bf71 353d 5e5e 443d 1d9d d33c f4ed 55bd
000003b0: 9661 30be 4e7e 123d 6eec d33e ac81 4abe
000003c0: 757c 56bc 6096 86bd bf25 b03d dc5e 98be
000003d0: 534c 3b3e 030c 70bd 71b0 433e be21 edbe
000003e0: ae8e c8bd c690 693e 2a1f 12be 8a3b 903e
000003f0: 949f ffbd b218 ad3d ad23 1dbe 8d0b 74be
0.18414281 -0.009223182 -0.062695324 0.071173415 0.053475827 -0.37988606 0.11418071 0.09567325
-0.10695481 0.096416704 -0.1067928 0.124878146 -0.05341837 -0.34612185 0.09027201 -0.0934553
0.07970512 -0.07561508 0.060980394 -0.0875306 -0.07377581 -0.1412489 0.055000033 -0.042743523
0.06600787 0.07987231 0.03674898 -0.015303823 -0.0823203 -0.041808724 0.1171467 0.12137751
0.10448561 -0.16006002 -0.30485207 0.016814979 -0.019089017 0.09760049 0.03295302 -0.35762474
-0.47755495 0.12947579 -0.002806018 0.091207065 0.13902485 0.17491385 -0.0021308186 -0.3073359
0.024511404 -0.12805675 0.0022465168 0.15508494 0.101794146 -0.02683997 0.19861905 -0.3288705
0.02697508 -0.37516457 -0.35956323 0.2988601 0.12725106 0.08400693 -0.07519611 -0.5363975
0.29254234 0.12191165 0.20393914 0.01638757 0.07709974 0.30830416 0.1422387 0.07574723
0.42939278 0.043871492 0.021450268 0.16333313 -0.03822876 0.023575382 0.15750758 0.44330734
-0.13613103 -0.24491867 -0.13884775 0.086208515 0.054859444 0.022095477 0.18571566 -0.1457196
-0.09878952 0.06105596 0.121141315 0.019892514 0.0042879833 0.20701596 -0.08318849 -0.10408146
0.0692428 0.055316985 -0.14648943 0.0890561 -0.24359667 -0.12937437 -0.167178 0.1865621
-0.1583643 0.115653306 -0.016530003 0.021040717 -0.48168796 0.0118951425 0.28075036 -0.15985209
0.06313025 0.0112778535 0.2011904 -0.40441492 0.15565118 -0.027183667 0.03531092 -0.54742575
-0.019671744 0.125032 0.02700693 0.3877829 -0.049424563 -0.028240848 0.040184677 -0.17822807
-0.014986262 -0.18670194 -0.11997867 0.05418746 0.08784602 -0.3640978 0.12711553 0.056539927
-0.081188746 0.2006803 0.06170198 0.10583167 0.07409108 0.036870543 0.054448027 -0.25360608
-0.048856054 -0.12908916 0.09229542 -0.018276764 0.09017353 -0.10790295 -0.057314705 0.06444188
0.16655798 -0.031806305 0.02411781 0.034705736 -0.088035375 -0.3233207 0.024129383 0.041632872
-0.004123275 0.01734227 -0.25024396 0.044790953 0.114037685 0.08708654 0.13551822 -0.2598122
-0.18013214 0.055054866 -0.020830732 0.19082536 0.43793467 -4.8109865e-05 -0.25767264 -0.11875796
-0.07475233 0.085688755 0.08805221 0.36246434 -0.2975351 -0.026607096 -0.03493754 0.3814936
-0.07503919 -0.09929988 -0.08751613 -0.005698184 0.2125876 0.11391244 -0.027528329 -0.08144209
0.04625718 0.18181188 0.08742841 -0.012047401 0.0139240455 0.41796732 0.04333983 0.03175005
0.3218965 -0.25787252 -0.064316 0.1319452 -0.07597584 -0.23807554 -0.020243166 0.54458296
-0.05256524 -0.19430144 -0.23156404 -0.11122055 0.10287149 -0.086222336 0.25227278 0.034644343
0.027238676 0.0005850792 0.060304824 0.065635234 -0.08587307 0.29509792 -0.027131077 0.045168873
-0.09440285 -0.032367583 -0.019497687 -0.016661808 -0.15328549 -0.005855764 -0.042274356 0.38753816
0.04429793 0.047941558 0.025831753 -0.052228883 -0.17224726 0.035764985 0.4139132 -0.19776028
-0.013091196 -0.065716505 0.086009495 -0.29759872 0.18290834 -0.058605205 0.19110276 -0.46314806
-0.09792839 0.22809133 -0.142697 0.28170425 -0.12481609 0.08451976 -0.1534564 -0.23832531

fc2.bias f4 [64]
00000000: 75ef ee3e 31c5 773f 946e 88be d3f1 363f
00000010: a743 133f a493 613e a5a0 6c3f 772b 3cbf
00000020: 2c63 e4bc 3e4f 8cbd 2700 01bd e14b b73e
00000030: c270 06bc 0d43 cf3e c21f 073f 48d5 98bd
00000040: 882d 9abf 68b1 e63d 9115 fd3d 818e d73e
00000050: 4db3 293f 0b41 1abf dcca 3fbf 1641 70bd
00000060: def3 06bd b35b 673f 30f0 c4bd 69d8 ae3d
00000070: 7767 983d 5afd a43e 59f0 dbbe 1826 473e
00000080: ea3f 273d 6b51 a33e 55aa 293f 410b 4c3f
00000090: 0975 343e 880e 65be 4cf3 5ebf 769f 333e
000000a0: 9bd1 21bf 2b5a 5f3f 6fa4 c93d a00c bebc
000000b0: 74d3 723f 0f84 b43d 3269 753f 2de8 d23e
000000c0: 624e 5b3f a243 033d dc2a d73e 3744 4bbe
000000d0: b573 4fbf 3637 ab3d 1524 3e3f d26c babe
000000e0: 90e9 513f 00b2 073e 4c68 6abf f6ae 6f3f
000000f0: 6de5 803f b5fe 3bbf d171 99bc d8dd 193e
0.46667066 0.96785265 -0.26646864 0.71462744 0.57525104 0.22028977 0.92432624 -0.7350382
-0.02787932 -0.06851052 -0.031494286 0.3580008 -0.0082055945 0.40480843 0.52782834 -0.07462555
-1.2045145 0.11264306 0.12357629 0.4210091 0.66289216 -0.602555 -0.74918914 -0.05865582
-0.032947414 0.90374297 -0.09616125 0.08537371 0.07441609 0.32224542 -0.42956808 0.19448125
0.040832438 0.31898054 0.6627553 0.7970467 0.1762277 -0.22368824 -0.8708999 0.17541298
-0.6321046 0.8724696 0.09845816 -0.02319938 0.948539 0.08814251 0.9586364 0.4119276
0.8566648 0.03204692 0.42024887 -0.1985024 -0.8103593 0.0836014 0.74273807 -0.36411148
0.81997013 0.13251495 -0.91565394 0.93626344 1.0070015 -0.7343553 -0.01873103 0.15026033

fc3.weight f4 [2, 64]
00000000: a678 533e b3b0 1e3e c56d 1dbe 7013 263e
00000010: a903 533e ad93 9a3e e8e9 973d bfba 29be
00000020: 12cc e1bd 23bf bbbc 0e49 ffbc f91f cdbd
00000030: 3158 83be d9c2 e93d 48d8 093e b1dc 64be
00000040: 9001 01be de97 11bd 950a 1ebd 3205 693e
00000050: b9fd 8d3e b932 8cbd 086f efbc 91af f0bd
00000060: bef0 55bc b44b 3c3d 38f0 3a3d f704 05bd
00000070: 46dd 793c 1d28 933e c4ae e9be 1866 88be
00000080: cab3 1e3e 082a 103e 27d8 07bd 11a4 683e
00000090: 9a0c 11be 2503 4dbe 5048 13be 97a5 36bf
000000a0: 4831 5cbd 844e 493e d7aa 033f 1c57 88bd
000000b0: 5364 513e abc3 843d 6b84 b93e 9808 283e
000000c0: ccc8 653e d878 84bd 331a 053f 5bf2 d73d
000000d0: f65c b1bd 5427 4ebd e8b9 a73e 55df 26be
000000e0: 0ecc 3c3e c319 503e 2d20 cbbd 5c97 7f3e
000000f0: 17a8 503e 29d7 9fbd abfa 573d 1732 b43e
00000100: b3c1 723e 88e9 4e3d 38ce 3f3c 7ddf a03c
00000110: b5b7 f2bc 548d 3dbe 5e58 b03d 3f65 3abe
00000120: a0ec 363d 88a5 833d f4ca ab3d a51b 2d3e
00000130: 3eef 063e 548d 963e a7b8 883e bfc8 aa3d
00000140: 4892 2bbe b054 003d 47a9 54be 0a93 783c
00000150: 141d 6b3d 56fd 1bbe c2a3 ddbd a7b3 1d3d
00000160: 283f 10be 0836 583e 6057 d7bd 9caa 823c
00000170: 87ae ebbd 6edb adbe 1d6f 7cbe 69f3 063f
00000180: fdf3 01be 0dcf edbd aa61 353e 7de9 313d
00000190: 6b61 ae3e 34ef 98bd 3e0a 7fbe 6426 a0bc
000001a0: 65bc 61be 3202 603d 8ae6 9f3e 06fd f73d
000001b0: d78c 073e 1e1d 4e3e e8e7 823e 09df bcbd
000001c0: b6fc a43e 702c a63d b9ac a83e fb2a d2be
000001d0: 4257 7bbe f0ea e83d 8367 df3d b1c4 b3bd
000001e0: f709 223e 4e59 3ebe 8f7c 84be 6d7f 963e
000001f0: a2c7 173e 7c61 1abe 1ce9 e83d 8ceb 7fbe
0.20651492 0.15497093 -0.15373905 0.16218352 0.20606865 0.30190793 0.07417661 -0.16575144
-0.110252514 -0.02291829 -0.031162765 -0.10015864 -0.25653222 0.11414117 0.13461411 -0.22349812
-0.12598252 -0.035545222 -0.03858431 0.22755888 0.27732638 -0.06845612 -0.029227749 -0.11752237
-0.013057886 0.045970634 0.045639247 -0.032475438 0.01525051 0.28741542 -0.45641148 -0.2664039
0.15498272 0.14078534 -0.033165123 0.22718836 -0.14164963 -0.20020731 -0.14383054 -0.7134642
-0.053757936 0.19658858 0.51432556 -0.0665724 0.20448427 0.06482633 0.3623384 0.16409528
0.22439879 -0.064683616 0.519931 0.105442725 -0.08660309 -0.050330475 0.32759023 -0.16296132
0.18437216 0.20322327 -0.099182464 0.24960083 0.20376621 -0.078047104 0.05272929 0.35194466
0.23706703 0.05051568 0.011706881 0.019637818 -0.029628614 -0.18510944 0.08610605 -0.18202685
0.044659257 0.06428057 0.083883196 0.16905077 0.13177201 0.294047 0.2670338 0.083390705
-0.1675502 0.031330764 -0.20767699 0.015171776 0.057400778 -0.15233359 -0.1082225 0.038501408
-0.14086592 0.21114361 -0.10514712 0.015950494 -0.11507898 -0.33956474 -0.24651761 0.52715164
-0.1269073 -0.116117574 0.17713037 0.043435562 0.340587 -0.074674994 -0.24906251 -0.019549556
-0.22044523 0.054689594 0.31230575 0.12108807 0.1323732 0.20128295 0.25567555 -0.09222228
0.32224053 0.081139445 0.32944277 -0.41048416 -0.24545005 0.11372936 0.10908415 -0.0877775
0.15824114 -0.18588755 -0.2587628 0.29394093 0.14822248 -0.1507625 0.11372587 -0.24992198

fc3.bias f4 [2]
00000000: 1119 d43e 1610 343f
0.41425374 0.70337045
