sat-code/models/maddpg_20250712-135635/checkpoint_900/actor_agent_2.pth (torch, 21533 bytes, 6 tensors)

fc1.weight f4 [64, 4]
00000000: 085d c73e 17ba 5dbe 28e1 97bd 8ce6 41bd
00000010: 7e3b ae3d 44fe 98be b0cd 84bd 0d05 a13e
00000020: ac3f 8f3e 1ff5 94be d3b7 03bf 00a9 4cbb
00000030: 4ece 89be 240d c8be 1330 d4bd 9781 ba3e
00000040: dd71 be3e ff9b 49be 9d07 ad3e 7bdf 71be
00000050: fca0 b1bd 8d99 39be 9130 68bd 644c a6bc
00000060: 8650 9cbe c4ac e3bd 9c80 96be 683c 6e3e
00000070: 4e82 b43d 8fae e03b 6bbf febe 777d edbd
00000080: cdd0 c33e 2858 813e ac9c 65bd 6726 26bf
00000090: afc7 e93e 77e8 c23e 86e1 cfbe 29d5 03bf
000000a0: e199 b83d d603 89bb b9e2 143c 8bb9 abbe
000000b0: dd87 f13c 4b1a af3c f7ca 19bf 4d76 3d3e
000000c0: d0d1 b73d ab25 dcbd 2711 eb3d e577 b1be
000000d0: 2b8c 2ebf f804 1e3e 5d90 333e 33dd ab3e
000000e0: 9024 cf3e d685 503e 2d5d 9f3e 9811 173f
000000f0: a85c 8b3d 1645 b6ba 8da2 c3bd b5f1 03bf
00000100: f824 65be f84d 003f d64c 053f 0404 e63e
00000110: fb14 ae3d 7bf8 0c3e f3a9 00be c09a 283d
00000120: adb6 433e 01c8 06bf 547e 4c3e 46f6 54be
00000130: f111 613e a1d8 dd3e 4c9a ecbe 2fa3 cd3e
00000140: b0de 053e a7bd cbbb dd73 203f 21bc 1abe
00000150: 8a24 893e 9292 3abc 9dca ec3e 77af 0bbf
00000160: 6325 b5be fdb4 6d3e 1c29 20bf 308c 70be
00000170: 7504 0abc e546 333d c9f7 7e3e 3a67 c23e
00000180: 7b47 7a3e c65b 973e bb6f 6abf 9596 0c3f
00000190: bd76 f73c 0d82 51be 7100 6bbc 77ae 89be
000001a0: c05f 6b3e ec55 3dbe 3487 80be 8de0 343e
000001b0: d801 cb3d 2679 483d 759b 03bf 890b dbbe
000001c0: 4706 7ebd a090 76be 2548 123e 4d76 f4bd
000001d0: f8da 71be ce0f cdbe a00f d03c 38aa b83e
000001e0: fea7 94be 24f7 53be c015 993d 102a 843e
000001f0: b148 aa3e 4401 c53d 150a 13bf e952 03bf
00000200: e421 e83e de57 ba3d 38c9 9d3e a20e ee3e
00000210: 717b c53e 8f4e bd3e 21c9 ecbd ea38 1dbe
00000220: 470b b33e 0e53 5abe a2d7 6dbc 7d7d 013f
00000230: 013d e73d 49b9 333d bac2 40bd 1a6d f93e
00000240: 3b8b 063d 1f61 3abc 6fd8 023d 4197 00bc
00000250: 5da5 fa3e ef5d 343e 987b 54be 4de7 103f
00000260: b5d6 04bf 474c b53e df31 f5bd fc61 8cbd
00000270: 0a69 bc3e a6c5 d83e 8d87 b23e 6fcf eb3e
00000280: 9bec babe fdd2 af3e acb6 df3e 594f bd3e
00000290: a637 c73e 84b7 903e 7a92 c3be 5ecf 10be
000002a0: a716 9fbe 8ac9 adbe 19c7 2dbf 3379 2cbf
000002b0: d7e2 313d 2f30 5a3e e15c cdbe dc98 e7be
000002c0: d748 47be 4c87 a1be ebc2 73be 9481 d1be
000002d0: 0201 5a3e b166 1abd fd77 0a3f 1c66 1dbf
000002e0: 563e 69bd eb17 fe3e 4f2f d4bd d4d4 ae3e
000002f0: d5a9 473d 80c4 43be 83ef 7abe ef90 2fbd
00000300: 0aa9 493e 02bd b63e 65a1 633e 1216 a1be
00000310: 5f30 9ebe faa7 c43d ce64 ffbb a8ef 39be
00000320: 0813 d63e afaa e63d fd95 b93c a7fb c6be
00000330: 18cf 8c3e e4ac 493d 26c2 e4be 89d8 adbe
00000340: 4b14 f2be 0234 23be 305d bebe 3145 04bf
00000350: 8210 92be c079 46be 623e fd3e 68c7 aa3e
00000360: 165b 503e 3087 513e 8a59 103f 0347 1a3f
00000370: b1ab cf3e d640 6ebc ed63 9d3e ed76 5e3d
00000380: 8ed1 2e3e b38d e23e d597 06be cf85 193e
00000390: 6b77 d03e c772 59be 80d1 abbe 67c2 44bf
000003a0: 77e6 6e3e f96e 10be d50a 8fbe 0ed5 373f
000003b0: 10b4 45bd 2b09 c53e 6225 523e 3f25 cfbe
000003c0: 5902 cf3e 9864 f93d c45b 0b3d 52d3 913e
000003d0: 2943 803e 3b52 ed3d 55a6 b03e d474 793d
000003e0: 4a4c e03d 0ab7 6a3e e29c 1bbf d61b 9abd
000003f0: 9832 10bf 349e b63e 4ac8 593e e40f 963e
0.38938165 -0.21653019 -0.07415992 -0.047339007 0.08507441 -0.2988149 -0.06484544 0.31449166
0.27978265 -0.29093263 -0.5145237 -0.0031228662 -0.2691521 -0.39072526 -0.10360732 0.36426994
0.37196246 -0.19688414 0.3379487 -0.23620407 -0.086732835 -0.18124981 -0.05668694 -0.020300098
-0.30530185 -0.11116937 -0.29394996 0.2326523 0.08813916 0.0068567465 -0.49755415 -0.11596196
0.3824524 0.2526257 -0.056057617 -0.6490235 0.4566016 0.38067982 -0.40601748 -0.5149713
0.09013725 -0.0041813655 0.009087258 -0.33539996 0.02948373 0.021374842 -0.60075325 0.1850216
0.089755654 -0.10749372 0.11477881 -0.34661785 -0.6818263 0.15431583 0.17535539 0.335672
0.40457582 0.20363554 0.31125775 0.5901122 0.06804782 -0.0013906087 -0.095524885 -0.5154069
-0.22377384 0.5011897 0.5207037 0.4492494 0.085000955 0.13766663 -0.1256483 0.041163206
0.19112654 -0.5264893 0.19970065 -0.20797071 0.219795 0.43329337 -0.4621147 0.40163562
0.1307323 -0.0062176767 0.62676793 -0.15110828 0.2678569 -0.011387484 0.46248332 -0.54564613
-0.35380086 0.23213573 -0.6256273 -0.23490977 -0.008423914 0.043768782 0.2489921 0.3796938
0.2444133 0.29562205 -0.9157674 0.5491727 0.030207986 -0.20459767 -0.014343367 -0.2689092
0.22985744 -0.18489808 -0.25103152 0.17663784 0.09912461 0.04894366 -0.51409084 -0.42782238
-0.062017705 -0.24078608 0.14285333 -0.119366266 -0.23618686 -0.4005112 0.025398076 0.36067367
-0.29034418 -0.20699745 0.074748516 0.2581334 0.33258584 0.09619382 -0.5743726 -0.51298386
0.45338356 0.090987906 0.3081758 0.4649554 0.3857074 0.36973998 -0.115618 -0.15353742
0.3496954 -0.21320745 -0.014516743 0.50582105 0.112909324 0.043877874 -0.047060706 0.4871605
0.032847624 -0.011375695 0.03194469 -0.007848562 0.48954287 0.17613958 -0.20750272 0.56602937
-0.51890117 0.35409757 -0.11972403 -0.068546265 0.36798888 0.42338294 0.34869042 0.46056697
-0.3650864 0.3434066 0.43694055 0.369746 0.38909644 0.2826501 -0.3819769 -0.14141604
-0.3107197 -0.33942825 -0.67881924 -0.67372435 0.043429222 0.21307443 -0.40109923 -0.4523381
-0.1946138 -0.31548536 -0.23804824 -0.40919173 0.21289447 -0.03769559 0.5408934 -0.6148393
-0.056944214 0.49627623 -0.10360586 0.3414675 0.04874595 -0.19117928 -0.24505429 -0.04286283
0.1969339 0.35691077 0.22229536 -0.3146215 -0.3089628 0.096023515 -0.0077939993 -0.18157828
0.41811395 0.11263024 0.022654528 -0.3886387 0.2750175 0.049237147 -0.44679374 -0.33954266
-0.47281107 -0.15937808 -0.3718047 -0.5166808 -0.2852822 -0.19382381 0.49461657 0.3335526
0.20347247 0.20461726 0.56386626 0.60264605 0.40560678 -0.014541825 0.307403 0.054312635
0.17072126 0.44248733 -0.13143857 0.1499245 0.4071611 -0.2123519 -0.33558273 -0.76859134
0.23330103 -0.14104833 -0.27937952 0.7180947 -0.048267424 0.38483557 0.20522073 -0.40458104
0.4043148 0.1217739 0.03402306 0.28481537 0.2505124 0.1158795 0.345019 0.06090243
0.10952051 0.22921386 -0.6078626 -0.075248405 -0.563272 0.35667574 0.2126781 0.29309

fc1.bias f4 [64]
00000000: b62d 063f fb7f bc3e fe7d b83e 7acc aebe
00000010: 3d40 163f 558c c33e 50b7 b0be 55ed 873e
00000020: f153 5d3f a876 803e 8699 603f c04d 723f
00000030: 8e7c 953f 6c34 8c3e d19f be3e 9311 4d3f
00000040: 2349 f03e 704b 203f cc3e d4be 7a3f 3abf
00000050: 963d c2bd 8bec f2be 39c5 edb9 49ce 163f
00000060: a9ec 7cbe bf7f 2bbf 8238 063f ef41 f8be
00000070: e918 143f 6219 89be c013 51bd 21af 7e3f
00000080: 484a 9fbe ce1f edbe 72bb 36bf 9a10 52bf
00000090: 3d2c 833f 1413 6bbe 7248 933e 645d 09bc
000000a0: 9425 283f 6b0c 31be 5038 ca3e 7a7d e03e
000000b0: d65c 82be 578c 5c3f 371d 0dbf 2404 113f
000000c0: 67fb a9bd d254 463f 508f f1be bc2d 6d3f
000000d0: 1e0a ca3d c83b 6cbe 8b57 903f 1436 9fbe
000000e0: c29c dc3c 4aa1 d63e fe64 24bf 488e 5e3f
000000f0: 7df3 3a3e 424e ccbe 330e 2abe 6bc0 adbe
0.524135 0.3681639 0.36033624 -0.34140378 0.5869177 0.38193002 -0.34514856 0.26548257
0.8645621 0.25090528 0.8773426 0.9464989 1.1678636 0.27383745 0.37231305 0.8010494
0.469308 0.6261511 -0.4145416 -0.7275311 -0.09484403 -0.47446093 -0.00045351105 0.58908516
-0.24699654 -0.669918 0.52429974 -0.48487803 0.5785051 -0.26777178 -0.051044226 0.99485976
-0.3111136 -0.46313328 -0.7137977 -0.8205658 1.0247875 -0.22956496 0.2876621 -0.0083840825
0.6568234 -0.17289893 0.39496088 0.4384573 -0.25461453 0.8615164 -0.55122703 0.56646943
-0.08299904 0.77473176 -0.4717965 0.9264791 0.09865211 -0.2306968 1.1276716 -0.31095946
0.026930217 0.4191993 -0.642166 0.86935854 0.18256946 -0.39903456 -0.16606979 -0.33935866

fc2.weight f4 [64, 64]
00000000: 3e42 3a3d a5f4 ab3e 5888 68bc 15b2 a0bd
00000010: 5d70 9a3d ed23 93bd c3af b13c d421 8ebd
00000020: 1629 0b3e 3792 f43c 5a10 d23d 8590 673e
00000030: 809b 7a3e e18a 0dbe 7f59 85bc 6b78 033e
00000040: 9284 783c 1dd9 1abd a79f 153e a858 e0bb
00000050: a894 4fbd 5a72 ba3d 84a7 023e a83c d0bc
00000060: 49bd a03d f5d6 a43e a367 2c3e f542 aa3d
00000070: 3872 59be 38e6 ee3c 7887 fe3d d234 d7bd
00000080: a637 b9bd e3b2 e83d 16be 22be 1c18 9bbd
00000090: 0f61 babd f2b2 ed3b 712f 37be 92e6 16bc
000000a0: 63fb 703d 127a 29bc 38fd 903e 1e1f aabd
000000b0: 723d 9f3e 9543 3c3d 1727 f3bd aa35 e4bc
000000c0: 7337 7c3d 83f2 ddbd 14b4 c3bd b9ee dc3d
000000d0: 3c22 9c3e d00a 3f3d 2409 493b 61a3 d7bd
000000e0: 2bd6 7dbb 10c9 333d 7afa d9bd bc1c 093d
000000f0: 85b6 b53d a67a bb3d 37d3 723c 534f 74bd
00000100: baf2 0d3d 115c bcbe 688b 3e3d 3e3d e1bd
00000110: 3378 cdbd af50 893e f7f8 873d 2653 143e
00000120: cd90 3a3d b93f 253e 4351 fe3c 154f 593e
00000130: 65b0 3f3e 2ed4 edbc 15ad a6bd 0fe1 f63d
00000140: cce4 39be 26ee 173d b4f1 32bd 1415 11be
00000150: ed9e b5bd 37e1 f43c 941d 25be 2504 b33e
00000160: 7563 a33d 1558 99be 5997 58bd 9fb0 ca3d
00000170: 9d53 9f3e ee6f 96bd 5ab9 d53d 1ae2 043e
00000180: b216 a93d e0b3 993c 1f22 203d 4a31 f3bd
00000190: 0a3c 4f3f 73fb 5c3c fbf6 623e d9a2 723d
000001a0: fd48 e3bd 9fad 99bd 260d e6bd 408c ec3d
000001b0: f9b3 1bbc 1d24 a13d 0742 dbbd e4ad 873e
000001c0: 5974 c8bc b970 013e fe21 da3d 3537 69bd
000001d0: 4cc8 d33c 3a46 d5bd 3005 13bd 2a31 7e3d
000001e0: 31f4 0cbe 77ef 46bd 19bc f73b 9ea8 4c3d
000001f0: cfcf 803d 8e36 b7bd c078 85bb 847c 7ebe
00000200: a63d 93bd 0cc7 c63d ca31 923d 7c3e f9bd
00000210: 50ab 68bc 38fe 22bd be50 c83d c05e 463d
00000220: e2be 93bd 5a65 c5bd 8814 efbd 08ad bb3d
00000230: 74fb 35bd a436 05bd 5038 543c 783d be3c
00000240: 40ec 8e3b 1c7b 4cbd ba55 e2bd 009a 6cba
00000250: a4fe fdbd 064a f8bd 4012 c23c fcf1 a1bd
00000260: 60b7 5cbd 709a 69bd f04f 753c 20d3 f7bc
00000270: b8a4 29bd 58a5 75bd 1680 ddbd 00a7 e83b
00000280: a600 e83d d875 92bc 6092 143c 90a6 57bd
00000290: 0ee4 90bd 7060 923c 9092 e7bd 0005 66bb
000002a0: 784d d93d b0da 4cbd 00a5 943b 9c99 f6bd
000002b0: 00e9 20bd e047 833d dc88 6bbd 4879 9bbd
000002c0: 9072 4abd 1887 663d 0010 a13c e82f 0ebd
000002d0: 20c3 dd3c d474 f0bd defb df3d 8c60 afbd
000002e0: 9ad6 eebd 4663 d6bd 80dd 45bc 5609 f53d
000002f0: 40b5 e73b d823 88bd e054 01bd ea04 9abd
00000300: 42fe 48bc 7aa5 b4be 94fa a53d dc0d 563d
00000310: 1bdf 08be 2e97 7f3e f0b0 6ebd f5d6 ad3d
00000320: 7013 b7bd 2390 ad3d bfae 153d f96a 9a3d
00000330: e1b4 85bd 172d 6cbd 0132 103d 351b 1c3c
00000340: 3b2d 14bd adfd a23d 81f2 e1bd 57d9 c23d
00000350: d56a d5bd 401f bfbd 2644 8cbe 5c83 4d3e
00000360: 4285 a53c 773f 8ebe abb8 263d 5c0d a33d
00000370: a577 d83e 9ae4 913d aabe adbd dd28 ce3d
00000380: 4ff6 1e3d 1a42 bcbd 71d9 f93d 2809 2e3e
00000390: f2c6 c83e 55bd bd3d 10d2 4abd d183 c93d
000003a0: 0b50 40be fcbe 3fbd d8bb a3bd f32e 4b3b
000003b0: b517 27bd 15de 58bb 66a7 98bd 7b55 ab3e
000003c0: f8fe ffbd 19b0 51bc 82d7 04bd ceff 4a3d
000003d0: f3e8 7fbd eee3 e43d 7ad5 0a3d 2d88 8c3d
000003e0: eaf5 13bd 8976 e1bd 95cb 723c 2a97 8fbd
000003f0: 42fe 9ebd e89c 89bc 051d 0b3e 7548 50be
0.04547333 0.33585086 -0.014192663 -0.078464665 0.07540963 -0.07184587 0.021690255 -0.06940046
0.13589892 0.029854877 0.10257025 0.22613724 0.24473381 -0.1382251 -0.016278027 0.12838905
0.015168326 -0.03780471 0.14611684 -0.006846506 -0.05067888 0.09103842 0.12759215 -0.025419548
0.07848603 0.3219525 0.1683641 0.08313552 -0.21234977 0.029162511 0.12428182 -0.105081216
-0.09043817 0.11362245 -0.15892825 -0.07572958 -0.09100544 0.007253998 -0.17889191 -0.009210246
0.05883349 -0.010344045 0.2831819 -0.083067164 0.31101567 0.04596289 -0.1187269 -0.02785762
0.061576318 -0.10837271 -0.095558316 0.1078772 0.3049487 0.04664117 0.0030675614 -0.10529209
-0.003873239 0.04389292 -0.10643478 0.03347467 0.088727035 0.09154253 0.014820865 -0.059645962
0.03465531 -0.3678899 0.046519667 -0.10998009 -0.10032692 0.2681937 0.06639283 0.14484844
0.04554825 0.1613759 0.031044608 0.21221574 0.18719633 -0.02903184 -0.081384815 0.12054645
-0.18153685 0.03709235 -0.043687537 -0.14168197 -0.08868203 0.029892547 -0.16124564 0.349641
0.07977954 -0.29950014 -0.05287871 0.09896969 0.3111848 -0.07345568 0.10435744 0.12976876
0.08256282 0.018762529 0.03909504 -0.118746355 0.8095099 0.013487685 0.22164528 0.059237335
-0.11097906 -0.07503819 -0.112329766 0.11550188 -0.009503358 0.07868216 -0.10705953 0.26499856
-0.024469541 0.12640657 0.10651015 -0.056937415 0.025852345 -0.10413785 -0.03589362 0.062058605
-0.13765027 -0.048568215 0.007560265 0.049965493 0.06289636 -0.08945952 -0.0040732324 -0.24852186
-0.07189493 0.09705934 0.07138403 -0.12170121 -0.014201 -0.039793223 0.09781025 0.048430204
-0.072141424 -0.09638472 -0.11673838 0.091638625 -0.044429258 -0.032522812 0.012952879 0.02322267
0.0043616593 -0.049922094 -0.11051507 -0.00090256333 -0.124020845 -0.12123494 0.023690343 -0.07907483
-0.053885818 -0.05703205 0.014972672 -0.03025204 -0.041416854 -0.059972137 -0.10815446 0.007099986
0.11328249 -0.017878458 0.009068102 -0.05264908 -0.07074748 0.01786825 -0.113072515 -0.0035098195
0.10610479 -0.050013244 0.004536271 -0.120410174 -0.039284706 0.064101934 -0.057503566 -0.07591492
-0.04942566 0.05628118 0.01966095 -0.034713656 0.027070582 -0.11741033 0.10936712 -0.08563337
-0.11662026 -0.10468154 -0.0120767355 0.11964671 0.007071167 -0.06647462 -0.031575084 -0.075204685
-0.012267651 -0.352825 0.081044346 0.05225931 -0.13366358 0.24960014 -0.05827421 0.084882654
-0.08939254 0.084747575 0.036543604 0.07539935 -0.065286405 -0.05766019 0.035203937 0.009527971
-0.036175948 0.07958541 -0.11032582 0.095141105 -0.10420767 -0.09332132 -0.27395743 0.20069641
0.020205144 -0.27782795 0.040703457 0.079615325 0.42278782 0.071236804 -0.08483632 0.10066388
0.038809117 -0.09192295 0.12199677 0.1699568 0.39214283 0.09264628 -0.049516737 0.09839595
-0.18780534 -0.046812996 -0.07994813 0.0031003326 -0.040794093 -0.0033091356 -0.07453804 0.33463654
-0.12499803 -0.012798333 -0.032432087 0.04956036 -0.062478017 0.11176287 0.033894993 0.06861911
-0.036123194 -0.11008937 0.014819046 -0.07011254 -0.077633396 -0.016798452 0.13585289 -0.2034014

fc2.bias f4 [64]
00000000: ba0a cd3e cf9d 513e 20f5 39bc 8064 01be
00000010: 6894 03be 92ac 283d d28c d0be 819c 4b3f
00000020: 669a b53e ba99 b13e 5a37 343e 470d 4c3e
00000030: dc51 353f 2c76 95bd b529 3dbf e000 aabc
00000040: 708f acbd 183c a1be 6c5c 783e 7138 2ebe
00000050: f881 993d 33b5 acbe a6f2 053f 47b7 d43e
00000060: 5f6d 67be 8317 9ebe cf4c 5b3e 071c d3be
00000070: 223a c1be 3141 d33e 8fde e73d 7795 803d
00000080: 65ef 253f 1dc8 f0be 9282 97be 1b0c fabb
00000090: 10b4 3ebf 9160 a1bd be39 83bd 732e 243f
000000a0: d45d 47be f1fb 143f 0d93 323d d0ca e73d
000000b0: dcd6 97be bc77 023f 64c6 41bd 64ec 143e
000000c0: 57ca ecbb a56d 0a3e 6df2 c2be 7f80 093f
000000d0: 02e4 d6be e323 0fbf ad9f 403d ef4c ce3e
000000e0: ed3f 3cbf 0d83 13bf 915f ba3e a34f fdbe
000000f0: 0836 d53e 45cb ff3e 6683 a8bc fab3 23bd
0.40047246 0.20470355 -0.011349946 -0.12635994 -0.12849581 0.0411802 -0.40732437 0.7953568
0.3546936 0.34687597 0.1759924 0.1992694 0.7082803 -0.0729793 -0.73891765 -0.02075237
-0.08425796 -0.3149116 0.24254006 -0.17013718 0.07495493 -0.33731994 0.5232338 0.4154608
-0.22600316 -0.30877313 0.21416019 -0.4123232 -0.37739664 0.41260675 0.113217466 0.06278508
0.6481841 -0.47027674 -0.29591805 -0.0076308376 -0.74493504 -0.07879747 -0.06407498 0.64133376
-0.19469386 0.5819693 0.04359727 0.1131798 -0.29656112 0.5096395 -0.04730834 0.14543301
-0.007226269 0.13518389 -0.3807558 0.53711694 -0.4197083 -0.55914134 0.04702728 0.4029307
-0.73535043 -0.5762184 0.36401036 -0.4947482 0.41642785 0.4995977 -0.020570468 -0.03996656

fc3.weight f4 [2, 64]
00000000: a743 fbbc 2efd ce3e 2af8 993d a80b f53d
00000010: 845c 423d bc19 803d f00f 1dbe ab55 83bc
00000020: 60e6 be3d 1850 e73e 14ba b1bd 4a1c 04be
00000030: b3ee 0f3e ab47 773c 4a3a 90bd d819 71be
00000040: d6ac 8d3d d950 f43e cf18 a73e ee27 b43d
00000050: 9ca7 913e 7ce2 4d3e c042 f83d ec42 2f3e
00000060: 1674 493e abd4 71be 199f af3e 9fb5 98be
00000070: 6918 a03d 00cc 85bd ddee f93e 43b3 40bd
00000080: f07e a0bd 2850 07be fa44 49be bc83 a43d
00000090: 93da 3bbe a61f 843d 03bf 80be ffda 2a3e
000000a0: 1c96 33bd 1551 1cbe ee28 00bd 3784 023e
000000b0: e45f fc3d 72fc 253e fdab 273f 8479 b2bd
000000c0: 0c9e 1f3e 49da cf3d 26c2 8bbd 8143 4fbc
000000d0: dc63 14bd dd34 94bd 98e4 a63e 527d 36be
000000e0: ee69 3abe e1d6 313d 04e6 3ebe 0daf fabd
000000f0: 8e04 ddbc b40d 1f3e c427 93be c495 983c
00000100: 103d 303e 7209 033e 5423 59bd 3620 08be
00000110: 2c1b 553d b017 e7bd eb23 13be da20 503e
00000120: 2845 943d 63ab d1bc 7647 5d3d da87 033e
00000130: ffe2 263e 9a52 aa3d 7f97 b1be 185f d2bd
00000140: 5e85 743d 8721 efbd 706f eabe 3ad1 87bd
00000150: 8f01 20be 46c9 debe f222 bf3d bc67 b33d
00000160: 459d f5bd 05c1 4ebe ebd9 2dbe 2b36 a3be
00000170: f869 25bf d2b6 3f3e 23e5 adbd 043a 6cbc
00000180: cc35 183e 651c 02be 33b6 d2bd 5a94 2cbd
00000190: f446 c0be defd c53d 048e b63e f059 703e
000001a0: fd61 263d 5db0 813e aef5 963d 1076 493d
000001b0: 497e 6fbe 1fa2 003e 9472 c8bd 2dea ba3c
000001c0: 831e e7bc b605 803d 363e a9bd cea1 a53d
000001d0: ab0d 0abd 5bad a2bd 8202 21be 66c9 073e
000001e0: b5fd 96be d75d b1be faeb f13d cb9b 10be
000001f0: e6aa cb3d 2a32 1e3e e7a2 cabe e7f7 6b3d
-0.030671908 0.40427536 0.07518037 0.11965114 0.04745151 0.062549084 -0.15338111 -0.01603206
0.09321284 0.45178294 -0.0867807 -0.12901416 0.140559 0.015092771 -0.07042368 -0.23545015
0.069177315 0.47717932 0.32636115 0.087966785 0.28448188 0.20105928 0.121221066 0.17115372
0.1967319 -0.23616283 0.3430107 -0.29826066 0.07817156 -0.065330505 0.4881505 -0.047045957
-0.078367114 -0.13214171 -0.19655219 0.08032939 -0.18345098 0.06451349 -0.2514573 0.16685103
-0.043844327 -0.15265305 -0.031289034 0.12745748 0.12322977 0.16209581 0.6549681 -0.087145835
0.15587634 0.101490565 -0.0682414 -0.0126503715 -0.036228046 -0.07236645 0.32596278 -0.17821243
-0.18204471 0.043417815 -0.18642431 -0.122404195 -0.02697971 0.15532571 -0.28741276 0.018626101
0.17210793 0.12796572 -0.053012207 -0.13293537 0.052027866 -0.11283815 -0.1436917 0.20325032
0.07239753 -0.025594419 0.05402323 0.12844792 0.1629753 0.08316536 -0.34685895 -0.10272044
0.0596975 -0.11676317 -0.45788145 -0.06631704 -0.15625595 -0.43512934 0.09332837 0.0876002
-0.119928874 -0.20190819 -0.1697766 -0.31877264 -0.6461482 0.18722084 -0.0849097 -0.014418129
0.14864272 -0.12706144 -0.10288658 -0.042133667 -0.37554133 0.09667562 0.35655224 0.23471808
0.040620793 0.25329867 0.073710784 0.04918486 -0.23388018 0.12561844 -0.09787479 0.022816742
-0.028212791 0.06251089 -0.08263819 0.080875024 -0.03370444 -0.07943221 -0.15723613 0.13260421
-0.29490438 -0.34641907 0.11812587 -0.1412193 0.09944706 0.15448824 -0.3957741 0.057609465

fc3.bias f4 [2]
00000000: 7e35 1cbc 147b 0a3f
-0.009534238 0.5409405
