sat-code/models/maddpg_20250712-135635/checkpoint_900/actor_agent_0.pth (torch, 21533 bytes, 6 tensors)

fc1.weight f4 [64, 4]
000000 95 4e c9 3e 60 5c 9e bd 76 d6 80 be af d3 5e bc
       0.39317766 -0.07732463 -0.2516362 -0.013600274
000010 3f 5b 0f 3e 48 d1 9e 3d 92 3e 9f 3e 34 a7 b5 3e
       0.13999651 0.07754761 0.31102425 0.35479128
000020 37 64 ca 3e 57 d5 ad 3e 01 15 c3 3e a3 c4 de 3e
       0.39529583 0.33951828 0.38101962 0.43509397
000030 ce 73 b3 3e 38 30 72 3e 31 96 9e bb 8e d8 02 3f
       0.3504929 0.23651206 -0.0048396816 0.51111686
000040 cb 10 30 be f7 12 62 3e c0 d8 cf 3e 02 91 11 3f
       -0.17193906 0.22077547 0.40595055 0.5686189
000050 fa f8 4d 3e bc e0 d3 bc a3 6e f6 be d6 f8 63 3e
       0.20114508 -0.025863998 -0.48131284 0.22262892
000060 37 fc 76 3e 40 17 92 bd 7d 59 01 bf d5 a7 17 bf
       0.2411965 -0.07133341 -0.50527173 -0.59240466
000070 85 80 54 be 4e 1b 7d be 71 3c 75 3e 99 f1 ce 3e
       -0.20752151 -0.24717447 0.23948838 0.404187
000080 69 71 81 3e 2d 57 bd bd 95 56 11 bf 85 2e 04 3f
       0.25281838 -0.09245143 -0.5677274 0.51633483
000090 db af 41 3d ed 9f d3 3d 1b 9e af b9 ab b6 a8 3d
       0.04728685 0.10333238 -0.000334964 0.08237966
0000a0 71 d6 66 bd b9 21 5a 3e 2c bc 02 bf 03 94 e4 3e
       -0.05635685 0.21301927 -0.5106838 0.44644174
0000b0 dd 80 8b 3e 1a 12 aa bc 04 99 e7 be 8e 6c 41 3e
       0.27246752 -0.020760585 -0.4523393 0.18889067
0000c0 21 95 27 be a8 f1 9c 3e e4 24 69 3e 51 d8 ed be
       -0.16365482 0.3065312 0.22767979 -0.464541
0000d0 fe 2b 6e 3e 11 70 09 be 68 dd 20 3f 55 c0 15 bf
       0.23258969 -0.13421656 0.6283784 -0.584966
0000e0 d1 c2 21 be 46 14 f0 3c 5a 66 36 3e 94 7a ee 3e
       -0.15796973 0.029306542 0.17812482 0.46577895
0000f0 a6 7f ae bd 14 d1 7e 3e bb 23 cb be 4b 92 10 3f
       -0.08520441 0.24884444 -0.39675698 0.56473225
000100 1f 12 91 be 7a 9f 0e 3b 56 27 91 3d 9e bf dd be
       -0.28334138 0.0021762536 0.07087581 -0.43310255
000110 9a 03 90 be 8c 69 50 be 80 14 e1 3b a2 38 8d 3e
       -0.28127748 -0.20352763 0.006868899 0.2758227
000120 8f 6c b6 3b bc 37 43 3d b1 04 51 3e ae 1c 9a be
       0.0055671404 0.047660574 0.20411946 -0.30100006
000130 d2 f7 da 3d 6e ad 9c bd 4c f2 4f 3f e2 2f a9 bd
       0.10691799 -0.076502666 0.8122909 -0.08261086
000140 13 5f 2f be 9f 4d 0e 3e 4d bc 60 bf b7 46 2a bf
       -0.17126112 0.13896798 -0.87787324 -0.6651415
000150 b9 bd 64 be 25 72 81 3e cd 16 a4 3d 04 e6 0d be
       -0.22337998 0.25282398 0.080121614 -0.13857275
000160 f9 e7 42 be 14 f5 55 3e 24 5f 23 3d 94 40 3b bf
       -0.19033803 0.20894271 0.039885655 -0.73145413
000170 c1 c2 50 3e 6d 91 08 be 96 42 48 3e 6d f2 af 3e
       0.20386793 -0.13336726 0.1955665 0.34364644
000180 29 6b 03 3f cf 49 d2 bd 9c a5 de bd 93 cb 67 be
       0.5133539 -0.10267984 -0.10871431 -0.22636251
000190 cd 27 9e 3d 58 18 8c 3e d9 09 82 3e cd b6 1a bf
       0.07722435 0.27362323 0.25398138 -0.6043518
0001a0 0d 17 d3 3c 55 c8 05 bf 46 a0 19 3f e9 fe 09 bd
       0.025767827 -0.5225881 0.6001018 -0.033690367
0001b0 e5 84 e2 bc 85 18 ff 3d e4 16 2d bf 6b 1c 03 bf
       -0.02765126 0.124558486 -0.67613053 -0.5121524
0001c0 d1 40 a3 be c6 54 8c be 67 ba b7 3e 16 f4 ce 3e
       -0.31885388 -0.27408427 0.358844 0.40420598
0001d0 fd d5 53 be f2 bc 37 bd ec 29 f7 3e 0d 20 a6 be
       -0.20687099 -0.044857927 0.4827417 -0.32446328
0001e0 c7 1c 85 3e 42 35 25 3e b0 f1 ca 3d a8 d6 10 bf
       0.25998518 0.16133597 0.099093795 -0.5657754
0001f0 fe e5 d0 bd 26 00 ff 3e c9 35 00 bf 76 07 22 3f
       -0.102001175 0.498048 -0.5008207 0.63292634
000200 23 4e a0 3e b5 31 d4 3e 84 ff 9e 3d 97 28 87 3e
       0.31309614 0.41444173 0.077635795 0.26398155
000210 ba 0b 87 be 6f 12 28 3d 5f 47 81 bf 43 86 43 be
       -0.26376134 0.041033205 -1.0099906 -0.19094186
000220 cf e7 ec 3e 62 88 0c be 5f dd 22 bf cd a4 5e 3e
       0.46270606 -0.13723901 -0.63619035 0.21742554
000230 a5 d4 67 3e ea a1 09 be df 1f e1 be 99 98 97 be
       0.22639711 -0.13440672 -0.43969628 -0.2960861
000240 a9 a7 35 3d 45 0e 86 3e 3a 28 ad be 6c 7b 45 3e
       0.044349346 0.26182762 -0.33819753 0.19285363
000250 30 e6 c2 3e 43 00 f8 3e 6b 52 92 3e b5 50 4e 3e
       0.38066244 0.484377 0.28578505 0.20147975
000260 9c 78 f5 3c 7d a9 43 be 87 01 46 3f 6a db 34 be
       0.029964738 -0.19107623 0.7734608 -0.17661825
000270 b3 50 11 3f d3 7e 0b be 94 24 ac be 33 86 45 be
       0.5676376 -0.13622598 -0.33621657 -0.19289474
000280 c7 83 25 3d e5 91 13 3d 9e 00 d0 be 01 48 20 3f
       0.040408876 0.036027808 -0.4062547 0.6260987
000290 02 1c 82 3c b2 72 13 3f 92 51 d5 bd d8 84 1a 3f
       0.015882496 0.57596886 -0.10415949 0.60358953
0002a0 df aa 29 3e 8d c7 64 3e 1f a1 bd be 5e ba 12 3f
       0.16569088 0.22341748 -0.37036988 0.57315624
0002b0 f6 d6 56 3e 3c 2c 87 be 35 63 0f bf 88 eb c4 3e
       0.20980439 -0.26400936 -0.5601075 0.38460946
0002c0 a8 0a c3 3e 75 43 24 bd 31 68 9c 3d dc 05 7a be
       0.38094068 -0.040103395 0.076370604 -0.24416298
0002d0 a1 4a a9 3e a2 cf c6 be 87 f5 89 be 9a 75 49 bf
       0.3306475 -0.38830286 -0.26945135 -0.7869507
0002e0 99 9c 37 3e be 16 67 3c 88 b2 a5 3e f7 38 04 bf
       0.17930831 0.014104543 0.3236277 -0.5164942
0002f0 65 83 f3 3d ff 41 c3 3d 36 45 e6 3e a8 54 38 3f
       0.11890296 0.09534072 0.4497468 0.72004175
000300 24 c4 bf 3e 76 35 74 bd 65 0f 32 bf 17 48 0a 3f
       0.3745433 -0.059621297 -0.6955474 0.5401625
000310 d4 98 0a bd 42 e3 fd 3d 96 7a d7 3e 32 3a 62 3f
       -0.033837155 0.123968616 0.42085713 0.8837005
000320 31 bf c0 3d 87 3e 4b bd 80 93 f9 be 54 a2 80 3e
       0.09411467 -0.049620178 -0.48745346 0.25123847
000330 9e 5b 0c be 75 56 1c 3e d7 5a b8 be 8d f9 f0 be
       -0.13706824 0.15267356 -0.36006805 -0.47065392
000340 2f d9 b1 3e ed 66 b3 3e d6 13 3a 3e a0 d9 51 bf
       0.3473601 0.35039464 0.1817163 -0.81972694
000350 c6 45 88 3e b2 17 1d 3d a5 01 58 bd 69 91 c8 3e
       0.26615733 0.038352676 -0.052735943 0.3917344
000360 4e e6 c9 be 55 78 b2 3e 83 e5 ca be 62 aa 35 3e
       -0.3943352 0.3485743 -0.3962823 0.17740777
000370 e5 c0 4e 3e 77 aa 5a 3e 08 f0 fe be ad 96 d4 3d
       0.20190771 0.2135409 -0.49792504 0.103803016
000380 a6 b8 c7 3e 2d 7e ad be aa b3 24 3f ef 69 14 bf
       0.39008063 -0.33885327 0.64336646 -0.5797414
000390 90 38 93 be 9e 1b 5f 3e 43 cb 1e bf a5 85 ff 3e
       -0.2875409 0.21787879 -0.620289 0.4990665
0003a0 99 22 3c 3c ee 9d a3 3d 72 25 dd be 30 22 7e be
       0.011482858 0.07989107 -0.4319263 -0.24817729
0003b0 20 b1 ec bd 79 6b a5 bd ce 35 54 3e 3f f2 7a 3e
       -0.115572214 -0.080771394 0.2072365 0.24506472
0003c0 74 95 49 be fe 0f 17 3e dc ff 24 bd 5f 6e 0c 3f
       -0.19685918 0.14752194 -0.04028307 0.5485591
0003d0 c2 7d 01 3f 85 9a 93 bd c9 28 9b bd 3d e3 e0 be
       0.50582516 -0.07207207 -0.075761385 -0.4392337
0003e0 32 f1 74 3e 1d e7 8c 3e d0 b2 7b 3e b0 74 0f bf
       0.23920134 0.27520075 0.2457993 -0.56037426
0003f0 06 54 8a be 35 07 0c bf 0a 5a c7 bd d6 e2 0a bf
       -0.2701723 -0.546985 -0.097339705 -0.54252374

fc1.bias f4 [64]
000000 8e 4d 7d 3f 4e de 34 bf a4 1d f9 be 40 79 52 bf
       0.98946464 -0.7065171 -0.48655427 -0.8221626
000010 91 17 bd 3e 8f ba 0c 3f cf 87 88 3e e8 3a 81 bd
       0.36932042 0.54972166 0.26666114 -0.063100636
000020 6d 7c 3d 3f 84 b7 54 3f 3b 63 1c bf 91 e1 be 3f
       0.74017984 0.8309252 -0.61088914 1.4912587
000030 82 a8 b4 be 37 8a 2a 3e 95 46 02 3f a7 18 83 be
       -0.3528481 0.16654287 0.5088895 -0.25604746
000040 3e 5b a5 3f 2c e2 9e be 1a a4 9b 3f e8 c4 98 3c
       1.291847 -0.3103193 1.2159455 0.01864858
000050 6e 08 f8 bc d9 8b 49 bf f6 84 04 3f 95 4d 98 be
       -0.030277457 -0.78729016 0.5176538 -0.2974669
000060 ef 04 75 bf d3 02 22 bd 36 06 75 3e 30 9b 5a 3f
       -0.95710653 -0.039553475 0.2392815 0.8539305
000070 ee 1e e1 bd 7d 27 df bc 22 34 95 3e a6 de 09 bf
       -0.109922275 -0.02724051 0.29141337 -0.5385536
000080 fc 8f 57 3e b5 c8 90 3c a0 7a 97 3f 28 46 9e be
       0.2105102 0.01767383 1.1834297 -0.309129
000090 e5 f7 cc 3f 83 fa 22 bd 27 1c 97 3e e6 e4 30 3f
       1.6013151 -0.039789688 0.29513666 0.6909927
0000a0 ec 52 00 3f af 68 ce be 1f 76 6f be ee 6b 1d 3f
       0.5012653 -0.40314242 -0.23384903 0.6149281
0000b0 74 d6 84 3f cd 46 85 3f 69 06 98 3f b5 e4 9e bf
       1.0377946 1.0412232 1.1876956 -1.2413546
0000c0 54 fb b6 3f 6e 93 3b bf 0d be f4 3d 9a 0d 5b 3f
       1.4295449 -0.73271835 0.11950312 0.8556763
0000d0 42 08 86 3f ab 16 1f bf 73 fd 95 3f 36 7b c5 bc
       1.047127 -0.62143964 1.1717972 -0.024106603
0000e0 c8 19 d3 bd d6 e4 59 3f bd 6b 0b bf 8e 4d 51 be
       -0.10307652 0.851148 -0.5446127 -0.20439741
0000f0 cc 68 2f 3f e7 32 91 3e 01 af fa bd da a7 17 3f
       0.6851928 0.28359148 -0.122404106 0.59240496

fc2.weight f4 [64, 64]
000000 4f c1 36 3d 0a ef b9 3d 3e 0c 1c 3e a6 14 7b bd
       0.044617947 0.09078796 0.15239045 -0.06129899
000010 c4 69 08 3e f0 fd d4 bd fd 26 91 3d 83 71 8a 3c
       0.13321596 -0.10399997 0.070875145 0.01689983
000020 6b d4 3b 3e 66 1a 81 3d 9b 20 83 3d b2 10 ea 3d
       0.1834275 0.06303863 0.064027034 0.11428966
000030 a9 cc fa bd 5d 55 94 3e 88 19 c0 3e 18 9e 98 bd
       -0.12246067 0.28971377 0.3751948 -0.07452029
000040 db 20 39 3e ea 39 83 bd 68 e7 b0 3e 9c 3d 5a 3e
       0.1807894 -0.064075306 0.3455155 0.21312565
000050 20 62 86 3e fc b1 57 3d f2 a5 04 bd db 37 81 bc
       0.26246738 0.052659974 -0.03238482 -0.015773704
000060 19 c7 73 3e 3b 25 ce bd 70 d8 8d bc 3b 88 df 3d
       0.23806418 -0.10065695 -0.01731512 0.10914656
000070 cf 8a 12 bd 7b d7 41 3e 84 31 20 bc fa 67 a6 bc
       -0.03577691 0.18929856 -0.00977743 -0.020313252
000080 c7 da 06 3d fb 03 25 3d e1 33 e4 3d ea 63 17 3e
       0.032923486 0.040287 0.111427076 0.14784208
000090 a6 31 e4 3d 6c 63 2f bd 4d 36 62 3e 5f 5a 2a 3e
       0.11142282 -0.042819425 0.22091027 0.16636036
0000a0 9f cc 34 be 27 01 15 3c 9b 07 94 bd ac 5f 95 bd
       -0.17656182 0.009094513 -0.07228013 -0.072936386
0000b0 c4 be 64 3e 8d 10 98 3d 56 1d e2 3d 56 78 1b 3e
       0.22338396 0.07425032 0.11040752 0.15182623
0000c0 a4 fe 31 3e 6f 3f 5f 3d 7e 5e d0 3d 21 4d 8c 3a
       0.17382294 0.054503854 0.10174273 0.0010704139
0000d0 f0 09 5b 3d 0c f0 43 3d 54 70 c0 3c 25 76 e6 bc
       0.053476274 0.04783635 0.023491062 -0.028132508
0000e0 34 52 91 3e 0c 06 2b 3e c7 c6 71 bd 87 71 c8 bd
       0.28383029 0.16701525 -0.05902746 -0.097872786
0000f0 f1 cb ba 3e a2 6c 09 3e 03 66 9e 3d a4 7f ae bd
       0.3648372 0.13420346 0.07734301 -0.08520439
000100 50 df d3 bd 0c 02 93 ba 0a c8 14 bd f8 e1 cd bc
       -0.10345328 -0.001121582 -0.036323585 -0.025132164
000110 8d 9a 3f bd b5 22 0b 3e f5 31 01 bc e5 8c 5a bd
       -0.04677825 0.13587458 -0.007885446 -0.053357024
000120 27 6f 14 3e af 82 5f bc 85 5e 18 3e 03 97 d3 3c
       0.14495526 -0.013641997 0.14879806 0.025828844
000130 06 08 4a 3e c4 36 b0 be 39 fe 4e 3c b0 c8 2f 3e
       0.19729623 -0.34416783 0.012633854 0.171664
000140 bf ae 5b 3c c0 c4 64 3b 2d 4d ee 3d d1 4d 1a 3c
       0.013408362 0.0034907311 0.11635814 0.009417967
000150 ad 1a bf bd 6e 54 87 3e 80 b8 09 3d c7 d1 5e 3d
       -0.0933126 0.26431602 0.03362322 0.054399278
000160 99 e4 08 be cc 5e 02 3e 66 9e 08 bb 04 f8 c0 3b
       -0.13368453 0.12731475 -0.0020846366 0.0058889408
000170 a1 57 9c 3b c5 90 84 be 17 24 d8 3d 58 0b 37 bd
       0.0047711884 -0.258917 0.105537586 -0.044688553
000180 00 55 a7 3d 49 1d 19 3e fd 08 9e bd 8a a8 8d bd
       0.08170509 0.14952578 -0.07716558 -0.06916912
000190 83 c0 31 3e 06 ff e1 bc ea ab 27 be 81 c8 01 bd
       0.17358594 -0.027587425 -0.16374174 -0.031685356
0001a0 ec 2e d7 3e 07 92 0c 3e f2 94 b3 bd e7 0a 68 3e
       0.42027986 0.1372758 -0.087686434 0.22660409
0001b0 fb 58 e9 3c be 70 c0 bd e2 48 41 bc c6 eb 3a bd
       0.028484812 -0.09396504 -0.011797162 -0.045635007
0001c0 62 67 6a bd ce f0 1b 3d 73 31 8b 3e 3a 0b 54 3c
       -0.0572275 0.038071446 0.27186164 0.01294213
0001d0 6c 0f 02 3e 47 0e 56 bd c9 ad 9f ba 91 39 a1 3d
       0.12701195 -0.05225971 -0.0012182529 0.07872308
0001e0 30 84 1d bd 08 70 38 bc 3a 67 e9 3d cc 53 96 3d
       -0.038456142 -0.011257179 0.11396642 0.07340202
0001f0 75 ce 05 3d e8 97 39 3c 3d 53 40 bb d0 8b b6 3e
       0.032667596 0.011327721 -0.002934649 0.35653543
000200 67 7b dd 3d e8 9a 6d bd b2 6d f3 bd 48 33 8f bd
       0.10814553 -0.05800906 -0.11886157 -0.06992203
000210 0f 8a 00 3e 8b e0 3f 3e 63 c7 aa 3b 8b 76 3a 3d
       0.12552665 0.18738 0.005211757 0.045523208
000220 c7 06 80 3e d9 31 e5 3d 6e 50 a8 3c e1 65 29 3e
       0.2500517 0.11191148 0.020546164 0.1654277
000230 9e 68 b2 bc 64 7d 6c 3e 91 59 bd 3e fd 79 ad 3c
       -0.021778401 0.23094708 0.36982396 0.021176333
000240 cc 9a 6f 3e 6e e3 95 bd a9 be 17 3f 74 44 40 3e
       0.23398894 -0.073187694 0.592753 0.18776113
000250 38 2d 9b 3d 7d 6b 3c be d4 f7 3d 3d 7c 83 08 bd
       0.07576984 -0.18400379 0.046378925 -0.03332852
000260 f8 0e 1c be 12 71 24 bd 0d 98 6f 3e b8 46 32 3e
       -0.15240085 -0.040146895 0.23397847 0.1740979
000270 a8 18 a1 bd f1 00 af bd 2a 5a 2d 3e a7 95 88 3d
       -0.07866031 -0.085451014 0.16928926 0.06669169
000280 d4 16 97 3c ef e7 36 3e 83 c2 0f 3e 7e 18 5d bd
       0.018443502 0.17861913 0.14039044 -0.053978436
000290 09 f9 b4 3d 3e dd 53 3c ee f1 5b 3e 0a 25 38 3d
       0.08836562 0.012931166 0.21479008 0.0449572
0002a0 43 88 ae bc d9 71 05 3c b1 d9 89 3c 3a 81 9c bc
       -0.021305209 0.008144819 0.016827436 -0.019104589
0002b0 d7 9a cb 3d 4e 15 a8 3d f2 e6 c1 3d dd 90 0c be
       0.09941643 0.082071885 0.094678774 -0.13727136
0002c0 6e e2 c9 bc 5e 8d bf bd 91 01 72 be 12 75 ee 3d
       -0.024644103 -0.093531355 -0.2363341 0.11643423
0002d0 8f bc 06 3d ee dc e2 bd 4b 19 0d 3d 3d 69 3d 3e
       0.032894667 -0.11077295 0.03444795 0.18497176
0002e0 2c d0 63 bd 00 44 86 bc 77 b4 cd bd 57 18 ad 3d
       -0.05561845 -0.016389847 -0.100441866 0.08451908
0002f0 92 7b b3 3d fa 7b c4 3d 33 ca 1d 3d 31 c0 05 3e
       0.087638035 0.09593959 0.03852291 0.13061596
000300 79 f0 59 3d 8d c6 e0 bd e5 03 d2 3c 87 11 c1 bc
       0.05320785 -0.109753706 0.025636623 -0.023567928
000310 85 20 1c bd 0f dc cd bd 3f 49 ae 3d cf 72 55 bd
       -0.03811695 -0.100517385 0.08510064 -0.052111443
000320 06 d1 a6 3c 2b d5 d7 3d 69 e5 07 3e fc de c3 3d
       0.020363342 0.105387054 0.13271107 0.09564015
000330 33 fd 8f 3d 7f d9 69 be f1 79 ea 3d 02 e9 87 3e
       0.07030716 -0.22836874 0.1144904 0.26544958
000340 4e d3 3a 3e 84 b5 93 3d a1 1e 01 be cc f0 bd bd
       0.18244669 0.07212356 -0.1260934 -0.09274444
000350 56 c5 19 bd 8e f5 f0 bc bd 04 17 3e 5a 24 a5 3d
       -0.03754171 -0.029413965 0.14747901 0.08063574
000360 51 c7 5a be 89 7c 89 bd 46 11 74 3d 07 c8 2d bd
       -0.21365096 -0.06713206 0.059586786 -0.04242709
000370 09 54 58 bb d6 0b 0e be a7 e4 34 3d c4 6f f7 bc
       -0.0033009073 -0.13871703 0.044163372 -0.030204661
000380 99 f3 31 bd 12 3a ff bc 45 d1 8f bd 4b 12 03 bd
       -0.043445203 -0.03115562 -0.07022337 -0.031999867
000390 11 dc 3a 3e bd 4d 3e 3d e8 80 18 be cb 7d 11 be
       0.18248011 0.046460856 -0.14892924 -0.14208142
0003a0 5d 4f 9f 3e 9e 07 10 3e 72 bb 4f 3d 6b a9 13 3e
       0.31115237 0.14065406 0.05071587 0.14420097
0003b0 10 92 23 be 6e a9 b4 bd b1 d7 a7 bd c5 61 05 be
       -0.15973687 -0.08821379 -0.08195437 -0.13025577
0003c0 9a 05 58 bb 2e 7c 9e bd 58 df ab 3e c7 03 a1 bc
       -0.0032962323 -0.07738529 0.33568835 -0.019655121
0003d0 5a 52 32 3d a3 db e9 bb 35 a8 07 bd 24 8b bc 3a
       0.043535568 -0.0071367784 -0.0331194 0.0014384729
0003e0 b2 0b 97 bd 63 b1 01 3e 14 9e 99 3d 1a d2 cb 3d
       -0.073752776 0.12665324 0.07500854 0.09952183
0003f0 4d 98 0e 3e c1 ad b0 bd 81 49 f6 3c 75 da 92 3e
       0.13925286 -0.08626891 0.030064346 0.28682294

fc2.bias f4 [64]
000000 4f e9 df 3d 2d 84 9f 3e fd a6 a2 3e 03 80 c7 3e
       0.10933172 0.3115553 0.31768027 0.38964853
000010 4a d5 c6 3e c2 dc 26 3d 40 64 b5 3d 63 19 84 3d
       0.38834602 0.040737875 0.08857012 0.06450155
000020 c0 36 4a 3b a1 6e 0e 3e 1d 5e 0a 3f 15 83 64 3e
       0.0030855387 0.13909389 0.54049855 0.22315629
000030 06 0d 2d bf 76 cc 45 be 1a a9 de bd d5 0d 2b 3e
       -0.67598 -0.19316277 -0.10872097 0.16704495
000040 4e e9 59 3d 7d 9d 24 3d ac 1b 7e 3d 47 b5 f3 3e
       0.053201012 0.040189255 0.06203811 0.4759924
000050 bd 6f f0 3d b0 c1 be 3d 16 e7 72 3e 6f 7d 12 be
       0.117400624 0.09314287 0.23720965 -0.14305662
000060 7c 71 0d 3f a5 57 5c 3d a9 bc 40 be cc 6e a4 3e
       0.5525129 0.05379452 -0.18821968 0.3211578
000070 96 5f 41 be 98 ae ce 3d 83 0d 09 3f 82 0a de 3c
       -0.1888412 0.10091895 0.5353624 0.02710462
000080 6a f4 03 3f 28 40 b3 bc 31 3b e3 3e ab 62 31 3e
       0.5154482 -0.021881178 0.44381097 0.17322795
000090 39 da 02 3f 8a 0b dc 3d 62 c4 d1 3e 7e 3b 57 bd
       0.5111423 0.107443884 0.4097014 -0.05254697
0000a0 3f b8 b3 3e 8b c9 fe bc 4f 80 8c 3e c0 80 38 be
       0.35101506 -0.031101963 0.27441642 -0.18017864
0000b0 40 24 4f bd 00 df 28 3f 16 d7 72 be 43 5f 16 bd
       -0.05057168 0.6596527 -0.23714861 -0.036711942
0000c0 1e 9c 12 3f c3 92 9e 3e c5 08 d9 3e 73 36 5e 3e
       0.57269466 0.30971345 0.42389503 0.21700458
0000d0 fd ae 2d 3d cd e1 ab be 73 fc 21 be fd c7 64 3e
       0.04240321 -0.3357071 -0.15818958 0.22341914
0000e0 87 d6 b0 3d 4b 4d db 3d c7 f9 4e bd 79 ba 0b 3d
       0.08634668 0.10708102 -0.050531175 0.03411338
0000f0 b2 a9 c9 be 5e 17 76 bd da 24 02 be 27 2d fd 3e
       -0.3938728 -0.06008088 -0.1270937 0.4944851

fc3.weight f4 [2, 64]
000000 95 7d f2 bd e5 2f e4 3d d3 1d 1c 3e 3f 9f ac 3c
       -0.11840359 0.11141948 0.15245752 0.021072028
000010 9a d4 ce 3e 29 11 4d be 12 26 ad bc b2 48 f9 bd
       0.40396577 -0.20026077 -0.021136317 -0.12172069
000020 ec ac 9c bd 61 cb 97 bd 22 64 92 3e 3c d1 f7 bd
       -0.0765017 -0.07411838 0.2859202 -0.12100455
000030 4d 79 de be f2 87 50 3d a0 aa d3 be 18 9a e9 3d
       -0.4345192 0.050910898 -0.41341114 0.11406344
000040 09 4f 8a bc 52 27 a8 bd c0 8c 5f 3e 37 03 8e 3e
       -0.01688339 -0.08210625 0.21831036 0.27736828
000050 73 07 b2 bd 1a f3 2f be ca 66 c3 3e 07 3e 66 bd
       -0.08692827 -0.1718258 0.3816436 -0.056211498
000060 8b 0f 9b 3c 0a 09 9a bc ef e7 41 3f 6b 31 42 3e
       0.01892831 -0.018803138 0.7574453 0.18964164
000070 ab 32 31 be 20 c1 d0 bd 8d 58 36 3e 50 ff a4 be
       -0.17304485 -0.10193086 0.17807217 -0.32226038
000080 4f 81 0a 3e 82 0d a9 bd 3f 36 d1 3d a8 4a 29 bd
       0.1352589 -0.082545295 0.10215425 -0.041330963
000090 87 4e c7 3d 88 bd f7 3d 1a e1 c9 3d 4b f2 82 3e
       0.09731775 0.12096697 0.09857388 0.2557548
0000a0 6b f2 38 3e 0b 2d 0e 3d bb a7 eb 3c f7 21 2a be
       0.18061225 0.034710925 0.028766504 -0.16614519
0000b0 14 2f 93 bd d6 8e 0c 3f 4d 19 77 3e 8f 17 c3 bd
       -0.07186714 0.5490545 0.24130745 -0.09525978
0000c0 0f 60 61 3e de 45 9b bd 46 0a 16 3e 06 4f 4a 3e
       0.220093 -0.075816855 0.14652357 0.19756708
0000d0 d8 a8 bd 3e 11 dd 22 be fd 07 f3 bd 11 c4 6d 3e
       0.3704288 -0.15904643 -0.11866758 0.23219325
0000e0 8a 65 41 be 29 5d 70 bd 44 a4 77 3e b4 43 3b be
       -0.1888639 -0.058682594 0.24183756 -0.18287545
0000f0 7a 91 b7 be d8 a2 c2 bd 97 db 1d be fe 5d 0b 3e
       -0.35853177 -0.09503716 -0.15415798 0.13610074
000100 68 08 87 3e 60 ea b2 bd fa 2a 83 3d c4 34 63 bd
       0.263736 -0.0873611 0.064046815 -0.055470243
000110 7c 1e 81 bd 15 d1 77 3e ce 8f 8d bc 76 62 28 be
       -0.063046426 0.24200852 -0.017280485 -0.1644381
000120 00 b0 0c b8 b3 fe 78 be d6 24 d8 3d 07 33 ac 3e
       -3.3542514e-05 -0.2431591 0.10553901 0.3363268
000130 89 3f 8d bd 79 f0 df bd 70 d7 2d bd 8e 9c bf 3e
       -0.06896884 -0.109345384 -0.042441785 0.3742413
000140 92 77 78 be 4c d1 bd bd d3 8d df be 59 cc 7f bd
       -0.24264362 -0.09268436 -0.4366289 -0.06245074
000150 29 33 b7 3c d1 ed 78 3e 78 04 82 be 5c 24 82 bd
       0.022363262 0.2430947 -0.25394034 -0.06354591
000160 6d 07 1f 3e 19 02 c3 3d 7e 34 03 be ea ec 92 bd
       0.15530176 0.095218845 -0.12812993 -0.07174094
000170 fc ad 29 be 1d 2c 85 3e 28 77 53 3e ac 2e 8c be
       -0.16570276 0.26010218 0.20650923 -0.27379358
000180 96 a7 0a 3d 50 6e 9a bd ae 2c 68 bd 0e 4d 86 3e
       0.03385123 -0.07540572 -0.056683235 0.26230663
000190 99 c4 25 3e f2 1b ca bd c7 16 d0 bd 41 5d a1 be
       0.16188277 -0.098686114 -0.101605944 -0.3151646
0001a0 67 c1 02 3f ae e4 ae 3d 88 38 74 bd 41 c5 82 be
       0.5107636 0.08539711 -0.059624225 -0.25541118
0001b0 e8 9d a7 3c f1 21 c9 bd e8 45 36 be e7 92 45 3c
       0.020461038 -0.09820927 -0.17800105 0.01205895
0001c0 93 cc 04 3e 09 a3 4f 3e a5 b1 1e 3e f9 f9 f4 3d
       0.12968664 0.20277037 0.15497454 0.11961741
0001d0 6f 59 13 3e ed d5 6f bd 31 6e 9c bb 55 3a f0 3d
       0.14389585 -0.058553625 -0.004773878 0.11729876
0001e0 db 12 4e 3e 1a 3e 59 be 80 14 93 be 59 63 3e 3e
       0.2012438 -0.21215096 -0.28726578 0.18592586
0001f0 e3 c3 f9 bd ef f1 66 be fc e1 5e bd 3c 21 d9 3d
       -0.121955656 -0.22553228 -0.054414734 0.10602042

fc3.bias f4 [2]
000000 df 51 6b 3e c0 69 1c 3e
       0.2298045 0.15274715
