sat-code/models/maddpg_20250712-135635/checkpoint_900/critic_agent_0.pth (torch, 24873 bytes, 5 tensors)

fc1.weight f4 [64, 18]
0	0x3de63f92	0.11242594
1	0x3df646de	0.120252356
2	0xbd7a16eb	-0.061057013
3	0xbe0c1adc	-0.13682121
4	0x3e071d77	0.13194834
5	0x3c92d4c7	0.017923726
6	0x3e9eb238	0.30995345
7	0xbf1a6136	-0.6030458
8	0x3e102c83	0.1407948
9	0xbc827980	-0.015927076
10	0xbf0af3e6	-0.5427841
11	0xbe85dc77	-0.26144764
12	0x3d9280c3	0.071534656
13	0xbd05e208	-0.032686263
14	0x3e8709b8	0.26374602
15	0xbf3cfc49	-0.73822457
16	0xbea0d638	-0.31413436
17	0xbe6dadb9	-0.23210801
18	0xbd905504	-0.070474654
19	0x3add8727	0.001690124
20	0xbdb98a24	-0.09059551
21	0xbf232f33	-0.63743895
22	0x3dfcf6b7	0.123517446
23	0xbd66278d	-0.056190062
24	0xbf5b71cd	-0.8572052
25	0xbf017187	-0.50563854
26	0x3edbf535	0.42960516
27	0x3d7de6e8	0.061987787
28	0x3cfc8b7b	0.030828228
29	0xb84bbbcd	-4.8573875e-05
30	0xbca72d96	-0.02040748
31	0xbf590db9	-0.84786564
32	0xbf5fe5bb	-0.87459916
33	0xbebf6dfb	-0.37388596
34	0x3ebab607	0.36467
35	0xbd4e869f	-0.050421353
36	0x3e852e87	0.2601206
37	0xbc91a770	-0.017780036
38	0x3e875a71	0.2643619
39	0x3e0e1c90	0.13878083
40	0x3eebe1db	0.46070752
41	0x3d3c8a79	0.046030495
42	0xbec0559a	-0.3756531
43	0xbf843c33	-1.0330871
44	0xbdbefdc9	-0.093257494
45	0x3c84c7e6	0.0162086
46	0xbeffa437	-0.49929973
47	0x3d6ae1cd	0.057344247
48	0x3e9886ce	0.29790348
49	0x3deb9ecd	0.11504898
50	0xbef62d46	-0.48081416
51	0xbf942a5f	-1.1575431
52	0xbf25a79a	-0.64708865
53	0xbd87d466	-0.06632309
54	0xbe3899db	-0.18027441
55	0xbe551bc9	-0.2081138
56	0xbf454d47	-0.7707104
57	0x3f3ee36a	0.74565756
58	0xbeb46715	-0.35234895
59	0xbdff3743	-0.12461712
60	0xbec35a31	-0.38154748
61	0x3ea3004e	0.3183617
62	0xbe867008	-0.26257348
63	0xbd8d4438	-0.06897777
64	0x3e735cbe	0.23765847
65	0x3f8e469f	1.1115302
66	0xbf7dce63	-0.99143046
67	0x3f6085fe	0.87704456
68	0xbd2b18ec	-0.041771814
69	0x3b9fa57c	0.004872022
70	0x3edc9e12	0.43089348
71	0x3f7dc733	0.9913208
72	0x3e81f43e	0.25381655
73	0x3b8ecf39	0.004358199
74	0x3e98d6e6	0.29851454
75	0xbf1eb8cd	-0.62000734
76	0x3e836e01	0.25669864
77	0x3c5fe41c	0.013665225
78	0x3f2ea146	0.68214834
79	0xbf015dbf	-0.5053367
80	0x3e0917f6	0.13388047
81	0xbcfbf8ed	-0.030758345
82	0xbf42ff80	-0.7617111
83	0xbe587b74	-0.21140844
84	0x3e9eb79c	0.30999458
85	0xbf316641	-0.6929665
86	0x3f58e211	0.8471995
87	0xbf0a8da6	-0.5412239
88	0xbf05dee1	-0.5229321
89	0xbe7ac566	-0.24489364
90	0xbe89c970	-0.26911497
91	0x3da57703	0.0807934
92	0x3ce24e76	0.027625304
93	0x3e3f1427	0.18660031
94	0xbe910c3c	-0.28329647
95	0xbcfbd1ea	-0.030739743
96	0xbdef665d	-0.11689446
97	0x3d623513	0.055226397
98	0xbe4ec261	-0.20191337
99	0xbe7364af	-0.23768876
100	0x3d89924f	0.06717359
101	0x3e2690b9	0.16266145
102	0x3e452e89	0.19256033
103	0x3e172996	0.14761958
104	0x3d1895be	0.03725218
105	0x3df28c8a	0.11843212
106	0xbe051819	-0.12997474
107	0xbe1560a1	-0.14587642
108	0xbcc56694	-0.024096765
109	0xbe3b50ed	-0.1829259
110	0x3ee7227d	0.451435
111	0x3f00b76d	0.50279886
112	0xbf34308c	-0.70386577
113	0xbcde6774	-0.02714894
114	0xbf26e3f7	-0.65191597
115	0x3c3d2a9f	0.011545806
116	0xbee9a171	-0.45630983
117	0xbe73f9ec	-0.23825806
118	0xbe70c616	-0.23513064
119	0x3efae9e2	0.49006563
120	0x3ef65a32	0.4811569
121	0x3f11d844	0.5697062
122	0xbe6adf85	-0.22936828
123	0xbdd2a3cc	-0.10285148
124	0xbf1fe256	-0.62454736
125	0x3e7fc8fa	0.2497901
126	0xbe025de0	-0.12731123
127	0xbdb22c8a	-0.086999014
128	0xbd9061af	-0.07049882
129	0xbd78e257	-0.06076273
130	0xbfafe3fe	-1.3741453
131	0xbeca7902	-0.39545447
132	0xbea5d29e	-0.3238725
133	0xbf070c79	-0.52753407
134	0xbf6d681f	-0.92737
135	0xbdd574ff	-0.10422706
136	0xbf998815	-1.1994654
137	0x3e956b76	0.2918355
138	0xbe898dfc	-0.26866138
139	0x3cdd594f	0.027020125
140	0xbf230f7b	-0.63695496
141	0x3e695de0	0.22789717
142	0xbfd12437	-1.6339177
143	0x3f1f9751	0.62340266
144	0xbe71779e	-0.23580787
145	0x3e9d025e	0.3066587
146	0xbee84dec	-0.4537195
147	0xbe9f78ff	-0.31147
148	0x3e93ea62	0.28889757
149	0x3e195880	0.14975166
150	0x3ec342d0	0.3813691
151	0x3de8f888	0.113755286
152	0xbd555371	-0.05208153
153	0x3e70efe1	0.23529007
154	0x3ee5e63a	0.4490221
155	0x3c885fce	0.016647246
156	0xbf02784f	-0.50964826
157	0xbe1070fb	-0.14105599
158	0x3eedfc8c	0.4648174
159	0x3d5b8510	0.053593695
160	0x3e4391a2	0.19098523
161	0x3e020b90	0.12699723
162	0x3c92ed8c	0.017935537
163	0x3e010e9b	0.12603228
164	0x3da8d936	0.08244555
165	0x3e8890c1	0.26672938
166	0xbd7839d5	-0.060602028
167	0xbc219cf5	-0.009864082
168	0xbf720de7	-0.94552463
169	0xbf6949ab	-0.91128033
170	0x3e4a7f38	0.19775093
171	0x3e45c04f	0.19311641
172	0x3eb9d926	0.36298484
173	0x3d658117	0.056031313
174	0x3ddd98c6	0.10820155
175	0x3e8fe758	0.2810619
176	0xbf93da63	-1.1551021
177	0xbf97997f	-1.1843718
178	0x3ec153ed	0.37759343
179	0x3e3a3334	0.18183595
180	0x3ebc5729	0.36785248
181	0xbd7726ed	-0.060339857
182	0x3ec7c3e1	0.3901663
183	0xbf2bd27e	-0.6711806
184	0x3eb9cea8	0.3629048
185	0x3e1f21d2	0.15540245
186	0x3e7be91e	0.24600646
187	0xbeba6000	-0.36401367
188	0xbe0b6c7b	-0.13615601
189	0xbe90f0ff	-0.28308865
190	0xbede81c0	-0.43458366
191	0xbf5e62f4	-0.8686974
192	0x3f0d9ebc	0.55320334
193	0xbf4c83b9	-0.7988849
194	0x3d0f42cd	0.034975816
195	0xbe91a58d	-0.28446618
196	0xbec2dc6a	-0.38058788
197	0xbf3f4397	-0.7471251
198	0xbe0aafba	-0.13543597
199	0x3d7ffd59	0.06249747
200	0x3ed860d4	0.42261374
201	0x3f3c88c2	0.73646176
202	0xbe564b3d	-0.20927139
203	0xbe3fab3f	-0.18717669
204	0xbf39488c	-0.7237632
205	0xbf664a65	-0.8995727
206	0xbe1b8b30	-0.15189815
207	0xbf81379f	-1.0095099
208	0xbde10c69	-0.10988695
209	0xbe85a101	-0.260994
210	0x3f187a57	0.59561676
211	0x3f5e3eef	0.8681478
212	0xbf83051f	-1.0235938
213	0xbf740596	-0.95321023
214	0xbdb853b9	-0.09000344
215	0xbe3a8f35	-0.18218692
216	0xbdc82708	-0.097730696
217	0xbed4ed86	-0.41587466
218	0xbc97a593	-0.01851157
219	0xbe317af1	-0.17332055
220	0xbea32cd2	-0.31870133
221	0xbe1eadc8	-0.1549598
222	0xbe53abd6	-0.20671019
223	0x3de72eb3	0.11288204
224	0xbe352041	-0.17688085
225	0x3d03559d	0.03206407
226	0x3eadcbd1	0.33944562
227	0x3e9fbce1	0.3119879
228	0xbe960a6e	-0.29304832
229	0x3e971618	0.29509044
230	0xbeb01e58	-0.3439815
231	0x3e4cf298	0.20014417
232	0xbe0234d6	-0.12715468
233	0x3e4ca2d7	0.19983993
234	0x3dfab9cc	0.12242469
235	0x3e7cb235	0.24677356
236	0x3e060150	0.13086438
237	0xbe79bb6c	-0.24387902
238	0x3dd5f563	0.104471944
239	0xbdc9278b	-0.09821995
240	0xbf0597c8	-0.52184725
241	0xbf7a8105	-0.9785312
242	0x3e9ed78a	0.31023818
243	0xbda7baa8	-0.08189899
244	0x3bd1f634	0.0064075235
245	0xbe98a6b6	-0.2981469
246	0x3e0b86e7	0.1362568
247	0xbe524e28	-0.20537627
248	0xbf89152c	-1.0709586
249	0xbf2a0648	-0.66415834
250	0x3d3fac03	0.046794903
251	0xbed5aaf4	-0.4173199
252	0xbcac3393	-0.021020686
253	0xbda5951d	-0.08085082
254	0xbdc9bdc1	-0.09850646
255	0x3eecc2e9	0.46242455

fc1.bias f4 [64]
0	0xc026bcc7	-2.605272
1	0xbfc28ada	-1.5198624
2	0x3ebef993	0.37299785
3	0xbe93c42f	-0.28860614
4	0xbff1b1fd	-1.8882443
5	0x3d71b4b7	0.059010234
6	0xbf6de5c6	-0.9292873
7	0xbf2ccb97	-0.67498153
8	0x4074f2c3	3.827317
9	0x4021c344	2.527543
10	0xbd572a6a	-0.052530684
11	0xbfe625b8	-1.7980261
12	0xbd72d88a	-0.05928854
13	0x40714792	3.7699933
14	0xbe84e2a4	-0.25954163
15	0xc01fb094	-2.4951525
16	0x404c61e2	3.1934743
17	0x40219c8b	2.5251796
18	0x3f24a572	0.6431495
19	0x3dc610f2	0.09671201
20	0x3eca6146	0.3952734
21	0xbf399262	-0.7248899
22	0xc028c596	-2.6370597
23	0xbecc176d	-0.39861622
24	0xbe9eee8f	-0.3104138
25	0x3f3f47de	0.74719036
26	0xbfd84c85	-1.6898352
27	0xbfa47190	-1.2847157
28	0x404e006f	3.2187765
29	0x401c1524	2.4387903
30	0xbd44b2d1	-0.048022095
31	0xbfc4451e	-1.5333593
32	0xbd4385b4	-0.04773493
33	0x3e25729c	0.16157001
34	0x402b926b	2.6808116
35	0xbf032690	-0.51230717
36	0xbf3fd448	-0.7493329
37	0xbff865f2	-1.9406111
38	0x3f85a86c	1.0442023
39	0xbf04c4b4	-0.51862645
40	0x400e3d15	2.2224782
41	0xbe88e584	-0.26737607
42	0xc009da5e	-2.153953
43	0x40327845	2.7885907
44	0x401ac071	2.4179957
45	0xbe477dc7	-0.19481574
46	0xc02eaceb	-2.729304
47	0xbff5b6ef	-1.9196452
48	0xbeb3ca8d	-0.3511547
49	0xbfdaee2c	-1.7103934
50	0xbeb1bfc5	-0.3471662
51	0xc06a5d56	-3.6619468
52	0xbe839665	-0.2570068
53	0x40181948	2.376543
54	0xbecb9f55	-0.39769998
55	0xbe439281	-0.19098856
56	0xbf882f99	-1.0639526
57	0xbf2c54c0	-0.6731682
58	0x401308ea	2.297419
59	0xbf0d9cec	-0.5531757
60	0x4048aa9d	3.1354134
61	0xbf6de688	-0.9292989
62	0xbea7b381	-0.32754138
63	0x403f4418	2.988531

fc2.weight f4 [64, 64]
0	0xbd81cef5	-0.06338302
1	0x3c8c7ccd	0.017149353
2	0xbd189617	-0.03725251
3	0x3d41dd20	0.04733002
4	0xbf0de8c7	-0.55433315
5	0x3d35a040	0.04434228
6	0xbe0d1761	-0.1377845
7	0xbee5cc8b	-0.44882616
8	0xbe75a5eb	-0.23989074
9	0xbef461f9	-0.47730997
10	0x3d5f1ee1	0.054472808
11	0xbed5bdd5	-0.41746393
12	0xbc943775	-0.01809285
13	0xbea40281	-0.3203316
14	0x3d22324d	0.03959875
15	0xbd2de366	-0.042453192
16	0xbe61d12f	-0.22052453
17	0xbea932d0	-0.3304658
18	0xbcd0679c	-0.02544003
19	0x3e9fe0c3	0.31226167
20	0xbc6557c6	-0.013997978
21	0xbeaec9c4	-0.3413831
22	0x3c049f26	0.008094585
23	0xbed5a724	-0.4172908
24	0x3d09c57b	0.033635598
25	0xbe4182b4	-0.18897516
26	0xbcd9faf1	-0.026608916
27	0xbe9a8247	-0.3017752
28	0x3cf73e00	0.030180931
29	0xbf10e87d	-0.5660475
30	0xbe830265	-0.25587764
31	0x3e4cfa36	0.20017323
32	0x3d54144c	0.05177717
33	0x3d1fc1ab	0.039003056
34	0x3b1ebd82	0.0024221842
35	0x3d0c36f4	0.034232095
36	0x3dcfd96c	0.10148892
37	0xbe94b995	-0.29047838
38	0xbe88df54	-0.26732886
39	0x3bd37880	0.0064535737
40	0x3d970271	0.073735125
41	0xbd89b4c9	-0.06723935
42	0x3cd14350	0.025544792
43	0xbe9b8dce	-0.30381626
44	0x3d3d515d	0.046220172
45	0xbe1ca727	-0.15298139
46	0xbe6de819	-0.2323307
47	0x3e1e34e4	0.15449864
48	0xbec0a704	-0.37627423
49	0xbee7355b	-0.45157894
50	0x3da7e980	0.081988335
51	0xbea778b8	-0.3270929
52	0x3de8f428	0.11374694
53	0x3d61c97a	0.055123784
54	0xbd99824f	-0.074955575
55	0x3ddd4780	0.10804653
56	0x3df2eb76	0.11861317
57	0x3e504428	0.203385
58	0xbd93befb	-0.07214161
59	0xbc24504e	-0.010028912
60	0x3d8198ac	0.06327948
61	0x3ea50893	0.32233104
62	0x3eb61bdb	0.35568127
63	0xbe87f2ac	-0.2655233
64	0xbf07c24a	-0.53030837
65	0xbeedcbfc	-0.4644469
66	0xbf476a3c	-0.77896476
67	0xbe95cfc0	-0.29260063
68	0xbe8c0cac	-0.27353418
69	0xbdd58bc3	-0.10427048
70	0xbf4a5bf5	-0.79046565
71	0xbef083bb	-0.46975502
72	0x3efe6368	0.49685216
73	0xbe82644b	-0.25467142
74	0x3d46a11b	0.048493486
75	0xbec45675	-0.3834721
76	0x3a040661	0.0005036351
77	0x3dab94d8	0.08377999
78	0xbd993019	-0.07479877
79	0x3e0d20c1	0.13782026
80	0x3e2353aa	0.15949884
81	0xbe97b780	-0.29632187
82	0xbd645473	-0.0557446
83	0xbe44f7ed	-0.19235201
84	0xbd61779e	-0.055045716
85	0xbecdcf3f	-0.4019718
86	0xbea87119	-0.32898787
87	0xbf22c1fe	-0.6357726
88	0x3f39af4c	0.72533107
89	0x3fa5cd4a	1.2953274
90	0xbd99f6b9	-0.07517762
91	0xbe9c99bb	-0.30586037
92	0x3f114993	0.5675289
93	0x3e2da807	0.16958629
94	0x3e296c12	0.16545132
95	0xbf8860bd	-1.0654522
96	0x3ddf2d69	0.10897333
97	0x3d28f640	0.041250467
98	0xbe430217	-0.19043766
99	0xc0037afe	-2.0543818
100	0xbc62ad2d	-0.013835234
101	0xbd8a951b	-0.06766721
102	0xbf6e9db6	-0.932094
103	0xbea6c9b1	-0.32575753
104	0x3ededc96	0.4352767
105	0xbe9d9846	-0.30780238
106	0x3f40898e	0.7520989
107	0x3e87b1d6	0.26502866
108	0x3f3c0f76	0.7346109
109	0xbf8000c6	-1.0000236
110	0x3eafd0d3	0.34339008
111	0xbea2e304	-0.31813824
112	0x3ccb2aa9	0.024800615
113	0xbf72433e	-0.94633853
114	0x3f893007	1.0717782
115	0xbf3f2a29	-0.74673706
116	0x3c803bd5	0.01565353
117	0x3f4204a0	0.7578831
118	0xbdde4ebe	-0.10854863
119	0x3d1d768a	0.038443126
120	0xbeb1ccb9	-0.34726503
121	0x3d52b0d9	0.051438186
122	0x3e62d0ca	0.22149959
123	0xbdf59f85	-0.119933166
124	0x3db37e80	0.08764362
125	0xbf3bdce0	-0.73383904
126	0xbe19bf5c	-0.15014404
127	0x3db74495	0.08948628
128	0xbe2d094a	-0.16898075
129	0xbdc23458	-0.0948264
130	0xbe540f18	-0.20708883
131	0x3beb2937	0.007176544
132	0xbe135e97	-0.14391552
133	0x3df8ae28	0.12142593
134	0xbde95aca	-0.1139427
135	0xbcd02697	-0.025409026
136	0x3cc0d2df	0.023538051
137	0xbd77df53	-0.060515713
138	0xbd8bd03e	-0.068268284
139	0x3d7bfade	0.061518542
140	0x3c8c83f8	0.017152771
141	0xbdea438e	-0.11438666
142	0xbe0689cb	-0.13138501
143	0xbe0e4a09	-0.1389543
144	0xbe0dc83f	-0.13845919
145	0xbdaf5592	-0.08561243
146	0xbd95d743	-0.073164485
147	0xbdbc81a2	-0.09204413
148	0xbd69f7db	-0.05712114
149	0xbe005733	-0.12533264
150	0xbd28d60f	-0.041219767
151	0xbd9111ea	-0.07083495
152	0xbe1f5a45	-0.15561779
153	0xbdc54cff	-0.096338265
154	0xbdcc973a	-0.09989782
155	0x3da0312b	0.07821878
156	0x3cee9214	0.02912239
157	0xbd165284	-0.036699787
158	0xbd3d0d3c	-0.0461552
159	0x3d5c2894	0.053749636
160	0xbde19686	-0.11015038
161	0x3c0ac63d	0.008470115
162	0xbdce3f8b	-0.100707136
163	0xbd7725d1	-0.0603388
164	0xbd7e8e20	-0.06214726
165	0x3ac62581	0.0015117378
166	0xbd0ec920	-0.034859776
167	0xbd641614	-0.055685118
168	0x3d4a15db	0.04933725
169	0xbd9a6b90	-0.07540047
170	0xbd8c0d78	-0.068385065
171	0xbe3a61b4	-0.18201333
172	0x3d18be4c	0.037290856
173	0xbd62fae8	-0.055415064
174	0xbe35d930	-0.17758632
175	0x3c7c763e	0.0154090505
176	0xbda309f2	-0.07960881
177	0xbd4fe55b	-0.05075584
178	0xbd7105b5	-0.058843333
179	0xbe33aa94	-0.17545539
180	0xbdffe21a	-0.12494297
181	0xbd078a96	-0.03309115
182	0xbdf654b3	-0.12027874
183	0xbdc73ae2	-0.09728028
184	0x3c9ca14d	0.019119883
185	0x3d51f7d9	0.051261757
186	0x3ca60272	0.020264838
187	0xbda8e66c	-0.082470745
188	0xbda4e188	-0.08050829
189	0xbdf52db4	-0.11971608
190	0x3c8f2c8d	0.017477298
191	0x3d9798d0	0.074021935
192	0x3d4184dd	0.04724585
193	0x3e6f876a	0.233915
194	0xbdae3647	-0.08506446
195	0xbdc2047c	-0.094735116
196	0x3cde4f9b	0.027137568
197	0x3e0a63a4	0.13514572
198	0x3e18a15c	0.14905304
199	0xbe2d99f1	-0.16953255
200	0xbf3e1a2e	-0.742587
201	0xbe8d6551	-0.2761636
202	0x3f11354f	0.5672197
203	0xbe6e71c1	-0.23285581
204	0xbdba9178	-0.09109777
205	0xbd878b65	-0.06618384
206	0x3bea45d8	0.0071494393
207	0x3d9740aa	0.073853806
208	0xbf153d9c	-0.58297133
209	0xbe9d17a4	-0.306821
210	0xbe1bcea0	-0.1521554
211	0xbf02de86	-0.51120794
212	0xbd42dfe3	-0.047576796
213	0x3edd4e50	0.4322381
214	0x3ce4d08e	0.027931478
215	0xbe738b9a	-0.23783723
216	0xbed6ac83	-0.4192849
217	0xbe2c8d18	-0.16850698
218	0x3f406a92	0.75162613
219	0xbe83646f	-0.25662562
220	0xbeb81e22	-0.3596049
221	0x3cfa082b	0.030521473
222	0x3c2ec7a5	0.010667716
223	0xbf21c522	-0.63191426
224	0x3d6b590b	0.057457965
225	0x3e959039	0.29211596
226	0xbe632d0d	-0.22185154
227	0x3e98a95b	0.29816708
228	0xbe791af3	-0.24326687
229	0xbf0b08d3	-0.5431034
230	0xbcbda050	-0.023147732
231	0x3e05a09c	0.13049549
232	0xbebefecd	-0.37303773
233	0x3da17656	0.07883899
234	0x3e873202	0.2640534
235	0x3e01a405	0.12660225
236	0x3e5db1b6	0.21649823
237	0xbe588c56	-0.21147284
238	0x3df8441c	0.12122366
239	0xbee705ba	-0.45121557
240	0xbe1bd07c	-0.15216249
241	0xbea45841	-0.32098582
242	0xbf8a6b0e	-1.081392
243	0xbdeaa790	-0.11457741
244	0x3d9af143	0.07565548
245	0xbe31fa01	-0.17380525
246	0xbdefe817	-0.117141895
247	0xbd8ee028	-0.06976348
248	0x3de428e7	0.11140614
249	0x3cb5d704	0.022197254
250	0xbed0c810	-0.40777636
251	0xbdd6b242	-0.10483219
252	0xbed56818	-0.4168098
253	0xbc9d96ba	-0.019236911
254	0xbd9b6e94	-0.075894505
255	0xbdcdfc52	-0.10057892

fc2.bias f4 [64]
0	0x3dfd8d9b	0.12380525
1	0x404ee341	3.2326205
2	0xbdff0c28	-0.124534905
3	0x3f2842b3	0.65726775
4	0xbe125c88	-0.1429311
5	0xbd8a9246	-0.06766181
6	0xbd58b176	-0.052903615
7	0x3da25a40	0.0792737
8	0x3cff0896	0.031132024
9	0xbe1f7b09	-0.15574278
10	0x3cfd6de8	0.030936196
11	0xbd831998	-0.06401366
12	0x403505b4	2.828473
13	0x3e1c2cbe	0.15251443
14	0xbe8a7acc	-0.27046812
15	0x3cd9370d	0.026515508
16	0x3d598289	0.053103004
17	0xbe390049	-0.18066515
18	0xbf9e694a	-1.2375882
19	0xbb9a8649	-0.004715715
20	0xbd5748d6	-0.052559696
21	0x3dd23815	0.10264603
22	0x3f07c7fd	0.5303953
23	0x3e434f8b	0.19073312
24	0xbe72a5ac	-0.23696011
25	0x3c390e3a	0.011294896
26	0x3cad7dc2	0.02117813
27	0xbda6c565	-0.08143119
28	0xbe45d877	-0.19320856
29	0x3cd46347	0.025926245
30	0xbe0fd134	-0.14044648
31	0xbe11bea5	-0.14232881
32	0x404450f3	3.0674407
33	0xbe77a394	-0.24183494
34	0x3d65e922	0.056130536
35	0x3e4d857e	0.20070454
36	0x3d5c732f	0.053820785
37	0xbe2b8e55	-0.16753514
38	0xbd0039e7	-0.03130522
39	0xbcc057ac	-0.023479305
40	0xbe80aae2	-0.25130373
41	0x3e3e4290	0.18580079
42	0x3b2b2874	0.0026116641
43	0xbd014b4d	-0.031565953
44	0x3e748aaa	0.23881021
45	0xbd814c64	-0.063133985
46	0xbe09e9b6	-0.1346806
47	0xbdd378af	-0.10325753
48	0xbe185c37	-0.14878927
49	0xbe30a444	-0.17250162
50	0xbe48bb96	-0.19602808
51	0xbf7b2f05	-0.9811862
52	0xbd966a9c	-0.07344553
53	0xbe1a50d9	-0.15069903
54	0xbe2f33ef	-0.17109655
55	0xbeae129a	-0.33998567
56	0xbfbfabc2	-1.4974291
57	0x3f07750c	0.52912974
58	0xbf285151	-0.6574908
59	0xbe4861f7	-0.1956862
60	0xbcb4cd6c	-0.022070609
61	0xbb652ea0	-0.0034970418
62	0x403acc45	2.9187176
63	0xbd68f353	-0.056872677

fc3.weight f4 [1, 64]
0	0xbe9bf897	-0.30463096
1	0x3dbc93c3	0.09207871
2	0xbd317e66	-0.043333434
3	0x3da7702c	0.08175692
4	0xbd8056bc	-0.06266543
5	0xbe96db77	-0.29464313
6	0xbc69ad6c	-0.014262538
7	0xbbab3a28	-0.0052254386
8	0x3d0c51ba	0.034257628
9	0xbd524fcc	-0.05134563
10	0x3cd5e4e1	0.026110115
11	0x3c5b9488	0.013402112
12	0x3d4fa5de	0.050695293
13	0xbc7921ef	-0.015205844
14	0xbc74da1f	-0.014944582
15	0x3db20b77	0.08693593
16	0x3bf41d54	0.0074497852
17	0x3c747e93	0.014922756
18	0xbd932a70	-0.07185829
19	0x3a0693f2	0.000513374
20	0x3d7bd265	0.061479945
21	0xbdb69055	-0.08914248
22	0xbc0110be	-0.007877527
23	0x3ca15344	0.019693024
24	0x3e13052b	0.1435744
25	0xbca21f7b	-0.019790402
26	0x3d832a28	0.06404525
27	0x3dc18aee	0.09450327
28	0x3cb72ee6	0.02236123
29	0x3ca1d326	0.019754004
30	0x3e18f711	0.14937998
31	0xbca53fc7	-0.020172013
32	0x3e467354	0.19379932
33	0xbd19ba98	-0.037531465
34	0xb8d43648	-0.000101190584
35	0x3d93a046	0.07208304
36	0x3e0ea199	0.13928832
37	0xbcb147b3	-0.021640634
38	0xbced0c7c	-0.028936617
39	0xbcd112cd	-0.02552166
40	0x3d2ea816	0.042640768
41	0xbede439b	-0.43410954
42	0x3c0bd6b1	0.008535073
43	0xbd0b5635	-0.03401776
44	0xbe60a12b	-0.2193648
45	0x3e477f2c	0.19482106
46	0xbc6987cf	-0.014253571
47	0x3ddef7be	0.10887097
48	0xbcd25802	-0.025676731
49	0xbc315e37	-0.010825685
50	0xbd2fb4cc	-0.04289703
51	0xbe065f9a	-0.13122407
52	0x3e7a55dd	0.24446817
53	0x3cd570b2	0.026054714
54	0x3cdfacbe	0.02730405
55	0x3cd4ba6d	0.025967801
56	0xbdb1bcb6	-0.08678572
57	0xbdecd47e	-0.11563967
58	0xbdb554bc	-0.088540524
59	0xbc141289	-0.009037622
60	0x3d0d9e59	0.03457484
61	0xbc93968d	-0.018016124
62	0x3da3c5be	0.07996701
63	0xbcff4ca5	-0.031164477
