sat-code/models/maddpg_20250712-135635/checkpoint_200/actor_agent_1.pth (torch, 21533 bytes, 6 tensors)

fc1.weight f4 [64, 4]
-0.08851187 0.1954381 -0.5436378 -0.51115507 -0.26814342 0.44591787 -0.47170112 -0.19196557
0.036193706 0.051701516 -0.4612803 0.16159113 0.15643406 -0.07581023 -0.48983717 0.2258107
0.18933818 0.18202858 -0.32683024 -0.5071584 -0.31352305 -0.120144844 0.35247886 -0.37171108
-0.44864708 0.16491504 0.22965986 -0.5028871 0.42372602 -0.06527614 0.21437524 -0.07407283
-0.3935356 -0.19749841 -0.16709661 -0.41065505 -0.26565522 0.48724604 0.5222646 -0.47028738
-0.16428737 0.38064027 -0.5276802 -0.1350273 0.27393928 -0.10019468 -0.2890893 -0.6106735
0.28066796 0.09243497 -0.28945795 0.29704309 -0.37046263 0.12502773 0.12297913 0.18793872
0.43054482 -0.009835789 -0.39092913 -0.42447507 0.052768692 0.04028552 -0.58898795 -0.6257917
0.3405369 -0.019664574 0.58344334 -0.27787152 0.09906973 -0.48835966 -0.34665594 0.44498682
0.19361898 0.05549988 -0.30659702 0.5781008 -0.24262059 -0.18587989 -0.02237171 0.25326407
0.32027617 0.41864815 -0.2601479 -0.3599829 -0.09422994 0.3984158 -0.38738742 0.025912616
0.10833819 -0.4549418 -0.38206303 0.43568224 0.46617308 0.1667346 -0.39045334 0.35614914
0.28006914 -0.43447235 -0.5601433 0.024731074 -0.12067431 -0.35815215 0.37108952 0.3630818
0.022826334 0.39839545 0.48165417 -0.33963153 0.46052206 0.019442605 -0.113828324 -0.6009449
0.0039196084 0.1317122 0.09999066 0.07037046 -0.27572262 -0.3438928 0.4181467 -0.5388985
-0.42041704 0.46267286 0.47280386 -0.43694267 0.35021904 -0.08985142 -0.026234796 -0.030528117
0.29913655 0.31494334 -0.21740606 0.053181827 -0.3167778 0.5708978 -0.17987792 -0.32561457
-0.18773644 -0.11381222 -0.4055381 0.27276257 0.16650768 0.30511227 -0.52933216 -0.34570244
-0.1551739 0.26754862 0.46186823 -0.2111614 0.39511186 0.47959515 -0.21436591 0.5427706
0.21661843 -0.3141365 0.49528944 0.036287103 -0.46508235 -0.094853066 -0.50714326 0.045706026
-0.37710315 0.1871431 -0.13116002 -0.027072074 0.45328543 -0.5329635 0.41250053 -0.580528
-0.1619083 0.4621359 -0.30646634 -0.4503388 -0.038055416 0.24121498 0.49557894 -0.41710576
-0.028468119 -0.23450997 -0.086924106 0.13948964 0.08390878 0.347813 0.5469075 0.3279987
-0.15927763 -0.18326324 -0.28920534 0.015313294 -0.06590695 0.020323474 -0.13792194 0.48872167
-0.08068603 0.56793755 0.021157773 -0.2900512 -0.07861329 0.50576884 -0.4577737 0.026665991
0.19493294 -0.14097789 -0.43893406 -0.17238846 -0.01560897 -0.2613335 0.04462574 -0.062079996
-0.43578565 -0.23142149 -0.12681846 -0.42704695 0.45922935 0.16656311 -0.08084573 -0.004650001
0.13192691 0.12926489 -0.19701405 -0.611262 -0.0012977215 -0.20652416 0.055600822 0.23206225
0.1856827 0.25708106 0.15718856 0.49007532 -0.2578826 -0.10792802 -0.3328038 0.11842625
-0.4399673 0.33250424 -0.22842297 0.15020613 -0.062250815 0.14114232 0.09271662 -0.53428364
0.09047017 -0.08986569 0.42760614 0.61982435 0.4110085 0.03366275 -0.23169076 0.5157206
0.27975473 0.29129797 0.044612993 0.4142087 -0.35792992 0.16843626 -0.38785475 0.36948067
00000000: b645 b5bd ed20 483e d92b 0bbf 0fdb 02bf
00000010: 184a 89be 594f e43e cf82 f1be 9f92 44be
00000020: da3f 143d f8c4 533d ee2c ecbe 2578 253e
00000030: 4030 203e 6542 9bbd f0cb fabe ec3a 673e
00000040: dee1 413e b365 3a3e 4b56 a7be 22d5 01bf
00000050: 1886 a0be 800e f6bd 1c78 b43e ea50 bebe
00000060: 12b5 e5be 7ddf 283e f42b 6b3e 36bd 00bf
00000070: 9ef2 d83e 7faf 85bd 2f85 5b3e 7fb3 97bd
00000080: 807d c9be 063d 4abe 601b 2bbe 6141 d2be
00000090: f603 88be 5078 f93e 22b3 053f 82c9 f0be
000000a0: f33a 28be 48e3 c23e 0d16 07bf 9944 0abe
000000b0: c541 8c3e de32 cdbd 8303 94be 1955 1cbf
000000c0: b6b3 8f3e 8c4e bd3d d533 94be 0816 983e
000000d0: 47ad bdbe 4507 003e 7bdc fb3d 0273 403e
000000e0: 5f70 dc3e 4a26 21bc dd27 c8be cc54 d9be
000000f0: fc23 583d 6e02 253d eac7 16bf e333 20bf
00000100: da5a ae3e 9a17 a1bc 8b5c 153f 2d45 8ebe
00000110: 12e5 ca3d 470a fabe e37c b1be 50d5 e33e
00000120: 0e44 463e d853 633d 49fa 9cbe 6afe 133f
00000130: 8871 78be 4c57 3ebe e044 b7bc d4ab 813e
00000140: 3dfb a33e 0d59 d63e 1b32 85be ae4f b8be
00000150: a0fb c0bd 28fd cb3e a557 c6be b246 d43c
00000160: 6ae0 dd3d 22ee e8be c49d c3be be11 df3e
00000170: 3dae ee3e 7abc 2a3e 80e9 c7be 2e59 b63e
00000180: 3965 8f3e 2973 debe 8d65 0fbf d298 ca3c
00000190: 1824 f7bd b85f b7be 72ff bd3e dce5 b93e
000001a0: 4bfe ba3c 7dfa cb3e 609b f63e 2fe4 adbe
000001b0: 8cc9 eb3e 1946 9f3c d31e e9bd 86d7 19bf
000001c0: 0f70 803b 90df 063e e7c7 cc3d 631e 903d
000001d0: 842b 8dbe b812 b0be 5317 d63e 41f5 09bf
000001e0: e740 d7be 75e3 ec3e 5913 f23e f3b6 dfbe
000001f0: e94f b33e 0504 b8bd 5bea d6bc 1a16 fabc
00000200: 6d28 993e 4140 a13e b29f 5ebe 30d5 593d
00000210: b330 a2be 5c26 123f eb31 38be f4b6 a6be
00000220: fb3d 40be 6216 e9bd b1a2 cfbe 89a7 8b3e
00000230: fd80 2a3e ad37 9c3e 5082 07bf e9ff b0be
00000240: e8e5 1ebe 22fc 883e fe79 ec3e b23a 58be
00000250: 1a4c ca3e 7f8d f53e bd82 5bbe 04f3 0a3f
00000260: 39d1 5d3e 80d6 a0be 9496 fd3e c9a1 143d
00000270: 461f eebe 5342 c2bd 24d4 01bf 3e36 3b3d
00000280: aa13 c1be 71a2 3f3e d04e 06be 41c6 ddbc
00000290: 0715 e83e 4c70 08bf 4533 d33e 7c9d 14bf
000002a0: 4acb 25be 149d ec3e 28e9 9cbe cf92 e6be
000002b0: ffdf 1bbd 0f01 773e 86bc fd3e e38e d5be
000002c0: f935 e9bc 6223 70be 4405 b2bd 5fd6 0e3e
000002d0: 5ed8 ab3d 8c14 b23e 2102 0c3f 72ef a73e
000002e0: ad19 23be 5ca9 3bbe b912 94be 9ce4 7a3c
000002f0: 39fa 86bd 6a7d a63c 693b 0dbe ba39 fa3e
00000300: b83e a5bd 5b64 113f 1153 ad3c 9781 94be
00000310: 0100 a1bd 117a 013f 5061 eabe a372 da3c
00000320: 809c 473e 825c 10be f7bb e0be 9a86 30be
00000330: c4bc 7fbc 81cd 85be 7bc9 363d 9847 7ebd
00000340: 4c1f dfbe c1f9 6cbe b3dc 01be e6a5 dabe
00000350: 1c20 eb3e 858f 2a3e 7292 a5bd 095f 98bb
00000360: d917 073e 045e 043e 0dbe 49be ab7b 1cbf
00000370: 4f18 aaba 127b 53be b0bd 633d baa1 6d3e
00000380: 9b23 3e3e 21a0 833e 0af6 203e 27eb fa3e
00000390: 3009 84be 5e09 ddbd 4265 aabe 7689 f23d
000003a0: 6543 e1be ff3d aa3e b6e7 69be a3cf 193e
000003b0: b6fa 7ebd 9d87 103e 36e2 bd3d d0c6 08bf
000003c0: 6d48 b93d 810b b8bd 31ef da3e cfac 1e3f
000003d0: b56f d23e f4e1 093d 5840 6dbe 4406 043f
000003e0: 033c 8f3e 0225 953e 1dbc 363d 2a13 d43e
000003f0: 9742 b7be 8e7a 2c3e e694 c6be 922c bd3e

fc1.bias f4 [64]
0.19500627 -0.09647996 0.11192222 0.3346616 -0.20470206 0.38737646 -0.08159051 -0.39022073
0.6086688 0.2866299 -0.49120116 -0.018625593 -0.21205182 0.48816055 0.066288546 -0.32529128
-0.14604257 0.5349921 -0.12305086 -0.24426818 -0.29089832 0.039077487 -0.037820585 -0.5304528
-0.08078085 -0.29381728 0.6154252 0.24696238 0.15178443 0.39889365 -0.0037133258 -0.47467095
-0.254355 0.12488447 0.39079562 0.5729898 -0.016574558 -0.27809855 -0.05221979 0.030880757
-0.24873185 0.57798284 -0.123545825 0.120308995 0.5588236 0.28362316 -0.26151055 -0.39540213
-0.29250872 0.33178803 0.25280353 0.3675661 -0.24767338 -0.1143786 0.7009798 0.64233845
-0.11373007 0.16428019 -0.29042798 0.49361914 0.1442291 0.3351407 -0.35113963 0.23601866
00000000: b9af 473e 4997 c5bd 7a37 e53d c458 ab3e
00000010: 6b9d 51be 3556 c63e ed18 a7bd 03cb c7be
00000020: b8d1 1b3f 27c1 923e b87e fbbe b394 98bc
00000030: 1d24 59be 2ef0 f93e 4ac2 873d 948c a6be
00000040: 2f8c 15be 3ef5 083f 1702 fcbd 7021 7abe
00000050: a0f0 94be b70f 203d c2e9 1abd c1cb 07bf
00000060: 6e70 a5bd 386f 96be 828c 1d3f b5e3 7c3e
00000070: 616d 1b3e ca3b cc3e 455b 73bb 1208 f3be
00000080: d23a 82be 6ec3 ff3d 5d16 c83e 76af 123f
00000090: 5ec7 87bc ef62 8ebe 6be4 55bd a4f9 fc3c
000000a0: 90b3 7ebe aff6 133f 9805 fdbd 9064 f63d
000000b0: 100f 0f3f 0e37 913e b6e4 85be 2672 cabe
000000c0: b4c3 95be 1fe0 a93e 776f 813e a031 bc3e
000000d0: 179e 7dbe 543f eabd 6a73 333f 4b70 243f
000000e0: 50eb e8bd 1139 283e fab2 94be a6bb fc3e
000000f0: cbb0 133e 9097 ab3e 93c8 b3be e0ae 713e

fc2.weight f4 [64, 64]
0.11652968 0.09888866 -0.082531266 0.015606477 0.062844925 -0.121065296 0.0965191 0.09239027
0.10394585 0.18005061 -0.0298711 0.09230782 -0.051227953 0.058789168 0.08527365 0.06165382
0.081515916 0.120236546 0.045826454 -0.007819191 -0.08040707 0.11151714 -0.110588446 -0.04244483
0.050436456 0.07987231 0.0016195944 -0.030787662 -0.09958957 0.08747747 0.15971442 0.10498297
0.09443593 -0.07716183 0.12273247 0.00676305 0.07756702 0.08216546 -0.04990591 -0.10383176
-0.13611679 0.12594688 0.17114125 0.23509735 0.18422197 0.1392948 0.0727691 -0.10382767
0.12580352 0.01650179 -0.018700188 0.17169061 -0.009308144 -0.04265745 0.17770799 0.052565265
0.0025604598 -0.05241373 -0.025192583 0.23173031 0.026844397 0.046411004 -0.09311678 -0.09689837
0.1749563 0.07111995 0.06927509 -0.06022579 0.105963275 0.012628285 0.03365837 0.11484727
0.127999 0.10576709 -0.0019551495 0.16161543 0.05764994 0.048556753 0.15834065 0.12937249
-0.10293333 -0.16500394 -0.06653652 0.12133202 0.085586056 0.030948063 -0.009223353 -0.06686834
-0.0694189 0.06105596 0.08647773 0.013832916 0.017514233 -0.06649357 -0.108942635 -0.07502712
0.09640323 0.08851094 0.007943252 0.06279892 -0.13181286 -0.096999094 -0.09987208 0.09444642
-0.07584968 0.06808334 0.032148298 0.051063135 -0.08878259 0.007506579 0.013576841 0.024319338
0.09547433 0.027913274 0.19910876 -0.037310485 -0.045349088 0.019596592 -0.046684995 -0.10301221
0.012166459 -0.085593574 0.116830885 0.1247871 -0.080121525 -0.025825275 0.07436509 -0.12487399
-0.01867098 -0.0404201 -0.048494067 0.029068178 0.09680105 -0.081768356 0.006762145 0.061447382
-0.03803813 0.10527505 0.06623889 0.12411599 0.04612706 0.100361764 0.06640618 -0.051653184
-0.024580508 -0.1042686 0.049446214 0.10274862 0.09387392 -0.042850714 0.12427269 0.046376754
0.060084898 -0.031806305 0.08216573 0.04478181 -0.054995123 -0.1250058 -0.039424542 0.0041688285
-0.0025806047 -0.08183486 0.16746916 0.075300135 0.06423535 0.08719449 0.048326466 -0.02843426
0.0139032565 0.08133278 0.0808941 0.2050046 0.22002617 0.029887961 -0.068915926 -0.105806224
-0.051799987 0.08131966 0.02787103 0.1301006 -0.23516297 -0.03304931 0.012807549 0.15617786
-0.079049364 0.05659698 0.05712186 0.18004501 0.15201017 0.09561857 -0.031873625 0.052330233
-0.05338783 0.040899634 -0.042316318 -0.06466033 0.055800814 0.13370712 -0.00962646 0.072340064
0.060532995 -0.1634415 -0.08316104 0.11022402 0.021811016 -0.113853894 -0.008766697 0.25425902
-0.009674409 -0.1959734 -0.15225558 -0.09326902 0.14909916 -0.08583384 0.026232239 0.11607919
0.11909464 0.0005850792 0.052047085 0.07443913 -0.059026383 0.04883316 -0.057909187 0.113941476
-0.053602867 0.04739162 0.021712592 -0.02833914 -0.023235092 0.03831213 0.07422354 0.1264516
0.13116693 0.053710073 0.038877 0.00713808 0.08819704 0.05895938 0.05776641 0.04492739
0.0495647 -0.02661562 0.1630882 -0.027734779 -0.043037474 -0.0015669921 0.13277169 -0.022584146
-0.049793985 -0.064302005 -0.036357168 0.033329368 -0.12154552 0.10427051 -0.10502604 -0.15671286
00000000: 1da7 ee3d 2386 ca3d 2706 a9bd 4fb2 7f3c
00000010: d7b4 803d 15f1 f7bd ceab c53d 1c37 bd3d
00000020: 90e1 d43d 305f 383e 3db4 f4bc e20b bd3d
00000030: 67d4 51bd e9cc 703d f4a3 ae3d b788 7c3d
00000040: d1f1 a63d 943e f63d 85b4 3b3d 101c 00bc
00000050: 76ac a4bd 1963 e43d 327c e2bd a1da 2dbd
00000060: 7596 4e3d 1894 a33d 9248 d43a 6836 fcbc
00000070: 9ef5 cbbd 6327 b33d 2d8c 233e 5001 d73d
00000080: a067 c13d 0607 9ebd 295b fb3d 939c dd3b
00000090: 75db 9e3d 5d46 a83d 246a 4cbd bfa5 d4bd
000000a0: 3362 0bbe 38f8 003e a73f 2f3e 5cbd 703e
000000b0: afa4 3c3e 4ca3 0e3e f707 953d 9aa3 d4bd
000000c0: a3d2 003e c32e 873c 2331 99bc aacf 2f3e
000000d0: 3081 18bc 94b9 2ebd 15f9 353e ad4e 573d
000000e0: 63cd 273b c8af 56bd ad60 cebc b64a 6d3e
000000f0: c8e8 db3c 7719 3e3d 03b4 bebd a772 c6bd
00000100: bf27 333e 56a7 913d 19e0 8d3d 51af 76bd
00000110: 4603 d93d dee6 4e3c 5cdd 093d 0c35 eb3d
00000120: 2b12 033e 6b9c d83d f721 00bb 847e 253e
00000130: 5822 6c3d 72e3 463d 0d24 223e 397a 043e
00000140: b6ce d2bd cbf6 28be 4d44 88bd ec7c f83d
00000150: be47 af3d cb86 fd3c 8c1d 17bc 45f2 88bd
00000160: 7f2b 8ebd d015 7a3d 3c1b b13d 74a3 623c
00000170: 027a 8f3c c82d 88bd 511d dfbd d2a7 99bd
00000180: 0f6f c53d 3945 b53d 6a24 023c b89c 803d
00000190: f3f9 06be 76a7 c6bd bc89 ccbd 206d c13d
000001a0: 1457 9bbd 476f 8b3d efad 033d 9427 513d
000001b0: a6d3 b5bd c0f9 f53b 6671 5e3c 5939 c73c
000001c0: 0c88 c33d 61aa e43c 2be3 4b3e e1d2 18bd
000001d0: f7bf 39bd 0889 a03c c438 3fbd 11f8 d2bd
000001e0: d455 473c af4b afbd 0845 ef3d 6190 ff3d
000001f0: c116 a4bd 878f d3bc b94c 983d efbd ffbd
00000200: e2f3 98bc 8c8f 25bd b7a1 46bd 6320 ee3c
00000210: a13f c63d 2b76 a7bd fc94 dd3b 40b0 7b3d
00000220: dfcd 1bbd 729a d73d 41a8 873d 8630 fe3d
00000230: baef 3c3d 788a cd3d f7ff 873d 4a92 53bd
00000240: 105d c9bc c78a d5bd 1d88 4a3d de6d d23d
00000250: f840 c03d 3b84 2fbd ae82 fe3d 8df5 3d3d
00000260: 951b 763d 5447 02bd 8246 a83d 226d 373d
00000270: 9142 61bd 8501 00be a17b 21bd ab9a 883b
00000280: 5d1f 29bb 0999 a7bd 097d 2b3e f536 9a3d
00000290: d38d 833d 0693 b23d f9f1 453d f7ee e8bc
000002a0: 7cca 633c cd91 a63d ceab a53d baec 513e
000002b0: 8a4e 613e 99d7 f43c cb23 8dbd efb0 d8bd
000002c0: 392c 54bd ec8a a63d c951 e43c 1739 053e
000002d0: 90ce 70be b75e 07bd c1d6 513c 17ed 1f3e
000002e0: a2e4 a1bd 3cd2 673d 9df8 693d b85d 383e
000002f0: 8ea8 1b3e abd3 c33d eb8d 02bd 3a58 563d
00000300: 32ad 5abd 6086 273d e053 2dbd a36c 84bd
00000310: 658f 643d 85ea 083e 4db8 1dbc 0727 943d
00000320: 72f1 773d 355d 27be 5650 aabd 22bd e13d
00000330: 04ad b23c 3b2c e9bd 31a2 0fbc 3d2e 823e
00000340: 6a81 1ebc 40ad 48be e3e8 1bbe d403 bfbd
00000350: 73ad 183e a7c9 afbd fee4 d63c edba ed3d
00000360: e4e7 f33d 0060 193a 532f 553d 8b73 983d
00000370: a6c5 71bd 4805 483d 2f32 6dbd 265a e93d
00000380: ae8e 5bbd b71d 423d 9bde b13c 7c27 e8bc
00000390: 8557 bebc 2eed 1c3d 8302 983d 877c 013e
000003a0: a050 063e 18ff 5b3d 7d3d 1f3d 8ee6 e93b
000003b0: a6a0 b43d 647f 713d 799c 6c3d c805 383d
000003c0: 5b04 4b3d 0009 dabc 9800 273e 0c34 e3bc
000003d0: 1048 30bd 8863 cdba 4df5 073e 6302 b9bc
000003e0: c7f4 4bbd c5b0 83bd 41eb 14bd 6084 083d
000003f0: dcec f8bd c78b d53d e417 d7bd 5679 20be

fc2.bias f4 [64]
0.1148153 0.107461855 0.11017908 -0.040662915 0.1512591 0.0919561 0.39393374 0.143424
-0.024717644 -0.06851052 -0.031493977 0.3301968 0.019939974 -0.086233936 -0.043528482 0.19608416
-0.1658788 0.11291562 0.2284151 -0.1745748 -0.05268949 0.117318496 -0.00054109475 -0.05865482
-0.0415292 0.1835102 -0.09616125 0.08537371 0.07618389 0.102221385 0.17236882 0.029231716
-0.22651805 -0.033673875 0.32455298 0.07228629 -0.055954978 0.34574357 -0.06447383 0.3154395
0.0810497 0.09499016 -0.060365133 -0.02319938 0.108813204 -0.012529707 0.09396706 -0.06493944
0.06820477 0.2221661 0.06517901 0.03714312 -0.08442489 0.08568458 -0.043496385 0.28113773
0.00578476 0.0019815348 -0.1857485 0.14259991 0.18807986 0.082736015 -0.015673697 -0.06132017
00000000: 4924 eb3d f614 dc3d 92a5 e13d 288e 26bd
00000010: aae3 1a3e 7b53 bc3d afb1 c93e bedd 123e
00000020: a87c cabc 3e4f 8cbd d4ff 00bd 8e0f a93e
00000030: 2859 a33c 6b9b b0bd ec4a 32bd 49ca 483e
00000040: 22dc 29be 4e40 e73d a6e5 693e bdc3 32be
00000050: efd0 57bd ae44 f03d 41d8 0dba 0940 70bd
00000060: 861a 2abd 19ea 3b3e 30f0 c4bd 69d8 ae3d
00000070: 4d06 9c3d 7259 d13d 7481 303e 5a77 ef3c
00000080: 59f4 67be 9eed 09bd cf2b a63e d60a 943d
00000090: 0c31 65bd 4d05 b13e db0a 84bd 4981 a13e
000000a0: 63fd a53d 338a c23d 6e41 77bd a00c bebc
000000b0: 75d9 de3d 6649 4dbc cd71 c03d f8fe 84bd
000000c0: f1ae 8b3d 837f 633e 937c 853d 6223 183d
000000d0: f5e6 acbd 667b af3d 4429 32bd 49f1 8f3e
000000e0: 168e bd3b a3dc 013b db34 3ebe b605 123e
000000f0: 0298 403e 8071 a93d 2066 80bc dc2a 7bbd

fc3.weight f4 [2, 64]
-0.07509385 0.009256327 -0.15344647 0.04226037 -0.029041871 -0.050407037 -0.043212682 -0.12584478
-0.11329718 -0.02291829 -0.031163394 -0.1631028 -0.04500527 0.046312336 0.1318669 -0.23785631
-0.06423196 -0.035545222 -0.13759607 0.08172127 0.12326378 -0.10319113 -0.040311836 -0.1175229
-0.0108539965 0.0018682166 0.045639247 -0.032475438 0.015250438 0.11215086 -0.23705119 -0.17679863
0.1267954 0.100660615 -0.08091335 0.05998067 -0.0527272 -0.22104539 -0.089833565 -0.27532345
-0.07951044 0.06188661 0.09827822 -0.0665724 0.026958283 0.0015159104 0.12423825 0.010275572
0.050234545 -0.12764978 0.019631082 0.05440341 -0.100788645 -0.050330475 0.10833653 -0.19738492
0.10586012 0.04539275 -0.09204677 0.064622104 0.07692267 -0.080830246 0.05287722 0.07543725
0.101966515 0.041031398 0.056580108 0.01593942 -0.047448777 -0.16273819 0.010377802 -0.10944856
0.045339003 0.06428057 0.083883196 0.112957016 0.029944276 0.046238113 0.074933626 0.111531734
-0.086807705 0.03210241 -0.0683868 -0.019330325 0.033587415 -0.13090326 -0.05725003 0.038501408
-0.08251452 0.08697726 -0.10514712 0.015950494 -0.115580045 -0.16068208 -0.07445484 0.22237638
-0.08919664 -0.085267164 0.12423396 0.022870056 0.10742156 -0.031729892 -0.1421632 -0.020796487
-0.15576755 0.042030867 -0.01639864 0.12108807 0.057216275 0.022659015 0.09349676 -0.024160586
0.10837564 0.053112626 -0.05814309 -0.13958785 -0.1716367 0.116583705 0.09281714 -0.042521816
0.14504628 -0.09206173 -0.18732527 0.12107206 0.12041032 -0.08339441 0.11518636 -0.096164055
00000000: ceca 99bd d9a7 173c 1221 1dbe 3619 2d3d
00000010: 38e9 edbc 9c77 4ebd c8ff 30bd 74dd 00be
00000020: 5a08 e8bd 23bf bbbc 604a ffbc 6c04 27be
00000030: 7257 38bd 01b2 3d3d 1e08 073e 9b90 73be
00000040: 0c8c 83bd de97 11bd fce5 0cbe 7b5d a73d
00000050: b871 fc3d df55 d3bd 061e 25bd d9af f0bd
00000060: f6d4 31bc f2de f43a 38f0 3a3d f704 05bd
00000070: f9dc 793c 5aaf e53d 8cbd 72be b30a 35be
00000080: a7d6 013e 2727 ce3d e6b5 a5bd 4bae 753d
00000090: 7af8 57bd b959 62be a9fa b7bd 32f7 8cbe
000000a0: 5fd6 a2bd d07c 7d3d 1746 c93d 1c57 88bd
000000b0: 9ed7 dc3c 83b1 c63a a070 fe3d df5a 283c
000000c0: bdc2 4d3d a0b6 02be 5dd1 a03c 1cd6 5e3d
000000d0: 476a cebd 5427 4ebd 8bdf dd3d 461f 4abe
000000e0: 31cd d83d c0ed 393d 0483 bcbd 9858 843d
000000f0: a289 9d3d 548a a5bd c995 583d d87e 9a3d
00000100: d2d3 d03d 8a10 283d 8bc0 673d 6393 823c
00000110: a659 42bd d7a4 26be a807 2a3c 9126 e0bd
00000120: 64b5 393d 88a5 833d f4ca ab3d 0256 e73d
00000130: b34d f53c 2d64 3d3d cd76 993d c06a e43d
00000140: 3dc8 b1bd d17d 033d 610e 8cbd a15a 9ebc
00000150: f592 093d 810b 06be 027f 6abd a7b3 1d3d
00000160: 5ffd a8bd 2221 b23d 6057 d7bd 9caa 823c
00000170: 3bb5 ecbd d889 24be c77b 98bd a2b6 633e
00000180: baac b6bd 8da0 aebd 606e fe3d fc59 bb3c
00000190: d6ff db3d 34f7 01bd 3b93 11be 655d aabc
000001a0: 8781 1fbe 8f28 2c3d 7156 86bc 06fd f73d
000001b0: 9d5b 6a3d 669f b93c 3b7b bf3d 6cec c5bc
000001c0: 0cf4 dd3d a08c 593d 7327 6ebd 1ef0 0ebe
000001d0: 88c1 2fbe 70c3 ee3d ea16 be3d 5b2b 2ebd
000001e0: 0387 143e dc8a bcbd 32d2 3fbe a1f4 f73d
000001f0: b099 f63d b0ca aabd d4e6 eb3d a9f1 c4bd

fc3.bias f4 [2]
-0.095390685 0.16168073
00000000: 315c c3bd a28f 253e
