sat-code/models/maddpg_20250712-135635/checkpoint_200/critic_agent_0.pth (torch, 24873 bytes, 5 tensors)

fc1.weight f4 [64, 18]
0	0xbdca7244	-0.09885076
1	0x3cfa6d7d	0.030569786
2	0xbe3f1b3b	-0.18662731
3	0xbcfa15a2	-0.030527893
4	0x3d2e6e1b	0.042585474
5	0xbebfd861	-0.37469772
6	0xbe550a47	-0.20804702
7	0xbeb4823b	-0.35255608
8	0x3df5967e	0.11991595
9	0x3e5543b1	0.20826603
10	0xbe9b0935	-0.30280462
11	0x3e92b1bf	0.28651235
12	0xbdb838f9	-0.08995242
13	0xbe0d7dce	-0.13817522
14	0xbeb1326b	-0.34608778
15	0xbf3b1aaa	-0.7308756
16	0xbde03dfe	-0.10949324
17	0x3e713d61	0.2355857
18	0x3d8b8d3d	0.068140484
19	0x3e34ef4d	0.17669411
20	0x3e8eb372	0.2787128
21	0x3e358b63	0.17728953
22	0x3c4069b9	0.011743956
23	0x3e457771	0.19283845
24	0x3e0ac8ce	0.13553163
25	0x3e6ba2f5	0.23011382
26	0xbe6524b5	-0.22377284
27	0xbe443bd1	-0.19163443
28	0xbea9489a	-0.33063203
29	0x3e753462	0.23945764
30	0x3d96a1d8	0.07355088
31	0xbe6b358f	-0.2296965
32	0xbe240fff	-0.16021727
33	0x3e6a219a	0.2286438
34	0xbe377037	-0.179139
35	0x3e96ced0	0.2945466
36	0x3dfce73e	0.123487934
37	0xbc53ea05	-0.012934213
38	0x3e38a373	0.18031101
39	0xbe84418b	-0.25831255
40	0xbd13416d	-0.035951067
41	0x3e482f6f	0.19549344
42	0x3e13a4c7	0.14418326
43	0xbe82d576	-0.25553483
44	0x3dd7d272	0.10538186
45	0xbbf289f6	-0.0074017
46	0x3ef04e5b	0.4693478
47	0xbe59d912	-0.21274212
48	0x3e8a4b1a	0.27010423
49	0xbe8b1ccb	-0.27170405
50	0xbe50c9d5	-0.20389493
51	0x3d35a354	0.044345215
52	0x3ede3afe	0.43404382
53	0xbf11d7d6	-0.56969965
54	0xbcba4b17	-0.022740884
55	0xbce61adc	-0.02808898
56	0xbf600411	-0.87506205
57	0x3f1db69e	0.61606777
58	0xbe99124c	-0.29896772
59	0xbcf598b0	-0.029980034
60	0xbef9db62	-0.48800188
61	0x3ecc94e2	0.3995734
62	0xbe40e230	-0.18836284
63	0x3d171720	0.036887288
64	0x3e119979	0.14218701
65	0x3f9a6c2f	1.2064265
66	0xbf76d429	-0.9641748
67	0x3f65d5d9	0.8977943
68	0xbe516b68	-0.20451128
69	0x3e010900	0.1260109
70	0x3ea655e5	0.32487407
71	0x3f8d4e7c	1.1039577
72	0x3db1c835	0.086807646
73	0x3e324df6	0.17412552
74	0x3e9688ed	0.2940134
75	0x3e1e875f	0.15481327
76	0xbdd642e0	-0.10461974
77	0xbd9ea7b0	-0.077468276
78	0xbe1c0f96	-0.1524032
79	0x3d9beb93	0.076132916
80	0xbee57b79	-0.44820765
81	0x3c2f43c2	0.010697307
82	0xbf2beb43	-0.67155856
83	0x3e4cc4ca	0.19996944
84	0x3edaa283	0.42702112
85	0x3e5e0213	0.21680479
86	0xbec75d38	-0.38938308
87	0xbe28b4d6	-0.16475233
88	0xbdac63e6	-0.084174916
89	0x3e32ea25	0.17472132
90	0xbe89c970	-0.26911497
91	0x3da57703	0.0807934
92	0x3a459fdf	0.0007538776
93	0x3e25003a	0.16113368
94	0xbe910c3c	-0.28329647
95	0x3a667fa1	0.0008792822
96	0xbe16bf5c	-0.14721435
97	0x3dae303f	0.08505296
98	0xbe4ec261	-0.20191337
99	0xbe7364af	-0.23768876
100	0x3d16bf67	0.03680363
101	0x3e07776b	0.13229148
102	0x3e591fd4	0.21203548
103	0x3e011d84	0.12608916
104	0x3cb60fe3	0.022224372
105	0x3e018146	0.1264697
106	0xbe1aada7	-0.15105306
107	0xbe2b5cd9	-0.16734637
108	0x3e13f817	0.14450108
109	0xbd0579b7	-0.03258678
110	0xbdb9476d	-0.090468265
111	0xbe83602e	-0.25659317
112	0xbe45c718	-0.1931423
113	0xbdfe0c49	-0.12404687
114	0xbed83612	-0.42228752
115	0xbd9f95bb	-0.07792231
116	0xbd489cec	-0.048977777
117	0xbed4b6f5	-0.41545835
118	0xbe68f1d3	-0.22748499
119	0xbe66319b	-0.2247986
120	0xbd8a4930	-0.06752241
121	0xbd6619e5	-0.05617704
122	0x3d5c3f1c	0.053771123
123	0x3e947baf	0.29000613
124	0xbefaea7d	-0.49007025
125	0xbea63e67	-0.32469484
126	0x3dd34332	0.10315551
127	0xbc9231cd	-0.017846012
128	0x3e65b830	0.22433543
129	0x3e4acd0a	0.19804779
130	0xbe3bcf84	-0.1834088
131	0xbea7ff9f	-0.3281221
132	0xbd8272e4	-0.0636957
133	0xbb9b6dd6	-0.004743318
134	0xbf078d02	-0.52949536
135	0x3dd96f2e	0.10616909
136	0xbeac747d	-0.33682624
137	0xbda29246	-0.07938056
138	0x3f40b86b	0.752814
139	0x3e9cd047	0.30627653
140	0xbeb11c28	-0.34591794
141	0xbef9d946	-0.4879858
142	0xbeaaba82	-0.3334542
143	0xbdd44f51	-0.10366691
144	0xbe16fea0	-0.14745569
145	0x3cd34f89	0.025794761
146	0x3f1df7ca	0.6170622
147	0xbf024856	-0.50891626
148	0x3de3eca2	0.111291185
149	0xbd15c90c	-0.036568686
150	0xbeae4716	-0.3403861
151	0x3cfdfd62	0.031004611
152	0xbe334e63	-0.17510371
153	0xbe984248	-0.2973807
154	0x3e7aa1e4	0.24475819
155	0xbd435008	-0.047683746
156	0xbc26b46d	-0.010174853
157	0xbf0f6ee0	-0.56028557
158	0x3e0b09c3	0.13577943
159	0xbf0faaa4	-0.5611975
160	0xbd368b67	-0.04456654
161	0x3ec37740	0.38176918
162	0xbdce863f	-0.10084199
163	0xbc99f7ab	-0.018794855
164	0xbedfbf19	-0.43700483
165	0x3e0252f6	0.1272696
166	0x3e0ceefa	0.13763037
167	0xbc9f1368	-0.019418433
168	0x3ebbb5a7	0.36662027
169	0xbd90ad70	-0.070643306
170	0x3b31b3db	0.002711526
171	0x3db08d64	0.08620718
172	0xbeca8ee5	-0.39562145
173	0xbe68cb04	-0.22733694
174	0xbef2a09b	-0.47388157
175	0x3f08fcdf	0.5351085
176	0x3f5c9415	0.86163455
177	0xbde94e4f	-0.11391889
178	0xbf4264fb	-0.75935334
179	0xbdf6095e	-0.120135054
180	0xbf179081	-0.5920487
181	0xbe8dc2c0	-0.27687645
182	0x3dc78e2d	0.09743915
183	0x3f809944	1.0046773
184	0xbeb8ed54	-0.36118567
185	0xbce68774	-0.028140761
186	0xbca594db	-0.020212581
187	0xbf07c97a	-0.53041804
188	0x3cb39c72	0.021925185
189	0x3e4d5e97	0.20055614
190	0x3e61a1fa	0.22034445
191	0x3fc73879	1.5564109
192	0xbe4245f8	-0.18972003
193	0x3f5b92e4	0.8577101
194	0xbeea9a16	-0.45820683
195	0xbe831795	-0.2560393
196	0x3eadb014	0.339234
197	0x3fb51025	1.4145552
198	0x3dbecc94	0.09316364
199	0xbd64066c	-0.055670187
200	0xbf2bb58c	-0.67073894
201	0xbee45479	-0.44595698
202	0xbe1ead3e	-0.15495774
203	0x3d83446b	0.06409534
204	0x3dabe5f3	0.08393469
205	0xbdddd431	-0.10831488
206	0x3e1e8502	0.15480426
207	0x3dbe4ab0	0.09291589
208	0x3f077b78	0.52922773
209	0x3e9a6a91	0.3015943
210	0xbfa38e62	-1.2777827
211	0xbf203d7b	-0.6259381
212	0x3e5ebf02	0.21752551
213	0xbeb9e859	-0.3631008
214	0x3ebe5d8a	0.3718074
215	0x3ebf9867	0.3742096
216	0xbdf2b573	-0.11851015
217	0xbecdb4ef	-0.40177104
218	0xbdf810b3	-0.1211256
219	0xbe40a8f7	-0.18814455
220	0xbe2f659f	-0.17128609
221	0xbd8f7880	-0.070054054
222	0xbe867391	-0.26260045
223	0x3e072a44	0.13199717
224	0xbe14a54b	-0.1451618
225	0x3dfcfe83	0.12353232
226	0x3e963f52	0.29345185
227	0x3eb79606	0.35856646
228	0xbeabcfe6	-0.3355705
229	0x3e5f2cbe	0.21794412
230	0xbeb40597	-0.35160515
231	0x3e1e0522	0.15431646
232	0xbe141752	-0.14462021
233	0x3e631dc0	0.22179317
234	0xbe8feb4d	-0.28109208
235	0x3e2ca58b	0.16860025
236	0xbeba62a1	-0.36403373
237	0xbf297c5b	-0.66205376
238	0xbe4031c1	-0.1876898
239	0x3d733593	0.059377264
240	0x3e4afedb	0.19823782
241	0x3dfa4a57	0.122212104
242	0xbd1d4c51	-0.03840286
243	0x3bd2d5af	0.0064341645
244	0xbe678e53	-0.22612886
245	0x3d708ef5	0.058730084
246	0xbeb5359f	-0.35392472
247	0xbe1c6e17	-0.15276371
248	0x3f01040f	0.5039682
249	0x3e4acaa0	0.19803858
250	0xbd28af81	-0.041183
251	0xbe415bb7	-0.18882643
252	0x3c2807aa	0.0102557335
253	0xbd93c51d	-0.07215331
254	0xbdd6088b	-0.10450848
255	0x3ed78703	0.42095193

fc1.bias f4 [64]
0	0x3e21221d	0.1573567
1	0x3eb7c1e4	0.35890114
2	0x3f0ea862	0.5572568
3	0xbe34d1bc	-0.17658132
4	0x3e7917bf	0.24325465
5	0x3da56c93	0.080773495
6	0xbd89de9b	-0.06731912
7	0x3c4ffde0	0.012694806
8	0x3e711bff	0.23545836
9	0xbdaebad5	-0.08531729
10	0x3e3652fc	0.17805094
11	0xbe9118ea	-0.2833932
12	0x3caee830	0.02135095
13	0x3eb781e6	0.35841292
14	0xbdebef91	-0.11520303
15	0xbec5f6d0	-0.38664865
16	0x3ea122ca	0.31471854
17	0x3e39ea91	0.18155886
18	0x3f2195fc	0.63119483
19	0xbdff3e54	-0.1246306
20	0x3edcc41d	0.43118373
21	0x3ef8a919	0.4856651
22	0x3e2ffed5	0.17187054
23	0x3ea89f7b	0.32934174
24	0x3e467edd	0.19384332
25	0x3ce29417	0.027658505
26	0x3e4cbd18	0.19994009
27	0xbd276bbd	-0.04087423
28	0x3e2e5fe9	0.17028774
29	0x3f1d55d3	0.6145908
30	0x3ec6a07c	0.38794315
31	0xbef0b13c	-0.4701022
32	0xbc890059	-0.016723799
33	0xbbffbe1a	-0.0078046443
34	0xbe31b591	-0.17354418
35	0x3e0c403f	0.13696383
36	0x3f0c47d8	0.54797125
37	0xbe3b44f9	-0.1828803
38	0x3f50886a	0.8145815
39	0xbe162e0a	-0.14666
40	0xbe9ef501	-0.31046298
41	0x3f113808	0.5672612
42	0xbd858f83	-0.06521513
43	0x3ecb4991	0.39704564
44	0x3e7cf411	0.24702479
45	0x3d997f15	0.07494942
46	0x3dbcfe96	0.09228246
47	0x3eb19371	0.346828
48	0xbe60d84a	-0.21957508
49	0x3dd0ee1e	0.10201667
50	0xbd90e1e7	-0.070743375
51	0xbe30bf29	-0.17260422
52	0xbe6854a3	-0.22688536
53	0x3d947aab	0.072499596
54	0xbe1b8552	-0.15187576
55	0xbe439281	-0.19098856
56	0x3e1987c4	0.14993197
57	0xbea8b61f	-0.32951447
58	0xbea709cb	-0.3262466
59	0x3e767e73	0.24071674
60	0xbec44e26	-0.38340873
61	0xbf0dabfb	-0.55340546
62	0xbde7a6aa	-0.113110855
63	0xbe32e41a	-0.17469826

fc2.weight f4 [64, 64]
0	0xbd81cef5	-0.06338302
1	0x3d47c33f	0.048770186
2	0x3cc05a1f	0.023480473
3	0x3d81ce87	0.0633822
4	0xbef34bc7	-0.4751875
5	0x3d35a040	0.04434228
6	0xbdd92eac	-0.10604605
7	0xbed5c59c	-0.41752326
8	0xbe36a92e	-0.17837974
9	0xbed4ebee	-0.4158625
10	0x3d8cf7dc	0.06883213
11	0xbed15180	-0.40882492
12	0xbd4c3814	-0.049858168
13	0xbe9bdc21	-0.30441383
14	0x3d22324d	0.03959875
15	0xbd97ff8a	-0.07421787
16	0xbe52a156	-0.20569357
17	0xbeb7b380	-0.35879135
18	0xbcc81e5a	-0.024428535
19	0x3ea83abd	0.32857314
20	0x3b84a5b0	0.004048072
21	0xbe945a89	-0.28975323
22	0x3db30c17	0.0874254
23	0xbeb56b53	-0.35433444
24	0x3cfef365	0.031121919
25	0xbde517fa	-0.11186214
26	0x3ba61fdc	0.005069716
27	0xbe92e340	-0.28689003
28	0x3dbc087f	0.09181308
29	0xbf02419f	-0.5088138
30	0xbe8420c0	-0.25806236
31	0x3e4af276	0.19819054
32	0x3d54144c	0.05177717
33	0x3dce1658	0.100628555
34	0x3dad3d64	0.08458975
35	0x3d09cba8	0.033641487
36	0x3e0b2df5	0.1359175
37	0xbe850159	-0.2597759
38	0xbe80bf1d	-0.25145808
39	0x3bd37880	0.0064535737
40	0x3e1b5eca	0.15172878
41	0xbd834bd8	-0.064109504
42	0x3db9ad8e	0.09066306
43	0xbe8321ef	-0.25611827
44	0x3e0302d9	0.12794055
45	0xbde79bde	-0.11309026
46	0xbe12c99d	-0.14334722
47	0x3e6e0d89	0.23247351
48	0xbec0a704	-0.37627423
49	0xbecc1b1f	-0.39864442
50	0x3da7e980	0.081988335
51	0xbe807786	-0.2509119
52	0x3de8f428	0.11374694
53	0x3d67fd38	0.056637973
54	0xbd6e931a	-0.058245756
55	0x3ddd4780	0.10804653
56	0x3e0994b5	0.13435633
57	0x3e5fb224	0.21845299
58	0x3d0dc414	0.034610823
59	0x3dada75e	0.084791884
60	0x3e10be98	0.14135206
61	0x3ea4be02	0.32176214
62	0x3eeaa078	0.45825553
63	0xbe8cf100	-0.27527618
64	0x3e6d5b01	0.23179246
65	0xbcc4dc20	-0.024030745
66	0x3d096b1f	0.033549424
67	0xbea5166e	-0.32243675
68	0x3e8d987c	0.276554
69	0xbdd58bc3	-0.10427048
70	0x3e28f65f	0.16500233
71	0x3eccfb29	0.4003537
72	0x3de591c5	0.11209444
73	0xbccff7e8	-0.025386766
74	0xbdb0b45c	-0.08628151
75	0xbe52652a	-0.20546404
76	0x3a040661	0.0005036351
77	0x3c69a03f	0.014259397
78	0xbd906bea	-0.07051833
79	0xbc7fdc4a	-0.015616486
80	0x3e65d4d8	0.22444475
81	0xbde058d3	-0.10954442
82	0x3e0f3d12	0.1398814
83	0xbecb5ffd	-0.3972167
84	0x3e21eaa2	0.15812162
85	0x3d8b4b6f	0.06801497
86	0xbb899055	-0.004198114
87	0x3d827de6	0.063716695
88	0xbda42658	-0.08015126
89	0xbc56c1b9	-0.0131077105
90	0x3e01c41b	0.12672465
91	0x3cf84230	0.030304998
92	0xbe8920f3	-0.2678295
93	0xbda4dbdb	-0.080497466
94	0x3dcc2d0b	0.09969529
95	0xbeb6f341	-0.35732463
96	0x3ddf2d69	0.10897333
97	0xbe23cff4	-0.15997297
98	0x3e4b6937	0.19864355
99	0xbe50e71f	-0.20400666
100	0xbc461739	-0.012090498
101	0xbee20960	-0.44147778
102	0x3d0950a3	0.033524167
103	0xbdf53df6	-0.11974709
104	0x3efd3997	0.49458
105	0xbd26078a	-0.040534534
106	0x3e297504	0.16548544
107	0x3d7775e1	0.060415152
108	0x3ef02630	0.46904135
109	0x3ded7c37	0.11595958
110	0x3f07497d	0.5284651
111	0xbcddf3eb	-0.027093848
112	0xbd6fc93d	-0.058541525
113	0xbd37eb8c	-0.04490237
114	0x3e1b01dc	0.15137428
115	0x3ddaab30	0.10677183
116	0x3c803bd5	0.01565353
117	0x3c47ee47	0.012202806
118	0x3a09f861	0.00052631466
119	0x3d1d768a	0.038443126
120	0xbdc6e5bf	-0.09711789
121	0x3bc20d56	0.005922
122	0xbe1d2fd4	-0.15350276
123	0x3d878689	0.066174574
124	0xbe47a0e0	-0.19494963
125	0xbf742f57	-0.95384735
126	0x3ddda706	0.10822873
127	0xbe22ddf6	-0.15904984
128	0xbdfdcf4f	-0.123930566
129	0xbd00468d	-0.031317282
130	0xbe05f9e0	-0.13083601
131	0x3beb2937	0.007176544
132	0xbdc404e0	-0.09571242
133	0x3df8ae28	0.12142593
134	0xbde95aca	-0.1139427
135	0xbcd02697	-0.025409026
136	0x3da8c696	0.08241002
137	0xbcf26888	-0.02959086
138	0xbd8bd03e	-0.068268284
139	0x3dbf09a4	0.09328011
140	0x3c8c83f8	0.017152771
141	0xbda93af0	-0.082631946
142	0xbe0689cb	-0.13138501
143	0xbdeec452	-0.11658539
144	0xbdfdfaee	-0.12401377
145	0xbd70a121	-0.058747414
146	0xbd95d743	-0.073164485
147	0xbd844a25	-0.064594544
148	0xbccfbb24	-0.02535779
149	0xbe005733	-0.12533264
150	0xbd28d60f	-0.041219767
151	0x3c236830	0.009973571
152	0xbe1f5a45	-0.15561779
153	0xbd4baff5	-0.049728353
154	0xbd8b8c30	-0.06813848
155	0x3de13e90	0.10998261
156	0x3d5b4d35	0.053540427
157	0x3cead408	0.028665558
158	0xbc6d06b0	-0.014466926
159	0x3d5c2894	0.053749636
160	0xbde19686	-0.11015038
161	0x3d24c188	0.04022363
162	0xbd7db088	-0.06193593
163	0xbccaf18c	-0.024773382
164	0xbabe1b80	-0.0014504045
165	0x3c049971	0.008093224
166	0x3cd28a12	0.025700603
167	0xbd641614	-0.055685118
168	0x3d954231	0.07288016
169	0xbd9a6b90	-0.07540047
170	0xbd8c0d78	-0.068385065
171	0xbde19cc8	-0.11016232
172	0x3dab0bdb	0.083518706
173	0xbd62fae8	-0.055415064
174	0xbe1e098a	-0.15433326
175	0x3d341e18	0.043974012
176	0xbda309f2	-0.07960881
177	0xbcaeb718	-0.02132754
178	0xbd7105b5	-0.058843333
179	0xbe0c05c0	-0.13674068
180	0xbdffe21a	-0.12494297
181	0xbc4aa9bf	-0.012369572
182	0xbdb55ca0	-0.088555574
183	0xbdc73ae2	-0.09728028
184	0x3d863e1a	0.06554814
185	0x3d51f7d9	0.051261757
186	0x3da1609e	0.078797564
187	0xbd4fb4d4	-0.05070956
188	0xbd58fdeb	-0.05297653
189	0xbdf52db4	-0.11971608
190	0x3d35c93c	0.044381365
191	0x3df59706	0.11991696
192	0x3d3346f7	0.04376885
193	0x3d7da712	0.06192691
194	0x3d5f9b83	0.054591667
195	0xbde3ed09	-0.11129195
196	0x3e107e58	0.14110696
197	0x3dd3e567	0.103464894
198	0x3e8a25cc	0.26981962
199	0x3ecb473f	0.39702794
200	0x3e140d12	0.14458111
201	0xbc3e8305	-0.011627917
202	0x3ec54814	0.38531554
203	0x3bc4b050	0.0060024634
204	0xbd8a285a	-0.06745978
205	0x3e46fb90	0.19431901
206	0x3d9b1ec5	0.07574228
207	0x3bf35c8e	0.007426805
208	0xbd52ff9c	-0.0515133
209	0x3e091f0a	0.13390747
210	0xbd1ce574	-0.03830476
211	0xbe307130	-0.17230678
212	0x3d986fa7	0.07443171
213	0x3e3839ba	0.17990771
214	0x3e0206b4	0.1269787
215	0xbd24a96e	-0.040200643
216	0x3cfdca2b	0.03098019
217	0xbc7d862a	-0.015473882
218	0xbd57056f	-0.052495416
219	0xbc890211	-0.016724618
220	0x3d833860	0.06407237
221	0x3e4cb3a6	0.19990405
222	0x3cd34026	0.025787424
223	0xbc2dd9ce	-0.010611011
224	0x3db699f4	0.08916083
225	0x3dec7606	0.11545949
226	0x3d96801d	0.073486544
227	0x3c07defc	0.00829291
228	0x3e6bc43b	0.23024075
229	0x3d566116	0.052338682
230	0x3e3e618e	0.18591902
231	0xbde78907	-0.11305433
232	0xbe8b2a25	-0.2718059
233	0x3dff9c81	0.124810226
234	0x3e875503	0.26432046
235	0x3e503cbd	0.2033567
236	0x3e53e3f3	0.20692424
237	0x3d8ad239	0.06778378
238	0x3e22dce0	0.1590457
239	0x3e641dac	0.22276944
240	0x3d5ef310	0.05443102
241	0xbb6dce0c	-0.0036286144
242	0xbe88bbea	-0.26705867
243	0x3e20701e	0.1566777
244	0x3d36d7ff	0.044639584
245	0x3c424c19	0.011858963
246	0x3ec0c287	0.37648413
247	0xbd8ee028	-0.06976348
248	0xba88021e	-0.0010376608
249	0xbe1852a6	-0.14875278
250	0xbdcc4f95	-0.099761166
251	0x3d903922	0.07042147
252	0xbd8925aa	-0.06696637
253	0x3c8bb6a8	0.01705487
254	0x3c525948	0.012838669
255	0x3ca4e3cc	0.020128153

fc2.bias f4 [64]
0	0x3e52db52	0.20591477
1	0x3ebef778	0.3729818
2	0xbdc93003	-0.09823611
3	0x3f0ca528	0.5493951
4	0xbba21dba	-0.0049473913
5	0xbd15a7a1	-0.036536817
6	0xbd58b176	-0.052903615
7	0x3de3ff2e	0.11132656
8	0x3cff0896	0.031132024
9	0xbde420ea	-0.1113909
10	0x3d7e6d90	0.062116206
11	0xbcca70d6	-0.024712007
12	0x3ee7312e	0.4515471
13	0x3e3c97ed	0.1841733
14	0xbe3d1293	-0.18464117
15	0x3d4bc019	0.049743745
16	0x3d87b26c	0.06625828
17	0xbe33850e	-0.17531225
18	0x3f298416	0.6621717
19	0x3daff7ca	0.08592184
20	0xbc3b16c5	-0.011419003
21	0x3e6fa786	0.23403749
22	0x3ed665a9	0.41874436
23	0x3e94f867	0.29095766
24	0xbe72a5ac	-0.23696011
25	0x3c390e3a	0.011294896
26	0x3d58a7d4	0.05289443
27	0xbd930acd	-0.071797945
28	0xbd840e99	-0.06448097
29	0x3d827341	0.06369639
30	0xbdafed75	-0.08590213
31	0xbd8f1a2b	-0.06987413
32	0xbe7bbceb	-0.24583785
33	0xbe549c08	-0.20762646
34	0x3dcdb976	0.100451395
35	0x3ea1e9e7	0.31623766
36	0xbdf3230d	-0.1187192
37	0xbe0be451	-0.13661315
38	0xbb57a601	-0.0032905343
39	0x3cbca6ad	0.023028696
40	0xbe6ed6f5	-0.23324187
41	0x3e5ec930	0.21756434
42	0x3da01dd2	0.07818188
43	0xbd014b4d	-0.031565953
44	0x3eca6e62	0.3953734
45	0x39c447ae	0.0003743744
46	0xbe09e9b6	-0.1346806
47	0xbdd378af	-0.10325753
48	0xbdd084d4	-0.10181585
49	0xbe117062	-0.14203027
50	0xbe2148f2	-0.15750483
51	0x3e6bd694	0.23031074
52	0xbd09f7e0	-0.033683658
53	0xbdf4b309	-0.11948211
54	0xbe0f2796	-0.13979945
55	0xbe5c5f40	-0.2152071
56	0x3f298160	0.66213036
57	0x3e74d87d	0.23910709
58	0xbe42cfb0	-0.19024539
59	0xbe4861f7	-0.1956862
60	0x3d0e2d06	0.034710906
61	0x3db10e52	0.086453095
62	0xbeab55a2	-0.3346377
63	0xbd10c8b9	-0.035347674

fc3.weight f4 [1, 64]
0	0xbec6401e	-0.38720793
1	0xbc122f26	-0.008922374
2	0xbd7cff8d	-0.06176715
3	0xbda53460	-0.0806663
4	0xbe9190c6	-0.28430766
5	0xbeb2813d	-0.34864226
6	0xbc69ad6c	-0.014262538
7	0x38112d91	3.461313e-05
8	0x3d0c51ba	0.034257628
9	0xbddaacc2	-0.10677482
10	0xbbb73d47	-0.0055920216
11	0x3ca91bff	0.020643232
12	0xbaa38529	-0.0012475598
13	0xbd404ff0	-0.046951234
14	0x3d1ae841	0.03781915
15	0x3de1b6e3	0.11021211
16	0xbc8b6e0b	-0.017020246
17	0x3c354658	0.011064135
18	0xbddb4aca	-0.10707624
19	0x3da89f75	0.08233539
20	0x3dbc38a7	0.09190493
21	0xbe146d9b	-0.14494936
22	0xbd71769c	-0.058951005
23	0xbc35b499	-0.011090421
24	0x3e13052b	0.1435744
25	0xbca21f7b	-0.019790402
26	0x3dc4341d	0.09580252
27	0x3dccffc0	0.10009718
28	0x3d98d86c	0.07463154
29	0x3d8ee78c	0.06977758
30	0x3e43accd	0.19108887
31	0xbd5faa44	-0.054605737
32	0x3c1e5584	0.009663943
33	0x3e6b8754	0.23000842
34	0x3bc0eca7	0.005887586
35	0xbe518b92	-0.20463398
36	0x3d99a6a6	0.07502489
37	0x3c2561b5	0.010094096
38	0x3b28146c	0.0025646938
39	0x3c9fb4f6	0.019495469
40	0x3db14f8e	0.08657752
41	0xbeee8701	-0.46587375
42	0xbd892aa9	-0.0669759
43	0xbd0b5635	-0.03401776
44	0xbec43f5b	-0.38329586
45	0x3e843c67	0.25827333
46	0xbc6987cf	-0.014253571
47	0x3ddef7be	0.10887097
48	0xbc0711f3	-0.0082440255
49	0x3ca7a632	0.02046499
50	0x39abc113	0.00032759513
51	0xbec5ad07	-0.38608572
52	0x3e91a0ae	0.284429
53	0xbbba066e	-0.005677036
54	0xbb8fe6fb	-0.0043915487
55	0x3cd96318	0.02653651
56	0xbdbca076	-0.09210293
57	0xbc92cb19	-0.01791911
58	0xbd0166c1	-0.031592134
59	0xbc141289	-0.009037622
60	0xbd4a8029	-0.04943863
61	0xbd8eaddb	-0.06966754
62	0x3de47736	0.1115555
63	0x3a0542b2	0.0005083486
