sat-code/models/maddpg_20250712-135635/checkpoint_1100/critic_agent_2.pth (torch, 24873 bytes, 5 tensors)

fc1.weight f4 [64, 18]
00000000: 2665 e6bd d1aa afbd bc3c aebe 84aa 17be
00000010: 3f1a 5abe 700b dfbd ebd1 efbe f64a b03e
00000020: 0117 eebd 5930 a6bd 68b1 ed3e 4ed4 ca3e
00000030: e78b efbe 2051 bfbe 9a08 ddbe cfc2 933e
00000040: a5c9 fe3e 1aca f53e 9e12 b83e 2df3 39be
00000050: d198 ec3d e8c0 0cbf 8b16 303e ac76 703e
00000060: 654b d53e 0847 33bf eb2e 07be c8f6 953e
00000070: db11 47be 788c d23e 5248 713e b5e3 31bf
00000080: ebf1 d13e 7ab8 2cbf 3b68 16be a79c f53e
00000090: 157c 263d e53e cebe 5b92 db3f 5a51 81bd
000000a0: fbea 03bf 9210 4fbe 8ac0 f83e 56b4 90bd
000000b0: cf9b 84be fc8d 3ebf 6f69 333e a5b2 a3be
000000c0: 6c88 df3f e7da 72be e356 4c3f 7504 593e
000000d0: 3cea 443e 73bf e7be d2a7 af3e 1718 02bc
000000e0: 5198 43bf 6293 04c0 5459 0d3f 2fb3 823d
000000f0: aa62 3a3f fd8b 36bf 4d19 58be 980d 0d3e
00000100: 4f73 9fbe 0690 7abe c028 24bf 615a 04c0
00000110: 72f9 773f 80c5 52bf d619 ddbe 6a4a 3b3c
00000120: 68da 913d 171c 2c3e 37b6 90be d226 43bf
00000130: f814 203e 9e85 3dbe abe6 fa3e 2b08 a5be
00000140: 2029 e9be 099a 313e 0554 59bf 63dd 903e
00000150: 73ce 9fbe 8658 31bf 0c16 163f b851 f3bc
00000160: 1aa8 7dbf c386 903e 137e a33d ae6a 8f3e
00000170: 52a8 81bf c05d 1fbc 8d76 4f3e 55a4 593d
00000180: c3c7 0a3f 7a7d f6bd 9bdf 893d 3a9f c8bc
00000190: 9e66 21be f3fc 16be 6b14 66bf 84a5 993e
000001a0: 2cff 9e3e 8696 20be fe1e dd3d bbe6 c5bd
000001b0: 7e7d 823e 6e40 e53e ae6f 67bd ae6d 493e
000001c0: 73e3 b13e 0290 0abf 2b49 37be 1b9a 0dbe
000001d0: 6ce1 22bd 183e 9c3d 35a6 0c3e 1c3c c0be
000001e0: 6644 1dbe 684a a23e 725a 70be a183 0cbe
000001f0: 792b 033d 70da a1be 9343 cbbe d886 6bbd
00000200: e288 9b3d a7a6 233e cf0f 5fbe 1f5c 73be
00000210: acaf 74be eb70 99bd 6499 1d3c f0ce e2bd
00000220: 6c89 b33d 6769 933f f381 073f 92b2 e8bd
00000230: 2b32 bebb 5433 1bbf a681 c3bd 04e5 d33e
00000240: b8bf a43e de11 3c3d 24e1 fdbb 4136 3ebe
00000250: bfba 523e 78b0 303e a75c 123f 3c36 293f
00000260: e4c6 c83d f302 14be d19a b33e b5ac 0a3e
00000270: 728a 5dbd d59e 89bd e7e7 2d3f 179d 313f
00000280: 1fe0 7d3e 30fb 4a3d ec01 7ebe f0a2 2dbe
00000290: d24c 5b3d 8f08 cfbc 523a 8cbe b44c b4be
000002a0: 8f89 89be 5024 7cbe f3fa 9bbd 4cc6 45bd
000002b0: 49a1 b13d 11c8 783f e27e 50be 7ac5 39bf
000002c0: 9600 783d e927 9bbd b649 2abc 2128 a03f
000002d0: 47e6 3a3e d4c9 673e 74bb 613f e6ee 1a3f
000002e0: 9df8 fcbc 069b 24be 98f0 823e cb1b adbd
000002f0: 77f8 14be 6634 0e3e 2383 a5bf ef65 d43e
00000300: e7f3 923f b2c4 3f3f cfef 883e fe5a abbe
00000310: 77e2 a4bf 6506 3b3e 689f e63d bf5e c03d
00000320: 158f f1be 2d28 b73e 8a7b 063e 7996 a93d
00000330: 74bf 103e f3ec 9abf 61da 693e be4e 1e3e
00000340: da11 453e dec3 3cbe 01ae 85be 8f16 033f
00000350: 9789 4e3e 6a46 97bf 8d73 1e3f e90f 52be
00000360: 9dd6 7ebe 557e bc3d 7a67 0abe 6613 913e
00000370: 2cd8 90be b8a3 c0be 015a 72be 1f19 20bf
00000380: 9102 9ebf 41f7 f9bd 9562 9d3d 57d3 5fbe
00000390: 375d d33c 849c 093f e179 d5be 896e ddbe
000003a0: ae3d babe b041 10be 154a 0d3e 82e2 683e
000003b0: b496 f73d d198 1ebe b75d d2bd 5a4b 6dbd
000003c0: 22cd 92bf 2f20 b43e bdde 163e 3dc5 a13e
000003d0: e3a2 a53e 1752 59bc 9876 ba3d 578d 4fbd
000003e0: ec30 adbf 9ade 013e 87e0 993e 5d7c 2d3e
000003f0: b81b 2abe b227 1dbe 732f 5f3f 8da7 c43d
-0.11249761 -0.085775025 -0.34030712 -0.1481114 -0.21299075 -0.108908534 -0.46839842 0.3443219
-0.116254814 -0.0811469 0.46424413 0.396151 -0.46786425 -0.3736658 -0.43170625 0.28859565
0.49763218 0.48005754 0.35951704 -0.1815917 0.11552585 -0.5498185 0.171961 0.2348277
0.41659084 -0.7003026 -0.13201492 0.29289842 -0.19440405 0.41122794 0.23562744 -0.6948808
0.4100488 -0.6746899 -0.14688198 0.4797108 0.040645678 -0.4028236 1.7154039 -0.06314345
-0.51530427 -0.20221165 0.48584396 -0.07065646 -0.25900123 -0.744354 0.17520688 -0.31972232
1.7463508 -0.23716317 0.7982008 0.21193106 0.19229978 -0.45263252 0.34307724 -0.007940314
-0.7640429 -2.0714955 0.5521443 0.06381833 0.728068 -0.71307355 -0.21103401 0.13774717
-0.3114266 -0.24469003 -0.6412468 -2.0680163 0.96865 -0.8233261 -0.43183774 0.011431316
0.07121736 0.1680759 -0.2826402 -0.7623111 0.15632999 -0.18508002 0.4900411 -0.32232794
-0.45539188 0.17343916 -0.8489383 0.28293905 -0.31212196 -0.692757 0.5862739 -0.029702052
-0.9908463 0.28227815 0.07983031 0.28011078 -1.0129492 -0.009726942 0.20260067 0.053135235
0.5421106 -0.120356515 0.067321025 -0.024489988 -0.15761802 -0.1474493 -0.89874905 0.3000909
0.31054056 -0.1568242 0.10796927 -0.09663149 0.25486368 0.44775718 -0.05650299 0.19670746
0.34743842 -0.5412599 -0.17899005 -0.13828318 -0.03976576 0.07629031 0.13735278 -0.3754586
-0.15358123 0.31697392 -0.23472002 -0.13722087 0.03202388 -0.31611967 -0.39699993 -0.057501644
0.07594468 0.15981542 -0.21783374 -0.2376561 -0.23895139 -0.074922405 0.009619091 -0.110746264
0.087664455 1.1516541 0.5293266 -0.113621846 -0.0058043203 -0.60625196 -0.09546213 0.41385663
0.3217752 0.045915477 -0.007747786 -0.18575384 0.2057905 0.17254817 0.57172626 0.6609838
0.098035604 -0.1445425 0.35079053 0.13542445 -0.05408711 -0.06719748 0.6793198 0.69380325
0.24792527 0.049555957 -0.2480542 -0.16956687 0.05354006 -0.025272636 -0.27388245 -0.3521477
-0.2686276 -0.24623227 -0.07616224 -0.048284814 0.08673341 0.9718028 -0.20360902 -0.7256695
0.060547434 -0.07575972 -0.010393551 1.2512246 0.18251906 0.22635585 0.88176656 0.6052078
-0.030880267 -0.16074762 0.25574183 -0.08452567 -0.14547907 0.13887176 -1.2930645 0.4148402
1.1480683 0.7490951 0.2674546 -0.3346786 -1.2881612 0.18264158 0.11260873 0.093930714
-0.47179475 0.3577284 0.13133064 0.082806535 0.14135534 -1.2103561 0.22837211 0.15459725
0.19245091 -0.18434092 -0.26109317 0.51206297 0.20169674 -1.1818364 0.61895066 -0.20513882
-0.24886556 0.092037834 -0.13516036 0.28335112 -0.28289926 -0.37624907 -0.23667146 -0.6253833
-1.2344533 -0.12205363 0.07684819 -0.21857964 0.025801284 0.5375445 -0.4169455 -0.43248394
-0.36375183 -0.14087558 0.13797791 0.22742656 0.12089291 -0.15487982 -0.10271781 -0.05793319
-1.1468852 0.35180804 0.14733405 0.31595793 0.32350835 -0.013264201 0.09104651 -0.0506719
-1.3530555 0.12682572 0.30054113 0.16941972 -0.16612136 -0.15347174 0.87181777 0.0960227

fc1.bias f4 [64]
00000000: 4f7d 31bf 522e 0c40 474b 1440 d94f 18bd
00000010: 5359 79bf d489 45c0 77ed 3e3e 02db b9be
00000020: 28f0 30c0 2dd9 64bd 423d 45bf 4618 8bc0
00000030: 445e 70bf 7e42 9140 57cc 4abd 3ab9 e93f
00000040: 5ae8 4c3f 0741 0340 c6c7 e73e f9ca d7be
00000050: 3267 8040 1895 d5bc fae9 08bf 31e5 ddbd
00000060: 9210 1a3f 7c23 953f 1498 dcbc 80f0 3dbf
00000070: 5c51 393f bfd2 2540 767f 8b3f a4c2 8940
00000080: 2625 c4be d396 a6be a1c6 34be 6fbf 0f3f
00000090: 9ffc 8abf 452d 903f 187d 41be 7050 11bf
000000a0: 7a42 0bbf 7e2d 3f3f ec7a e03f d324 a2bf
000000b0: 576b c53f 04e9 0dbf c716 16c0 1b4c 993a
000000c0: 800f b1bf 0345 c3bf 4605 4440 13dc 1c40
000000d0: 541f 51c0 c0d0 72bf 22e0 fdbf 9d56 8cbe
000000e0: b933 fe3e 097f 87c0 8142 d03f df5f 8240
000000f0: 0434 4dbe 6ecd cabf 4a5e 02be c0d7 fc3f
-0.6933183 2.1903272 2.3170946 -0.037185524 -0.9740192 -3.0865374 0.18645273 -0.36299902
-2.764658 -0.055871177 -0.77046597 -4.346713 -0.9389384 4.5393667 -0.04951128 1.8259652
0.8004204 2.050844 0.45269603 -0.42147043 4.012597 -0.02607207 -0.5348202 -0.108347304
0.60181534 1.1651454 -0.026927985 -0.741951 0.7238977 2.590988 1.0898273 4.30501
-0.38309592 -0.32536945 -0.17653896 0.5615148 -1.0858344 1.1263815 -0.18895376 -0.5676336
-0.5439831 0.7467879 1.7537513 -1.2667488 1.5423383 -0.5543368 -2.3451402 0.0011695655
-1.3832855 -1.5255436 3.0628219 2.4509323 -3.267537 -0.9484978 -1.9834025 -0.2740983
0.49648836 -4.234257 1.6270295 4.074203 -0.20039374 -1.5843942 -0.12731281 1.9753342

fc2.weight f4 [64, 64]
00000000: d14d b7be 1021 92be ad4a ffbd ef6d 99bc
00000010: 18a3 febd 2f92 64bf 1846 d0be f6f3 acbd
00000020: 71c5 65bf d4dc 983e 58b0 ddbc dfe8 13bd
00000030: bcc5 96be ae4c 34be 7ab9 95be 9485 a63d
00000040: e82b 5bbd 6bf9 96be c907 94bd 345b edbd
00000050: 860f 3fbe a8a8 95bc 1e76 87be ad9d 423d
00000060: c0c7 ebbe 2c43 15be e792 7dbe 91e1 51be
00000070: 3406 97be 9b3e 36bb 294f ee3d cdf1 c7bd
00000080: 7a5b a4be b935 933e 3672 323e 16a7 51bf
00000090: 8f4c 07be 07cb 24be f7e3 0e3d 5878 c83e
000000a0: 5491 be3d 420d 8bbd e82c 5f3e e866 163d
000000b0: c8fe c73d 9182 07bf 4ec6 45be 28ce b23d
000000c0: feeb 15bc 6d71 c23e 5819 16bd 61a8 1c3e
000000d0: 3835 50be 73b9 613c 163a fabd 0386 f7be
000000e0: a352 d0be c394 edbe 7e7c 30be 9f47 debe
000000f0: edbc b53d abe0 4c3d 3c3c debd 3a92 783c
00000100: 9313 9bbd 4043 ffbd c3a6 e7bd 6322 133d
00000110: e082 d7bb 0a55 eabc 9049 e438 3244 02bd
00000120: a65f 9e3d 20b7 bdbb 9be8 af3d 7b6c cebd
00000130: 3c82 c0bd 3861 d63c 2fdb 12be 0848 9d3d
00000140: 4f27 bbbd 35bb 503c 7791 3fbe 1e8b 2dbe
00000150: 3911 93bd 26f8 e6bd bdd5 b5bd 1d7b 86bd
00000160: efa1 08bd 4954 ef3c f728 50bd 77f0 adbc
00000170: 3388 d3bc 316e 0dbe 356a d1bc 1e7b ebbd
00000180: df6d acbb ab83 6dbd 4ef6 c13d 0bf4 c9bc
00000190: 19b3 b9bc 0422 133e 504b 853d bb4c 47bd
000001a0: 960a af3c 9328 e73d 35fd 0dbe d4a0 83bd
000001b0: 2bdc b6bd 9a7e 47ba 6019 00be e092 1ebd
000001c0: 2d80 6abd 5ab8 2ebe ee92 13bd 94e1 2bbe
000001d0: e41b 29bd 074a 2a3a 55e7 983d 70bc 1fbe
000001e0: 43f9 31be 53b9 a23d b7e2 11be 10c3 c8bd
000001f0: 1bc7 553c b005 613c 9422 fb3d 382f 80bb
00000200: bfc1 dbbb 3d4f eb3d d37e 183e cbce c7be
00000210: c122 a13c 1ef6 f7bd 7486 16bf e669 29bc
00000220: f402 d7bc b056 463d 9798 4fbf 4da2 10bf
00000230: 7ced 763e 2588 0c3f 4c73 ba3e dc8e 9abe
00000240: 0c24 da3e 9cf5 393e e2c2 813e 53fd 2b3f
00000250: 49db a1be 2a5f c1bd f7ba 4abd 452c 483e
00000260: 3539 1abf 0013 9c3e c032 2fbd 8618 fd3d
00000270: 6c22 8ebe 2cf2 0f3f 4a6e 663f aa7a 21bc
00000280: 1198 05be 4090 eebc 948e 9b3e 51be 8a3f
00000290: dfe0 493e 0934 b3bd cf53 d4bd bda2 ee3e
000002a0: bce0 c8be 2d3f 223f bde0 d63e 9a3b 4dbf
000002b0: 3a7d 8fbc 3d74 2e3e deb1 e83c faaa e0bd
000002c0: b234 4e3e 8041 54bf a409 b0be 968b d6be
000002d0: fabf 80bd 117e 8fbd 7db3 4abf 3464 663e
000002e0: b025 933e d390 a5be d2ec 243e f422 0b3e
000002f0: d50b 84bf 58ac 25bd 1e95 ecbd de75 0c3e
00000300: 1a5e 80bc 8beb 74be f74b 80be 8a1c 38be
00000310: f668 8bbc 9358 e23d 54fb ef3c 1dca 80bd
00000320: 341d b2be 4e87 a43e d90e acbd 55d0 fbbc
00000330: c57d 79bd 12b3 0abd 205e 943c 9061 4cbe
00000340: 302b 97bc 8c5e 2cbe cf2d bebd 7bc5 05bd
00000350: a459 c9bd 20f7 cdbc 6b41 51be 3d52 b9be
00000360: 0453 c93d 4269 c8be e876 22bf 953d 223e
00000370: 6cdf a7be 0883 72bd c1b7 8b3c 9608 8cbd
00000380: 29aa 033d dc2e ef3d f838 1e3e 74de 32bb
00000390: a7e5 33bd 94ff 43be 37b5 7e3d 3805 d3bd
000003a0: 0592 ccbd a7ef 173b 732a 973e 6e0e debc
000003b0: 10db 7dbd fbf1 23be 9118 16be 2414 0dbd
000003c0: 045c a0be 3587 543d 9068 093e 4fec 59be
000003d0: 8aa7 dabd 2a1f a2be a66c 003e cd2e 09bf
000003e0: 9234 93bc ff52 193d 5e95 fbbd c98a 2bbd
000003f0: 5c2c 66bb bbd0 acbe 4896 5b3d 5553 ccbe
-0.35801557 -0.2854085 -0.12465415 -0.018729178 -0.124334514 -0.8928556 -0.40678477 -0.08444969
-0.89754397 0.29855978 -0.027061626 -0.036110755 -0.29447734 -0.17607376 -0.2924307 0.08130947
-0.05350867 -0.29487166 -0.072280474 -0.11589661 -0.18658265 -0.018268898 -0.26457304 0.047513653
-0.46050835 -0.14576405 -0.2476307 -0.20496203 -0.2949692 -0.0027808312 0.11636192 -0.09762917
-0.3210104 0.28751925 0.1742638 -0.8189558 -0.13212799 -0.16093074 0.034885373 0.39154315
0.09305063 -0.06789638 0.21794474 0.036719233 0.097653925 -0.52933604 -0.19313928 0.087307274
-0.009150503 0.37977162 -0.036645263 0.15298606 -0.20332801 0.013777125 -0.1221811 -0.4834443
-0.40688047 -0.4640256 -0.1723499 -0.43414018 0.08873925 0.050018948 -0.108513325 0.015171582
-0.07572093 -0.12463999 -0.11311104 0.035921466 -0.006576881 -0.028605003 0.00010885589 -0.031803317
0.07733087 -0.0057896525 0.08589288 -0.10079285 -0.0939984 0.026169404 -0.14341424 0.076797545
-0.09138357 0.012739946 -0.18707834 -0.169476 -0.07181019 -0.11277799 -0.08878658 -0.06566451
-0.033357557 0.029214995 -0.050820317 -0.021232827 -0.02582178 -0.13811566 -0.025563339 -0.11498092
-0.005262121 -0.057986896 0.09470807 -0.024652502 -0.022668408 0.14368445 0.06508505 -0.04865716
0.021367352 0.11287036 -0.13866122 -0.0642716 -0.089287125 -0.00076101127 -0.1250968 -0.03871429
-0.057251144 -0.17062512 -0.036028795 -0.1678527 -0.041286364 0.0006496016 0.07465998 -0.15599227
-0.17380242 0.07945504 -0.14246641 -0.0980283 0.013047959 0.013734266 0.12262455 -0.003911879
-0.006706446 0.11489723 0.1489213 -0.39024958 0.019669892 -0.1210749 -0.5879891 -0.01034019
-0.026246525 0.048422515 -0.8109221 -0.5649765 0.2411403 0.5489524 0.3641609 -0.30187118
0.42605627 0.18160099 0.25343996 0.6718342 -0.31612614 -0.09441979 -0.04949471 0.19548137
-0.6024354 0.30483246 -0.04277301 0.12358193 -0.27760637 0.562289 0.9001204 -0.009855906
-0.1304629 -0.029121518 0.30382216 1.083933 0.19714688 -0.08750159 -0.10367548 0.46608534
-0.3923396 0.6337765 0.41968337 -0.8016907 -0.017515767 0.17036529 0.028405126 -0.10970111
0.20137289 -0.82912445 -0.34382355 -0.4190337 -0.062866166 -0.07006467 -0.7918013 0.22499162
0.2873969 -0.32337055 0.16105965 0.13587552 -1.0316111 -0.040447563 -0.11551879 0.13716838
-0.015669871 -0.23917978 -0.25057957 -0.17979637 -0.017017823 0.110520504 0.029294647 -0.0628855
-0.34787905 0.3213448 -0.084012695 -0.030738989 -0.06091096 -0.03386218 0.018111289 -0.19959092
-0.01845321 -0.16832942 -0.09286081 -0.032659035 -0.09831551 -0.025142252 -0.20435111 -0.36195555
0.09830287 -0.39142805 -0.63462687 0.15843804 -0.32787645 -0.059206992 0.017055394 -0.06837575
0.0321447 0.116788596 0.1545142 -0.0027293237 -0.043920185 -0.19140464 0.06218454 -0.1030373
-0.099887885 0.0023183615 0.29524574 -0.02710649 -0.061976492 -0.16010277 -0.14657809 -0.034443036
-0.31320202 0.051886756 0.13418794 -0.21281551 -0.10676487 -0.316644 0.12541446 -0.5358704
-0.017969403 0.037432667 -0.12284349 -0.041880403 -0.0035121655 -0.33753 0.053610116 -0.39907327

fc2.bias f4 [64]
00000000: ae17 8e3e ed00 80bd 6ea9 373f a1d6 6b3c
00000010: dceb a4bf 6fdf 52bc 768e fabc 1636 bbbd
00000020: 8056 16be 7537 493d cccb 90bd 7331 92bd
00000030: e7ce f4be 56b1 3cbf 3181 333d dc1c ef3e
00000040: 2c34 84be fc77 aabd 4ccb 0d3f 4ca0 24be
00000050: 67b8 643c 3c26 f83f d0f7 0bc0 99a5 b23d
00000060: ea70 c8bd c0ac 0bbe cb25 8bbc f8ac 9c3e
00000070: 0522 58be e268 45bb f5fd c1bd f6c2 d3bd
00000080: fed1 d3be e0fd 9ebd 8368 33be 086f 8abe
00000090: c7e6 4c3d 5fc4 783c e13b 313d e9d5 e63e
000000a0: d10a 34bf f60b 77be 790a c3be 3d58 76be
000000b0: 3431 dbbd 9206 313e 8c4e 36be 18d6 32bd
000000c0: f092 0dbe 9ad6 363f 14d4 93be 9f50 a6be
000000d0: b4d9 f5bd 6273 453e 0fbd 06bd a64c 35bc
000000e0: c734 f9bd 1911 2440 3df5 a33d 4a0c bc3e
000000f0: 67e6 01bc 6795 6540 eab7 9340 a152 75bd
0.2775244 -0.062501766 0.71742904 0.014394433 -1.2884479 -0.0128706535 -0.030585509 -0.091411754
-0.14681435 0.049125154 -0.07070121 -0.07138338 -0.47814104 -0.73708093 0.04382438 0.46701705
-0.25821054 -0.083236665 0.5538833 -0.16076773 0.013959981 1.9386668 -2.1870003 0.087229915
-0.09787162 -0.13640118 -0.016985795 0.30600715 -0.21106727 -0.003012233 -0.094722666 -0.1033992
-0.4137115 -0.077632666 -0.17520337 -0.27037835 0.050024774 0.015183537 0.043269996 0.45085075
-0.70329005 -0.24125656 -0.38093928 -0.24057098 -0.10702744 0.17287663 -0.17803401 -0.043661207
-0.13825583 0.71421206 -0.2887274 -0.32483384 -0.12004414 0.19282296 -0.032895144 -0.011065638
-0.121682696 2.5635436 0.0800576 0.36728126 -0.007928467 3.5872438 4.6162004 -0.059893254

fc3.weight f4 [1, 64]
00000000: 2d3e a03c 295f f5bc 88d7 783d 99c2 b83b
00000010: c228 18bd edcf 053d 465a d1bc 8472 3f3c
00000020: 3aa9 1fbd 820e 793d 6be7 ad3d fa81 583d
00000030: be88 55bb df0b bcbc 5724 0abe cb6b 993c
00000040: d8c8 ba3c 0482 69bc a377 b3bd 6af9 9a3b
00000050: b8e4 92bc 9b7c 8e3d edd7 06bd 5931 3abb
00000060: a06c 69bd 7844 c2bc e8cb 3fb8 fe06 903b
00000070: a047 8b3c 0299 51bc 9d51 94bc 769c b7bc
00000080: 8526 a33e 160c 8c3c adde 583e 96e6 e1bc
00000090: 5045 c2bd 46a0 1abc 947c edbc 1bc6 ba3d
000000a0: e853 9c3d ba2c f13d b11d 193e ed26 a03e
000000b0: ad43 753d 84f1 0abe d395 6a3c 9ea0 09bd
000000c0: 7619 19bd 1269 2ebd 0f79 b23d ffd9 603d
000000d0: 823d 823c 454f 29bd ed53 1bbb 6230 393b
000000e0: 4032 ba3d 3d92 1c3e 8dce 7bbe 6423 c43c
000000f0: 6998 853b d18c 6d3c 2b8b 363e 7944 433e
0.019560898 -0.029952602 0.06075242 0.005638432 -0.037148245 0.032668997 -0.025555741 0.0116850175
-0.038979746 0.06080485 0.08491405 0.05285833 -0.0032582725 -0.02295488 -0.13490425 0.018728158
0.022800848 -0.01425219 -0.08763053 0.0047294395 -0.017931327 0.0695736 -0.032920767 -0.002841076
-0.05698836 -0.02371429 -4.572785e-05 0.004395365 0.017001927 -0.012792828 -0.018105322 -0.022413474
0.31865326 0.017095607 0.21178694 -0.027575772 -0.094858766 -0.009437626 -0.028990068 0.09119817
0.07633191 0.11776109 0.14952733 0.31279698 0.059878994 -0.13568693 0.014317947 -0.033600442
-0.037377797 -0.04258067 0.08714496 0.054895397 0.01589847 -0.041335363 -0.0023701147 0.0028257598
0.09091616 0.1529016 -0.24590512 0.023942657 0.0040770066 0.014498905 0.17826526 0.19069089
