sat-code/models/maddpg_20250712-135635/checkpoint_1900/actor_agent_1.pth (torch, 21533 bytes, 6 tensors)

fc1.weight f4 [64, 4]
0	0xbdb08d03	-0.08620646
1	0x3e08ce90	0.13360047
2	0xbeee8401	-0.46585086
3	0xbee80d3e	-0.45322603
4	0xbe665e5a	-0.2249693
5	0x3eb2bf8f	0.34911773
6	0xbf473c06	-0.77825963
7	0xbe270bc6	-0.16313085
8	0x3d08c58a	0.033391513
9	0x3d09ba7f	0.033625122
10	0xbecddc36	-0.4020707
11	0x3ed4f262	0.41591173
12	0x3db00fbc	0.08596751
13	0xbd974d18	-0.07387751
14	0xbeb1ba79	-0.3471258
15	0x3f1a27ce	0.6021699
16	0xbae58631	-0.0017511306
17	0x3bc30949	0.0059520346
18	0xbe0f2c80	-0.13981819
19	0xbedfddf8	-0.43724036
20	0xbe1abbaa	-0.1511065
21	0x3d44700e	0.047958426
22	0x3f60abc9	0.87762123
23	0xbe772ab6	-0.24137387
24	0xbdaf1f71	-0.08550919
25	0x3ea14912	0.3150106
26	0x3ead3791	0.33831456
27	0xbeac95d4	-0.3370806
28	0x3eba66ed	0.3640665
29	0xbe2bc767	-0.16775285
30	0xbd9a6299	-0.07538337
31	0xbdf4ee2c	-0.1195949
32	0xbf5aa9bc	-0.85415244
33	0xbbdcfe96	-0.006744216
34	0x3d95ae34	0.07308617
35	0x3e2e682b	0.17031924
36	0xbe569efa	-0.20959082
37	0x3eff86ac	0.49907434
38	0x3ee5f36d	0.44912282
39	0xbf2d7b22	-0.6776601
40	0xbdab4046	-0.083618686
41	0x3ed5eccb	0.4178222
42	0xbf18e181	-0.5971909
43	0x3a45ebcc	0.000755009
44	0x3e5546c0	0.2082777
45	0xbeb315e8	-0.3497765
46	0x3c87ec40	0.016592145
47	0xbf1e2631	-0.61777025
48	0x3e91e7fe	0.28497308
49	0x3e069cf2	0.13145807
50	0xbf0cdba0	-0.5502262
51	0xbdccbf6a	-0.09997447
52	0xbdbe662f	-0.09296834
53	0x3eaffd2a	0.34372836
54	0x3e863e9a	0.26219636
55	0x3e86b91d	0.26313105
56	0x3eb2bd46	0.3491003
57	0xbdcfcf8d	-0.10147009
58	0xbef022e1	-0.4690161
59	0xbe4921ab	-0.1964175
60	0x3d188e30	0.037244976
61	0x3cf8b4cc	0.030359648
62	0xbef4d169	-0.47816017
63	0xbf3a1581	-0.7268906
64	0x3ed3e904	0.41388714
65	0xbda84fb9	-0.08218331
66	0x3e19a277	0.15003382
67	0xbedee7e7	-0.43536302
68	0x3dea3642	0.1143613
69	0xbea53043	-0.32263383
70	0xbe8e7ac1	-0.2782803
71	0x3f0bdbf7	0.54632515
72	0x3e4b7c96	0.19871745
73	0x3e0188d0	0.12649846
74	0xbf164c71	-0.5871039
75	0x3ed3983f	0.41327092
76	0xbe6405fc	-0.22267908
77	0xbdc97d09	-0.09838302
78	0xbd3db8e3	-0.0463189
79	0x3ed1e132	0.40992123
80	0x3e73dcd8	0.23814714
81	0x3e86069b	0.26176915
82	0x3e25ed0b	0.16203706
83	0x3c7f8c47	0.01559741
84	0xbe14f108	-0.14545071
85	0x3edf0ea0	0.43565845
86	0xbf0129e6	-0.50454557
87	0x3f2fc08e	0.6865319
88	0x3e48b34b	0.19599645
89	0xbe8b5acd	-0.27217713
90	0x3e24b618	0.16085088
91	0x3f62b152	0.8855182
92	0x3efe9844	0.49725544
93	0x3e72452d	0.23659201
94	0xbf2e617f	-0.6811752
95	0x3cd11666	0.025523376
96	0x3e847cb5	0.25876394
97	0xbf0929ff	-0.53579706
98	0xbe4cab09	-0.1998712
99	0xbe24f68a	-0.16109672
100	0x3c0540f4	0.008133162
101	0xbe9c5f2a	-0.30541354
102	0x3eb9a46b	0.36258253
103	0x3edeb8c5	0.43500343
104	0xbdde9f8b	-0.10870274
105	0x3e8c6e3d	0.27427855
106	0x3f3a01a6	0.72658765
107	0xbe0dddc1	-0.13854124
108	0x3ebe1d1b	0.3713158
109	0xbda15c7a	-0.07878967
110	0x3c31b49a	0.010846281
111	0xbef6b54b	-0.4818519
112	0xbc76fef2	-0.015075432
113	0x3e157c90	0.14598298
114	0x3da9f572	0.08298768
115	0x3e13431e	0.14381072
116	0xbe023947	-0.12717162
117	0x3e62abd7	0.22135864
118	0x3f56afd1	0.83862025
119	0xbecaf510	-0.39640093
120	0xbe74ba8d	-0.23899288
121	0x3f10f947	0.5663037
122	0x3e96a39f	0.29421708
123	0xbe9f8719	-0.3115776
124	0x3e5be1bf	0.21472834
125	0xbebccf4d	-0.36876908
126	0x3e510d5f	0.20415257
127	0xbebe8cfd	-0.3721694
128	0x3e65f023	0.22454886
129	0x3eaf2366	0.34206694
130	0x3ea4144e	0.3204674
131	0x3f12ed52	0.5739337
132	0xbe91c4eb	-0.2847055
133	0x3f13a48f	0.5767297
134	0xbe34e782	-0.17666438
135	0xbece8902	-0.40338904
136	0xbed26cfc	-0.41098773
137	0x3de7ad7f	0.11312389
138	0xbee39507	-0.44449636
139	0x3f0278b2	0.50965416
140	0x3d858ceb	0.065210186
141	0x3e44016e	0.1914117
142	0xbec94c7a	-0.3931616
143	0xbd834319	-0.06409282
144	0xbe74b3e0	-0.23896742
145	0x3e7899b9	0.2427739
146	0x3f60adea	0.8776537
147	0xbe9cf3a5	-0.30654636
148	0x3ea8f337	0.32998058
149	0x3ed1123f	0.40834233
150	0xbea7768e	-0.32707638
151	0x3f0403e2	0.51568425
152	0x3ebb9f9b	0.36645207
153	0xbda0638f	-0.07831489
154	0x3f1b2772	0.60607064
155	0xbe84b198	-0.25916743
156	0xbf368277	-0.71292824
157	0x3c4b39a1	0.0124038765
158	0xbf6f1a93	-0.93399924
159	0x3e82e1df	0.2556295
160	0xbe34106d	-0.17584391
161	0x3ecf3e9e	0.4047746
162	0xbe942a94	-0.28938735
163	0xbd18fd7a	-0.03735111
164	0x3eddd553	0.43326816
165	0xbf0c3811	-0.5477305
166	0x3f1fa51a	0.623613
167	0xbf2f91aa	-0.6858164
168	0xbe779f77	-0.24181925
169	0x3eeb9692	0.46013314
170	0xbf14d208	-0.5813298
171	0xbef35b9f	-0.4753084
172	0xbe476496	-0.19471964
173	0x3e27e9b2	0.16397741
174	0x3f0b3b7c	0.5438764
175	0xbdceacdf	-0.10091566
176	0xbc74e7a4	-0.014947806
177	0xbe9b77e0	-0.30364895
178	0xbd77ce7c	-0.060499653
179	0xbc975446	-0.018472802
180	0x3d1e92b7	0.038714137
181	0x3e9a7a37	0.30171368
182	0x3ed40d4c	0.41416395
183	0x3df3d725	0.1190627
184	0x3df62525	0.120188035
185	0xbe9a8554	-0.30179846
186	0x3d40bb32	0.047053523
187	0x3e147779	0.144987
188	0x3dc1b518	0.09458369
189	0x3e765eaa	0.24059549
190	0xbea613bd	-0.32436934
191	0x3eea8115	0.45801607
192	0xbe4d15e2	-0.20027879
193	0x3f201794	0.6253598
194	0x3e074f33	0.13213806
195	0x3ac89fd6	0.0015306424
196	0xbe359279	-0.17731656
197	0x3f0432db	0.516401
198	0xbf1805c1	-0.5938378
199	0x3e47f3f1	0.1952665
200	0x3e06c5ad	0.13161345
201	0xbeb970ca	-0.36218864
202	0xbec5714f	-0.3856301
203	0xbdadaec3	-0.08480599
204	0xbe8228e6	-0.25421828
205	0xbd8cf8d8	-0.06883401
206	0xbe1c14da	-0.15242329
207	0x3cd26a51	0.025685461
208	0xbec7797f	-0.38959882
209	0xbe87b988	-0.26508737
210	0xbe918a29	-0.2842572
211	0xbf340d90	-0.70333195
212	0x3ef0f09f	0.4705858
213	0x3e11765b	0.14205305
214	0xbe43a4b6	-0.19105801
215	0xbe2a64fd	-0.16640086
216	0x3ce9d848	0.028545514
217	0x3ba7163e	0.005099087
218	0xbc8afb75	-0.016965607
219	0xbeaa6a33	-0.3328415
220	0xbe06da30	-0.1316917
221	0xbe7de7a8	-0.24795401
222	0x3dcf592c	0.1012443
223	0xbdf5557e	-0.11979197
224	0x3e59f559	0.21284999
225	0x3e913b5c	0.283656
226	0xbddbe766	-0.10737495
227	0x3e0dda5e	0.13852832
228	0xbe230d6f	-0.15923093
229	0x3c2cc835	0.01054578
230	0xbf2a2766	-0.6646637
231	0x3f0c4605	0.5479434
232	0xbeff19d4	-0.49824393
233	0x3ee0eacf	0.43929145
234	0xbe684396	-0.22682032
235	0x3e190926	0.14944896
236	0xbe1df6a9	-0.15426125
237	0x3d965f83	0.07342436
238	0x3dbf64e1	0.09345413
239	0xbe9e13e1	-0.3087454
240	0x3e158f3d	0.14605422
241	0xbe4e2b8c	-0.201338
242	0x3e5c8e18	0.2153858
243	0x3e6c277f	0.23061942
244	0x3eb92ee9	0.36168602
245	0xbdc26b26	-0.09493093
246	0xbe943550	-0.28946924
247	0x3efbf19c	0.4920777
248	0x3e79081f	0.24319504
249	0x3ec2fddb	0.380843
250	0x3be5825e	0.0070040664
251	0x3f47a1a5	0.77981025
252	0xbeaa69c4	-0.33283818
253	0x3e9a41c8	0.30128312
254	0xbe60f3a6	-0.21967945
255	0x3f2e17e7	0.6800522

fc1.bias f4 [64]
0	0x3f8a82d6	1.0821178
1	0x3ef4d0e5	0.47815624
2	0x3f9cab28	1.2239733
3	0x3fa6e00c	1.3037124
4	0x3f3be125	0.7339042
5	0x3f8d4c78	1.1038961
6	0x3f555a10	0.8334055
7	0xbed0aef7	-0.40758488
8	0x3f81e387	1.0147561
9	0x3e29092e	0.16507408
10	0x3ef003ea	0.46877986
11	0x3e23716b	0.15961234
12	0xbfbb24fb	-1.462066
13	0x3f24ffff	0.6445312
14	0x3f61c22c	0.8818691
15	0xbe3bde06	-0.18346414
16	0xbf2bd61e	-0.6712359
17	0x3f36cff8	0.71411085
18	0xbf9348ac	-1.1506553
19	0xbe588dce	-0.21147844
20	0x3f4403a4	0.76568055
21	0x3f707fb7	0.9394488
22	0x3f108635	0.56454784
23	0xbfdb3fd5	-1.7128855
24	0xbeeb6423	-0.45974836
25	0xbda57be4	-0.08080271
26	0x3fad3c89	1.3534099
27	0x3f970b8e	1.1800401
28	0xbead21a5	-0.3381473
29	0x3f9ae606	1.2101448
30	0x3d81b6cf	0.06333696
31	0xbf1ab73e	-0.60435855
32	0x3f0fcf63	0.5617582
33	0x3e00e274	0.12586385
34	0x3f134c33	0.57538146
35	0x3fd25252	1.6431372
36	0xbf141878	-0.57849836
37	0xbf9656c8	-1.1745234
38	0xbebcfc9a	-0.3691147
39	0x3de75593	0.11295619
40	0x3bde79f0	0.0067894384
41	0x3ee20be8	0.4414971
42	0x3d049c5a	0.03237567
43	0x3eaa9b53	0.33321628
44	0x3f6233f2	0.8836051
45	0xbe16a36a	-0.14710775
46	0x3e33c651	0.1755612
47	0xbf64367f	-0.89145654
48	0xbe8c77b8	-0.27435088
49	0x3ef4dfc0	0.47826958
50	0x3f020305	0.5078586
51	0x3f429a62	0.7601682
52	0xbd5f038b	-0.05444674
53	0xbf2f171b	-0.6839463
54	0x3fe5d69f	1.7956122
55	0x3f4ac219	0.7920242
56	0xbf7ea53b	-0.9947087
57	0x3f144fc3	0.57934207
58	0xbf350024	-0.7070334
59	0x3f9cb696	1.2243221
60	0xbe838054	-0.25683844
61	0xbe35a5e6	-0.17739066
62	0xbeda2073	-0.42602882
63	0x3e9d3ea7	0.30711862

fc2.weight f4 [64, 64]
0	0x3e8e0155	0.2773539
1	0x3e4cd56b	0.20003287
2	0xbe1e87bc	-0.15481466
3	0x3b9ff23f	0.004881173
4	0x3da30a78	0.07960981
5	0xbf2b9955	-0.6703084
6	0x3e366966	0.17813644
7	0x3dd9026e	0.105961666
8	0xbe43b2e1	-0.19111206
9	0x3e1b6390	0.15174699
10	0xbc80a98d	-0.015705848
11	0x3e267846	0.16256818
12	0xbd1d652a	-0.038426556
13	0xbefb0336	-0.49025887
14	0x3db03ce5	0.08605365
15	0xbdf420b7	-0.11920302
16	0x3dc584eb	0.09644493
17	0xbe0221f2	-0.12708262
18	0x3d708bd4	0.0587271
19	0xbdb3433e	-0.0875306
20	0xbdac89e1	-0.08424736
21	0xbf1a8368	-0.6035676
22	0x3d8983b7	0.06714576
23	0xbd0896eb	-0.03334705
24	0x3dd2ff6c	0.10302624
25	0xbd55b782	-0.05217696
26	0xbd89a8c9	-0.06721646
27	0xbcac6332	-0.021043394
28	0xbdeaaefd	-0.114591576
29	0xbea50e2a	-0.3223737
30	0x3e8c8c33	0.27450714
31	0x3e25a9fd	0.16178127
32	0x3db5170a	0.08842285
33	0xbe57e2b2	-0.21082571
34	0xbe9406b5	-0.28911367
35	0xbcc1ccf9	-0.023657309
36	0x3aab84da	0.0013085857
37	0x3db991d4	0.09061018
38	0x3d4529f4	0.048135713
39	0xbea2c699	-0.31792143
40	0xbeaded6a	-0.33970195
41	0x3e158ff2	0.14605692
42	0xbcd336b5	-0.025782922
43	0xbd53c8af	-0.05170506
44	0xbdfbbf83	-0.12292387
45	0x3e33b92b	0.17551105
46	0x3e718830	0.23587108
47	0xbeb8c9a9	-0.36091354
48	0xbd24ed79	-0.040265534
49	0xbe850bc5	-0.25985542
50	0x3d5e40d0	0.05426103
51	0xbd907631	-0.07053793
52	0x3dac2220	0.08404946
53	0xbca604a8	-0.020265892
54	0x3e1d0087	0.15332232
55	0xbf005b8f	-0.5013971
56	0x3d05dbec	0.032680437
57	0xbe4564e0	-0.19276762
58	0xbea6491f	-0.32477662
59	0x3e43d9cb	0.1912605
60	0x3e0bfae1	0.13669921
61	0x3db3431f	0.08753037
62	0xbdb98de0	-0.09060264
63	0xbf5bda46	-0.85879934
64	0x3ea27f23	0.31737623
65	0x3e238690	0.159693
66	0x3eaa4805	0.33258072
67	0x3e430e97	0.19048534
68	0x3d541130	0.051774204
69	0x3f0f8d7d	0.5607527
70	0x3e2a6760	0.16640997
71	0x3d395409	0.045246158
72	0xbbab522d	-0.005228302
73	0x3d059a75	0.032618005
74	0x3bbc797f	0.005751788
75	0x3c7e1605	0.01550818
76	0xbdbd9ed8	-0.09258813
77	0x3c67656f	0.014123305
78	0x3e32549a	0.17415085
79	0x3ef03727	0.46917078
80	0xbe328291	-0.1743262
81	0xbe9490b5	-0.29016653
82	0xbe165f8a	-0.14684883
83	0x3df67475	0.12033931
84	0x3db4e295	0.088322796
85	0x3c5b12e9	0.013371208
86	0x3dc7800a	0.097412184
87	0xbe2cd854	-0.16879398
88	0xbe80a221	-0.25123695
89	0x3e03bc4e	0.12864801
90	0x3e465d40	0.1937151
91	0x3d6972fd	0.056994427
92	0x3cf0ccaf	0.029394476
93	0x3ed9c926	0.42536277
94	0xbd8e7563	-0.069559835
95	0xbeab8ff3	-0.33508262
96	0x3e04ba02	0.12961581
97	0xbcc07e0c	-0.023497604
98	0xbe3a7454	-0.18208438
99	0x3e1767c0	0.14785671
100	0xbe95e4b7	-0.29276058
101	0xbddf7702	-0.10911371
102	0xbe32409e	-0.17407462
103	0x3d965678	0.07340711
104	0xbdced96e	-0.10100065
105	0x3da12476	0.078682825
106	0xbd518714	-0.05115421
107	0xbd621ac4	-0.055201307
108	0xbe9dc8cc	-0.30817258
109	0x3daa2c42	0.08309223
110	0x3e37e05e	0.17956683
111	0xbe221c75	-0.15831168
112	0x3d139a27	0.036035683
113	0xbcd918ce	-0.026501086
114	0x3e267809	0.16256727
115	0xbe6a2cf1	-0.22868706
116	0x3e88ee59	0.26744345
117	0xbcfa0c63	-0.030523485
118	0x3e13de8a	0.1444036
119	0xbea38f83	-0.31945428
120	0xbc82257c	-0.015887015
121	0x3ea2ff12	0.31835228
122	0x3c29d53d	0.010365781
123	0x3ed61251	0.4181085
124	0xbda1956b	-0.07889827
125	0xbcc4c961	-0.024021806
126	0x3dc49a8b	0.09599789
127	0xbe9889ec	-0.29792726
128	0xbd1585cf	-0.036504563
129	0xbe883fe1	-0.26611236
130	0xbe4f399e	-0.20236823
131	0xbcb66fed	-0.022270167
132	0x3dd51c24	0.10405758
133	0xbf01cfd1	-0.5070773
134	0x3e2810e7	0.16412698
135	0x3dad29af	0.08455216
136	0x3e6a850a	0.22902313
137	0x3e63b153	0.22235613
138	0x3d6c7636	0.057729922
139	0x3e72d22b	0.23712985
140	0x3dd105c2	0.10206176
141	0x3d800f8c	0.06252965
142	0x3da945e7	0.08265286
143	0xbe5f7cd5	-0.21824963
144	0x3c0b18c6	0.008489793
145	0xbdd8cbc0	-0.10585737
146	0x3d956e12	0.07296385
147	0xbc95b927	-0.018276764
148	0x3d9954a8	0.0748685
149	0xbde68e4b	-0.11257609
150	0xbd56dbbd	-0.052455653
151	0x3da58f29	0.08083946
152	0x3e72521a	0.23664132
153	0x3e12616d	0.14294977
154	0xbba0e40a	-0.004909997
155	0x3d6a9a00	0.057275772
156	0xbdce29bb	-0.10066553
157	0xbef395ce	-0.4757523
158	0x3cb0d294	0.021584786
159	0x3e02af91	0.12762286
160	0xbcfaa21b	-0.030594876
161	0x3d636d79	0.055524323
162	0xbe98777a	-0.29778653
163	0x3c874052	0.016510163
164	0x3e63746d	0.22212382
165	0x3d8cb5c2	0.06870605
166	0x3e2f57b2	0.17123297
167	0xbe75af99	-0.23992766
168	0xbe38708b	-0.18011682
169	0x3db394e3	0.08768632
170	0xbce0a8cb	-0.027424237
171	0x3e92a43e	0.28640932
172	0x3f0b3709	0.5438085
173	0xbcc1e1d6	-0.023667257
174	0xbe9ad769	-0.3024247
175	0xbe044e4f	-0.12920497
176	0xbd739cc1	-0.059475664
177	0x3db4d6e3	0.08830049
178	0x3de72408	0.11286169
179	0x3e91f49e	0.2850694
180	0xbeaae039	-0.33374193
181	0xbbcfbab7	-0.006339397
182	0xbd2d85ac	-0.042363808
183	0x3e8c5023	0.2740489
184	0xbdb63b94	-0.088980824
185	0xbea9b3d8	-0.33145022
186	0xbe17d74b	-0.14828221
187	0x3db4807a	0.088135675
188	0x3e57c375	0.21070655
189	0x3e154d4e	0.1458027
190	0xbd7bdc3c	-0.06148933
191	0xbd68b438	-0.056812495
192	0x3e8a8fe8	0.27062917
193	0x3ead82d0	0.33888865
194	0x3d9ce2d4	0.076604515
195	0xbc590fe9	-0.013248422
196	0x3d364681	0.04450083
197	0x3e9e8a43	0.3096486
198	0x3d322cd3	0.04349978
199	0x3d40f8e0	0.047112346
200	0x3ec92180	0.3928337
201	0xbe911219	-0.2833412
202	0xbd7024ed	-0.058628965
203	0x3df1bff0	0.11804187
204	0xbd8b41e8	-0.0679968
205	0xbef36c16	-0.475434
206	0xbbfd2b3b	-0.0077261007
207	0x3f091bc9	0.5355802
208	0xbd53db5c	-0.05172287
209	0xbe8047ab	-0.25054678
210	0xbe622259	-0.22083415
211	0xbde5873b	-0.11207434
212	0x3db68df2	0.08913793
213	0xbea0ff97	-0.31445
214	0x3e902f65	0.2816116
215	0x3d1e7762	0.03868807
216	0x3d56cd3f	0.05244183
217	0xbe3c96aa	-0.18416849
218	0x3d82b0aa	0.06381352
219	0x3d87dfed	0.06634507
220	0xbe3de002	-0.18542483
221	0x3e443cb1	0.19163777
222	0x3cfbb6fa	0.030726898
223	0x3d4f8a41	0.05066896
224	0xbdf71b23	-0.12065723
225	0xbe6c2729	-0.23061813
226	0x3d5aabfc	0.053386673
227	0xbd05dd3d	-0.032681692
228	0xbeb73b30	-0.35787344
229	0xbc7d2462	-0.015450569
230	0xbd40c651	-0.04706413
231	0x3ed6be28	0.41941953
232	0xbd4b8f09	-0.049696956
233	0x3d67ba97	0.05657443
234	0x3d2a26db	0.04154096
235	0xbe7c31cb	-0.2462837
236	0xbec8ef36	-0.39245003
237	0xbda692c5	-0.08133463
238	0x3f170a6b	0.5900027
239	0xbe8bff78	-0.27343345
240	0xbdcb5cc2	-0.099298015
241	0xbdcd6096	-0.10028188
242	0x3e0bbfa5	0.13647325
243	0xbeee90fe	-0.46594995
244	0x3dcadcf1	0.099054225
245	0xbd74a67a	-0.059729077
246	0x3e4a35e9	0.19747128
247	0xbf0988bc	-0.53724265
248	0xbdd2e4e2	-0.10297562
249	0x3ee1681b	0.4402474
250	0xbd584d8e	-0.052808337
251	0x3e173a9c	0.14768451
252	0xbdac1eab	-0.08404287
253	0x3dc46570	0.0958966
254	0xbe2d4ab1	-0.16923024
255	0xbf04caea	-0.5187212

fc2.bias f4 [64]
0	0x3eb5f6eb	0.35539946
1	0x3fa54bc2	1.2913744
2	0xbed377af	-0.4130225
3	0x3f4043d7	0.75103515
4	0x3f4079e1	0.7518597
5	0x3e615288	0.2200414
6	0x3f75148e	0.9573449
7	0xbf481c8f	-0.78168577
8	0xbce4632c	-0.02787932
9	0x3bc628f7	0.006047364
10	0xbd0d3e7a	-0.03448341
11	0x3e9491a4	0.29017365
12	0x3dc29ff0	0.09503162
13	0x3f141fd2	0.57861054
14	0x3ecf4990	0.4048581
15	0xbe678884	-0.2261067
16	0xbfa2ae18	-1.2709379
17	0xbdb5445d	-0.0885093
18	0x3dfd1591	0.12357629
19	0x3f08386f	0.5321111
20	0x3f40a5f9	0.75253254
21	0xbf1a69b7	-0.6031756
22	0xbf4c9695	-0.7991727
23	0xbd6b64a5	-0.05746903
24	0xbd855229	-0.065098114
25	0x3f8b0e71	1.0863782
26	0xbdc4f030	-0.09616125
27	0x3da4653a	0.0802712
28	0x3d986777	0.07441609
29	0x3ee8da1a	0.45478898
30	0xbefc8df3	-0.4932705
31	0x3de0a99c	0.109698504
32	0x3d619e89	0.05508283
33	0x3ec216a1	0.3790789
34	0x3f1e593a	0.618549
35	0x3f4ff85a	0.8123833
36	0x3e82d3ae	0.25552124
37	0xbe9845eb	-0.29740843
38	0xbf6f6c60	-0.9352474
39	0x3d91433a	0.070929006
40	0xbf36afe7	-0.71362156
41	0x3f6ef92b	0.9334895
42	0x3dc9d37c	0.098547906
43	0xbcbe0ca0	-0.02319938
44	0x3f900e07	1.1254281
45	0x3ef07e37	0.46971294
46	0x3f954dc1	1.1664354
47	0x3f09f37a	0.5388714
48	0x3f7c8bf6	0.98651063
49	0xbd01bb58	-0.031672806
50	0x3ed22f4b	0.41051707
51	0xbe90150b	-0.28141055
52	0xbf63d7fb	-0.89001435
53	0x3d97fa11	0.07420743
54	0x3f60f897	0.8787932
55	0xbee26f03	-0.4422532
56	0x3f613ec9	0.8798643
57	0x3e9af146	0.30262202
58	0xbf7c7c6f	-0.9862737
59	0x3f62a342	0.8853036
60	0x3f98d1a6	1.193898
61	0xbf4e6630	-0.80624676
62	0xbc9971d1	-0.01873103
63	0x3e4c4029	0.1994635

fc3.weight f4 [2, 64]
0	0x3e800bad	0.25008908
1	0x3e800394	0.2500273
2	0xbe113c3d	-0.14183135
3	0x3ea222fc	0.31667316
4	0x3e485b06	0.19565973
5	0x3e7ee884	0.24893385
6	0x3e3ddb23	0.18540625
7	0xbe30290e	-0.17203161
8	0xbde1cc12	-0.110252514
9	0xbe8010fd	-0.2501296
10	0xbcff490e	-0.031162765
11	0xbdc4b200	-0.09604263
12	0xbea01753	-0.31267795
13	0x3d935eea	0.07195838
14	0x3d650870	0.05591625
15	0xbe5c3272	-0.21503618
16	0xbe063bcb	-0.13108747
17	0xbd82f185	-0.063937224
18	0xbd1e0a95	-0.03858431
19	0x3eb09d7b	0.34495148
20	0x3ed5ba89	0.41743878
21	0xbdca4321	-0.09876085
22	0xbd338651	-0.043829266
23	0xbe892da4	-0.26792634
24	0xbd5b7660	-0.053579688
25	0xbd1099a7	-0.035302784
26	0x3d3af038	0.045639247
27	0xbd0504f7	-0.032475438
28	0x3c79dd46	0.01525051
29	0x3e8760f3	0.26441154
30	0xbeef1176	-0.4669301
31	0xbea3e1d9	-0.32008246
32	0x3dfbb8f4	0.122911364
33	0x3df5bcd4	0.11998907
34	0xbd8f9021	-0.07009912
35	0x3e97a7a7	0.29620096
36	0xbe60b759	-0.21944942
37	0xbe71d9b1	-0.23618199
38	0xbe19d55c	-0.15022796
39	0xbf7e083f	-0.9923133
40	0xbd8a0389	-0.067389555
41	0x3e7a5afd	0.24448772
42	0x3efd3cb0	0.49460363
43	0xbd88571c	-0.0665724
44	0x3dfe2222	0.12408854
45	0x3e174535	0.14772494
46	0x3eba1d15	0.36350313
47	0x3e614e98	0.22002637
48	0x3eb0b17e	0.34510416
49	0xbd98f94f	-0.07469427
50	0x3ef2af80	0.4739952
51	0xbd3f894a	-0.04676179
52	0xbdf78b74	-0.120871454
53	0xbd41680b	-0.047218364
54	0x3f5e5bd3	0.8685886
55	0xbe4dccd6	-0.2009767
56	0x3edd8222	0.43263346
57	0x3ea942c3	0.33058748
58	0xbdea02c1	-0.114263065
59	0x3ed42fbc	0.41442668
60	0x3e1d939c	0.1538834
61	0xbda492ca	-0.0803581
62	0x3d57faab	0.05272929
63	0x3ec0c1f0	0.37647963
64	0x3ebee6ec	0.37285554
65	0xbe9b498c	-0.3032955
66	0x3d9334f6	0.07187836
67	0x3da51981	0.08061505
68	0x3cb85eca	0.022506136
69	0xbe015615	-0.12630494
70	0x3e4c3c22	0.19944814
71	0xbde124c2	-0.10993339
72	0x3d36eca0	0.044659257
73	0x3efc8804	0.49322522
74	0x3da7c9e0	0.081928015
75	0x3e69d318	0.22834432
76	0x3e9d85f1	0.30766252
77	0x3ed617fd	0.41815177
78	0x3eff6b3f	0.4988651
79	0x3e055a7a	0.13022795
80	0xbdca1404	-0.09867099
81	0xbd29fa56	-0.041498505
82	0xbe54a947	-0.20767699
83	0xbe3c2404	-0.18373114
84	0x3acc49f5	0.0015586006
85	0xbd8b3c12	-0.06798567
86	0xbccf44ee	-0.025301423
87	0xbd956c0c	-0.07295999
88	0xbe8d842b	-0.276399
89	0x3ee4f7a6	0.4472019
90	0xbdd75760	-0.10514712
91	0x3c2d2e95	0.010570188
92	0xbdebae87	-0.11507898
93	0xbe81ee8c	-0.2537731
94	0xbe43a0c6	-0.19104299
95	0x3f3066da	0.6890694
96	0x3d74db4a	0.059779443
97	0x3c4752cd	0.012165737
98	0x3e5c022d	0.21485205
99	0x3dc96de4	0.09835413
100	0x3ee64e14	0.44981444
101	0x3c89ddd0	0.016829401
102	0xbe2b4083	-0.16723828
103	0x3d32e60b	0.043676417
104	0xbe0a0ec9	-0.13482203
105	0x3e180ef3	0.14849453
106	0x3eb96947	0.36213133
107	0x3df7fd06	0.12108807
108	0x3ea9b60a	0.33146697
109	0x3edbdb88	0.42940927
110	0x3ee0e16c	0.43921983
111	0xbd91a018	-0.071106136
112	0x3f0599b6	0.5218767
113	0x3e14ed96	0.14543757
114	0x3ec90c83	0.39267358
115	0xbef9851b	-0.48734364
116	0xbe2cc7d2	-0.168731
117	0x3de11ee5	0.10992221
118	0xbe34fe29	-0.1767508
119	0x3c1beddf	0.009517162
120	0xbbcc8314	-0.0062412117
121	0xbe5b6dd5	-0.21428616
122	0xbe44d6ae	-0.19222519
123	0x3eef10db	0.46692547
124	0x3e769438	0.24079978
125	0xbda39b1c	-0.07988569
126	0x3de8e91c	0.11372587
127	0xbe2c09ee	-0.16800663

fc3.bias f4 [2]
0	0x3f069128	0.5256524
1	0x3f385846	0.72009695
