sat-code/models/maddpg_20250712-135635/checkpoint_1900/critic_agent_0.pth (torch, 24873 bytes, 5 tensors)

fc1.weight f4 [64, 18]
000000 f1 14 09 bf fc 0c 80 be cd 84 02 bf 67 b1 86 be
       -0.5354758 -0.25009906 -0.5098389 -0.26307222
000010 4d 93 40 be e5 f0 da bc 12 f8 2f bf 18 ad 12 3f
       -0.18806191 -0.026726196 -0.687379 0.5729537
000020 92 82 bd bd e8 7f 96 be 5f 42 a0 be b5 d0 22 3f
       -0.0925342 -0.2939446 -0.31300637 0.6359971
000030 85 64 d1 bd e7 62 05 be 72 3f 36 bf c8 d7 a6 3f
       -0.10224251 -0.1302601 -0.7119056 1.3034601
000040 13 6b 00 be da ae 3c 3f 9d 79 2a 3e cf 5d 5e be
       -0.12540846 0.737043 0.16647954 -0.21715473
000050 39 67 e6 be 36 b3 8f bf 71 75 82 3e 26 bb 94 3e
       -0.45000628 -1.1226566 0.25480226 0.29049033
000060 b6 e4 94 3e 64 c6 e2 3f 88 37 17 3f 79 8c 49 be
       0.29080743 1.7716794 0.5906911 -0.19682492
000070 d6 44 e9 3d 37 5e 96 bf 54 f6 25 bf ab e1 8c bf
       0.113900825 -1.1747502 -0.6482899 -1.1006368
000080 9e 5f 5f 3e 6f 1c e6 3f a1 d2 b1 3e 68 6e 89 bf
       0.21813819 1.7977427 0.3473101 -1.0736818
000090 a3 e7 00 be 8d a3 ed bf 52 a3 5b bf 70 c9 9f bd
       -0.12588362 -1.8565537 -0.8579608 -0.07802093
0000a0 52 b8 38 be 2b ce 80 3e 9f 93 a4 3e 32 6a 8b be
       -0.18039063 0.25157294 0.32143876 -0.27229458
0000b0 50 d4 b2 3c d5 0a c6 3d 13 82 e8 bd c9 36 85 be
       0.021829754 0.09670035 -0.11352935 -0.2601836
0000c0 ba c9 31 bf 85 d9 d4 be 84 47 c8 3e 36 17 9c be
       -0.69448435 -0.41572204 0.39117062 -0.3048646
0000d0 43 fc 6a bd e3 a8 bd be ab 62 49 bf fd 27 ba bf
       -0.05736948 -0.37042913 -0.7866618 -1.4543453
0000e0 61 0c 13 bf d1 b4 7f be 8a 78 b1 bd a6 24 8a be
       -0.57440764 -0.2497132 -0.08665569 -0.26981086
0000f0 98 8a 51 bf 31 b5 15 3c 59 b5 4c bf ac 25 00 3e
       -0.818521 0.009137438 -0.79964215 0.1251437
000100 e7 47 2c 3f e9 1a 59 3f d2 29 5c bf 87 72 84 3d
       0.67297214 0.84806687 -0.8600131 0.06467157
000110 63 65 6a bf c9 1f 6a 3e 8e e2 37 3f 0f 9e 21 3f
       -0.91560954 0.22863688 0.7183007 0.63131803
000120 96 4e 4f 3d 24 f8 27 be a6 60 0e 3e fb 0b e3 be
       0.050612055 -0.16403252 0.13904056 -0.44345078
000130 ab 65 bb be b3 c8 15 be be cd af bd 72 93 ba 3f
       -0.36601004 -0.14627342 -0.08584164 1.4576247
000140 22 ae 53 be 8c f9 de bd b2 a7 66 3f 7d 4f e2 3d
       -0.20671895 -0.10887441 0.9009963 0.110503174
000150 a5 0a 0e 3d 2a 7c 66 be 6f 56 c2 be 1c 3d af 3f
       0.03467812 -0.22508302 -0.3795657 1.3690524
000160 ce 5e 69 3f 9d f0 c7 3c 70 c9 89 be a3 d1 48 3d
       0.91160285 0.024406726 -0.26911497 0.04902805
000170 e2 3e 73 3d 4e 90 1e 3e 3c 0c 91 be 79 02 80 bd
       0.05938614 0.15484735 -0.28329647 -0.062504716
000180 a9 79 ae bd 00 02 b2 3d 16 48 6f be 9c f5 89 be
       -0.085192986 0.08691788 -0.23367342 -0.26945198
000190 f3 f3 c9 3d 25 e4 46 3e ff a9 65 3e 2f 5c ed 3d
       0.09860983 0.19422968 0.2242813 0.11589848
0001a0 34 3e b5 3b 9b 98 b1 3d 8c bd 24 be bd 27 ea bd
       0.005531097 0.08671685 -0.16087931 -0.11433361
0001b0 94 66 c5 bc ed 50 3b be 7d 22 e7 3e 6d b7 00 3f
       -0.024096765 -0.1829259 0.451435 0.50279886
0001c0 8c 30 34 bf 74 67 de bc f7 e3 26 bf 9f 2a 3d 3c
       -0.70386577 -0.02714894 -0.65191597 0.011545806
0001d0 71 a1 e9 be ec f9 73 be 16 c6 70 be e2 e9 fa 3e
       -0.45630983 -0.23825806 -0.23513064 0.49006563
0001e0 32 5a f6 3e 44 d8 11 3f 85 df 6a be cc a3 d2 bd
       0.4811569 0.5697062 -0.22936828 -0.10285148
0001f0 56 e2 1f bf fa c8 7f 3e e0 5d 02 be 8a 2c b2 bd
       -0.62454736 0.2497901 -0.12731123 -0.086999014
000200 af 61 90 bd 57 e2 78 bd fe e3 af bf 02 79 ca be
       -0.07049882 -0.06076273 -1.3741453 -0.39545447
000210 9e d2 a5 be 79 0c 07 bf 1f 68 6d bf ff 74 d5 bd
       -0.3238725 -0.52753407 -0.92737 -0.10422706
000220 15 88 99 bf 76 6b 95 3e fc 8d 89 be 4f 59 dd 3c
       -1.1994654 0.2918355 -0.26866138 0.027020125
000230 7b 0f 23 bf e0 5d 69 3e 37 24 d1 bf 51 97 1f 3f
       -0.63695496 0.22789717 -1.6339177 0.62340266
000240 ef 38 68 bd 8f a8 e7 3e 8b 19 56 bf c6 f8 73 bf
       -0.05669492 0.45245788 -0.83632725 -0.95301473
000250 08 b8 b6 3e 5f 27 40 3e 28 75 ce 3e 7f b4 82 3e
       0.3568728 0.18765019 0.40323758 0.25528333
000260 f0 70 7e 3c 39 e6 86 3e bf 47 f6 3c ff 18 cc be
       0.015529856 0.2634752 0.030063508 -0.3986282
000270 a4 a5 4a bf b2 01 46 bf dc 4a 34 3f a8 bc 9e 3e
       -0.79159 -0.77346337 0.70426726 0.31003308
000280 f9 1c af be 1f 84 08 bf 5d 2a dd 3e 57 30 0c 3e
       -0.34201792 -0.533266 0.43196383 0.13690315
000290 c4 32 dc bd 53 6f 48 bf 8f ab 0b 3e 8a 73 53 be
       -0.1075187 -0.7829487 0.13639663 -0.20649543
0002a0 19 26 82 bd 34 65 66 bd 58 b2 a6 bc 24 3b 5d bd
       -0.06354923 -0.05624886 -0.020348713 -0.05401148
0002b0 a2 40 15 3d e6 1b 3a bf 06 a2 cb be 33 a3 39 bf
       0.03643859 -0.7269882 -0.39772052 -0.7251465
0002c0 3d a7 31 bd 18 47 8c 3e c4 85 22 3e 9f 0d 1e bf
       -0.04337238 0.2739799 0.1587134 -0.61739534
0002d0 de 77 6e 3e 12 f0 ff bc e4 c4 21 3e 33 27 cf 3d
       0.23287913 -0.031242404 0.15797764 0.101148985
0002e0 6e 14 c3 3e 5e 9b 4b 3e 65 b5 1a 3f a1 92 8c 3e
       0.38101524 0.19883487 0.60433036 0.2745562
0002f0 17 dd 04 bc a1 d3 07 bb 76 47 4f be ed 53 89 3d
       -0.008109353 -0.0020725506 -0.20242104 0.06705461
000300 e6 6e 9d 3e a5 64 2d 3e 89 c6 3d 3f b5 99 b5 3e
       0.3074867 0.16932924 0.74131066 0.35468832
000310 2a 12 5c be c8 39 35 bd ba af 0a be 53 c4 fb 3c
       -0.21491304 -0.044244558 -0.13543597 0.030733263
000320 1b 96 e8 3e 06 68 34 3f eb c1 76 be 5c 31 60 be
       0.4542702 0.7047123 -0.24097411 -0.21893829
000330 6e 38 31 bf d2 56 6e bf 7f 11 3c be 9f 37 81 bf
       -0.6922673 -0.9310123 -0.18366049 -1.0095099
000340 86 85 a0 bd 22 c0 6a be b0 69 10 3f 8b 27 56 3f
       -0.078379676 -0.22924855 0.56411266 0.8365409
000350 e4 0f 87 bf 32 ee 6b bf e3 0e f9 bd 54 36 1a be
       -1.0551724 -0.9216033 -0.121610425 -0.15059787
000360 08 27 c8 bd 86 ed d4 be 93 a5 97 bc f1 7a 31 be
       -0.097730696 -0.41587466 -0.01851157 -0.17332055
000370 d2 2c a3 be c8 ad 1e be d6 ab 53 be b3 2e e7 3d
       -0.31870133 -0.1549598 -0.20671019 0.11288204
000380 41 20 35 be 9d 55 03 3d d1 cb ad 3e e1 bc 9f 3e
       -0.17688085 0.03206407 0.33944562 0.3119879
000390 6e 0a 96 be 18 16 97 3e 58 1e b0 be 98 f2 4c 3e
       -0.29304832 0.29509044 -0.3439815 0.20014417
0003a0 d6 34 02 be d7 a2 4c 3e 9b a9 86 3e cd e0 8e 3e
       -0.12715468 0.19983993 0.26301274 0.27905884
0003b0 93 f6 bd 3e 75 56 35 bf a1 0a 01 3e 8b 5a cf 3d
       0.37102184 -0.7083505 0.12601711 0.101246916
0003c0 3d df 39 be b9 79 6f bf d8 ca c5 3e 47 38 88 3c
       -0.18151565 -0.9354511 0.3863132 0.016628398
0003d0 2d ec 22 bf cf d2 d2 be 02 a2 cb 3e ee 91 13 bf
       -0.63641626 -0.4117646 0.3977204 -0.57644546
0003e0 81 5b 7a bd 96 7c 91 bf 16 5d 2f bf f9 c7 39 bf
       -0.06112242 -1.1366146 -0.6850141 -0.7257076
0003f0 93 33 ac bc 1d 95 a5 bd c1 bd c9 bd e9 c2 ec 3e
       -0.021020686 -0.08085082 -0.09850646 0.46242455

fc1.bias f4 [64]
000000 6b 38 a7 c0 72 bc 17 c0 86 a4 dd bf 08 ab 2c bf
       -5.225637 -2.3708768 -1.7315834 -0.6744847
000010 75 59 80 c0 81 8d df 3c c6 e5 6d bf 97 cb 2c bf
       -4.01092 0.027289154 -0.9292873 -0.67498153
000020 42 7c c5 40 81 e7 7e 40 01 ff 0c c0 67 31 ea bf
       6.171418 3.9828799 -2.2030642 -1.8296326
000030 8a d8 72 bd ae 70 c7 40 a4 e2 84 be 9f 97 b0 c0
       -0.05928854 6.232505 -0.25954163 -5.5185084
000040 0c db b6 40 5c 5d 94 40 4f 9a 3e 3f 5f 2b 12 3f
       5.714239 4.6363964 0.74454206 0.5709743
000050 db 6d 06 bf 40 cd 17 c0 48 3c b8 c0 e0 09 9f bf
       -0.52511376 -2.3719025 -5.7573586 -1.2424889
000060 e6 7b 10 bf 8e bd 2a 3f 4d 31 4d c0 e6 77 a8 bf
       -0.56439054 0.6669549 -3.206134 -1.316159
000070 a9 de b0 40 29 2e 78 40 4b 4b 1f 40 cf f9 4d c0
       5.52718 3.8778174 2.4889705 -3.218372
000080 b4 85 43 bd 6d 59 41 3f 81 c5 a3 40 82 38 33 bf
       -0.04773493 0.7552708 5.1178594 -0.700081
000090 4c ee 1a c0 df 23 50 c0 fe 19 99 3f ec e1 0c bf
       -2.4207945 -3.2521894 1.1961057 -0.5503223
0000a0 e2 46 51 40 00 bc 33 c0 fd cf 26 c0 52 55 a1 40
       3.2699513 -2.8083496 -2.6064446 5.041665
0000b0 53 1e 92 40 c7 7d 47 be f8 ef 94 c0 f2 3d ee bf
       4.5662017 -0.19481574 -4.654293 -1.8612654
0000c0 94 bc 05 40 94 94 03 c0 38 2d 15 bf 18 37 9e c0
       2.089635 -2.0559435 -0.58272123 -4.9442253
0000d0 65 96 83 be e6 94 89 40 6a e6 d4 be 7e 5a e3 3f
       -0.2570068 4.299426 -0.41582042 1.7761991
0000e0 99 2f 88 bf d9 38 3b bf 51 44 ef 3f 9e 5b 41 c0
       -1.0639526 -0.7313362 1.8692724 -3.0212169
0000f0 7d 99 ad 40 2c 03 76 bf c3 e9 00 bf 34 48 a7 40
       5.4249864 -0.9609859 -0.5035669 5.227564

fc2.weight f4 [64, 64]
000000 f5 ce 81 bd df bf 2f bc a9 fa 73 bd 20 dd 41 3d
       -0.06338302 -0.010726898 -0.05956522 0.04733002
000010 81 88 13 bf 40 a0 35 3d 61 17 0d be 8b cc e5 be
       -0.57630163 0.04434228 -0.1377845 -0.44882616
000020 74 16 8b be a3 2d 01 bf cd b1 05 3d d5 bd d5 be
       -0.27165568 -0.5046026 0.032640267 -0.41746393
000030 75 37 94 bc ef a8 af be 4d 32 22 3d 66 e3 2d bd
       -0.01809285 -0.34308574 0.03959875 -0.042453192
000040 b7 6c 78 be 57 af b4 be 9c 67 d0 bc ec bb 94 3e
       -0.24260221 -0.35290024 -0.02544003 0.29049623
000050 c6 57 65 bc c4 c9 ae be 26 9f 04 3c 24 a7 d5 be
       -0.013997978 -0.3413831 0.008094585 -0.4172908
000060 7b c5 09 3d b4 82 41 be b9 7f 3d bd 47 82 9a be
       0.033635598 -0.18897516 -0.046264384 -0.3017752
000070 85 4a 00 3c bf a2 16 bf 2e 2b 93 be 9f da 36 3e
       0.007830267 -0.5884208 -0.2874388 0.17856835
000080 4c 14 54 3d d2 24 8f 3c 64 9b a1 bc f4 36 0c 3d
       0.05177717 0.017473612 -0.019727416 0.034232095
000090 cc b4 a4 3d 77 ab 9e be 54 df 88 be 80 78 d3 3b
       0.08042297 -0.30990192 -0.26732886 0.0064535737
0000a0 35 6b 5a 3d 45 c2 ca bd 50 43 d1 3c cb 2f a8 be
       0.053324897 -0.09900335 0.025544792 -0.32848963
0000b0 29 9b c3 3c 27 a7 1c be 19 e8 6d be 5d e0 07 3e
       0.023877697 -0.15298139 -0.2323307 0.13269182
0000c0 00 ea d0 be 5b 35 e7 be 70 4c 74 3d b8 78 a7 be
       -0.40803528 -0.45157894 0.05964321 -0.3270929
0000d0 28 f4 e8 3d df e4 05 3d 4f 82 99 bd a1 f3 b4 3d
       0.11374694 0.03268897 -0.074955575 0.08835531
0000e0 76 eb f2 3d 28 44 50 3e fb be 93 bd 0d ed 02 bd
       0.11861317 0.203385 -0.07214161 -0.03196435
0000f0 96 bd 27 3d 93 08 a5 3e 92 79 ab 3e f2 09 93 be
       0.040952288 0.32233104 0.33491188 -0.28718525
000100 bd ac e1 be 6d 51 31 bf 5f 34 8a bf ba a7 11 3e
       -0.440771 -0.6926487 -1.0797232 0.14224139
000110 d6 0b f8 be c3 8b d5 bd f5 5b 4a bf bb 83 f0 be
       -0.4844653 -0.10427048 -0.79046565 -0.46975502
000120 67 d0 2c 3f ae 35 2b bf a2 38 b4 3e 75 56 c4 be
       0.67505497 -0.66878784 0.35199457 -0.3834721
000130 61 06 04 3a 8c 54 73 3e 19 30 99 bd d9 b5 24 bf
       0.0005036351 0.23762721 -0.07479877 -0.6433998
000140 59 34 0c 3e 81 59 60 3e f4 6a 47 3d 60 12 aa be
       0.13691844 0.21909143 0.048685983 -0.33217144
000150 55 83 03 bf a6 28 cf be a0 88 82 bf 43 39 d7 be
       -0.5137227 -0.404607 -1.0197945 -0.42035875
000160 bc 2a 22 3f 62 5d a0 3f 7a 27 99 3e bb 99 9c be
       0.6334646 1.2528498 0.2991293 -0.30586037
000170 4f 45 c9 3e 39 73 64 3e 24 2b 57 3f 3a 0c 4f bf
       0.3931069 0.22309579 0.840502 -0.8087803
000180 69 2d df 3d 36 be 0d be d2 3b 3c be 16 5d 01 c0
       0.10897333 -0.13842091 -0.18382195 -2.0213065
000190 04 47 79 be 68 bf b1 be 90 be bc be b1 c9 a6 be
       -0.24343497 -0.34716344 -0.36864138 -0.32575753
0001a0 b6 26 f4 3e db 86 5c bf 1f e9 4d 3e f9 4b 8b be
       0.47685784 -0.86143273 0.2010846 -0.272064
0001b0 e0 54 73 3f c6 00 80 bf bc 74 7a 3d f2 09 47 bf
       0.95051384 -1.0000236 0.061146483 -0.7774955
0001c0 06 ca 06 3d 73 b9 02 bf 6b 12 4e 3f 06 8c 7d bd
       0.03290751 -0.51064223 0.80496854 -0.061901115
0001d0 d5 3b 80 3c f8 8e 3c 3f be 4e de bd c4 9b 19 3e
       0.01565353 0.73655653 -0.10854863 0.15000826
0001e0 b9 cc b1 be 3d a0 58 3d 7e ac 4c bf a9 41 27 bf
       -0.34726503 0.05288719 -0.799507 -0.65334564
0001f0 8e f0 a2 3e e0 dc 3b bf 1b b8 f0 3e df b9 a1 3e
       0.31824154 -0.73383904 0.4701546 0.3158712
000200 4a 09 2d be 58 34 c2 bd 18 0f 54 be 37 29 eb 3b
       -0.16898075 -0.0948264 -0.20708883 0.007176544
000210 97 5e 13 be 28 ae f8 3d ca 5a e9 bd 97 26 d0 bc
       -0.14391552 0.12142593 -0.1139427 -0.025409026
000220 df d2 c0 3c 53 df 77 bd 3e d0 8b bd de fa 7b 3d
       0.023538051 -0.060515713 -0.068268284 0.061518542
000230 f8 83 8c 3c 8e 43 ea bd cb 89 06 be 09 4a 0e be
       0.017152771 -0.11438666 -0.13138501 -0.1389543
000240 3f c8 0d be 92 55 af bd 43 d7 95 bd a2 81 bc bd
       -0.13845919 -0.08561243 -0.073164485 -0.09204413
000250 db f7 69 bd 33 57 00 be 0f d6 28 bd ea 11 91 bd
       -0.05712114 -0.12533264 -0.041219767 -0.07083495
000260 45 5a 1f be ff 4c c5 bd 3a 97 cc bd 2b 31 a0 3d
       -0.15561779 -0.096338265 -0.09989782 0.07821878
000270 14 92 ee 3c 84 52 16 bd 3c 0d 3d bd 94 28 5c 3d
       0.02912239 -0.036699787 -0.0461552 0.053749636
000280 86 96 e1 bd 3d c6 0a 3c 8b 3f ce bd d1 25 77 bd
       -0.11015038 0.008470115 -0.100707136 -0.0603388
000290 20 8e 7e bd 81 25 c6 3a 20 c9 0e bd 14 16 64 bd
       -0.06214726 0.0015117378 -0.034859776 -0.055685118
0002a0 db 15 4a 3d 90 6b 9a bd 78 0d 8c bd b4 61 3a be
       0.04933725 -0.07540047 -0.068385065 -0.18201333
0002b0 4c be 18 3d e8 fa 62 bd 30 d9 35 be 3e 76 7c 3c
       0.037290856 -0.055415064 -0.17758632 0.0154090505
0002c0 f2 09 a3 bd 5b e5 4f bd b5 05 71 bd 94 aa 33 be
       -0.07960881 -0.05075584 -0.058843333 -0.17545539
0002d0 1a e2 ff bd 96 8a 07 bd b3 54 f6 bd e2 3a c7 bd
       -0.12494297 -0.03309115 -0.12027874 -0.09728028
0002e0 4d a1 9c 3c d9 f7 51 3d 72 02 a6 3c 6c e6 a8 bd
       0.019119883 0.051261757 0.020264838 -0.082470745
0002f0 88 e1 a4 bd b4 2d f5 bd 8d 2c 8f 3c d0 98 97 3d
       -0.08050829 -0.11971608 0.017477298 0.074021935
000300 dd 84 41 3d 6a 87 6f 3e 47 36 ae bd 7c 04 c2 bd
       0.04724585 0.233915 -0.08506446 -0.094735116
000310 9b 4f de 3c a4 63 0a 3e 5c a1 18 3e f1 99 2d be
       0.027137568 0.13514572 0.14905304 -0.16953255
000320 2e 1a 3e bf 51 65 8d be 4f 35 11 3f c1 71 6e be
       -0.742587 -0.2761636 0.5672197 -0.23285581
000330 78 91 ba bd 65 8b 87 bd d8 45 ea 3b aa 40 97 3d
       -0.09109777 -0.06618384 0.0071494393 0.073853806
000340 9c 3d 15 bf a4 17 9d be a0 ce 1b be 86 de 02 bf
       -0.58297133 -0.306821 -0.1521554 -0.51120794
000350 e3 df 42 bd 50 4e dd 3e 8e d0 e4 3c 9a 8b 73 be
       -0.047576796 0.4322381 0.027931478 -0.23783723
000360 83 ac d6 be 18 8d 2c be 92 6a 40 3f 6f 64 83 be
       -0.4192849 -0.16850698 0.75162613 -0.25662562
000370 22 1e b8 be 2b 08 fa 3c a5 c7 2e 3c 22 c5 21 bf
       -0.3596049 0.030521473 0.010667716 -0.63191426
000380 0b 59 6b 3d 39 90 95 3e 0d 2d 63 be 5b a9 98 3e
       0.057457965 0.29211596 -0.22185154 0.29816708
000390 f3 1a 79 be d3 08 0b bf 50 a0 bd bc 9c a0 05 3e
       -0.24326687 -0.5431034 -0.023147732 0.13049549
0003a0 cd fe be be 56 76 a1 3d 02 32 87 3e 05 a4 01 3e
       -0.37303773 0.07883899 0.2640534 0.12660225
0003b0 b6 b1 5d 3e 56 8c 58 be 1c 44 f8 3d ba 05 e7 be
       0.21649823 -0.21147284 0.12122366 -0.45121557
0003c0 7c d0 1b be 41 58 a4 be 0e 6b 8a bf 90 a7 ea bd
       -0.15216249 -0.32098582 -1.081392 -0.11457741
0003d0 43 f1 9a 3d 01 fa 31 be 17 e8 ef bd 28 e0 8e bd
       0.07565548 -0.17380525 -0.117141895 -0.06976348
0003e0 e7 28 e4 3d 04 d7 b5 3c 10 c8 d0 be 42 b2 d6 bd
       0.11140614 0.022197254 -0.40777636 -0.10483219
0003f0 18 68 d5 be ba 96 9d bc 94 6e 9b bd 52 fc cd bd
       -0.4168098 -0.019236911 -0.075894505 -0.10057892

fc2.bias f4 [64]
000000 7f b7 ce 3d 26 fd 69 40 28 0c ff bd b3 42 28 3f
       0.10093593 3.656076 -0.124534905 0.65726775
000010 88 5c 12 be 21 26 cb bd 76 b1 58 bd 40 5a a2 3d
       -0.1429311 -0.09919382 -0.052903615 0.0792737
000020 0a 46 1d 3b 58 d4 3f be e8 6d fd 3c 7f 17 6b bd
       0.0023998045 -0.18733346 0.030936196 -0.057395454
000030 91 03 2f 40 be 2c 1c 3e cc 7a 8a be 0d 37 d9 3c
       2.7345927 0.15251443 -0.27046812 0.026515508
000040 89 82 59 3d 49 00 39 be 36 b4 da bf 49 86 9a bb
       0.053103004 -0.18066515 -1.7086246 -0.004715715
000050 d6 48 57 bd 88 2d 1c bf fd c7 07 3f 8b 4f 43 3e
       -0.052559696 -0.61006975 0.5303953 0.19073312
000060 ac a5 72 be 3a 0e 39 3c c2 7d ad 3c 65 c5 a6 bd
       -0.23696011 0.011294896 0.02117813 -0.08143119
000070 f9 4b 66 be 47 63 d4 3c 34 d1 0f be a5 be 11 be
       -0.22489919 0.025926245 -0.14044648 -0.14232881
000080 dd 35 ad 40 37 76 9c be 22 e9 65 3d 7e 85 4d 3e
       5.412825 -0.3055894 0.056130536 0.20070454
000090 98 e4 b4 3c fe d7 28 be e7 39 00 bd ac 57 c0 bc
       0.022081658 -0.16488644 -0.03130522 -0.023479305
0000a0 e2 aa 80 be 90 42 3e 3e 11 7c ea bc 4d 4b 01 bd
       -0.25130373 0.18580079 -0.028623613 -0.031565953
0000b0 aa 8a 74 3e 64 4c 81 bd b6 e9 09 be 9a 3a 0a be
       0.23881021 -0.063133985 -0.1346806 -0.13498917
0000c0 37 5c 18 be 44 a4 30 be 96 bb 48 be ef ce 8f bf
       -0.14878927 -0.17250162 -0.19602808 -1.1235026
0000d0 9c 6a 96 bd d9 50 1a be ef 33 2f be 9a 12 ae be
       -0.07344553 -0.15069903 -0.17109655 -0.33998567
0000e0 e2 85 39 c0 0c 75 07 3f 51 51 28 bf f7 61 48 be
       -2.8987966 0.52912974 -0.6574908 -0.1956862
0000f0 6c cd b4 bc a0 2e 65 bb 69 82 3a 40 53 f3 68 bd
       -0.022070609 -0.0034970418 2.9142096 -0.056872677

fc3.weight f4 [1, 64]
000000 8f c3 8e be 9b 9c da bc 66 7e 31 bd 2c 70 a7 3d
       -0.27883574 -0.026686003 -0.043333434 0.08175692
000010 bc 56 80 bd 8f ea 87 be 6c ad 69 bc 28 3a ab bb
       -0.06266543 -0.26546142 -0.014262538 -0.0052254386
000020 4b 88 7b 3b 46 94 a2 bc e1 e4 d5 3c 3f a0 89 bc
       0.0038380797 -0.019846093 0.026110115 -0.016800044
000030 12 14 ea 3c ef 21 79 bc 1f da 74 bc 77 0b b2 3d
       0.028574023 -0.015205844 -0.014944582 0.08693593
000040 54 1d f4 3b 93 7e 74 3c 2a 0e 6c bd f2 93 06 3a
       0.0074497852 0.014922756 -0.057630695 0.000513374
000050 65 d2 7b 3d be ad 40 3c be 10 01 bc 44 53 a1 3c
       0.061479945 0.011760173 -0.007877527 0.019693024
000060 2b 05 13 3e 7b 1f a2 bc 28 2a 83 3d ee 8a c1 3d
       0.1435744 -0.019790402 0.06404525 0.09450327
000070 ee f0 19 bc 26 d3 a1 3c 11 f7 18 3e c7 3f a5 bc
       -0.009395821 0.019754004 0.14937998 -0.020172013
000080 80 19 01 3e da 51 a5 ba 48 36 d4 b8 46 a0 93 3d
       0.12607384 -0.0012612895 -0.000101190584 0.07208304
000090 d1 4e dc 3d 03 22 65 bc 7c 0c ed bc cd 12 d1 bc
       0.107572205 -0.01398516 -0.028936617 -0.02552166
0000a0 16 a8 2e 3d 9b 43 de be bd 45 be bc 35 56 0b bd
       0.042640768 -0.43410954 -0.023226613 -0.03401776
0000b0 2b a1 60 be 2c 7f 47 3e cf 87 69 bc c4 f3 9d 3d
       -0.2193648 0.19482106 -0.014253571 0.0771251
0000c0 02 58 d2 bc 37 5e 31 bc cc b4 2f bd 78 33 dd bd
       -0.025676731 -0.010825685 -0.04289703 -0.108008325
0000d0 dd 55 7a 3e b2 70 d5 3c be ac df 3c 6d ba d4 3c
       0.24446817 0.026054714 0.02730405 0.025967801
0000e0 68 25 8b 3c 7e d4 ec bd bc 54 b5 bd 89 12 14 bc
       0.01698561 -0.11563967 -0.088540524 -0.009037622
0000f0 59 9e 0d 3d 8d 96 93 bc 05 0c 7e bc a5 4c ff bc
       0.03457484 -0.018016124 -0.015505795 -0.031164477
