sat-code/models/maddpg_20250712-135635/checkpoint_1000/actor_agent_1.pth (torch, 21533 bytes, 6 tensors)

fc1.weight f4 [64, 4]
0	0xbd970fa3	-0.07376029
1	0x3e53eed8	0.2069658
2	0xbed1405e	-0.4086942
3	0xbed16336	-0.40896004
4	0xbea43e60	-0.32078838
5	0x3eb9d76b	0.36297163
6	0xbf3b3817	-0.7313246
7	0xbe2df5fd	-0.16988368
8	0x3ccb64d0	0.024828345
9	0x3da5b59e	0.08091281
10	0xbed67cd2	-0.41892105
11	0x3f0fe81f	0.56213564
12	0x3dfc1439	0.12308545
13	0x3c2520c5	0.010078614
14	0xbee4e8cb	-0.44708857
15	0x3f2131c1	0.62966543
16	0x3de8ca24	0.1136668
17	0x3e139f74	0.14416295
18	0xbe85f62d	-0.2616438
19	0xbef0c4da	-0.47025186
20	0xbefc7c27	-0.4931347
21	0x3d2562a0	0.04037726
22	0x3f3ae71b	0.7300889
23	0xbe427403	-0.18989567
24	0xbe14c30b	-0.14527528
25	0x3e93d640	0.28874397
26	0x3e962643	0.29326066
27	0xbf089d7c	-0.533653
28	0x3edbcbbd	0.42928877
29	0xbe19c8fd	-0.15018077
30	0x3e0ce853	0.137605
31	0xbe4c4139	-0.19946755
32	0xbf4be0c7	-0.7963986
33	0x3d01ffd8	0.031738132
34	0x3dfa5b5c	0.12224457
35	0xbdeeb72c	-0.11656031
36	0xbe82bb5b	-0.25533566
37	0x3ef33638	0.47502303
38	0x3ee2e90f	0.44318435
39	0xbf2742f0	-0.65336514
40	0xbe04e277	-0.12977014
41	0x3ee8f228	0.4549725
42	0xbf106526	-0.5640434
43	0x3c705504	0.014668707
44	0x3e2e4618	0.17018926
45	0xbe97bd22	-0.29636484
46	0xbba72ffa	-0.005102155
47	0xbed460c3	-0.41480073
48	0x3e91e39d	0.28493968
49	0x3db0eb89	0.08638675
50	0xbefab0cb	-0.48963007
51	0xbd0eebc1	-0.0348928
52	0xbe0642a7	-0.13111363
53	0x3e8ce6e0	0.27519894
54	0x3e10e5f3	0.14150219
55	0x3eb892fd	0.36049643
56	0x3ecf1e0a	0.40452605
57	0x3bad99d4	0.0052978788
58	0xbf059d44	-0.52193093
59	0xbe15a39f	-0.14613198
60	0xbd2a9b4d	-0.041652013
61	0x3ca76074	0.020431735
62	0xbf25360e	-0.64535606
63	0xbf56dbc3	-0.8392908
64	0x3ecb1ebd	0.3967189
65	0xbd9eb424	-0.07749203
66	0x3e7c283a	0.2462472
67	0xbef8b552	-0.48575836
68	0x3dc4ddb0	0.09612596
69	0xbebd82cb	-0.3701385
70	0xbde8638e	-0.113471135
71	0x3f034277	0.5127329
72	0x3e457726	0.19283733
73	0x3dc962f2	0.098333254
74	0xbf0e1edf	-0.55515856
75	0x3ef996f6	0.48747987
76	0xbe79eaab	-0.24405925
77	0xbe0ef918	-0.13962209
78	0xbc101cf7	-0.008795968
79	0x3ebc8e24	0.36827195
80	0x3e90674f	0.28203818
81	0x3ed70218	0.41993785
82	0xbb2e5f04	-0.0026606927
83	0xbe54cf48	-0.20782197
84	0xbe9bc4ec	-0.30423677
85	0x3ebc012b	0.3671964
86	0xbeee3847	-0.4652731
87	0x3efa38b4	0.48871386
88	0x3e5d06d9	0.21584643
89	0xbe976a96	-0.29573506
90	0xbe0fa705	-0.14028557
91	0x3f079f87	0.52977794
92	0x3eef5f5d	0.46752444
93	0x3e2c9127	0.16852246
94	0xbf1a0032	-0.6015655
95	0x3dbbb2fc	0.09164998
96	0x3ec6cdb0	0.38828802
97	0xbe98cb99	-0.29842833
98	0xbeb9261d	-0.3616189
99	0xbc74de22	-0.014945539
100	0xbdf72418	-0.12067431
101	0xbeb75fb8	-0.35815215
102	0x3ebdff72	0.37108952
103	0x3eb9e5dc	0.3630818
104	0xbbfbd6cf	-0.0076855193
105	0x3eb47d76	0.3525197
106	0x3f257859	0.6463676
107	0xbde6f16a	-0.11276515
108	0x3ed9fdcc	0.42576444
109	0x3d48d436	0.049030505
110	0xbd9e0223	-0.07715251
111	0xbee56b4a	-0.44808418
112	0x3cd2455f	0.025667844
113	0x3de7b437	0.1131367
114	0x3e02653d	0.12733932
115	0x3d9be81d	0.076126315
116	0xbedb9a9a	-0.4289139
117	0x3db7a992	0.0896789
118	0x3f4563f7	0.7710566
119	0xbec54d73	-0.38535652
120	0xbeba0f5e	-0.3633985
121	0x3ee5e152	0.44898468
122	0x3ec179ef	0.3778834
123	0xbedf7bc4	-0.43649113
124	0x3e9bde01	0.30442813
125	0xbe4fe225	-0.20301111
126	0x3e8e3fe7	0.2778313
127	0xbe7c9e42	-0.24669746
128	0x3e84b6d0	0.25920725
129	0x3ebd25e4	0.3694297
130	0x3d94b494	0.07261005
131	0x3e9e9ba9	0.30978134
132	0xbe613a15	-0.21994813
133	0x3f173f88	0.59081316
134	0xbedae8c5	-0.42755714
135	0xbef5678a	-0.47930557
136	0xbf06d409	-0.5266729
137	0x3d2ba75f	0.041907664
138	0xbf087624	-0.5330527
139	0x3f2bc5ad	0.67098504
140	0x3dff9777	0.124800615
141	0x3e958750	0.29204798
142	0xbedb2934	-0.42804873
143	0xbda3f67a	-0.08005996
144	0xbe7835a5	-0.24239214
145	0x3e5bc6b3	0.21462516
146	0x3f088434	0.53326726
147	0xbedfac28	-0.43686032
148	0x3ebfea76	0.37483567
149	0x3eddc47b	0.43313965
150	0xbe8b5c1a	-0.27218705
151	0x3f0a4dcb	0.5402495
152	0x3eaddfde	0.3395986
153	0xbe1b9720	-0.15194368
154	0x3f285673	0.6575691
155	0xbe807e9f	-0.25096604
156	0xbf132cdf	-0.5749034
157	0x3e01de20	0.1268239
158	0xbf459582	-0.77181256
159	0x3e1f9cb5	0.15587123
160	0xbe970090	-0.29492617
161	0x3eadaa6b	0.3391908
162	0xbe4c7773	-0.19967441
163	0x3d015a10	0.03158003
164	0x3f0a932a	0.54130805
165	0xbec6dc8b	-0.38840136
166	0x3f33082a	0.6993433
167	0xbf1c3b3b	-0.6102788
168	0xbe934245	-0.28761497
169	0x3ed0123b	0.4063891
170	0xbf07866a	-0.52939475
171	0xbeeec5a2	-0.46635157
172	0xbdc603cf	-0.09668695
173	0x3e7314ed	0.23738451
174	0x3ebfd400	0.3746643
175	0xbed87aa3	-0.42281064
176	0xbda70d73	-0.08156862
177	0xbe2aca14	-0.16678649
178	0xbe00ced2	-0.12578896
179	0x3e497a9a	0.19675675
180	0x3d8d5361	0.06900669
181	0x3e8759e2	0.26435763
182	0x3ee3e026	0.4450695
183	0x3de1f8d0	0.11033785
184	0x3d441bdc	0.04787813
185	0xbe667245	-0.22504528
186	0xbe9f8215	-0.31153932
187	0xbc42f2e3	-0.011898729
188	0x3c72280c	0.014780056
189	0x3e2b42d9	0.16724719
190	0xbec5a48f	-0.3860211
191	0x3edd9be0	0.43282986
192	0xbe54efd6	-0.20794615
193	0x3f13ead2	0.5778018
194	0xb9af0bd8	-0.00033387425
195	0xbdccaf97	-0.099944286
196	0xbe419271	-0.18903519
197	0x3f07410b	0.5283362
198	0xbf4251a3	-0.7590582
199	0x3da64f01	0.081205375
200	0x3e49e5df	0.19716595
201	0xbdd64845	-0.10463003
202	0xbe52e0ca	-0.20593563
203	0xbe380177	-0.17969309
204	0xbe057498	-0.13032758
205	0xbdbe013d	-0.0927758
206	0xbd5f881d	-0.054573167
207	0x3dbbfb17	0.09178751
208	0xbee251bf	-0.44202992
209	0xbe8b3692	-0.2719007
210	0xbe77c829	-0.24197449
211	0xbf228bb4	-0.6349442
212	0x3ef7872f	0.48345324
213	0x3dfc6a7a	0.12324996
214	0xbe194eeb	-0.14971511
215	0xbe6f075d	-0.23342653
216	0x3dbd76cc	0.09251174
217	0x3dbaddc2	0.09124328
218	0xbd081ad5	-0.033228714
219	0xbeb88840	-0.3604145
220	0x3b860484	0.004089894
221	0xbe9b6696	-0.30351704
222	0x3e290a2a	0.16507784
223	0xbd372d65	-0.044721026
224	0x3e449b90	0.19199967
225	0x3e702091	0.23449923
226	0xbd2bc3d2	-0.041934796
227	0x3e382687	0.17983447
228	0xbe50f6bd	-0.20406623
229	0x3db6a1c6	0.089175746
230	0xbed264d9	-0.41092566
231	0x3f05d07a	0.52271235
232	0xbed18616	-0.40922612
233	0x3ef91aae	0.48653167
234	0xbe29e822	-0.16592458
235	0x3e458cfe	0.19292066
236	0xbc96a7e6	-0.018390607
237	0x3e0540b0	0.13012958
238	0x3e256a60	0.1615386
239	0xbe633644	-0.2218867
240	0x3e1bb45a	0.15205517
241	0xbd8ff2c9	-0.070287295
242	0x3eeba6eb	0.46025786
243	0x3ea26ab9	0.31722048
244	0x3ed80bf8	0.4219663
245	0xbdad10de	-0.08450483
246	0xbea77bdb	-0.32711682
247	0x3f152ae0	0.5826855
248	0x3e6d8c7e	0.23198125
249	0x3ea13da5	0.31492344
250	0xbe0583fa	-0.13038626
251	0x3f3541be	0.7080344
252	0xbe0b4bf8	-0.13603199
253	0x3ec45435	0.38345495
254	0xbedea63b	-0.434862
255	0x3f0a3bf6	0.53997743

fc1.bias f4 [64]
0	0x3f8abe1a	1.0839264
1	0x3eb4ec68	0.35336614
2	0x3f8567aa	1.0422261
3	0x3f92a8dc	1.1457782
4	0x3f28911e	0.6584643
5	0x3f4ae998	0.79262686
6	0x3f440d4c	0.7658279
7	0xbe9a8bf5	-0.30184904
8	0x3f81d7ed	1.014402
9	0x3d9c6907	0.0763722
10	0x3e7952c0	0.24347973
11	0x3e91440a	0.28372222
12	0xbfad1e73	-1.3524917
13	0x3f0af608	0.54281664
14	0x3f318449	0.69342476
15	0xbe9fac1e	-0.31186002
16	0xbf0f4329	-0.55961853
17	0x3f20d8fb	0.62831086
18	0xbf8e5170	-1.1118603
19	0xbe81d15d	-0.25355044
20	0x3e9ab51f	0.3021631
21	0x3f15534a	0.58330214
22	0x3ecdb559	0.4017742
23	0xbfd42a81	-1.6575471
24	0xbe3edb89	-0.18638434
25	0xbe966f38	-0.29381728
26	0x3f9d13b2	1.2271636
27	0x3f95ef00	1.1713562
28	0xbeacab8e	-0.33724636
29	0x3f652ffa	0.8952633
30	0xbddcfdc8	-0.107905924
31	0xbe8f6e7d	-0.28013983
32	0x3df92790	0.12165749
33	0xbba3459d	-0.004982664
34	0x3f30dc78	0.6908641
35	0x3fc4a05f	1.5361441
36	0xbf33090b	-0.69935673
37	0xbf8d6783	-1.1047214
38	0xbe5e0cfe	-0.21684644
39	0x3ea5893e	0.3233127
40	0x3c642ceb	0.013926725
41	0x3f494cb5	0.7863267
42	0xbe322138	-0.17395484
43	0x3ed3b34b	0.41347727
44	0x3f3dfb39	0.7421146
45	0xbec2d5a1	-0.3805361
46	0xbc94140a	-0.018075962
47	0xbf5f73af	-0.87285894
48	0xbec715fd	-0.38883963
49	0x3e647ddb	0.22313635
50	0x3f305768	0.6888337
51	0x3f30e205	0.6909488
52	0xbe2752c8	-0.16340172
53	0xbf35b49b	-0.7097871
54	0x3fde9078	1.7387838
55	0x3f4197bc	0.75622153
56	0xbf6dda5b	-0.9291131
57	0x3f2fc1ad	0.686549
58	0xbef045f1	-0.4692836
59	0x3fb051f2	1.3775008
60	0xbe52c155	-0.20581563
61	0xbea8facd	-0.33003846
62	0xbf3229f3	-0.6959526
63	0x3e3f81c7	0.1870185

fc2.weight f4 [64, 64]
0	0x3e450525	0.19240244
1	0x3d2b9fc7	0.041900422
2	0xbd9269e6	-0.07149105
3	0x3d7c4191	0.061585966
4	0x3d45df89	0.048308883
5	0xbec5bfb7	-0.3862283
6	0x3e548a04	0.20755774
7	0x3dbddd03	0.0927067
8	0xbddb05e5	-0.10694484
9	0x3d9780e1	0.073976286
10	0xbdfa3190	-0.122164845
11	0x3e06d09a	0.13165513
12	0xbd7edac5	-0.062220354
13	0xbedf49d4	-0.43611014
14	0x3daed392	0.085364476
15	0xbcf00751	-0.029300364
16	0x3d9c67f0	0.07637012
17	0xbe0e7082	-0.13910106
18	0x3d3fa5e7	0.046789076
19	0xbdb3433e	-0.0875306
20	0xbdaace23	-0.08340099
21	0xbe8e6fec	-0.27819765
22	0x3d5a2815	0.05326088
23	0xbd550140	-0.052003145
24	0x3d83b3ec	0.06430802
25	0x3da39418	0.07987231
26	0x3ccdfa53	0.025143778
27	0xbc9f437c	-0.019441359
28	0xbdc96ce1	-0.0983522
29	0xbd635fba	-0.055511214
30	0x3e23bae1	0.15989257
31	0x3df5b81c	0.11998007
32	0x3dbf0916	0.09327905
33	0xbe51efde	-0.20501658
34	0xbe9c1a5a	-0.30488855
35	0x3c02ec8b	0.007990967
36	0x3a0975e5	0.0005243703
37	0x3dad86ca	0.084729746
38	0x3cfcb5ea	0.030848462
39	0xbeb71c0e	-0.35763592
40	0xbf17b9d6	-0.5926794
41	0x3e057f5a	0.13036862
42	0xbd4875fa	-0.048940636
43	0x3e1462ce	0.14490816
44	0x3e03fa36	0.12888417
45	0x3e21b55f	0.15791844
46	0x3d4500a5	0.048096318
47	0xbeb2513b	-0.348276
48	0xbc478f90	-0.012180224
49	0xbe57cc7f	-0.21074103
50	0x3ad2748a	0.001605646
51	0x3e20065e	0.15627429
52	0x3dd063d9	0.101752944
53	0xbd0a6847	-0.033790853
54	0x3e4af317	0.19819294
55	0xbea1fb79	-0.3163717
56	0x3c53c2f8	0.012924902
57	0xbebbbf03	-0.36669168
58	0xbeba55a9	-0.3639348
59	0x3e982fbb	0.29723915
60	0x3df3a23e	0.118961796
61	0x3d9c6439	0.076363035
62	0xbdb778fe	-0.08958624
63	0xbf289ed0	-0.6586733
64	0x3e79f00f	0.24407981
65	0x3df7e0e5	0.12103442
66	0x3e222a65	0.15836485
67	0xbcf30e43	-0.029669886
68	0x3d5f3222	0.05449117
69	0x3ea72a5d	0.32649508
70	0x3df79590	0.12089074
71	0x3da21ce6	0.07915668
72	0x3ee6f2f3	0.4510723
73	0x3c8bf3ea	0.01708408
74	0xbd024ba0	-0.031810403
75	0x3e606e3a	0.21917048
76	0xbd87384c	-0.06602535
77	0xbc853e7f	-0.016265152
78	0x3e137e85	0.14403732
79	0x3efbc33f	0.49172398
80	0xbdfe5a53	-0.12419572
81	0xbe965c38	-0.29367232
82	0xbe40f2f8	-0.18842685
83	0x3db08e17	0.086208515
84	0x3cdb3f01	0.026763441
85	0xbbef0bf1	-0.0072951247
86	0x3e32274d	0.17397805
87	0xbe302746	-0.17202482
88	0xbdbef152	-0.09323372
89	0x3d7a15d0	0.06105596
90	0x3dbfad54	0.093592316
91	0x3c868905	0.016422758
92	0xbcdbfd22	-0.026854102
93	0x3e5e2157	0.21692406
94	0xbda12b5f	-0.078696005
95	0xbd94c11d	-0.07263396
96	0x3d1d733b	0.03843997
97	0x3bc97b00	0.006148696
98	0xbe1f788f	-0.15573333
99	0x3d6610bd	0.056168307
100	0xbe742e65	-0.23845823
101	0xbe26f7d3	-0.16305475
102	0xbe0889e7	-0.13333856
103	0x3e283434	0.16426164
104	0xbe38a706	-0.18032464
105	0x3e17ecba	0.14836398
106	0xbd2b43fe	-0.04181289
107	0x3bda2c70	0.0066581294
108	0xbefcb0db	-0.4935368
109	0xbc882fbe	-0.016624328
110	0x3e985cea	0.29758388
111	0xbe62ed23	-0.22160773
112	0x3c934539	0.017977344
113	0xbd286e0b	-0.04112057
114	0x3e4ddd4f	0.20103954
115	0xbed4b60c	-0.4154514
116	0x3e1d498f	0.15360092
117	0xbd2539e7	-0.040338423
118	0x3ce10cbd	0.027471894
119	0xbf0bfde6	-0.54684293
120	0xbd53a97e	-0.051675312
121	0x3e1e8639	0.1548089
122	0x3b998704	0.0046852846
123	0x3ebb4eff	0.36583707
124	0xbd199a66	-0.03750076
125	0xbd738b2d	-0.0594589
126	0x3b365535	0.0027821783
127	0xbe692551	-0.22768141
128	0x3d009d8a	0.03140024
129	0xbe38a6d9	-0.18032397
130	0xbdefe5f6	-0.117137834
131	0x3d58d162	0.052934058
132	0x3df02e77	0.117276125
133	0xbeae9e8c	-0.34105337
134	0x3e392a8c	0.18082637
135	0x3d7d7ccf	0.061886605
136	0xbdd8f363	-0.10593297
137	0x3e7b4b97	0.24540554
138	0x3db99e2c	0.09063372
139	0x3df7800a	0.120849684
140	0x3dbf3b86	0.09337525
141	0x3d94a74f	0.07258474
142	0x3d901aec	0.07036385
143	0xbe52a06d	-0.2056901
144	0xbd28ea1f	-0.0412389
145	0xbe3c6749	-0.18398775
146	0x3dd1f69e	0.102521166
147	0xbc95b927	-0.018276764
148	0x3dd73cd5	0.1050965
149	0xbda8faa2	-0.082509294
150	0xbd8682e9	-0.06567938
151	0x3da25ad9	0.07927484
152	0x3e271afe	0.1631889
153	0xbd024754	-0.031806305
154	0x3d0004ab	0.03125445
155	0x3d47550f	0.048665103
156	0xbda655af	-0.081218116
157	0xbe94faf2	-0.29097706
158	0x3d0ab243	0.03386141
159	0x3cf36494	0.029711045
160	0x3b8fec85	0.004392209
161	0x3d78ac92	0.06071145
162	0xbe9f1df7	-0.3107755
163	0x3d8613b4	0.06546727
164	0x3df9e678	0.122021616
165	0x3dc56e75	0.09640209
166	0x3dfa1d08	0.122125685
167	0xbe739d6c	-0.2379052
168	0xbe1d3a9a	-0.15354386
169	0x3d34017c	0.043946728
170	0x3c802bd3	0.015645897
171	0x3e6e0fdf	0.23248242
172	0x3ee2e598	0.4431579
173	0x3b532fa9	0.0032224453
174	0xbe824826	-0.2544567
175	0xbdb98913	-0.09059348
176	0xbd1e548f	-0.03865486
177	0x3dfdaf41	0.12386943
178	0x3dc5be28	0.0965541
179	0x3eb8fb29	0.3612912
180	0xbe985126	-0.2974941
181	0xbc6503b8	-0.013977937
182	0xbc3c2315	-0.011482974
183	0x3eda7963	0.42670736
184	0xbd89d098	-0.06729239
185	0xbdf4be12	-0.119503155
186	0xbd8feebd	-0.070279576
187	0x3cb46927	0.022022797
188	0x3e3f2337	0.18665777
189	0x3dfa13bc	0.12210795
190	0xbcbf3303	-0.023339754
191	0xbd350e22	-0.04420293
192	0x3d7e298b	0.062051337
193	0x3e689c46	0.22715864
194	0x3e169879	0.14706601
195	0x3cbae380	0.022813559
196	0x3d0f0222	0.034914143
197	0x3ed2a38e	0.41140407
198	0x3ddcb42f	0.10776555
199	0x3d4e3d05	0.05035116
200	0x3ea42554	0.3205973
201	0xbe9bafc5	-0.3040754
202	0xbd76cfc3	-0.06025673
203	0x3e0b24c6	0.13588247
204	0xbd76dfbd	-0.060271967
205	0xbe89437a	-0.26809293
206	0x3a0ecd39	0.00054474507
207	0x3f116c4a	0.5680586
208	0xbd11a8d4	-0.035561398
209	0xbe5532e4	-0.20820194
210	0xbe589a7a	-0.21152678
211	0xbde3c79a	-0.11122055
212	0x3dff57a0	0.12467885
213	0xbe81474c	-0.25249708
214	0x3e8dc5c3	0.27689943
215	0x3d56a178	0.052400082
216	0x3d38a402	0.045078285
217	0x3a196000	0.0005850792
218	0x3dbb5fdf	0.09149145
219	0x3db0d699	0.08634681
220	0xbd919e72	-0.07110299
221	0x3e920feb	0.2852777
222	0xbcc2fcee	-0.023802247
223	0x3d7ec6a9	0.062201176
224	0xbd920b21	-0.07131029
225	0xbdf3ac6a	-0.1189812
226	0xbcdd05bc	-0.026980273
227	0x3c189554	0.009312946
228	0xbe21a908	-0.15787137
229	0x3c72a868	0.014810659
230	0xbcc2815f	-0.02374333
231	0x3ec52a06	0.38508624
232	0xbd564eaf	-0.052321132
233	0x3d8a25ba	0.06745477
234	0xbd053d7d	-0.032529343
235	0xbc4c119f	-0.012455373
236	0xbe39d2ec	-0.18146867
237	0x3d6071a2	0.05479587
238	0x3ee20635	0.4414536
239	0xbe529a33	-0.20566635
240	0xbdc9c42a	-0.098518685
241	0xbe367553	-0.17818193
242	0x3dda9fd7	0.10675018
243	0xbe9be603	-0.30448923
244	0x3e3a2062	0.18176416
245	0xbd21ecf8	-0.03953263
246	0x3e5d78dd	0.21628137
247	0xbeeb473e	-0.4595279
248	0xbda06182	-0.07831098
249	0x3e6b6c42	0.22990516
250	0xbe1135b8	-0.14180648
251	0x3ea1bc10	0.31588793
252	0xbdcef559	-0.1010539
253	0x3ddbe63f	0.10737275
254	0xbe066ff1	-0.1312864
255	0xbec22c81	-0.3792458

fc2.bias f4 [64]
0	0x3ef740a4	0.48291504
1	0x3f79d5f8	0.97592115
2	0xbe85ee2c	-0.26158273
3	0x3f4993ab	0.7874095
4	0x3f18fa64	0.59757066
5	0x3e48aba7	0.1959673
6	0x3f7bb830	0.9832792
7	0xbf42e9d0	-0.7613802
8	0xbce4632c	-0.02787932
9	0xbd8c4f3e	-0.06851052
10	0xbd010027	-0.031494286
11	0x3ecf7561	0.4051924
12	0xbc29ffac	-0.010375898
13	0x3ef32805	0.4749147
14	0x3f096876	0.5367502
15	0xbd71703f	-0.058944937
16	0xbf9c9041	-1.2231523
17	0x3de6b168	0.11264306
18	0x3dfd1591	0.12357629
19	0x3edf069b	0.43559727
20	0x3f2e8d28	0.6818414
21	0xbf22884e	-0.63489234
22	0xbf49bd7c	-0.78804755
23	0xbd704116	-0.05865582
24	0xbc995335	-0.018716434
25	0x3f7fbb96	0.9989561
26	0xbdc4f030	-0.09616125
27	0x3daed869	0.08537371
28	0x3d986777	0.07441609
29	0x3e95b722	0.29241282
30	0xbee4ef69	-0.44713905
31	0x3e8114dc	0.25211227
32	0x3c95dcdb	0.018293789
33	0x3eabc03b	0.33545098
34	0x3f377aa5	0.71671516
35	0x3f5e337a	0.86797297
36	0x3e518821	0.20462085
37	0xbe70e784	-0.23525816
38	0xbf677b0c	-0.9042213
39	0x3e57ea5e	0.21085498
40	0xbf2c5244	-0.6731303
41	0x3f6f747a	0.93537104
42	0x3e04e11d	0.12976499
43	0xbcbe0ca0	-0.02319938
44	0x3f7540fa	0.9580227
45	0x3df4437e	0.119269356
46	0x3f7d9305	0.9905246
47	0x3eca470a	0.39507324
48	0x3f64fefc	0.89451575
49	0x3d940200	0.07226944
50	0x3ed58d91	0.4170957
51	0xbe497346	-0.1967288
52	0xbf58b953	-0.8465778
53	0x3dab0470	0.08350456
54	0x3f3f74e5	0.7478774
55	0xbec12857	-0.3772609
56	0x3f593fdd	0.8486307
57	0x3dd8d207	0.105869345
58	0xbf743057	-0.9538626
59	0x3f6ca00d	0.9243172
60	0x3f84ac78	1.0365133
61	0xbf448c87	-0.7677693
62	0xbc9971d1	-0.01873103
63	0x3e0abe5f	0.13549183

fc3.weight f4 [2, 64]
0	0x3e72ef55	0.2372411
1	0x3e5988c4	0.21243578
2	0xbe250cea	-0.16118208
3	0x3e5a9a67	0.21347962
4	0x3e40df15	0.18835099
5	0x3e94a2f9	0.29030588
6	0x3e2a0b4c	0.16605872
7	0xbe2f2add	-0.17106195
8	0xbde1cc12	-0.110252514
9	0xbcbbbf23	-0.02291829
10	0xbcff490e	-0.031162765
11	0xbddfd078	-0.10928434
12	0xbe917a21	-0.2841349
13	0x3d9d2310	0.07672703
14	0x3e0654d3	0.13118295
15	0xbe7134ce	-0.235553
16	0xbe086899	-0.13321151
17	0xbd1197de	-0.035545222
18	0xbd1e0a95	-0.03858431
19	0x3e7dbc42	0.24778846
20	0x3e7fa9a5	0.24967058
21	0xbda85575	-0.08219425
22	0xbd23c7c7	-0.039985444
23	0xbdf0af91	-0.11752237
24	0xbc3c15fb	-0.01147985
25	0x3bc1d16a	0.0059148567
26	0x3d3af038	0.045639247
27	0xbd0504f7	-0.032475438
28	0x3c79dd46	0.01525051
29	0x3e8c396a	0.27387553
30	0xbeee7f44	-0.4658147
31	0xbeaacb43	-0.333582
32	0x3e0e6a7a	0.13907805
33	0x3dfdb9c4	0.123889476
34	0xbd5b8a57	-0.053598728
35	0x3e8dc487	0.27689
36	0xbe362875	-0.1778887
37	0xbe60d794	-0.21957237
38	0xbe218071	-0.15771653
39	0xbf346fdc	-0.70483184
40	0xbd8ecc43	-0.069725536
41	0x3e7323ab	0.23744075
42	0x3f08aa68	0.5338502
43	0xbd88571c	-0.0665724
44	0x3e342250	0.17591214
45	0x3d9bfd9e	0.07616733
46	0x3eafa5c8	0.3430617
47	0x3e1469eb	0.1449353
48	0x3e7a70fe	0.24457166
49	0xbd881e69	-0.06646425
50	0x3f01d3ad	0.50713617
51	0x3ddb7fcf	0.10717737
52	0xbdd22015	-0.102600254
53	0xbd4e126e	-0.050310545
54	0x3eca1b0f	0.3947377
55	0xbe3e7d6f	-0.18602537
56	0x3e2cfaf8	0.16892612
57	0x3e43ef75	0.19134314
58	0xbddf908c	-0.10916242
59	0x3e77e683	0.24209027
60	0x3e373678	0.17891872
61	0xbdb1bd7a	-0.08678718
62	0x3d57faab	0.05272929
63	0x3ea68998	0.3252685
64	0x3e75a3c2	0.2398825
65	0x3d532151	0.051545445
66	0x3d189f6d	0.037261415
67	0x3db6ea1d	0.08931372
68	0x3c96a2d2	0.018388186
69	0xbe37871b	-0.17922632
70	0x3dcaf857	0.09910648
71	0xbe262b81	-0.16227533
72	0x3d36eca0	0.044659257
73	0x3d83a588	0.06428057
74	0x3dabcaf4	0.083883196
75	0x3e48be08	0.19603741
76	0x3e445aaf	0.19175218
77	0x3ea5b3d9	0.32363775
78	0x3ea04552	0.31302887
79	0x3de7390a	0.11290176
80	0xbe16f19f	-0.14740609
81	0x3d0054b0	0.031330764
82	0xbe54a947	-0.20767699
83	0x3c8342e6	0.01602311
84	0x3deb9536	0.11503069
85	0xbdd5313d	-0.10409782
86	0xbda0e246	-0.07855658
87	0x3d1db3a7	0.038501408
88	0xbe5284d1	-0.20558478
89	0x3e8d6587	0.27616522
90	0xbdd75760	-0.10514712
91	0x3c82aa9c	0.015950494
92	0xbdebae87	-0.11507898
93	0xbe990876	-0.29889268
94	0xbe63f2ee	-0.22260639
95	0x3f1e1054	0.61743665
96	0xbdaf651a	-0.085642055
97	0xbda8c0a0	-0.08239865
98	0x3e53d90a	0.20688263
99	0x3df8bc3a	0.12145276
100	0x3eca206e	0.39477867
101	0xbd1210a6	-0.03566041
102	0xbe63f46d	-0.2226121
103	0x3c41cbde	0.011828391
104	0xbe3e151d	-0.18562742
105	0x3e108c45	0.14116009
106	0x3ea37d89	0.31931713
107	0x3df7fd06	0.12108807
108	0x3e60a138	0.219365
109	0x3e4fd3fb	0.20295708
110	0x3e9b2296	0.30299824
111	0xbd4273bc	-0.047473654
112	0x3eb51224	0.35365403
113	0x3dd0d0b0	0.10196054
114	0x3eaa7141	0.3328953
115	0xbedeeff8	-0.43542457
116	0xbe5aa41c	-0.21351665
117	0x3de8eaf0	0.11372936
118	0x3dca9a49	0.09892709
119	0xbd118561	-0.03552759
120	0x3e472470	0.19447494
121	0xbe106652	-0.14101532
122	0xbe6cc616	-0.23122439
123	0x3e962f68	0.29333043
124	0x3e58a496	0.21156535
125	0xbdff2a4a	-0.12459238
126	0x3de8e91c	0.11372587
127	0xbe45dd6b	-0.19322746

fc3.bias f4 [2]
0	0x3ed5c328	0.41750455
1	0x3f414f81	0.7551194
