sat-code/models/maddpg_20250712-135635/checkpoint_1000/critic_agent_2.pth (torch, 24873 bytes, 5 tensors)

fc1.weight f4 [64, 18]
0	0xbde66526	-0.11249761
1	0xbdafaad1	-0.085775025
2	0xbeae3cbc	-0.34030712
3	0xbe17aa84	-0.1481114
4	0xbe5a1a3f	-0.21299075
5	0xbddf0b70	-0.108908534
6	0xbeefd1eb	-0.46839842
7	0x3eb04af6	0.3443219
8	0xbdee1701	-0.116254814
9	0xbda63059	-0.0811469
10	0x3eedb168	0.46424413
11	0x3ecad44e	0.396151
12	0xbeef8be7	-0.46786425
13	0xbebf5120	-0.3736658
14	0xbedd089a	-0.43170625
15	0x3e93c2cf	0.28859565
16	0x3efec9a5	0.49763218
17	0x3ef5ca1a	0.48005754
18	0x3e984eca	0.2974761
19	0xbe6893fd	-0.22712703
20	0x3e77f593	0.24214773
21	0xbeb81143	-0.3595067
22	0x3e8872a4	0.26649964
23	0x3e282bf9	0.16423024
24	0x3e881940	0.26581764
25	0xbf9032dc	-1.1265521
26	0xbe335ec1	-0.17516614
27	0x3e807935	0.25092474
28	0x3cb5a7bd	0.02217471
29	0x3e1c1dd1	0.15245749
30	0x3edabe4e	0.42723316
31	0xbf3bcf0f	-0.7336282
32	0x3e15648d	0.14589138
33	0xbf947a00	-1.1599731
34	0x3deb1748	0.1147905
35	0x3e9d2460	0.30691814
36	0x3ecc37e9	0.39886406
37	0xbda0f550	-0.0785929
38	0x3f9820ce	1.1885011
39	0xbf03b55f	-0.51448625
40	0x3e2b4a3b	0.16727535
41	0x3d74e188	0.059785396
42	0x3fc4abb9	1.5364906
43	0x3de7606f	0.1129769
44	0x3e175503	0.14778523
45	0xbec52e3f	-0.38511845
46	0x3e020ce1	0.12700225
47	0xbd5fe2aa	-0.054659523
48	0x3fbc9e56	1.473582
49	0xbf050ff2	-0.51977456
50	0x3fb5d3e6	1.4205291
51	0x3e8618c9	0.26190785
52	0x3e6162f6	0.22010407
53	0xbeb65738	-0.35613418
54	0x3f0697ff	0.5257568
55	0xbd84b630	-0.06480062
56	0xbf4a3222	-0.78982747
57	0xc0077633	-2.1165893
58	0x3f3f6ff7	0.7478022
59	0x3d3b45a2	0.045720704
60	0x3f683aed	0.90714914
61	0xbf158915	-0.58412296
62	0xbe56703f	-0.20941256
63	0x3e1b7df6	0.15184769
64	0x3c76d13c	0.015064534
65	0xbd457970	-0.048211515
66	0xbf49fe0a	-0.7890326
67	0xc00c038b	-2.1877162
68	0x3f8a58d5	1.0808359
69	0xbf163e16	-0.58688486
70	0xbd38774d	-0.04503565
71	0x3e89f796	0.26946706
72	0x3e06e4a7	0.13173161
73	0x3e15749c	0.14595264
74	0xbfb339a7	-1.4001969
75	0xbfef2c4c	-1.8685393
76	0x3e95edbf	0.29282948
77	0x3dd695a0	0.104777575
78	0x3d8250c9	0.06363065
79	0x3f2e4069	0.6806703
80	0xbe9b4d7b	-0.3033255
81	0x3e58e55a	0.2118124
82	0xbe9d4508	-0.3071673
83	0xbf1c4312	-0.6103984
84	0xbfac8798	-1.347888
85	0xbfd01e9a	-1.6259339
86	0x3e970af5	0.29500547
87	0x3f6a8532	0.9160949
88	0xbe496fb6	-0.1967152
89	0xbe96b9af	-0.2943854
90	0x3dcf8f96	0.10134809
91	0x3eadc3d0	0.33938456
92	0xbf9f49d6	-1.2444408
93	0x3d9f7cff	0.07787513
94	0x3e55b954	0.20871478
95	0x3c8c9f6c	0.017165862
96	0x3f358337	0.7090334
97	0xbd83fbc5	-0.064445056
98	0x3cfa5227	0.030556751
99	0x3cf0bcd6	0.029386919
100	0xbb7aff36	-0.003829909
101	0xbeb821df	-0.35963342
102	0xbf885058	-1.0649519
103	0x3ecc1c68	0.39865422
104	0x3ed8667f	0.42265698
105	0xbd5ead60	-0.054364562
106	0x3ec4747f	0.3837013
107	0xbe6e30ab	-0.23260753
108	0x3de085d3	0.10963025
109	0x3eb392e2	0.35073
110	0xbfaffebb	-1.3749613
111	0xbf21a894	-0.63147855
112	0x3e6581d8	0.22412813
113	0xbd148b39	-0.036265586
114	0xbf5cca9e	-0.8624667
115	0x3f512dea	0.81710684
116	0xbe4e3b37	-0.20139776
117	0x3bb08446	0.005386862
118	0xbd714eb5	-0.05891295
119	0xbf8d7ee0	-1.1054344
120	0xbfbcbe63	-1.4745601
121	0xbf1fc701	-0.6241303
122	0xbfa64042	-1.298836
123	0x3f5d4e50	0.8644762
124	0x3d5ebadf	0.054377433
125	0xbf61f4ee	-0.8826436
126	0xbecb4393	-0.39699993
127	0xbcd2d62d	-0.025736893
128	0x3d357132	0.044297405
129	0x3e032745	0.12807949
130	0xbe3e9451	-0.18611266
131	0xbe735c1f	-0.2376561
132	0xbe590cfa	-0.21196356
133	0xbdda67e1	-0.106643446
134	0x3d298214	0.041383818
135	0xbda1c37e	-0.07898615
136	0x3d668a6e	0.05628436
137	0x3f97699f	1.1829108
138	0x3f0f9f39	0.5610233
139	0xbda7ddca	-0.081966
140	0xbd199ae4	-0.03750123
141	0xbf234cf9	-0.63789326
142	0xbe02341e	-0.12715194
143	0x3ec3acd8	0.38217807
144	0x3e9c5234	0.30531466
145	0x3d847b05	0.064687766
146	0xbf09fbe0	-0.53899956
147	0xbe411d66	-0.18858871
148	0x3e193e9b	0.14965288
149	0x3e059713	0.13045911
150	0x3e52fa31	0.20603253
151	0x3f2eff9b	0.68358773
152	0xbacd5c50	-0.001566777
153	0xbdad4a92	-0.08461489
154	0x3dafbe1e	0.08581184
155	0x3b800561	0.003906891
156	0xbf3568eb	-0.7086322
157	0x3ce51aa8	0.027966812
158	0x3ec11f7f	0.37719342
159	0x3f5f0ced	0.871291
160	0xbe46d77a	-0.19418135
161	0xbe8a1f06	-0.26976794
162	0xbe7e01ec	-0.2480542
163	0xbe2da2f0	-0.16956687
164	0x3d5b4cd2	0.05354006
165	0xbccf088f	-0.025272636
166	0xbe8c3a52	-0.27388245
167	0xbeb44cb4	-0.3521477
168	0xbe89898f	-0.2686276
169	0xbe7c2450	-0.24623227
170	0xbd9bfaf3	-0.07616224
171	0xbd45c64c	-0.048284814
172	0x3db1a149	0.08673341
173	0x3f78c811	0.9718028
174	0xbe507ee2	-0.20360902
175	0xbf39c57a	-0.7256695
176	0x3d780096	0.060547434
177	0xbd9b27e9	-0.07575972
178	0xbc2a49b6	-0.010393551
179	0x3fa02821	1.2512246
180	0x3df5c0e7	0.11999684
181	0x3e0ceadc	0.13761467
182	0x3ed88bdd	0.42294207
183	0x3f1aea9b	0.6051423
184	0x3d8abd8d	0.06774435
185	0xbe821ac6	-0.25411052
186	0x3e459ee6	0.19298896
187	0xbebe6eb1	-0.37193826
188	0xbeafcaaf	-0.34334323
189	0xbdfa49ed	-0.122211315
190	0xbf5cde82	-0.8627702
191	0xbe899bdb	-0.2687672
192	0x3ec70051	0.3886743
193	0x3f361c71	0.7113715
194	0x3e2c8969	0.16849293
195	0xbf225c4a	-0.6342207
196	0xbf2b316d	-0.6687229
197	0xbeb4b478	-0.35293937
198	0xbd257849	-0.040397916
199	0x3dd65111	0.10464681
200	0xbd8713d8	-0.06595582
201	0x3f48652f	0.78279394
202	0x3d5944f4	0.053044274
203	0xbde31500	-0.1108799
204	0x3e9d9fdc	0.30786026
205	0xbe2cece8	-0.16887248
206	0x3e847ace	0.25874943
207	0xbd99241d	-0.07477591
208	0x3f6852f1	0.9075156
209	0xbdbe6faf	-0.09298646
210	0xbdad9394	-0.08475414
211	0x3f2ea26d	0.6821659
212	0x3ea20614	0.31645262
213	0xbe6cae92	-0.23113468
214	0x3e954c9b	0.29160008
215	0xbca11c82	-0.019666914
216	0xbe7ed69d	-0.24886556
217	0x3dbc7e55	0.092037834
218	0xbe0a677a	-0.13516036
219	0x3e911366	0.28335112
220	0xbe90d82c	-0.28289926
221	0xbec0a3b8	-0.37624907
222	0xbe725a01	-0.23667146
223	0xbf20191f	-0.6253833
224	0xbf9e0291	-1.2344533
225	0xbdf9f741	-0.12205363
226	0x3d9d6295	0.07684819
227	0xbe5fd357	-0.21857964
228	0x3cd35d37	0.025801284
229	0x3f099c84	0.5375445
230	0xbed579e1	-0.4169455
231	0xbedd6e89	-0.43248394
232	0xbeba3dae	-0.36375183
233	0xbe1041b0	-0.14087558
234	0x3c8d1c21	0.017225327
235	0x3e075cc7	0.13218985
236	0x3eaa7e3d	0.33299437
237	0xbe068dc7	-0.13140021
238	0xbe135d5b	-0.14391081
239	0xbcf21ffd	-0.029556269
240	0xbf838c0e	-1.0277116
241	0x3da2eed0	0.07955706
242	0x3e1ea72e	0.15493461
243	0x3e2536d6	0.161342
244	0x3d8dc5a9	0.06922466
245	0x3dd972a2	0.106175676
246	0x3e811242	0.25209242
247	0xbdb9d6ab	-0.09074148
248	0xbfa14034	-1.2597718
249	0xbdebe546	-0.1151834
250	0x3dff2603	0.12458422
251	0xbd300ac4	-0.042979017
252	0xbe0bd4d4	-0.13655406
253	0xbdaa7201	-0.08322526
254	0x3f5ab1e5	0.85427696
255	0x3d5308b4	0.05152197

fc1.bias f4 [64]
0	0xbf317d4f	-0.6933183
1	0x3f96a135	1.1767946
2	0x403de95c	2.9673681
3	0x3f13dc6c	0.5775821
4	0x3e31c2c5	0.17359455
5	0xc02883ae	-2.633037
6	0x3f9752a7	1.1822098
7	0xbea9a070	-0.33130217
8	0xbff667f6	-1.9250476
9	0xbd64d92d	-0.055871177
10	0x3d4c8c28	0.04993835
11	0xc07b7244	-3.9288492
12	0xbf705e44	-0.9389384
13	0x405c64e9	3.443659
14	0x3cdc26cb	0.026873967
15	0x4004c2ff	2.0744016
16	0x3c12c463	0.008957955
17	0x3f8e3d56	1.1112468
18	0xbe916617	-0.283982
19	0xbe8ef357	-0.2792003
20	0x406e2a9c	3.7213507
21	0xbcd59518	-0.02607207
22	0xbf08e9fa	-0.5348202
23	0xbf8eae24	-1.1146894
24	0x3f95a14c	1.1689849
25	0x3f26a17e	0.6509017
26	0xbcdc9814	-0.026927985
27	0xba909f76	-0.0011033851
28	0x3f5105d7	0.81649536
29	0x40204069	2.5039313
30	0x3f8b7f76	1.0898273
31	0x4064e9eb	3.5767772
32	0xbec42526	-0.38309592
33	0xbea696d3	-0.32536945
34	0xbe144b0a	-0.1448175
35	0xbe945192	-0.28968483
36	0xbf86ec2c	-1.0540824
37	0x3e893de5	0.26805034
38	0xbe417d18	-0.18895376
39	0xbf115070	-0.5676336
40	0xbe59928a	-0.21247306
41	0xbee8ac65	-0.45444027
42	0x3f41a273	0.756385
43	0xbf1c285d	-0.6099909
44	0x4000b43b	2.0110004
45	0xbef89820	-0.48553562
46	0xbfd2358f	-1.6422595
47	0x3a994c1b	0.0011695655
48	0xbf1c428d	-0.6103905
49	0xbee65c3c	-0.44992244
50	0x404c8510	3.1956215
51	0x3ff064a1	1.878071
52	0xc04388d9	-3.0552275
53	0xbd1250de	-0.035721652
54	0xbfb9aa9e	-1.4505193
55	0xbe38ca98	-0.18046033
56	0x3f1ac9ec	0.6046436
57	0xc0651b02	-3.5797734
58	0x3fa1676f	1.260969
59	0x4084b36e	4.146903
60	0x3ddc58e2	0.107591406
61	0xbf832de1	-1.0248376
62	0xbe025e4a	-0.12731281
63	0x403ea782	2.9789739

fc2.weight f4 [64, 64]
0	0xbeb74dd1	-0.35801557
1	0xbe922110	-0.2854085
2	0xbdff4aad	-0.12465415
3	0xbc996def	-0.018729178
4	0xbdfea318	-0.124334514
5	0xbf64922f	-0.8928556
6	0xbed04618	-0.40678477
7	0xbdacf3f6	-0.08444969
8	0xbf65c571	-0.89754397
9	0x3e98dcd4	0.29855978
10	0xbcddb058	-0.027061626
11	0xbd13e8df	-0.036110755
12	0xbe96c5bc	-0.29447734
13	0xbe344cae	-0.17607376
14	0xbe95b97a	-0.2924307
15	0x3da68594	0.08130947
16	0xbd5b2be8	-0.05350867
17	0xbe96f96b	-0.29487166
18	0xbd9407c9	-0.072280474
19	0xbded5b34	-0.11589661
20	0xbe3f0f86	-0.18658265
21	0xbc95a8a8	-0.018268898
22	0xbe87761e	-0.26457304
23	0x3d429dad	0.047513653
24	0xbeebc7c0	-0.46050835
25	0xbe15432c	-0.14576405
26	0xbe7d92e7	-0.2476307
27	0xbe51e191	-0.20496203
28	0xbe970634	-0.2949692
29	0xbb363e9b	-0.0027808312
30	0x3dee4f29	0.11636192
31	0xbdc7f1cd	-0.09762917
32	0xbea45b7a	-0.3210104
33	0x3e9335b9	0.28751925
34	0x3e327236	0.1742638
35	0xbf51a716	-0.8189558
36	0xbe074c8f	-0.13212799
37	0xbe24cb07	-0.16093074
38	0x3d0ee3f7	0.034885373
39	0x3ec87858	0.39154315
40	0x3dbe9154	0.09305063
41	0xbd8b0d42	-0.06789638
42	0x3e5f2ce8	0.21794474
43	0x3d1666e8	0.036719233
44	0x3dc7fec8	0.097653925
45	0xbf078291	-0.52933604
46	0xbe45c64e	-0.19313928
47	0x3db2ce28	0.087307274
48	0xbc15ebfe	-0.009150503
49	0x3ec2716d	0.37977162
50	0xbd161958	-0.036645263
51	0x3e1ca861	0.15298606
52	0xbe503538	-0.20332801
53	0x3c61b973	0.013777125
54	0xbdfa3a16	-0.1221811
55	0xbef78603	-0.4834443
56	0xbed052a3	-0.40688047
57	0xbeed94c3	-0.4640256
58	0xbe307c7e	-0.1723499
59	0xbede479f	-0.43414018
60	0x3db5bced	0.08873925
61	0x3d4ce0ab	0.050018948
62	0xbdde3c3c	-0.108513325
63	0x3c78923a	0.015171582
64	0xbd9b1393	-0.07572093
65	0xbdff4340	-0.12463999
66	0xbde7a6c3	-0.11311104
67	0x3d132263	0.035921466
68	0xbbd782e0	-0.006576881
69	0xbcea550a	-0.028605003
70	0x38e44990	0.00010885589
71	0xbd024432	-0.031803317
72	0x3d9e5fa6	0.07733087
73	0xbbbdb720	-0.0057896525
74	0x3dafe89b	0.08589288
75	0xbdce6c7b	-0.10079285
76	0xbdc0823c	-0.0939984
77	0x3cd66138	0.026169404
78	0xbe12db2f	-0.14341424
79	0x3d9d4808	0.076797545
80	0xbdbb274f	-0.09138357
81	0x3c50bb35	0.012739946
82	0xbe3f9177	-0.18707834
83	0xbe2d8b1e	-0.169476
84	0xbd931139	-0.07181019
85	0xbde6f826	-0.11277799
86	0xbdb5d5bd	-0.08878658
87	0xbd867b1d	-0.06566451
88	0xbd08a1ef	-0.033357557
89	0x3cef5449	0.029214995
90	0xbd5028f7	-0.050820317
91	0xbcadf077	-0.021232827
92	0xbcd38833	-0.02582178
93	0xbe0d6e31	-0.13811566
94	0xbcd16a35	-0.025563339
95	0xbdeb7b1e	-0.11498092
96	0xbbac6ddf	-0.005262121
97	0xbd6d83ab	-0.057986896
98	0x3dc1f64e	0.09470807
99	0xbcc9f40b	-0.024652502
100	0xbcb9b319	-0.022668408
101	0x3e132204	0.14368445
102	0x3d854b50	0.06508505
103	0xbd474cbb	-0.04865716
104	0x3caf0a96	0.021367352
105	0x3de72893	0.11287036
106	0xbe0dfd35	-0.13866122
107	0xbd83a0d4	-0.0642716
108	0xbdb6dc2b	-0.089287125
109	0xba477e9a	-0.00076101127
110	0xbe001960	-0.1250968
111	0xbd1e92e0	-0.03871429
112	0xbd6a802d	-0.057251144
113	0xbe2eb85a	-0.17062512
114	0xbd1392ee	-0.036028795
115	0xbe2be194	-0.1678527
116	0xbd291be4	-0.041286364
117	0x3a2a4a07	0.0006496016
118	0x3d98e755	0.07465998
119	0xbe1fbc70	-0.15599227
120	0xbe31f943	-0.17380242
121	0x3da2b953	0.07945504
122	0xbe11e2b7	-0.14246641
123	0xbdc8c310	-0.0980283
124	0x3c55c71b	0.013047959
125	0x3c6105b0	0.013734266
126	0x3dfb2294	0.12262455
127	0xbb802f38	-0.003911879
128	0xbbdbc1bf	-0.006706446
129	0xba161579	-0.00057252456
130	0xbe650655	-0.22365697
131	0xbee1ade4	-0.4407798
132	0xbe06defc	-0.13171
133	0xbdb48fe3	-0.08816507
134	0xbf20cffc	-0.6281736
135	0xbd2badd7	-0.041913833
136	0xbd4ca7db	-0.049964767
137	0x3d4656b0	0.048422515
138	0xbf2a3e8b	-0.66501683
139	0xbf0c8154	-0.5488484
140	0x3e76ed7c	0.2411403
141	0x3ead80d1	0.33887342
142	0x3ecab298	0.3958938
143	0x3b4cc972	0.0031248
144	0x3e7d9671	0.2476442
145	0x3dabe180	0.0839262
146	0x3e242483	0.16029553
147	0x3f4e3078	0.8054271
148	0xbdb82cc6	-0.08992915
149	0xbdc15f2a	-0.09441979
150	0xbd4abaf7	-0.04949471
151	0x3e48386c	0.19552773
152	0xbf266f8c	-0.6501396
153	0x3e8ba2b3	0.27272567
154	0xbd2f32c0	-0.04277301
155	0x3db7c65d	0.08973382
156	0xbe969e40	-0.2941761
157	0x3ed6d40f	0.41958663
158	0x3f666e4a	0.9001204
159	0xbe2040a4	-0.15649658
160	0xbe059811	-0.1304629
161	0xbcee9040	-0.029121518
162	0x3eabc674	0.33549845
163	0x3f890695	1.0705134
164	0x3e49e0df	0.19714688
165	0xbdfca7ed	-0.12336717
166	0xbdd453cf	-0.10367548
167	0x3eeea2bd	0.46608534
168	0x3d810423	0.06299617
169	0x3f252ab1	0.64518267
170	0x3ed3851d	0.41312495
171	0xbf8068bf	-1.0031966
172	0xbdd2a196	-0.10284726
173	0x3e34f076	0.17669854
174	0xbdba8de8	-0.09109098
175	0xbde0aafa	-0.10970111
176	0x3e93d7b9	0.2887552
177	0xbf454fea	-0.77075064
178	0x3e1f301f	0.155457
179	0xbeee5cf9	-0.46555308
180	0xbc9a873d	-0.018863315
181	0xbebf5511	-0.37369588
182	0xbf08a42e	-0.5337552
183	0x3d811c8a	0.063042715
184	0x3ebf89ad	0.37409726
185	0xbe8bf852	-0.2733789
186	0x3dda023f	0.1064496
187	0xbe80f9eb	-0.25190672
188	0xbdd3f882	-0.103501335
189	0xbd9e86fa	-0.077405885
190	0xbdec951e	-0.11551879
191	0x3d89669b	0.067090236
192	0xbc805e1a	-0.015669871
193	0xbe74eb8b	-0.23917978
194	0xbe804bf7	-0.25057957
195	0xbe381c8a	-0.17979637
196	0xbc8b68f6	-0.017017823
197	0x3de25893	0.110520504
198	0x3ceffb54	0.029294647
199	0xbd80ca1d	-0.0628855
200	0xbeb21d34	-0.34787905
201	0x3ea4874e	0.3213448
202	0xbdac0ed9	-0.084012695
203	0xbcfbd055	-0.030738989
204	0xbd797dc5	-0.06091096
205	0xbd0ab312	-0.03386218
206	0x3c945e20	0.018111289
207	0xbe4c6190	-0.19959092
208	0xbc972b30	-0.01845321
209	0xbe2c5e8c	-0.16832942
210	0xbdbe2dcf	-0.09286081
211	0xbd05c57b	-0.032659035
212	0xbdc959a4	-0.09831551
213	0xbccdf720	-0.025142252
214	0xbe51416b	-0.20435111
215	0xbeb9523d	-0.36195555
216	0x3dc95304	0.09830287
217	0xbec86942	-0.39142805
218	0xbf2276e8	-0.63462687
219	0x3e223d95	0.15843804
220	0xbea7df6c	-0.32787645
221	0xbd728308	-0.059206992
222	0x3c8bb7c1	0.017055394
223	0xbd8c0896	-0.06837575
224	0x3d03aa29	0.0321447
225	0x3def2edc	0.116788596
226	0x3e1e38f8	0.1545142
227	0xbb32de74	-0.0027293237
228	0xbd33e5a7	-0.043920185
229	0xbe43ff94	-0.19140464
230	0x3d7eb537	0.06218454
231	0xbdd30538	-0.1030373
232	0xbdcc9205	-0.099887885
233	0x3b17efa7	0.0023183615
234	0x3e972a73	0.29524574
235	0xbcde0e6e	-0.02710649
236	0xbd7ddb10	-0.061976492
237	0xbe23f1fb	-0.16010277
238	0xbe161891	-0.14657809
239	0xbd0d1424	-0.034443036
240	0xbea05c04	-0.31320202
241	0x3d548735	0.051886756
242	0x3e096890	0.13418794
243	0xbe59ec4f	-0.21281551
244	0xbddaa78a	-0.10676487
245	0xbea21f2a	-0.316644
246	0x3e006ca6	0.12541446
247	0xbf092ecd	-0.5358704
248	0xbc933492	-0.017969403
249	0x3d1952ff	0.037432667
250	0xbdfb955e	-0.12284349
251	0xbd2b8ac9	-0.041880403
252	0xbb662c5c	-0.0035121655
253	0xbeacd0bb	-0.33753
254	0x3d5b9648	0.053610116
255	0xbecc5355	-0.39907327

fc2.bias f4 [64]
0	0x3e8e17ae	0.2775244
1	0xbd8000ed	-0.062501766
2	0xbe196922	-0.14981511
3	0x3c6bd6a1	0.014394433
4	0xbfec73e4	-1.8472867
5	0xbc52df6f	-0.0128706535
6	0xbcfa8e76	-0.030585509
7	0xbdbb3616	-0.091411754
8	0xbe165680	-0.14681435
9	0x3d493775	0.049125154
10	0xbd90cbcc	-0.07070121
11	0xbd923173	-0.07138338
12	0xbef4cee7	-0.47814104
13	0xbd751c25	-0.059841294
14	0x3d338131	0.04382438
15	0x3eef1cdc	0.46701705
16	0xbe84342c	-0.25821054
17	0xbdaa77fc	-0.083236665
18	0x3f0dcb4c	0.5538833
19	0xbe24a04c	-0.16076773
20	0x3c64b867	0.013959981
21	0x3ff8263c	1.9386668
22	0xbfbb6d5a	-1.4642746
23	0x3db2a599	0.087229915
24	0xbdc870ea	-0.09787162
25	0xbe0bacc0	-0.13640118
26	0xbc8b25cb	-0.016985795
27	0x3e9cacf8	0.30600715
28	0xbe582205	-0.21106727
29	0xbb4568e2	-0.003012233
30	0xbdc1fdf5	-0.094722666
31	0xbdd3c2f6	-0.1033992
32	0xbed3d1fe	-0.4137115
33	0xbd9efde0	-0.077632666
34	0xbe336883	-0.17520337
35	0xbe8a6f08	-0.27037835
36	0x3d4ce6c7	0.050024774
37	0x3c78c45f	0.015183537
38	0x3d313be1	0.043269996
39	0x3ee6d5e9	0.45085075
40	0xbfbe1218	-1.4849272
41	0xbe770bf6	-0.24125656
42	0xbec30a79	-0.38093928
43	0xbe76583d	-0.24057098
44	0xbddb3134	-0.10702744
45	0x3e310692	0.17287663
46	0xbe364e8c	-0.17803401
47	0xbd32d618	-0.043661207
48	0xbe0d92f0	-0.13825583
49	0x3f36d69a	0.71421206
50	0xbe93d414	-0.2887274
51	0xbea6509f	-0.32483384
52	0xbdf5d9b4	-0.12004414
53	0x3e457362	0.19282296
54	0xbd06bd0f	-0.032895144
55	0xbc354ca6	-0.011065638
56	0xbdf934c7	-0.121682696
57	0x40241119	2.5635436
58	0x3da3f53d	0.0800576
59	0x3ebc0c4a	0.36728126
60	0xbc01e667	-0.007928467
61	0x4065b61f	3.5892408
62	0x405345c8	3.301134
63	0xbd7552a1	-0.059893254

fc3.weight f4 [1, 64]
0	0x3ca03e2d	0.019560898
1	0xbcf55f29	-0.029952602
2	0x3ca7ba56	0.020474594
3	0x3bb8c299	0.005638432
4	0x3af25518	0.0018488495
5	0x3d05cfed	0.032668997
6	0xbcd15a46	-0.025555741
7	0x3c3f7284	0.0116850175
8	0xbd1fa93a	-0.038979746
9	0x3d790e82	0.06080485
10	0x3dade76b	0.08491405
11	0x3d5881fa	0.05285833
12	0xbb5588be	-0.0032582725
13	0xbd8d44dc	-0.068978995
14	0xbe0a2457	-0.13490425
15	0x3c996bcb	0.018728158
16	0x3cbac8d8	0.022800848
17	0xbc698204	-0.01425219
18	0xbdb377a3	-0.08763053
19	0x3b9af96a	0.0047294395
20	0xbc92e4b8	-0.017931327
21	0x3d8e7c9b	0.0695736
22	0xbd4541fa	-0.048158623
23	0xbb3a3159	-0.002841076
24	0xbd696ca0	-0.05698836
25	0xbcc24478	-0.02371429
26	0xb83fcbe8	-4.572785e-05
27	0x3b9006fe	0.004395365
28	0x3c8b47a0	0.017001927
29	0xbc519902	-0.012792828
30	0xbc94519d	-0.018105322
31	0xbcb79c76	-0.022413474
32	0x3ea32685	0.31865326
33	0x3c8c0c16	0.017095607
34	0x3e58dead	0.21178694
35	0xbce1e696	-0.027575772
36	0xbdc24550	-0.094858766
37	0xbc1aa046	-0.009437626
38	0xbced7c94	-0.028990068
39	0x3dbac61b	0.09119817
40	0x3d13cd27	0.03608432
41	0x3df12cba	0.11776109
42	0x3e191db1	0.14952733
43	0x3ea026ed	0.31279698
44	0x3d7543ad	0.059878994
45	0xbe0af184	-0.13568693
46	0x3c6a95d3	0.014317947
47	0xbd09a09e	-0.033600442
48	0xbd191976	-0.037377797
49	0xbd2e6912	-0.04258067
50	0x3db2790f	0.08714496
51	0x3d60d9ff	0.054895397
52	0x3c823d82	0.01589847
53	0xbd294f45	-0.041335363
54	0xbb1b53ed	-0.0023701147
55	0x3b393062	0.0028257598
56	0x3dba3240	0.09091616
57	0x3e1c923d	0.1529016
58	0xbe7bce8d	-0.24590512
59	0x3cc42364	0.023942657
60	0x3b859869	0.0040770066
61	0x3c8f020c	0.01745703
62	0x3c47cab3	0.012194323
63	0x3e434479	0.19069089
