sat-code/models/maddpg_20250712-135635/checkpoint_1000/critic_agent_0.pth (torch, 24873 bytes, 5 tensors)

fc1.weight f4 [64, 18]
000000 3f ee c9 3d 40 5a d3 3d a8 f2 d2 bd 09 34 4e be
       0.09859895 0.10319948 -0.10300189 -0.20137037
000010 06 0d e2 3d 75 3a 72 3d 41 ff 8a 3e 46 15 23 bf
       0.1103764 0.05913778 0.27147868 -0.63704336
000020 2e 60 08 3e 3f 04 d1 ba a2 82 11 bf 67 05 98 be
       0.1331794 -0.00159467 -0.56839955 -0.29691622
000030 30 cd 8f ba ca 1d 07 be 0c 59 53 3e ce 7e 46 bf
       -0.0010971185 -0.13194957 0.20639437 -0.7753724
000040 72 1a 9f be 3b c5 50 be 53 d1 10 bd e9 44 0e 3b
       -0.31074864 -0.20387737 -0.035355877 0.0021708554
000050 c4 ab 25 be 3c bf ff be 52 d6 05 3e 84 17 2f bd
       -0.16178805 -0.49950588 0.13070038 -0.042747036
000060 6d c3 44 bf cc 31 00 bf d1 81 d6 3e fd e8 76 3d
       -0.76860696 -0.50075984 0.41895917 0.06028079
000070 b3 6c 0a be f1 c8 ee 3d af e7 03 be 12 b2 4a bf
       -0.13518028 0.1165942 -0.12881349 -0.79177964
000080 03 ae 6a bf e6 da 94 be 20 75 dd 3e 6e fa 9b bb
       -0.9167177 -0.29073256 0.43253422 -0.004760078
000090 ee a2 64 3e 13 98 8e bd c5 e5 8d 3e 4d bd 01 3e
       0.22327778 -0.069625996 0.27714363 0.12669869
0000a0 5c f6 d8 3e 5c 6b 93 3d fc 75 b5 be ea 9f 78 bf
       0.42375457 0.071982116 -0.35441577 -0.9711901
0000b0 d6 9c 2e be 1a a5 e1 ba 15 a3 da be 27 b6 49 3e
       -0.17052016 -0.0017215342 -0.42702547 0.19698392
0000c0 e3 63 a4 3e ad 13 fb 3d f6 99 ab be 51 33 92 bf
       0.32107458 0.12259612 -0.335159 -1.142191
0000d0 45 01 1a bf cf 4b 8d 3d db 99 38 be c9 1b 55 be
       -0.6015819 0.06899225 -0.18027441 -0.2081138
0000e0 47 4d 45 bf 6a e3 3e 3f 15 67 b4 be 43 37 ff bd
       -0.7707104 0.74565756 -0.35234895 -0.12461712
0000f0 31 5a c3 be 4e 00 a3 3e 08 70 86 be 38 44 8d bd
       -0.38154748 0.3183617 -0.26257348 -0.06897777
000100 be 5c 73 3e 9f 46 8e 3f 63 ce 7d bf fe 85 60 3f
       0.23765847 1.1115302 -0.99143046 0.87704456
000110 ec 18 2b bd 7c a5 9f 3b 12 9e dc 3e 33 c7 7d 3f
       -0.041771814 0.004872022 0.43089348 0.9913208
000120 c2 3a 7b 3e c1 5d 3a bc cc 83 cc 3e ee 47 10 bf
       0.24534133 -0.011374892 0.39944303 -0.56359756
000130 5d 37 76 3e b2 ef b8 3b 7e 44 2a 3f 0e 5e d4 be
       0.24044557 0.0056438083 0.6651076 -0.41478008
000140 a0 26 00 3e 77 81 cf bc 42 1f 4a bf e7 ad fb bd
       0.12514734 -0.025330288 -0.78953946 -0.122890286
000150 11 7b b6 3e 3e ba 24 bf 9d c0 61 3f 91 bc 08 bf
       0.35640767 -0.64346683 0.8818453 -0.5341273
000160 00 e0 0b bf d3 54 08 be 70 c9 89 be a3 d1 48 3d
       -0.5463867 -0.13313608 -0.26911497 0.04902805
000170 e2 3e 73 3d 4e 90 1e 3e 3c 0c 91 be 79 02 80 bd
       0.05938614 0.15484735 -0.28329647 -0.062504716
000180 a9 79 ae bd 00 02 b2 3d 16 48 6f be 9c f5 89 be
       -0.085192986 0.08691788 -0.23367342 -0.26945198
000190 f3 f3 c9 3d 25 e4 46 3e ff a9 65 3e 2f 5c ed 3d
       0.09860983 0.19422968 0.2242813 0.11589848
0001a0 34 3e b5 3b 9b 98 b1 3d 8c bd 24 be bd 27 ea bd
       0.005531097 0.08671685 -0.16087931 -0.11433361
0001b0 94 66 c5 bc ed 50 3b be 7d 22 e7 3e 6d b7 00 3f
       -0.024096765 -0.1829259 0.451435 0.50279886
0001c0 8c 30 34 bf 74 67 de bc f7 e3 26 bf 9f 2a 3d 3c
       -0.70386577 -0.02714894 -0.65191597 0.011545806
0001d0 71 a1 e9 be ec f9 73 be 16 c6 70 be e2 e9 fa 3e
       -0.45630983 -0.23825806 -0.23513064 0.49006563
0001e0 32 5a f6 3e 44 d8 11 3f 85 df 6a be cc a3 d2 bd
       0.4811569 0.5697062 -0.22936828 -0.10285148
0001f0 56 e2 1f bf fa c8 7f 3e e0 5d 02 be 8a 2c b2 bd
       -0.62454736 0.2497901 -0.12731123 -0.086999014
000200 af 61 90 bd 57 e2 78 bd fe e3 af bf 02 79 ca be
       -0.07049882 -0.06076273 -1.3741453 -0.39545447
000210 9e d2 a5 be 79 0c 07 bf 1f 68 6d bf ff 74 d5 bd
       -0.3238725 -0.52753407 -0.92737 -0.10422706
000220 15 88 99 bf 76 6b 95 3e fc 8d 89 be 4f 59 dd 3c
       -1.1994654 0.2918355 -0.26866138 0.027020125
000230 7b 0f 23 bf e0 5d 69 3e 37 24 d1 bf 51 97 1f 3f
       -0.63695496 0.22789717 -1.6339177 0.62340266
000240 8c be 81 be 61 8f a3 3e 34 15 f3 be ef 03 6e be
       -0.25340688 0.31945327 -0.47477114 -0.23243688
000250 61 d6 90 3e c6 23 07 3e ff 6f b0 3e ea 3d 73 3d
       0.28288558 0.1319724 0.34460446 0.059385218
000260 a4 4a 4a bd 13 ea 55 3e d0 ad 94 3e 89 71 eb bc
       -0.04938759 0.20890073 0.29038858 -0.028740661
000270 e5 29 ea be dd a8 e1 bd 0c f1 00 3f 80 a8 bf 3d
       -0.45735088 -0.11018536 0.5036781 0.09358311
000280 6d 76 cf 3d 17 55 a1 3c c6 90 c0 3c d1 da be 3d
       0.1013001 0.019693894 0.023506533 0.0931908
000290 c2 bc b6 3d c9 cb a6 3e 52 cc 8a bd 41 a8 7e 3a
       0.089227214 0.3257735 -0.06777252 0.0009714403
0002a0 f6 c0 7d bf c4 68 66 bf 57 cb 33 3e 19 8c 20 3e
       -0.9912256 -0.9000361 0.17558037 0.15678443
0002b0 da 83 84 3e 79 9f 87 3d 05 21 9d 3d b5 70 bb 3e
       0.25881845 0.06622214 0.076723136 0.36609426
0002c0 93 be 9d bf 26 d2 99 bf 39 04 8a 3e b7 78 04 3e
       -1.2323784 -1.2017257 0.26956347 0.12936674
0002d0 45 a8 a7 3e 08 00 80 bd a6 b3 ce 3e c4 67 3a bf
       0.32745567 -0.06250006 0.40371436 -0.72814584
0002e0 43 7a d6 3e e5 94 58 3e 68 7a 8f 3e c6 22 9e be
       0.41890153 0.21150549 0.28023076 -0.30885905
0002f0 5a 37 04 be 1b 77 e3 bd 69 96 55 be b5 35 67 be
       -0.1291174 -0.11106702 -0.20858158 -0.22579081
000300 31 f2 12 3f d7 0e 51 bf cd f2 80 3e ee f9 5a be
       0.57400805 -0.8166327 0.25185242 -0.21384403
000310 fe 12 ec be 4b 9e ad be ba af 0a be 59 fd 7f 3d
       -0.4610824 -0.3390983 -0.13543597 0.06249747
000320 d4 60 d8 3e c2 88 3c 3f 3d 4b 56 be 3f ab 3f be
       0.42261374 0.73646176 -0.20927139 -0.18717669
000330 8c 48 39 bf 65 4a 66 bf 30 8b 1b be 9f 37 81 bf
       -0.7237632 -0.8995727 -0.15189815 -1.0095099
000340 69 0c e1 bd 01 a1 85 be 57 7a 18 3f ef 3e 5e 3f
       -0.10988695 -0.260994 0.59561676 0.8681478
000350 1f 05 83 bf 96 05 74 bf b9 53 b8 bd 35 8f 3a be
       -1.0235938 -0.95321023 -0.09000344 -0.18218692
000360 08 27 c8 bd 86 ed d4 be 93 a5 97 bc f1 7a 31 be
       -0.097730696 -0.41587466 -0.01851157 -0.17332055
000370 d2 2c a3 be c8 ad 1e be d6 ab 53 be b3 2e e7 3d
       -0.31870133 -0.1549598 -0.20671019 0.11288204
000380 41 20 35 be 9d 55 03 3d d1 cb ad 3e e1 bc 9f 3e
       -0.17688085 0.03206407 0.33944562 0.3119879
000390 6e 0a 96 be 18 16 97 3e 58 1e b0 be 98 f2 4c 3e
       -0.29304832 0.29509044 -0.3439815 0.20014417
0003a0 d6 34 02 be d7 a2 4c 3e 49 cb 1d 3e e9 ff 81 3e
       -0.12715468 0.19983993 0.15409578 0.25390556
0003b0 b7 c3 51 3e 8a 69 62 be d1 a7 ea 3d 13 6b 83 bd
       0.20484816 -0.22110572 0.1145779 -0.06416907
0003c0 81 ac d5 be 0e af 56 bf e2 20 9b 3e b2 bd bc bd
       -0.41733173 -0.8386086 0.30298525 -0.09215869
0003d0 af 8d 09 be f9 fa 9f be 0c 66 31 3e 7f 68 45 be
       -0.13432954 -0.31246164 0.17324084 -0.19278143
0003e0 10 12 54 bf ce fa 15 bf db b4 03 be 15 25 e8 be
       -0.8284006 -0.5858582 -0.1286196 -0.4534079
0003f0 93 33 ac bc 1d 95 a5 bd c1 bd c9 bd e9 c2 ec 3e
       -0.021020686 -0.08085082 -0.09850646 0.46242455

fc1.bias f4 [64]
000000 d8 96 47 c0 ef 9a 00 c0 b5 44 4a be 2f c4 93 be
       -3.1185818 -2.0094564 -0.19752772 -0.28860614
000010 71 64 1a c0 81 8d df 3c c6 e5 6d bf 97 cb 2c bf
       -2.4123805 0.027289154 -0.9292873 -0.67498153
000020 08 2d 8a 40 12 bf 3d 40 c8 6b 05 bf b8 25 e6 bf
       4.317997 2.964787 -0.52117586 -1.7980261
000030 8a d8 72 bd f1 47 88 40 a4 e2 84 be c1 60 47 c0
       -0.05928854 4.258782 -0.25954163 -3.1152804
000040 3b 52 69 40 09 d2 40 40 70 e0 86 3f 58 b2 11 3f
       3.645644 3.0128195 1.0537243 0.56912756
000050 46 61 ca 3e bd a6 ae bf 25 32 48 c0 27 55 d4 be
       0.3952734 -1.3644634 -3.1280606 -0.41471216
000060 bc 51 56 bc de 47 3f 3f aa 5d cc bf 90 71 a4 bf
       -0.01308101 0.74719036 -1.5966084 -1.2847157
000070 47 46 6d 40 1c 54 3f 40 d1 b2 44 bd 28 7d 0a c0
       3.7074144 2.9895086 -0.048022095 -2.163889
000080 b4 85 43 bd ed 30 37 3d d0 74 48 40 82 38 33 bf
       -0.04773493 0.044724394 3.1321297 -0.700081
000090 99 f8 99 bf b0 57 26 c0 28 bd 71 3f b4 c4 04 bf
       -1.2028991 -2.599102 0.94429255 -0.51862645
0000a0 59 20 2e 40 cc d6 3e bf f7 b3 1f c0 4a d1 56 40
       2.7207243 -0.74546504 -2.4953592 3.356524
0000b0 fd 4a 33 40 c7 7d 47 be d1 76 42 c0 84 ed 19 c0
       2.801452 -0.19481574 -3.038502 -2.4051218
0000c0 ad d2 83 3c ab 72 ee bf 42 48 d6 3d d8 1d 84 c0
       0.016091669 -1.8628744 0.10463001 -4.128643
0000d0 65 96 83 be 84 58 3c 40 6a e6 d4 be 81 92 43 be
       -0.2570068 2.9429026 -0.41582042 -0.19098856
0000e0 99 2f 88 bf c0 54 2c bf 1d c1 12 40 85 94 80 bf
       -1.0639526 -0.6731682 2.2930367 -1.0045325
0000f0 0f 30 66 40 88 e6 6d bf 82 5c 20 bf a4 e2 5e 40
       3.5966833 -0.9292989 -0.62641156 3.482583

fc2.weight f4 [64, 64]
000000 f5 ce 81 bd cd 7c 8c 3c 17 96 18 bd 20 dd 41 3d
       -0.06338302 0.017149353 -0.03725251 0.04733002
000010 c7 e8 0d bf 40 a0 35 3d 61 17 0d be 8b cc e5 be
       -0.55433315 0.04434228 -0.1377845 -0.44882616
000020 eb a5 75 be f9 61 f4 be e1 1e 5f 3d d5 bd d5 be
       -0.23989074 -0.47730997 0.054472808 -0.41746393
000030 75 37 94 bc 81 02 a4 be 4d 32 22 3d 66 e3 2d bd
       -0.01809285 -0.3203316 0.03959875 -0.042453192
000040 2f d1 61 be d0 32 a9 be 9c 67 d0 bc c3 e0 9f 3e
       -0.22052453 -0.3304658 -0.02544003 0.31226167
000050 c6 57 65 bc c4 c9 ae be 26 9f 04 3c 24 a7 d5 be
       -0.013997978 -0.3413831 0.008094585 -0.4172908
000060 7b c5 09 3d b4 82 41 be f1 fa d9 bc 47 82 9a be
       0.033635598 -0.18897516 -0.026608916 -0.3017752
000070 00 3e f7 3c 7d e8 10 bf 65 02 83 be 36 fa 4c 3e
       0.030180931 -0.5660475 -0.25587764 0.20017323
000080 4c 14 54 3d ab c1 1f 3d 82 bd 1e 3b f4 36 0c 3d
       0.05177717 0.039003056 0.0024221842 0.034232095
000090 6c d9 cf 3d 95 b9 94 be 54 df 88 be 80 78 d3 3b
       0.10148892 -0.29047838 -0.26732886 0.0064535737
0000a0 71 02 97 3d c9 b4 89 bd 50 43 d1 3c ce 8d 9b be
       0.073735125 -0.06723935 0.025544792 -0.30381626
0000b0 5d 51 3d 3d 27 a7 1c be 19 e8 6d be e4 34 1e 3e
       0.046220172 -0.15298139 -0.2323307 0.15449864
0000c0 04 a7 c0 be 5b 35 e7 be 80 e9 a7 3d b8 78 a7 be
       -0.37627423 -0.45157894 0.081988335 -0.3270929
0000d0 28 f4 e8 3d 7a c9 61 3d 4f 82 99 bd 80 47 dd 3d
       0.11374694 0.055123784 -0.074955575 0.10804653
0000e0 76 eb f2 3d 28 44 50 3e fb be 93 bd 4e 50 24 bc
       0.11861317 0.203385 -0.07214161 -0.010028912
0000f0 ac 98 81 3d 93 08 a5 3e db 1b b6 3e ac f2 87 be
       0.06327948 0.32233104 0.35568127 -0.2655233
000100 b7 da 11 bf 4d a2 0c bf a1 5f 5c bf c0 cf 95 be
       -0.5697436 -0.5493515 -0.8608342 -0.29260063
000110 74 e9 68 be c3 8b d5 bd f5 5b 4a bf bb 83 f0 be
       -0.22745305 -0.10427048 -0.79046565 -0.46975502
000120 bc f1 00 3f e5 6d f8 be d5 c1 2e 3e 75 56 c4 be
       0.5036886 -0.48521343 0.17066129 -0.3834721
000130 61 06 04 3a d0 a2 26 3e 19 30 99 bd da c7 c6 bd
       0.0005036351 0.16273046 -0.07479877 -0.097060874
000140 79 23 0d 3e e9 32 0d 3e cd 5d 00 3e 5d 33 0f be
       0.13783063 0.13788952 0.12535782 -0.13984437
000150 9e 77 61 bd ee 0e d3 be 4c ec 00 bf fe c1 22 bf
       -0.055045716 -0.41222328 -0.5036056 -0.6357726
000160 6f b0 3a 3f 4a cd a5 3f 16 1f 13 bd bb 99 9c be
       0.72925466 1.2953274 -0.035918318 -0.30586037
000170 e3 70 f9 3e f0 d3 58 3e 12 6c 29 3e 26 09 82 bf
       0.48718938 0.21174598 0.16545132 -1.0159042
000180 69 2d df 3d 8d 6c 31 3e 8d 76 48 be 16 5d 01 c0
       0.10897333 0.17326565 -0.19576474 -2.0213065
000190 44 3a 66 ba a4 38 0a bf de 2e 4b bf b1 c9 a6 be
       -0.0008782486 -0.53992677 -0.7936839 -0.32575753
0001a0 92 a0 f6 3e 5e 8b 12 be cc df 29 3f 8c 47 8d 3e
       0.4816938 -0.14310977 0.6635711 0.27593648
0001b0 3b 0e 5c 3f c6 00 80 bf 9e 9a 87 3e 96 81 e5 be
       0.85959214 -1.0000236 0.2648515 -0.4482543
0001c0 62 e4 b0 bd 17 44 67 bf bb 44 9a 3f 53 a7 84 bf
       -0.086373106 -0.9033827 1.2052225 -1.0363563
0001d0 d5 3b 80 3c c6 05 36 3f be 4e de bd 8a 76 1d 3d
       0.01565353 0.7110256 -0.10854863 0.038443126
0001e0 b9 cc b1 be d9 b0 52 3d 72 87 8c 3e 06 e1 46 be
       -0.34726503 0.051438186 0.27447087 -0.19421777
0001f0 7f f1 ac 3d e0 dc 3b bf f0 61 81 3d f6 54 fa 3d
       0.08444499 -0.73383904 0.06317508 0.12223236
000200 4a 09 2d be 58 34 c2 bd 18 0f 54 be 37 29 eb 3b
       -0.16898075 -0.0948264 -0.20708883 0.007176544
000210 97 5e 13 be 28 ae f8 3d ca 5a e9 bd 97 26 d0 bc
       -0.14391552 0.12142593 -0.1139427 -0.025409026
000220 df d2 c0 3c 53 df 77 bd 3e d0 8b bd de fa 7b 3d
       0.023538051 -0.060515713 -0.068268284 0.061518542
000230 f8 83 8c 3c 8e 43 ea bd cb 89 06 be 09 4a 0e be
       0.017152771 -0.11438666 -0.13138501 -0.1389543
000240 3f c8 0d be 92 55 af bd 43 d7 95 bd a2 81 bc bd
       -0.13845919 -0.08561243 -0.073164485 -0.09204413
000250 db f7 69 bd 33 57 00 be 0f d6 28 bd ea 11 91 bd
       -0.05712114 -0.12533264 -0.041219767 -0.07083495
000260 45 5a 1f be ff 4c c5 bd 3a 97 cc bd 2b 31 a0 3d
       -0.15561779 -0.096338265 -0.09989782 0.07821878
000270 14 92 ee 3c 84 52 16 bd 3c 0d 3d bd 94 28 5c 3d
       0.02912239 -0.036699787 -0.0461552 0.053749636
000280 86 96 e1 bd 3d c6 0a 3c 8b 3f ce bd d1 25 77 bd
       -0.11015038 0.008470115 -0.100707136 -0.0603388
000290 20 8e 7e bd 81 25 c6 3a 20 c9 0e bd 14 16 64 bd
       -0.06214726 0.0015117378 -0.034859776 -0.055685118
0002a0 db 15 4a 3d 90 6b 9a bd 78 0d 8c bd b4 61 3a be
       0.04933725 -0.07540047 -0.068385065 -0.18201333
0002b0 4c be 18 3d e8 fa 62 bd 30 d9 35 be 3e 76 7c 3c
       0.037290856 -0.055415064 -0.17758632 0.0154090505
0002c0 f2 09 a3 bd 5b e5 4f bd b5 05 71 bd 94 aa 33 be
       -0.07960881 -0.05075584 -0.058843333 -0.17545539
0002d0 1a e2 ff bd 96 8a 07 bd b3 54 f6 bd e2 3a c7 bd
       -0.12494297 -0.03309115 -0.12027874 -0.09728028
0002e0 4d a1 9c 3c d9 f7 51 3d 72 02 a6 3c 6c e6 a8 bd
       0.019119883 0.051261757 0.020264838 -0.082470745
0002f0 88 e1 a4 bd b4 2d f5 bd 8d 2c 8f 3c d0 98 97 3d
       -0.08050829 -0.11971608 0.017477298 0.074021935
000300 dd 84 41 3d 6a 87 6f 3e 47 36 ae bd 7c 04 c2 bd
       0.04724585 0.233915 -0.08506446 -0.094735116
000310 9b 4f de 3c a4 63 0a 3e 5c a1 18 3e f1 99 2d be
       0.027137568 0.13514572 0.14905304 -0.16953255
000320 2e 1a 3e bf 51 65 8d be 4f 35 11 3f c1 71 6e be
       -0.742587 -0.2761636 0.5672197 -0.23285581
000330 78 91 ba bd 65 8b 87 bd d8 45 ea 3b aa 40 97 3d
       -0.09109777 -0.06618384 0.0071494393 0.073853806
000340 9c 3d 15 bf a4 17 9d be a0 ce 1b be 86 de 02 bf
       -0.58297133 -0.306821 -0.1521554 -0.51120794
000350 e3 df 42 bd 50 4e dd 3e 8e d0 e4 3c 9a 8b 73 be
       -0.047576796 0.4322381 0.027931478 -0.23783723
000360 83 ac d6 be 18 8d 2c be 92 6a 40 3f 6f 64 83 be
       -0.4192849 -0.16850698 0.75162613 -0.25662562
000370 22 1e b8 be 2b 08 fa 3c a5 c7 2e 3c 22 c5 21 bf
       -0.3596049 0.030521473 0.010667716 -0.63191426
000380 0b 59 6b 3d 39 90 95 3e 0d 2d 63 be 5b a9 98 3e
       0.057457965 0.29211596 -0.22185154 0.29816708
000390 f3 1a 79 be d3 08 0b bf 50 a0 bd bc 9c a0 05 3e
       -0.24326687 -0.5431034 -0.023147732 0.13049549
0003a0 cd fe be be 56 76 a1 3d 02 32 87 3e 05 a4 01 3e
       -0.37303773 0.07883899 0.2640534 0.12660225
0003b0 b6 b1 5d 3e 56 8c 58 be 1c 44 f8 3d ba 05 e7 be
       0.21649823 -0.21147284 0.12122366 -0.45121557
0003c0 7c d0 1b be 41 58 a4 be 0e 6b 8a bf 90 a7 ea bd
       -0.15216249 -0.32098582 -1.081392 -0.11457741
0003d0 43 f1 9a 3d 01 fa 31 be 17 e8 ef bd 28 e0 8e bd
       0.07565548 -0.17380525 -0.117141895 -0.06976348
0003e0 e7 28 e4 3d 04 d7 b5 3c 10 c8 d0 be 42 b2 d6 bd
       0.11140614 0.022197254 -0.40777636 -0.10483219
0003f0 18 68 d5 be ba 96 9d bc 94 6e 9b bd 52 fc cd bd
       -0.4168098 -0.019236911 -0.075894505 -0.10057892

fc2.bias f4 [64]
000000 9b 8d fd 3d df 5c 60 40 28 0c ff bd b3 42 28 3f
       0.12380525 3.5056684 -0.124534905 0.65726775
000010 88 5c 12 be 46 92 8a bd 76 b1 58 bd 40 5a a2 3d
       -0.1429311 -0.06766181 -0.052903615 0.0792737
000020 96 08 ff 3c 09 7b 1f be e8 6d fd 3c 7f 17 6b bd
       0.031132024 -0.15574278 0.030936196 -0.057395454
000030 50 b3 4f 40 be 2c 1c 3e cc 7a 8a be 0d 37 d9 3c
       3.2453194 0.15251443 -0.27046812 0.026515508
000040 89 82 59 3d 49 00 39 be d0 f5 a3 bf 49 86 9a bb
       0.053103004 -0.18066515 -1.2809391 -0.004715715
000050 d6 48 57 bd fd 64 e9 3d fd c7 07 3f 8b 4f 43 3e
       -0.052559696 0.11396215 0.5303953 0.19073312
000060 ac a5 72 be 3a 0e 39 3c c2 7d ad 3c 65 c5 a6 bd
       -0.23696011 0.011294896 0.02117813 -0.08143119
000070 77 d8 45 be 47 63 d4 3c 34 d1 0f be a5 be 11 be
       -0.19320856 0.025926245 -0.14044648 -0.14232881
000080 40 8d 61 40 b6 4c 81 be 22 e9 65 3d 7e 85 4d 3e
       3.5242462 -0.25253838 0.056130536 0.20070454
000090 98 e4 b4 3c 0b e6 28 be e7 39 00 bd ac 57 c0 bc
       0.022081658 -0.16494004 -0.03130522 -0.023479305
0000a0 e2 aa 80 be 90 42 3e 3e 74 28 2b 3b 4d 4b 01 bd
       -0.25130373 0.18580079 0.0026116641 -0.031565953
0000b0 aa 8a 74 3e 64 4c 81 bd b6 e9 09 be af 78 d3 bd
       0.23881021 -0.063133985 -0.1346806 -0.10325753
0000c0 37 5c 18 be 44 a4 30 be 96 bb 48 be cb e0 65 bf
       -0.14878927 -0.17250162 -0.19602808 -0.8979613
0000d0 9c 6a 96 bd d9 50 1a be ef 33 2f be 9a 12 ae be
       -0.07344553 -0.15069903 -0.17109655 -0.33998567
0000e0 55 c6 f5 bf 0c 75 07 3f 51 51 28 bf f7 61 48 be
       -1.9201151 0.52912974 -0.6574908 -0.1956862
0000f0 6c cd b4 bc a0 2e 65 bb db 1a 59 40 53 f3 68 bd
       -0.022070609 -0.0034970418 3.3922641 -0.056872677

fc3.weight f4 [1, 64]
000000 97 f8 9b be b0 c1 80 3d 66 7e 31 bd 2c 70 a7 3d
       -0.30463096 0.06286943 -0.043333434 0.08175692
000010 bc 56 80 bd 77 db 96 be 6c ad 69 bc 28 3a ab bb
       -0.06266543 -0.29464313 -0.014262538 -0.0052254386
000020 ba 51 0c 3d cc 4f 52 bd e1 e4 d5 3c 3f a0 89 bc
       0.034257628 -0.05134563 0.026110115 -0.016800044
000030 ca 93 0f 3d ef 21 79 bc 1f da 74 bc 77 0b b2 3d
       0.035053052 -0.015205844 -0.014944582 0.08693593
000040 54 1d f4 3b 93 7e 74 3c 85 f0 1e bd f2 93 06 3a
       0.0074497852 0.014922756 -0.038803596 0.000513374
000050 65 d2 7b 3d a4 e1 58 be be 10 01 bc 44 53 a1 3c
       0.061479945 -0.21179825 -0.007877527 0.019693024
000060 2b 05 13 3e 7b 1f a2 bc 28 2a 83 3d ee 8a c1 3d
       0.1435744 -0.019790402 0.06404525 0.09450327
000070 e6 2e b7 3c 26 d3 a1 3c 11 f7 18 3e c7 3f a5 bc
       0.02236123 0.019754004 0.14937998 -0.020172013
000080 69 11 28 3e cd 26 14 bd 48 36 d4 b8 46 a0 93 3d
       0.16412891 -0.036169816 -0.000101190584 0.07208304
000090 d1 4e dc 3d 2f e2 7f bc 7c 0c ed bc cd 12 d1 bc
       0.107572205 -0.015617891 -0.028936617 -0.02552166
0000a0 16 a8 2e 3d 9b 43 de be b1 d6 0b 3c 35 56 0b bd
       0.042640768 -0.43410954 0.008535073 -0.03401776
0000b0 2b a1 60 be 2c 7f 47 3e cf 87 69 bc be f7 de 3d
       -0.2193648 0.19482106 -0.014253571 0.10887097
0000c0 02 58 d2 bc 37 5e 31 bc cc b4 2f bd 0b 98 21 be
       -0.025676731 -0.010825685 -0.04289703 -0.15780656
0000d0 dd 55 7a 3e b2 70 d5 3c be ac df 3c 6d ba d4 3c
       0.24446817 0.026054714 0.02730405 0.025967801
0000e0 26 d6 c8 bd 7e d4 ec bd bc 54 b5 bd 89 12 14 bc
       -0.098064706 -0.11563967 -0.088540524 -0.009037622
0000f0 59 9e 0d 3d 8d 96 93 bc 91 94 b9 3d a5 4c ff bc
       0.03457484 -0.018016124 0.0906154 -0.031164477
