sat-code/models/maddpg_20250712-135635/checkpoint_600/actor_agent_1.pth (torch, 21533 bytes, 6 tensors)

fc1.weight f4 [64, 4]
00000000: 8d05 8cbd 7226 243e bfbf 10bf 86b6 f6be
00000010: cad9 b0be c88b be3e afb4 34bf 4292 b0be
00000020: d77e 473d b353 a73d 1159 c4be dbb9 d23e
00000030: 67e9 233e 195e 4cba 60d3 e8be 32ee f23e
00000040: 293a 193e 9c6a 0e3e 6493 86be c971 cfbe
00000050: 3839 03bf 6bfa 43bc 65e1 163f aa61 92be
00000060: 5ab2 afbe 9a29 6a3e 6d59 033e fcaa eebe
00000070: bdda d83e be90 0cbe 9b51 c23d ce57 b7be
00000080: a699 52bf 0bd5 f3bc a64a 993c 2fbd 9dbe
00000090: 7be3 84be 4517 ea3e 057b ec3e 5aa0 4abf
000000a0: 6dd6 17be 32c6 cc3e be79 29bf d623 06bd
000000b0: 4c8a 1b3e f8c7 90be a45c 9bbe 827a 06bf
000000c0: a57b 8a3e da32 c73d b74a fdbe 3b43 063d
000000d0: 6ffc aebe 4187 113e d862 593e 9461 883e
000000e0: f293 d23e 50c0 e0bc 6be1 f9be cc9c 2bbe
000000f0: d1aa 71bc ee68 b2bd 0688 33bf 1606 25bf
00000100: 7d94 c03e f3e0 cb3c 7198 7d3e 028f b8be
00000110: 3177 a03c af70 0ebf f92e c6bd 1df0 093f
00000120: 60cd 373e dff5 bb3d b8d6 13bf 0f53 fb3e
00000130: abea 79be 27ba 0ebe bfc4 13bc 62b5 bc3e
00000140: 1e36 a63e dac6 e23e 75ab 8bbe 517a 81be
00000150: 409f e0bd 5b64 e83e aeb3 7dbe 467e 103e
00000160: 9fb6 163e d114 cebe 7992 04bf 176f fb3e
00000170: 6672 e53e b22d 333e 9417 1fbf 0b98 2b3e
00000180: 7a90 c33e b665 93be 17df afbe 5e9c dc3d
00000190: 1824 f7bd b85f b7be 72ff bd3e dce5 b93e
000001a0: 7627 0a3d 2836 b73e 2e7b 2d3f abd9 5dbe
000001b0: 6772 e63e 1dda 463c 7b4c 82bd 7c23 ffbe
000001c0: 1d5c 373d 2773 fe3d 7057 1c3e 9cd2 e8bc
000001d0: 30e2 11bf 260c fcbd 13d7 1f3f 79f1 dabe
000001e0: 719d d0be 3ef8 e43e 3fe2 c73e 9aeb e7be
000001f0: d262 8e3e 003d 6abe 2e6f af3e 2822 a0bd
00000200: 6003 903e 43f3 b43e 748a 5cbe efbc 773e
00000210: b14c 17be 40ef 0e3f bc8f eebe 2c26 ddbe
00000220: 4642 d3be 0dfd 90bd 4c13 c7be 61a0 f93e
00000230: 1ed3 1f3e 4536 913e 79a7 dfbe 722e 29be
00000240: 9fff f0bd 21fb 7e3e d4db c53e a127 f9be
00000250: 0dda c93e 17e9 ee3e b6bf 9dbe 74c0 e63e
00000260: 8832 8a3e c3dd 61be c8b5 4b3f d406 ecbd
00000270: fe4f 1bbf e5f7 ff3d 8c0d 4ebf dab4 753d
00000280: 30d8 dcbe ec5c 573e f8ff 4ebd 411c 5ebd
00000290: b7ad 0e3f 7e22 c9be 63f8 373f 6c07 ebbe
000002a0: 55b8 6dbe c5e9 d73e d971 08bf f23e e9be
000002b0: 5e44 a1bd 50eb 683e c2f1 093f e206 b1be
000002c0: 07a6 91bd 3389 23be 008a 26be d614 343e
000002d0: fed4 ca3d 4067 a03e 5560 013f 4870 413e
000002e0: f7e2 b4bd 1030 97be 843d b1be 73f9 9dbd
000002f0: 38ed 6cbc 2c6a 193e 83f0 d2be 165b 953e
00000300: 9156 e8bd 0a8d 1b3f 2d9c f4bd 460a 90be
00000310: af31 f2bd a92f 023f 9b65 30bf e30d 0cbe
00000320: 9371 363e 218c 2ebe 6dd5 3cbe 5a70 99bc
00000330: ba54 00be 59d0 c3bd 6d09 44bd 2aa1 8b3d
00000340: 1a5c ffbe 0b15 a0be f932 6cbe 7e4c 16bf
00000350: eb9e eb3e 208f 0e3e ebe0 39be 4360 45be
00000360: d6af fb3d 1c57 b73d 79f6 24bd 10d9 e7be
00000370: fd35 1b3d 2494 57be 1180 8c3e c603 c03c
00000380: fbf6 2f3e b18b 6d3e 9666 ea3b c9b0 a63e
00000390: ce42 96be 3388 a6bd 4e55 bebe 93b6 9c3e
000003a0: 7369 15bf e616 a43e e0ee 1fbe 74b3 a73d
000003b0: 3bc2 6cbd b81b d63d dd25 5a3e 9c42 a3be
000003c0: effb 0d3e 855b 3abd a84f f03e d7b8 e63e
000003d0: 8f6e d63e 98f8 0dbd 2ff6 b5be 51ed 023f
000003e0: 11c8 853e cc52 a33e c3ba 1fbe eaa7 f83e
000003f0: 7992 d3be 0d07 373e edba b1be 32eb c63e
-0.06836996 0.1603029 -0.5654258 -0.4818613 -0.3454116 0.3721602 -0.705882 -0.34486586
0.04870495 0.08170261 -0.38349202 0.4115742 0.16007005 -0.0007796004 -0.45473766 0.47447354
0.14963593 0.13907856 -0.26284325 -0.405165 -0.51259184 -0.01196156 0.58937675 -0.28590137
-0.3431576 0.22867432 0.12827082 -0.46614826 0.42354384 -0.1372709 0.09488221 -0.35809177
-0.822657 -0.029764673 0.018712353 -0.30808398 -0.25954804 0.45720878 0.46187606 -0.7915093
-0.1482789 0.3999496 -0.6620139 -0.03274902 0.15189475 -0.28277564 -0.30344117 -0.5253068
0.27047458 0.09726496 -0.49471065 0.03277896 -0.34176967 0.14211752 0.21229112 0.26636946
0.41128498 -0.027435452 -0.48804793 -0.16759032 -0.014750198 -0.0871142 -0.7012943 -0.6446241
0.37613288 0.024887538 0.24765183 -0.36046606 0.019588085 -0.5564069 -0.09676928 0.5388201
0.17949438 0.091777556 -0.5774951 0.49086806 -0.24405925 -0.13938199 -0.009019076 0.36857134
0.32463163 0.44292337 -0.2727925 -0.25288633 -0.109678745 0.45389065 -0.24775574 0.1411067
0.14718102 -0.40250257 -0.51786 0.49108192 0.44813842 0.174979 -0.6214535 0.16757219
0.38196164 -0.28788537 -0.34349892 0.10772012 -0.12067431 -0.35815215 0.37108952 0.3630818
0.03372904 0.35783505 0.6776608 -0.21665065 0.45009157 0.012136963 -0.06362244 -0.4983176
0.04476558 0.12424307 0.1526773 -0.028420739 -0.5698576 -0.12307005 0.6243755 -0.42762354
-0.40745118 0.44720644 0.390398 -0.45296937 0.2780977 -0.22874832 0.3426451 -0.07819015
0.28127575 0.35341844 -0.2153719 0.24193166 -0.14775349 0.55833817 -0.46594036 -0.43193185
-0.412615 -0.070795156 -0.3888191 0.48755172 0.15607879 0.28361717 -0.4368246 -0.16521624
-0.11767506 0.24900486 0.38644278 -0.48663047 0.39424172 0.46662208 -0.30810326 0.45068705
0.26991677 -0.22057252 0.7957425 -0.1152474 -0.60668933 0.12498454 -0.8048942 0.059986927
-0.43133688 0.2103154 -0.05053708 -0.054226164 0.5573382 -0.39284128 0.71863383 -0.459041
-0.23214848 0.4217054 -0.5329872 -0.45555836 -0.07874368 0.22746015 0.5388452 -0.34575564
-0.07111745 -0.15970306 -0.1626358 0.17586073 0.09903906 0.31328773 0.50537616 0.18890488
-0.088323526 -0.29528856 -0.34617245 -0.07713594 -0.014460854 0.14981908 -0.4119912 0.29171056
-0.11344636 0.60762084 -0.11943851 -0.28132838 -0.11825883 0.50853974 -0.6890504 -0.13677172
0.17816763 -0.17045642 -0.1844079 -0.018730331 -0.1253232 -0.095612235 -0.04786055 0.06817849
-0.49874955 -0.31266055 -0.2306632 -0.5871047 0.46019682 0.13921785 -0.18152206 -0.19275002
0.122893974 0.08952162 -0.040274117 -0.45282793 0.037893284 -0.21052605 0.27441457 0.0234393
0.1718406 0.2319782 0.0071533425 0.3255675 -0.29347843 -0.08131447 -0.37174457 0.30608043
-0.5836403 0.3204872 -0.15618467 0.08188525 -0.05780242 0.10454506 0.21303506 -0.31886756
0.13865636 -0.045497436 0.46935773 0.45062897 0.41881225 -0.034660906 -0.35539386 0.51143366
0.261292 0.31899107 -0.15598588 0.48565608 -0.41322687 0.17873783 -0.34712926 0.38851315

fc1.bias f4 [64]
00000000: 05c9 803f 50f6 c83e ee43 703f de35 853f
00000010: b974 fa3e e3ce 313f 1c0f 2f3f b122 b2be
00000020: 0bbc 783f d436 cdbd 4b81 203e 998f 89bd
00000030: e80a 9fbf 78c6 973e fa02 f03e a9b6 93be
00000040: 2069 fbbe 8af1 083f 18c8 82bf 959a 81be
00000050: 9252 e63d 9a3d 2d3f 1867 bf3d 70b3 c6bf
00000060: fa3f 34be 386f 96be cb98 903f 63d5 7a3f
00000070: f136 7ebe e6b8 343f c19e 45bd b406 8ebe
00000080: 4269 6c3c 5940 c1bd 0a42 213f fd79 b33f
00000090: 3184 33bf 9ee4 7fbf 4251 27be 2bb3 8f3e
000000a0: ae16 1dbe 263f 393f 6547 d1be 7688 df3e
000000b0: 4d82 363f 6c2a 83be 45e3 48be 143b 57bf
000000c0: 12e9 d1be 02a9 0e3e 2958 0b3f bf63 283f
000000d0: 18f2 5bbe 16ba 2abf ff18 cf3f 342e 5b3f
000000e0: 0294 55bf d35f dd3e e15f 28bf 9528 9c3f
000000f0: e650 11be 6738 99be 0174 26bf 2304 7abd
1.0061346 0.39250422 0.9385365 1.0407064 0.48917177 0.6945631 0.6838243 -0.34792092
0.9716193 -0.10020223 0.15674321 -0.06716842 -1.2425203 0.29643607 0.4687727 -0.28850296
-0.49103642 0.5349356 -1.0217314 -0.2531325 0.11246218 0.6767212 0.093458354 -1.552351
-0.1760253 -0.29381728 1.1296629 0.9798185 -0.24825646 0.7059463 -0.048247103 -0.2773949
0.014429392 -0.094361015 0.6299139 1.4021603 -0.70123583 -0.9995822 -0.16339591 0.28066382
-0.15340683 0.7236198 -0.40874782 0.436588 0.71292573 -0.25618303 -0.19617946 -0.8407452
-0.4099813 0.13931659 0.54431397 0.657772 -0.2147907 -0.66690195 1.6179503 0.85617375
-0.83428967 0.4323717 -0.657713 1.2199885 -0.14191017 -0.29925844 -0.6502076 -0.0610391

fc2.weight f4 [64, 64]
00000000: 6cc1 c03d 9499 d23d 584f 07be 9402 db3c
00000010: bcc8 733c aa3f e0be 5a2e f13d 7dfb 823d
00000020: f535 60bd 1668 fd3d fecb f8bd b90d e83c
00000030: 398a b0bd 46fb 64bd 1c62 613d 18f5 1ebd
00000040: e173 513d 0e7e a3bc 0025 d43c 3e43 b3bd
00000050: 3331 e6bd b035 173d 0e94 8fbc de65 9abd
00000060: 11a4 6e3d 1894 a33d 51ec 6dbb 6e8b 51bd
00000070: 2767 f2bd 8fda 02be 7bb8 1b3e fe29 e83d
00000080: a18f 893d 31fe 13be 95bc a0be bfd3 f0bc
00000090: 14e9 b73c b265 7f3d 0174 9e3b 016b bfbe
000000a0: 337a 95be b89c d33d 62e1 913d 9ae8 613e
000000b0: 9fd0 523e 839f 133e 9541 04bd 9deb afbe
000000c0: e6ed 783d 6d3e 84bd eaff babc 9b1a 683e
000000d0: 0c34 4d3d 106a 72bd 1b3e 1e3e 5df4 1fbe
000000e0: cf4d 66bb 66f2 b3be 98f4 26be c1fb 873e
000000f0: c3d0 e23d 7016 613d 5ac3 e4bd b65e 81be
00000100: ffcf 893e 662f 0d3e 970f 3c3e 5ac8 813c
00000110: 4d42 a63d f005 493e d234 2b3e 5c13 a33d
00000120: 157d bd3e e5cc d23d c464 61bb 2c8a e73d
00000130: 44c9 a5bc 9ae9 c13d 4162 243e b9ba 963e
00000140: e1fd 06be ad2d 67be 3e76 edbd 7c25 b03d
00000150: eefe 803d fab8 3f3d c648 053e 4846 04be
00000160: 8253 f8bd d015 7a3d 5602 f13d 39ba b33c
00000170: 93b2 213c 71b1 683d f83b 73bd 2388 e1bd
00000180: f351 9f3d bf18 bf3d e9b8 043d 1a7b bb3d
00000190: 4323 37be 0557 ebbd db07 2abe 5c25 793e
000001a0: 9d96 96bd 97d0 ab3d 8603 893c bb0d 8f3d
000001b0: dfda d6be 22fe ab3c 1e6a 503e 885e 1bbe
000001c0: dfea 8a3d 9de6 b53c b1c5 273e c2d4 abbe
000001d0: b74c d53d 36df 8fbc 20f6 c43c a4e9 07bf
000001e0: f40d 40bb 10d9 c83c 60dd cd3d 5e8c b33e
000001f0: 41e4 2bbd cded cabc 15ba 5d3d 890c afbd
00000200: a871 4abd 484a b6bd ff25 f0bd 4d7d 213d
00000210: ec44 ce3d 5a2f aebe 4b55 133d 8638 813d
00000220: 9b43 50be c2c4 9f3d 2cf4 c63c 0d75 083e
00000230: beaa c33d 6b89 2c3d 230b 763d 3642 18be
00000240: c8dd 1dbd 6c46 e7bd 83d2 cf3d 27b9 95bc
00000250: ff05 d03d caaf b2bd 91ca 313d 8e0f a73d
00000260: 02e1 2e3e 5447 02bd 04c2 593d 3d92 223d
00000270: 9030 85bd c826 8abe 8602 0ebd 26fb 253d
00000280: 5ccf ca3b 2bda d0bd 8d73 2fbe 374e 5d3d
00000290: 61d2 333d 566e cb3d 0cf4 e23d b54e 20be
000002a0: 210b 75bd 73c3 6b3d 41bf 353d f68f 153e
000002b0: de6a ca3e ff8e ac3c 986e 1bbe 50dc 0dbe
000002c0: 5c3a 97bd c150 3b3d 8648 ce3d a553 993e
000002d0: 4eb2 7cbe 1c23 37bc ff59 b8bc dcb7 b93e
000002e0: 66bf 7dbd 8bc9 3bbe f618 863c bd53 993d
000002f0: dccc 5a3e 5fb7 f33d 5d96 93bc 8d1e c93c
00000300: 6db8 043d 9145 043e e59b da3d c718 cb3c
00000310: 12d4 563d 41cb af3e a092 a23d cea7 843d
00000320: a405 8b3e 003a 23be 791e 83bd 4063 ae3d
00000330: 0631 0bbd 58f4 9bbd 48cf 803c b64b e73e
00000340: 5034 92bc 7528 4cbe 3716 3bbe 17df e3bd
00000350: 75db 133e d7eb 32bd 182e 2f3e 727d 9c3d
00000360: 1c1f 933d 0060 193a 14c6 bc3d 4f69 ce3d
00000370: fb7c 40bd 81fd 3e3e f939 66bc f0da bb3d
00000380: 3a98 5cbd 4c56 8d3d 9de1 043e 8c56 a43c
00000390: fd9b 81bd d12b 1c3d 80f8 02bb 001a d73e
000003a0: e822 0c3e 3012 a83d 2fe9 343d 407d f13c
000003b0: 4827 f2bd ed20 a33d fc10 a23e 3c13 08be
000003c0: 439f 403d 3dc5 37bb 7162 fc3d 0a08 70be
000003d0: f942 093e 8ff8 a8bc 56aa 5c3e ad39 c9be
000003e0: 31a0 51bd 08f9 ef3d 4d34 53bd 76b7 823e
000003f0: c81d dabd f936 f03d 2266 dfbd 51e5 e5bd
0.09411892 0.10283199 -0.13213861 0.026734628 0.014879402 -0.43798572 0.11776419 0.06395624
-0.054738957 0.123733684 -0.121482834 0.028326856 -0.08620114 -0.055903696 0.055025205 -0.03880796
0.0511359 -0.019957568 0.02589655 -0.0875306 -0.11239853 0.036916435 -0.017526653 -0.07538961
0.058261935 0.07987231 -0.0036304186 -0.05115836 -0.11836081 -0.12778686 0.15207092 0.113361344
0.06716848 -0.14452435 -0.31393877 -0.029397843 0.022450007 0.062352844 0.004835606 -0.37386325
-0.29194793 0.10332626 0.071230665 0.22061387 0.20587395 0.14416318 -0.032289106 -0.34359446
0.060773753 -0.06457219 -0.022827107 0.22666399 0.050098464 -0.05918318 0.15453379 -0.15620561
-0.0035141592 -0.35145873 -0.16304243 0.2655926 0.110749744 0.05495304 -0.11170073 -0.2526757
0.269165 0.13787612 0.18365322 0.015842605 0.081181146 0.19631171 0.16719368 0.07962677
0.37009493 0.10292987 -0.0034392336 0.11305651 -0.020237572 0.09468384 0.16053106 0.29439333
-0.13182785 -0.22576018 -0.115948185 0.086008996 0.06298624 0.046807267 0.13016042 -0.12917435
-0.12125303 0.06105596 0.11768024 0.021939384 0.009869236 0.056809846 -0.059383363 -0.11012294
0.077793024 0.09330892 0.032402907 0.09154339 -0.17884545 -0.11491207 -0.16604559 0.24330658
-0.07352946 0.08389395 0.016725313 0.06985041 -0.4196386 0.020995203 0.2035298 -0.1517278
0.06783079 0.022204692 0.16384007 -0.3356076 0.10415023 -0.01756249 0.024043143 -0.5309088
-0.0029305192 0.024517566 0.100519896 0.3506803 -0.041965727 -0.024771595 0.05413254 -0.08547313
-0.049424797 -0.08900887 -0.11725997 0.039426137 0.100717396 -0.340205 0.035970014 0.06309609
-0.2033829 0.078012004 0.024286352 0.13325901 0.09554051 0.04212324 0.060069215 -0.14869007
-0.038541585 -0.11292729 0.10147574 -0.018276764 0.10157394 -0.08724935 0.043406073 0.08157264
0.17078021 -0.031806305 0.053163543 0.039690245 -0.06503403 -0.26982713 -0.034670375 0.040522717
0.00618927 -0.10197862 -0.17133923 0.05402967 0.043901805 0.09933154 0.110817045 -0.15655024
-0.059825066 0.05755944 0.044371847 0.14605698 0.39534658 0.02106428 -0.15178907 -0.13853574
-0.07384178 0.04573131 0.100724265 0.29946628 -0.24677393 -0.011177804 -0.022503851 0.36273086
-0.06195011 -0.18338601 0.016369324 0.07486675 0.2136721 0.1190021 -0.018016035 0.0245507
0.032402445 0.12917162 0.10674266 0.024792088 0.05244834 0.34334758 0.07938123 0.06477319
0.2715274 -0.15940094 -0.064022966 0.08515024 -0.0339823 -0.07614964 0.01572384 0.4517495
-0.01784721 -0.19937308 -0.18270193 -0.111265354 0.14439185 -0.043681946 0.17107427 0.07641114
0.07183668 0.0005850792 0.09217468 0.1007868 -0.04699419 0.18651392 -0.014051908 0.091726184
-0.053856112 0.069012254 0.1297669 0.0200608 -0.063285805 0.038127724 -0.0019984543 0.42012024
0.1368519 0.08206594 0.044167694 0.02947867 -0.118238986 0.079652645 0.31653583 -0.13288587
0.047026884 -0.0028041147 0.12323464 -0.23440567 0.13404454 -0.020626334 0.21549353 -0.39301816
-0.05117816 0.11717421 -0.05156355 0.25530595 -0.106502116 0.11729235 -0.10908152 -0.11225379

fc2.bias f4 [64]
00000000: 0bd6 c43e 9fa1 573f 5b78 5bbe bbbe 203f
00000010: 847b 0e3f 0ccb 813e 3012 543f 30e3 2cbf
00000020: 2c63 e4bc 3e4f 8cbd d4ff 00bd 00dc b13e
00000030: 9876 23bd e28d b53e 2d4c e43e 7667 56bd
00000040: be6a 91bf 4e40 e73d 9115 fd3d c91d b93e
00000050: 8a96 0d3f 9865 0ebf 4708 37bf ff3f 70bd
00000060: 0194 36bd af14 703f 30f0 c4bd 69d8 ae3d
00000070: caff 9b3d ea93 8f3e fbf4 b5be e0a0 0d3e
00000080: aa36 833c 70cd a83e 60e4 203f 617b 3c3f
00000090: 3849 e63d 408a 20be 4fb4 50bf b028 823e
000000a0: 01f6 16bf 740c 4a3f 5a13 153d a00c bebc
000000b0: 83c2 553f fa89 3f3e 7ca4 513f 4c5f be3e
000000c0: 5bfe 433f dde7 ea3c ff3d bc3e 3c71 d0bd
000000d0: 939d 42bf 667b af3d ba5f 263f 1a59 9abe
000000e0: 6e69 3b3f 6d01 153e ee64 5dbf 6c32 643f
000000f0: 8c3a 683f 6c52 2fbf d171 99bc 7124 1c3e
0.38444552 0.8423099 -0.2143263 0.6279103 0.5565722 0.25350225 0.8284025 -0.6753416
-0.02787932 -0.06851052 -0.031493977 0.3473816 -0.03990802 0.3545981 0.44589368 -0.05234476
-1.13607 0.11291562 0.12357629 0.36155537 0.5530783 -0.5562377 -0.71497005 -0.05865478
-0.04457474 0.9378156 -0.09616125 0.08537371 0.07617147 0.28042537 -0.35538468 0.138309
0.016017277 0.32969236 0.6284847 0.7362576 0.11244434 -0.15677738 -0.8152513 0.25421667
-0.5896912 0.7892525 0.03639541 -0.02319938 0.83499926 0.18704978 0.8189161 0.3718208
0.7655999 0.028675014 0.3676605 -0.10177848 -0.7602169 0.08568458 0.6498982 -0.30146104
0.7320775 0.14551325 -0.8648213 0.8913944 0.90714335 -0.6848514 -0.01873103 0.15248276

fc3.weight f4 [2, 64]
00000000: 5252 b83c 7b90 b93d 1ea9 15be d4a6 be3d
00000010: b8cf 2f3e 6b2a c23e 3dfe 693d 38ee 3bbe
00000020: 12cc e1bd 23bf bbbc 604a ffbc 42f3 b6bd
00000030: 6d17 22be f141 d73d 4cc1 1e3e 8df2 69be
00000040: 94f7 0cbe de97 11bd 950a 1ebd 77cc fb3d
00000050: f86e 593e 0162 a5bd ddf4 2dbd d9af f0bd
00000060: 16d5 31bc 03a2 043e 38f0 3a3d f704 05bd
00000070: fadc 793c 12cc 533e 35ee e9be 191a 48be
00000080: 07cb 163e d632 143e b9e7 4abc 9738 133e
00000090: ebe0 713c 8cd4 46be 6666 29be 4aff 25bf
000000a0: 925f 89bd 5d6b 053e 8a3d d93e 1c57 88bd
000000b0: 7f4a 313e c245 bc3d 1dcf 6d3e 9eda 163d
000000c0: bf88 3c3e 0466 84bd 4c1f ef3e 2573 f83d
000000d0: ec5e 9fbd 5427 4ebd 8b71 553e 8417 1dbe
000000e0: ea39 4a3e 9df6 253e ffb7 dbbd c11f 453e
000000f0: 8fdd 313e 5ad4 c3bd abfa 573d b0bb 3f3e
00000100: af23 0b3e 5f28 573d 6243 8b3c 150f 613c
00000110: ff50 7ebc 761f 16be 19ef 133d f2b7 23be
00000120: a0ec 363d 88a5 833d f4ca ab3d cf37 353e
00000130: 9d67 163e f78a 283e 2811 853e 930c be3d
00000140: c113 30be d17d 033d 47a9 54be d7f1 ad3b
00000150: 9ec2 c13c 6202 0fbe 36a2 c3bd a7b3 1d3d
00000160: 86d9 a8bd 574b 173e 6057 d7bd 9caa 823c
00000170: e3b4 ecbd eae0 89be ba29 43be a104 113f
00000180: e84f dcbd f59e 89bd 7e60 2f3e 9264 133d
00000190: b461 823e c0a9 61bd 5547 76be ae96 263d
000001a0: f9d9 56be 7389 3d3d 7356 a43e 06fd f73d
000001b0: bc5a 053e fc53 103e 31be 083e 2023 9bbc
000001c0: 9ea8 893e b5f0 863d 71e8 443e 752f 6cbe
000001d0: 98d2 67be 70c3 ee3d e841 d43d 937e 8abd
000001e0: b86b 2a3e ef42 1abe 3b88 6bbe b8ed 4d3e
000001f0: 3d38 173e 62a0 0dbe 1ce9 e83d a79e 34be
0.02250019 0.090607606 -0.14615294 0.09309164 0.17169082 0.37922987 0.057127226 -0.18352592
-0.110252514 -0.02291829 -0.031163394 -0.089331165 -0.15829249 0.10510624 0.15503424 -0.22846432
-0.13766319 -0.035545222 -0.03858431 0.12294858 0.21233737 -0.080753334 -0.042469848 -0.1175229
-0.010854026 0.12952428 0.045639247 -0.032475438 0.015250439 0.20683315 -0.4568955 -0.19541205
0.14725886 0.14472517 -0.012384349 0.14377056 0.014763097 -0.19417018 -0.16542968 -0.64842665
-0.06707682 0.13029237 0.42429763 -0.0665724 0.17313574 0.09192993 0.23223539 0.036829583
0.1841154 -0.064647704 0.46703565 0.12131337 -0.07781777 -0.050330475 0.20844094 -0.15341002
0.19748655 0.16207357 -0.10728454 0.19250394 0.17369674 -0.09561987 0.05272929 0.18723941
0.13587831 0.052528735 0.016999904 0.013736506 -0.015522241 -0.14660439 0.036116693 -0.15988138
0.044659257 0.06428057 0.083883196 0.1769707 0.14687963 0.16459261 0.25989652 0.09279742
-0.17195036 0.03210241 -0.20767699 0.0053083706 0.023652371 -0.13965753 -0.09552424 0.038501408
-0.08244614 0.14774834 -0.10514712 0.015950494 -0.11557939 -0.26929408 -0.19058886 0.5664769
-0.107574284 -0.06719772 0.17126653 0.035984583 0.25465167 -0.055093527 -0.24050649 0.040671043
-0.20981587 0.04627366 0.32097206 0.12108807 0.13022894 0.14094537 0.13353802 -0.018937647
0.26886457 0.0658888 0.19229294 -0.23064978 -0.22638929 0.116583705 0.10364133 -0.06762423
0.16642654 -0.15064596 -0.23001187 0.20110214 0.14767547 -0.13830712 0.11372587 -0.17638646

fc3.bias f4 [2]
00000000: 5607 b43e 843a 2a3f
0.35161847 0.6649554
