sat-code/models/maddpg_20250712-135635/checkpoint_1800/critic_agent_1.pth (torch, 24873 bytes, 5 tensors)

fc1.weight f4 [64, 18]
0	0xbfb1fe6c	-1.3905768
1	0xbd8af90a	-0.06785782
2	0x3e841877	0.25799915
3	0x3f903689	1.1266643
4	0xbe17d79f	-0.14828347
5	0xbd2fb24c	-0.042894647
6	0x3ed8b026	0.4232189
7	0x3e91d618	0.28483653
8	0xbe03b56e	-0.12862179
9	0xbed582c4	-0.4170133
10	0xbe5ab7fb	-0.21359245
11	0x3ec3ac5f	0.38217446
12	0xbc6c949c	-0.014439728
13	0x3fab98b2	1.3405974
14	0x3f302b33	0.68815917
15	0xbcf361b0	-0.029709667
16	0xbe7d500d	-0.24737568
17	0x3f3f4b2d	0.74724084
18	0xbd66c4a8	-0.05633989
19	0xbe55e21f	-0.2088704
20	0x3d12c7d0	0.035835087
21	0x3d3ca288	0.04605344
22	0xbe1c2b45	-0.15250881
23	0xbddedb05	-0.108816184
24	0xbde61ae9	-0.112356015
25	0xbdcd6de1	-0.10030723
26	0xbe80907e	-0.2511024
27	0xbb7afd00	-0.0038297772
28	0x3ddc5e16	0.10760133
29	0xbd8a0986	-0.06740098
30	0x3e591ec7	0.21203147
31	0xbd34455d	-0.044011462
32	0x3dd68fc1	0.10476638
33	0xbe7fe4b3	-0.24989586
34	0x3dacda0d	0.084400274
35	0xbdaf31c2	-0.085544124
36	0x3d84bc17	0.06481188
37	0xbc2c144f	-0.010502889
38	0x3c427653	0.011869031
39	0xbc1417e5	-0.0090389
40	0x3de393a4	0.111121446
41	0x3e24d154	0.16095477
42	0x3fa30b47	1.2737817
43	0x3f0e558b	0.5559928
44	0x3e1706d4	0.14748698
45	0x3dca53b7	0.098792486
46	0xbeee729d	-0.46571818
47	0xbf34c572	-0.7061378
48	0x3eb01ed7	0.3439853
49	0x3b370cb8	0.0027931165
50	0x3f973162	1.1811945
51	0x3f3a9dc5	0.7289699
52	0xbf13703e	-0.57593143
53	0xbec610fc	-0.38684833
54	0x3d2ea447	0.042637136
55	0x3e2567b7	0.16152845
56	0xbedc2cd6	-0.43002957
57	0xbe5f45d4	-0.21803981
58	0xbc3120c4	-0.010811035
59	0x3eaf7a48	0.3427298
60	0xbf03a1f6	-0.5141901
61	0x3ed0a005	0.40747085
62	0xbceed83b	-0.029155841
63	0x3ea57ef6	0.32323426
64	0xbe8b8756	-0.2725169
65	0xbf04703f	-0.51733774
66	0xbed7bd5e	-0.42136663
67	0xbddb2019	-0.106994815
68	0xbec8f1f4	-0.39247096
69	0x3f350f96	0.7072691
70	0xbe8ad4db	-0.2711552
71	0xbe52e134	-0.2059372
72	0xbdc88644	-0.09791234
73	0xbd3e7ae7	-0.046503928
74	0x3e241104	0.16022116
75	0x3e17d753	0.14828233
76	0xbe6d7c0b	-0.2319185
77	0xbe07546e	-0.13215801
78	0xbe784321	-0.24244358
79	0x3e82630f	0.254662
80	0xbe6f81ce	-0.2338936
81	0xbdc22013	-0.09478774
82	0xbf0051fc	-0.501251
83	0x3f55e6ce	0.83555305
84	0x3e23de49	0.16002764
85	0x3d9dbaa4	0.077016145
86	0xbe987042	-0.29773146
87	0x3f2649cc	0.64956355
88	0xbec1708a	-0.37781173
89	0x3ecb6168	0.39722753
90	0x3e11c079	0.14233579
91	0x3e8ae726	0.27129477
92	0x3dfb1bec	0.12261185
93	0x3f78b5bc	0.97152305
94	0xbe4f130d	-0.20222111
95	0x3cb4dea4	0.02207882
96	0x3ecb90b9	0.39758852
97	0xc00bed5d	-2.1863625
98	0x3efbf6a2	0.49211603
99	0x3d194c9d	0.03742658
100	0x3e80744e	0.25088733
101	0xbf3663a6	-0.712458
102	0xbda7cb82	-0.08193113
103	0x3f7ea97e	0.99477375
104	0x3e08e960	0.13370275
105	0xbfbd8e04	-1.4808965
106	0x3eccbf88	0.39989877
107	0xbe7af380	-0.2450695
108	0x3ea1d380	0.31606674
109	0xbeded065	-0.43518367
110	0x3fa920ca	1.3213131
111	0xbee8be25	-0.4545757
112	0x3e80789f	0.25092027
113	0xbcd9112a	-0.026497442
114	0x3fe7bc91	1.8104421
115	0xbf7d398e	-0.98915946
116	0x3d6c72b1	0.057726566
117	0x3dc24722	0.09486224
118	0x4011bd57	2.2771814
119	0xbdcb0178	-0.099123895
120	0x3f885343	1.065041
121	0xbee528e0	-0.44757748
122	0x3fc00164	1.5000424
123	0xbf8d9f6c	-1.1064277
124	0x40053e29	2.081919
125	0xbe8abe81	-0.27098468
126	0xbf241f7e	-0.64110553
127	0x3d6ab454	0.05730088
128	0xbfb7399e	-1.4314458
129	0x3ec82262	0.39088732
130	0x3e546ac4	0.20743853
131	0xbe4bcb7c	-0.19901842
132	0x3fa31ece	1.2743776
133	0xc034ca73	-2.8248565
134	0x3d47d9ea	0.048791803
135	0xbc44d6bf	-0.01201409
136	0xbf50f13d	-0.816181
137	0xbebb95f5	-0.36637846
138	0xbfa4e5f9	-1.2882682
139	0x3ef09489	0.46988323
140	0x3fba817d	1.4570767
141	0xc01af443	-2.4211586
142	0xbe800307	-0.2500231
143	0xbe449268	-0.19196475
144	0x3ecfcc08	0.4058535
145	0xbd3510b5	-0.044205386
146	0xbe91993c	-0.2843722
147	0xbf2c4e75	-0.67307216
148	0x3e90bf9c	0.28271186
149	0x3de78080	0.11303806
150	0x3eb9f56a	0.3632005
151	0x3f2e953d	0.6819647
152	0x3ecf5e81	0.40501788
153	0xbcb5b839	-0.02218257
154	0x3f76be3f	0.9638404
155	0xbe315fad	-0.17321654
156	0xbebaf8ec	-0.36518037
157	0xbf49f769	-0.7889314
158	0x3f12d1c8	0.5735135
159	0x3eb3b3a2	0.35097986
160	0x3f4cfa70	0.8006964
161	0xbd0280ec	-0.03186123
162	0x3e82a10e	0.255135
163	0xbc485e4f	-0.012229516
164	0x3eb6bbc6	0.35690135
165	0xbf907ccd	-1.1288086
166	0xbe7a5c20	-0.24449205
167	0x3f1c0333	0.6094238
168	0x3eabc483	0.33548364
169	0x401d4bff	2.4577634
170	0x3e245292	0.16047123
171	0x3b7a17cb	0.0038161154
172	0xbf143531	-0.57893664
173	0xbe890106	-0.26758593
174	0x3f109961	0.5648404
175	0xbfa0d63a	-1.2565377
176	0x3e272dc7	0.16326056
177	0x402da3af	2.7131155
178	0xbebb2dc5	-0.36558357
179	0xbe69377c	-0.22775072
180	0x3eca5a1f	0.39521882
181	0x3d751ee8	0.059843928
182	0xbeaf61e8	-0.34254384
183	0xbf37b791	-0.71764475
184	0x3e892cb6	0.26791924
185	0x3e47a71b	0.1949734
186	0x3f26f90d	0.6522377
187	0x3ecd2835	0.40069738
188	0x3e31e7cf	0.17373584
189	0xbd65d7f5	-0.056114156
190	0x3e097e63	0.13427119
191	0x3ea6362a	0.324632
192	0xbf272926	-0.6529716
193	0xbf7b721e	-0.98221004
194	0x3f5730ed	0.8405903
195	0x3e51b27f	0.20478247
196	0x3ea4477a	0.32085782
197	0x3f2196e1	0.6312085
198	0x3dccfd7d	0.100092866
199	0xbf8db6f7	-1.1071461
200	0x3f69dad1	0.9134951
201	0xbe11beb3	-0.14232902
202	0xbecba967	-0.3977768
203	0xbe674a9c	-0.22587055
204	0xbebd9b84	-0.37032712
205	0x3d479f3b	0.04873584
206	0xbf0ffd83	-0.56246203
207	0xbf13b3e6	-0.5769638
208	0x3eacc5a4	0.33744538
209	0xbf2a2894	-0.6646817
210	0x3f80f109	1.0073558
211	0xbee8163b	-0.4532946
212	0xbd4e09d1	-0.05030233
213	0xbd693867	-0.056938555
214	0xbbb8ecea	-0.0056434767
215	0xbf5dbf53	-0.8662006
216	0xbe76a2a1	-0.24085476
217	0x3d707f8c	0.05871539
218	0x3de2e95b	0.11079665
219	0x3e9be855	0.30450693
220	0xbeb4d3f5	-0.3531796
221	0xbdb7a0ba	-0.08966203
222	0xbe06afeb	-0.13153045
223	0xbe23dbbd	-0.16001792
224	0xbe29bd64	-0.16576153
225	0xbe67c599	-0.22633971
226	0xbea89149	-0.32923344
227	0x3eacf5fd	0.33781424
228	0x3e8a0bbf	0.26962087
229	0x3f0139a9	0.5047861
230	0x3e26fe34	0.16307908
231	0xbe9610ba	-0.29309636
232	0xbe2aed97	-0.16692196
233	0x3eb44352	0.3520761
234	0xbe5e6ac2	-0.21720412
235	0xbe8f7801	-0.28021243
236	0x3d2e36cb	0.042532723
237	0xbb011d90	-0.0019701459
238	0xc001aec2	-2.0262914
239	0xbf89b04f	-1.075693
240	0x3eb32e22	0.34996134
241	0xbf0cf94d	-0.550679
242	0xbef4de48	-0.47825837
243	0x3e1a9ec3	0.15099625
244	0x3d85c3ab	0.06531461
245	0x3d821848	0.063522875
246	0x3e5a81ff	0.21338652
247	0xbe3f40ba	-0.18677035
248	0xbf02f88b	-0.51160496
249	0xbe6e602f	-0.23278879
250	0x373f304e	1.1395734e-05
251	0x3f1564b0	0.5835676
252	0xbce69303	-0.028146273
253	0xbee54f35	-0.44786993
254	0x3ed3ffb8	0.41406035
255	0xbece774f	-0.403254

fc1.bias f4 [64]
0	0xbef603c4	-0.48049748
1	0xbd8c072f	-0.06837308
2	0x40a422c8	5.1292458
3	0x409f74ca	4.9830065
4	0xbf65bc18	-0.89740133
5	0x3f6f7066	0.9353088
6	0xc03e3ebf	-2.9725797
7	0xbfd3c8d9	-1.6545669
8	0x40b03ba3	5.50728
9	0xbeb01198	-0.34388423
10	0xc01d37d7	-2.4565332
11	0x3fbda399	1.4815551
12	0x3dbef7ac	0.093245834
13	0xbe4413cf	-0.19148181
14	0xc0653e7e	-3.5819392
15	0xbf06bea5	-0.5263465
16	0xbf99612a	-1.1982777
17	0x3d62731c	0.055285558
18	0xbfc7c618	-1.5607328
19	0x40a03c8e	5.007392
20	0xc015f533	-2.3430908
21	0xc0ae2641	-5.4421697
22	0xbe93ea34	-0.2888962
23	0x40c25bb1	6.073693
24	0x409bd603	4.8698745
25	0x3fe55f03	1.791962
26	0x40b5b034	5.677759
27	0xbf8240a3	-1.0175976
28	0xbfff34a3	-1.9937938
29	0x40c78459	6.2349057
30	0x3f4d758d	0.80257493
31	0x3ef19b64	0.47188866
32	0x409c9085	4.8926415
33	0x3e3f0826	0.18655452
34	0xc039671d	-2.8969185
35	0x4055b653	3.3392532
36	0xc092a4f2	-4.582635
37	0xbf4fbe6f	-0.81149954
38	0x40b7d002	5.7441416
39	0x40aada35	5.3391366
40	0xbe980e1d	-0.29698268
41	0xc04a9d7a	-3.1658616
42	0xc07b495a	-3.926352
43	0xc0193047	-2.3935716
44	0xc0264a60	-2.5982895
45	0x3f3f016e	0.74611557
46	0x40b41a92	5.6282434
47	0x40a8e8d6	5.2784224
48	0x3f4c6626	0.79843366
49	0xc02953f7	-2.6457498
50	0xc079c68f	-3.902744
51	0xc037d935	-2.8726323
52	0x408e14af	4.440025
53	0x40ba7d36	5.8277845
54	0xc00ce2ec	-2.2013502
55	0x3f0d1571	0.5511084
56	0xbe4d3745	-0.20040615
57	0x3fbef4bc	1.4918437
58	0xc031008f	-2.765659
59	0xbdd2bc6a	-0.102898434
60	0xbeb3ed1f	-0.35141847
61	0xbf9a28fc	-1.2043757
62	0xc0891e58	-4.284954
63	0xbf32e5dc	-0.6988199

fc2.weight f4 [64, 64]
0	0xbf27aea6	-0.6550087
1	0x3a579a00	0.0008224547
2	0xbef8477b	-0.48492035
3	0xbe107571	-0.141073
4	0xbde432bb	-0.111424886
5	0xbda9158b	-0.08256062
6	0xbdfd7b23	-0.12377002
7	0xbf44d7c2	-0.7689172
8	0xbd20a312	-0.039218016
9	0xbdc9f7ca	-0.09861715
10	0xbdc26071	-0.09491051
11	0x3d6190ae	0.055069618
12	0x3dac23c4	0.08405259
13	0xbbbe97c1	-0.0058164303
14	0xbd4acb3b	-0.049510222
15	0xbeb9d0a6	-0.36292
16	0xbed4c46c	-0.41556108
17	0xbb12a480	-0.0022375882
18	0xbdbb8cf0	-0.09157741
19	0x3d2eeaa8	0.042704254
20	0xbd37f00e	-0.04490667
21	0xbe519611	-0.20467402
22	0xbe802710	-0.25029802
23	0x3b669c00	0.0035188198
24	0x3dae70fc	0.08517644
25	0xbe09be84	-0.13451582
26	0xbc357528	-0.0110752955
27	0x3e3bcf20	0.1834073
28	0x3e0d2aa5	0.13785799
29	0xbd21c7d9	-0.03949723
30	0xbdcc2f56	-0.09969966
31	0x3ccceca9	0.025015192
32	0xbcf215b2	-0.02955136
33	0x3d2eb977	0.04265734
34	0xbc8a5cd7	-0.016889973
35	0xbd5fe84d	-0.0546649
36	0xbe7be986	-0.24600801
37	0xbcd695d1	-0.026194485
38	0xbe3e20a8	-0.18567145
39	0x3c931854	0.017955936
40	0xbe7e25d5	-0.2481912
41	0xbeb49c45	-0.35275474
42	0x3d75c376	0.06000086
43	0x3e2799c8	0.16367257
44	0xbd41fcfc	-0.047360405
45	0x3b6c11e5	0.0036021408
46	0x3d418186	0.047242664
47	0xbee54342	-0.44777876
48	0xbd2bb12b	-0.041917007
49	0xbcf51386	-0.029916536
50	0xbdfacec2	-0.12246467
51	0x3e04d9ec	0.12973756
52	0xbe0cca74	-0.13749105
53	0xbeb7edd8	-0.35923648
54	0xbb14eb94	-0.0022723423
55	0xbc56ae7f	-0.013103127
56	0xbd8ebbbf	-0.069694035
57	0xbd15fada	-0.036616184
58	0xbf08f91a	-0.535051
59	0x3d1ed06e	0.038772993
60	0x3cccfe5c	0.025023632
61	0xbdd57b6b	-0.10423931
62	0xbec8c5ba	-0.39213353
63	0x3d845bb1	0.06462801
64	0xbd10aa68	-0.035318762
65	0x3c4f33e0	0.012646645
66	0xbe6ee23c	-0.23328489
67	0x3daefcfb	0.08544346
68	0xbe797c40	-0.24363804
69	0x3d247386	0.040149234
70	0xbe6e6050	-0.23278928
71	0xbd25f0bb	-0.04051278
72	0xbdcf53a6	-0.101233765
73	0xbbfbfdad	-0.0076901526
74	0x3bc2be40	0.0059430897
75	0x3c4f0e42	0.012637677
76	0xbe153257	-0.14569984
77	0x3e88749d	0.2665147
78	0xbd0a3cdd	-0.03374945
79	0xbd42d2ee	-0.04756444
80	0xbe79cb37	-0.24393927
81	0x3deef110	0.11667073
82	0xbdcaec44	-0.09908345
83	0xbd855471	-0.065102465
84	0x3e3b1c35	0.18272479
85	0xbe1d4dfe	-0.15361783
86	0xbe8930df	-0.26795098
87	0xbd83b71f	-0.06431412
88	0xbe300c59	-0.1719221
89	0x3d412869	0.04715768
90	0xbded2d70	-0.11580932
91	0xbbb5ec9a	-0.0055518867
92	0xbe53fa0c	-0.20700854
93	0xbdd932aa	-0.106053665
94	0x3c563c9b	0.013075973
95	0xbe3a29d6	-0.18180022
96	0x3e0f5478	0.13997066
97	0xbc8a8df9	-0.016913401
98	0x3e02c6fa	0.12771216
99	0xbe987058	-0.2977321
100	0xbe8ed901	-0.27899936
101	0x3dc83d19	0.097772785
102	0xbbe4e75d	-0.0069855885
103	0xbe6ad005	-0.22930916
104	0xbdb58c3b	-0.088646375
105	0x3b9bb99b	0.0047523505
106	0x3ca3b3ee	0.019983258
107	0xbe0c94dc	-0.1372866
108	0xbdd5c8c4	-0.10438684
109	0x3c15119a	0.009098435
110	0xbc7478dd	-0.014921394
111	0xbe912581	-0.28348926
112	0xbdf31d30	-0.118708014
113	0xbe2b1deb	-0.16710632
114	0x3e0324d5	0.12807019
115	0xbe819a31	-0.2531295
116	0xbe7b7309	-0.24555601
117	0xbea931df	-0.3304586
118	0xbd9476d5	-0.07249228
119	0x3d9c856a	0.07642634
120	0x3dfdc32d	0.123907425
121	0xbcb66081	-0.022262814
122	0xbe1557d0	-0.14584279
123	0x3d468683	0.048468124
124	0x3ed16439	0.40896776
125	0xbdd420ed	-0.103578426
126	0xbc5c0922	-0.013429912
127	0xbe00b6c5	-0.12569721
128	0xbe6e1565	-0.23250349
129	0xbdd16c7e	-0.10225771
130	0xbea53b4b	-0.322718
131	0x3c29015b	0.010315265
132	0xbe0aa187	-0.1353818
133	0xbe3b3ada	-0.18284169
134	0xbee3819b	-0.4443482
135	0xbeadbdc0	-0.3393383
136	0x3d0c2626	0.03421607
137	0xbeae0bb7	-0.33993313
138	0xbf181b09	-0.5941625
139	0xbddd460c	-0.10804376
140	0xbeb6c26e	-0.35695213
141	0xbf7d3105	-0.9890292
142	0x3da3277e	0.07966517
143	0xbed01294	-0.40639174
144	0x3df20272	0.11816873
145	0xbcf43080	-0.029808283
146	0xbd0eb11c	-0.034836873
147	0x3d104ace	0.03522759
148	0xbe2dac7e	-0.16960332
149	0xbf4ecb87	-0.8077931
150	0x3e392eae	0.18084213
151	0xbdbeff70	-0.093260646
152	0xbf215f67	-0.630362
153	0xbe35e101	-0.17761613
154	0xbd521b61	-0.05129564
155	0xbecf8b76	-0.40536088
156	0xbec91151	-0.39271024
157	0xbd9af7b1	-0.07566775
158	0xbdbb2196	-0.091372654
159	0xbdf2692a	-0.11836465
160	0xbe09a2f2	-0.13441065
161	0xbdb2b644	-0.08726171
162	0x3e791bfd	0.24327083
163	0xbdf8efd3	-0.12155118
164	0xbe68eb63	-0.22746043
165	0xbe9edb38	-0.31026626
166	0xbd18f643	-0.03734423
167	0xbd5881b4	-0.05285807
168	0xbe593da2	-0.21214917
169	0xbdd71941	-0.10502864
170	0xbedac942	-0.42731673
171	0xbd8f97fc	-0.070114106
172	0xbd9b8c95	-0.07595173
173	0x3cedf104	0.02904559
174	0xbe83f829	-0.2577527
175	0xbf757b88	-0.9589162
176	0x3d98e0d4	0.074647576
177	0xbe9cc9e1	-0.3062277
178	0x3e4396b8	0.19100463
179	0xbea80b2d	-0.32821026
180	0xbdfc071c	-0.123060435
181	0xbe659be8	-0.22422755
182	0x3eeba858	0.46026874
183	0xbd2e3ae6	-0.04253664
184	0xbd3eae4d	-0.046552945
185	0x3d2fef6c	0.04295294
186	0x3df85685	0.12125877
187	0x3c5657d8	0.013082467
188	0xbea849a0	-0.3286867
189	0xbe4e745f	-0.2016158
190	0x3e4b2164	0.19836956
191	0xbd0a1a5d	-0.03371655
192	0xbd1ed934	-0.03878136
193	0x3c1b0ba0	0.009463221
194	0xbe55ea35	-0.20890124
195	0xbc1b67bb	-0.0094851805
196	0xb8ec0968	-0.00011255109
197	0x3dd8b9ec	0.10582337
198	0xbe96be1c	-0.29441917
199	0x3d6a86f7	0.05725762
200	0x3c38fc90	0.011290684
201	0xbd6ff84a	-0.058586396
202	0xbe4bc534	-0.19899446
203	0xbe630d49	-0.22173037
204	0xbe170246	-0.14746961
205	0xbeb2bf9e	-0.34911817
206	0x3d2590b8	0.040421218
207	0x3dc474dd	0.095926024
208	0xbec54654	-0.3853022
209	0xbdf97f04	-0.121824294
210	0x3db3f30e	0.087865934
211	0xbdb1bb65	-0.08678321
212	0xbe0900b7	-0.13379179
213	0xbe4cb5f7	-0.19991289
214	0xbe48b6af	-0.19600938
215	0xbeced33e	-0.4039554
216	0xbe4955e7	-0.19661675
217	0x3e5198e6	0.20468482
218	0xbe2b3a58	-0.16721475
219	0x3e0fbfa2	0.14037946
220	0xbe920aad	-0.2852377
221	0xbe2bbaea	-0.16770521
222	0xbe21aff3	-0.15789776
223	0xbddf1bd1	-0.108939774
224	0x3e860418	0.26174998
225	0xbedd407d	-0.43213263
226	0xbedb14af	-0.42789218
227	0xbe7e4b88	-0.248335
228	0xbc51b3fd	-0.01279926
229	0xbe386afb	-0.1800956
230	0xbe74c958	-0.23904932
231	0xbbbbd575	-0.005732233
232	0x3d68ecf4	0.0568666
233	0xbd191cd2	-0.037381
234	0x3ea9b845	0.331484
235	0xbbdde51f	-0.006771698
236	0xbd206344	-0.039157167
237	0xbe640b34	-0.22269899
238	0xbf1c5783	-0.6107103
239	0x3e75cb89	0.24003424
240	0x3d22201b	0.0395814
241	0xbea4d65c	-0.32194793
242	0xbdcb770c	-0.09934816
243	0x3c888ae6	0.016667794
244	0xbcf8fc11	-0.030393632
245	0xbdceacca	-0.10091551
246	0xbf3281e6	-0.6972946
247	0x3e1e6129	0.15466751
248	0x3ded0826	0.1157382
249	0xbd943b68	-0.07237893
250	0xbe2541d8	-0.16138399
251	0x3dca62ba	0.09882112
252	0xbe18c19b	-0.14917605
253	0x3d803008	0.06259161
254	0xbdbdfcdd	-0.092767455
255	0xbed64a88	-0.41853738

fc2.bias f4 [64]
0	0xbe744a49	-0.23856463
1	0x3d060e24	0.03272833
2	0x3e84bf5b	0.25927243
3	0xbd981c8c	-0.0742732
4	0xbe46a5bc	-0.1939916
5	0xbc8605f4	-0.01636026
6	0xbe79e069	-0.24402012
7	0xbd1a9dd0	-0.037748158
8	0xbea09855	-0.3136622
9	0x3ee2a10a	0.44263488
10	0xbe874456	-0.26419324
11	0xbdf54714	-0.11976448
12	0xbb4911ff	-0.0030680893
13	0xbedbd06f	-0.4293246
14	0x3c0a26f9	0.008432143
15	0x3ed79e0b	0.42112765
16	0xbe5bf10f	-0.21478675
17	0xbd152a51	-0.03641731
18	0x3f498f23	0.78734034
19	0xbe9260c2	-0.28589445
20	0xc03a0e31	-2.9071162
21	0xbc11db51	-0.008902387
22	0xbe143fc1	-0.14477445
23	0xbe02ef77	-0.12786661
24	0xbe349725	-0.17635782
25	0x3af4bddd	0.0018672306
26	0x3e3080e8	0.17236674
27	0x3d63cca5	0.055615086
28	0xbe32cd4a	-0.17461124
29	0xbdd2e236	-0.102970526
30	0x40b4664b	5.637487
31	0x3ea3781a	0.31927568
32	0xbe7e3bda	-0.24827519
33	0xbe826466	-0.25467223
34	0x3d9af8a9	0.075669594
35	0x3c911dda	0.01771443
36	0xbe3efa3d	-0.18650146
37	0x3e0b317f	0.135931
38	0x3d144445	0.03619792
39	0xbd15ff70	-0.036620557
40	0xbe8449ee	-0.25837654
41	0xbea70276	-0.32619065
42	0xbda1b35e	-0.0789554
43	0xbe3dfa49	-0.18552507
44	0xbcf78b73	-0.030217862
45	0xbc60ef02	-0.013728859
46	0xbbb4b643	-0.0055148914
47	0xbe88cb16	-0.26717442
48	0xbe1952ab	-0.14972942
49	0xbcbda57e	-0.023150202
50	0xbd954ea3	-0.072903894
51	0x3ad1328e	0.0015960501
52	0xbe1270f0	-0.14300895
53	0xbe09f3c4	-0.13471895
54	0xbd29b4dd	-0.04143225
55	0xbe383b0d	-0.17991276
56	0x3fe411b9	1.7817909
57	0x3db7cecf	0.089749925
58	0xbe3b9ce2	-0.18321565
59	0xbdd11945	-0.10209898
60	0xbeb1c943	-0.34723863
61	0xbe7b13b1	-0.2451923
62	0xbe04fad2	-0.12986305
63	0xbf369e7f	-0.71335596

fc3.weight f4 [1, 64]
0	0x3d9c062a	0.07618363
1	0xbbd68471	-0.00654655
2	0xbe98b7d5	-0.29827753
3	0x3b1de8b0	0.0024094991
4	0x3d92ffaf	0.07177674
5	0xbbfcf3fa	-0.007719514
6	0xbc75abd3	-0.014994579
7	0xbcc6e738	-0.024280176
8	0x3d71b2bd	0.05900835
9	0x3cbd94d9	0.023142265
10	0xbbb14cde	-0.0054107746
11	0xbc881ac3	-0.016614323
12	0xbb7f9443	-0.0038998283
13	0xbd26cd22	-0.040722974
14	0xbcbf2dfd	-0.023337359
15	0x3da86432	0.08222236
16	0x3d8a2eb2	0.06747188
17	0xbd001ba5	-0.031276364
18	0x3daa6c86	0.083214805
19	0x3d34e599	0.044164274
20	0x3c4b574f	0.012410953
21	0xbc0cfc03	-0.008605006
22	0x3caf284e	0.021381523
23	0x3c3794a6	0.011204874
24	0xbb556f6f	-0.003256764
25	0xbcbcb164	-0.023033805
26	0xbcc56de8	-0.024100259
27	0xbc8bf10d	-0.017082715
28	0xbc5c559b	-0.013448144
29	0x3c6dc8d2	0.014513211
30	0x3cb8158a	0.022471208
31	0x3b34c69b	0.0027584198
32	0x3c9d6109	0.019211309
33	0x3d86f4d8	0.06589669
34	0x3cf3ddac	0.029768787
35	0xbd56b64b	-0.052419942
36	0x3c8fcb1f	0.01755291
37	0xbbef7b26	-0.0073083816
38	0x3cd57afa	0.026059616
39	0x3c92a33d	0.017900104
40	0x3cb97d02	0.022642616
41	0xbce5ee87	-0.02806784
42	0x3e11becd	0.14232941
43	0xbc9cc412	-0.019136462
44	0x3d0ad7a3	0.033897053
45	0xbd87436c	-0.066046566
46	0x3d0e50c9	0.03474501
47	0x3c9460b8	0.018112525
48	0x3b2b56c3	0.0026144243
49	0x3cc9d84c	0.024639271
50	0x3caaad97	0.020834727
51	0x3b574284	0.0032846043
52	0xbd0589c1	-0.032602075
53	0x3c3ab488	0.011395581
54	0xbb915785	-0.004435482
55	0xbcf04298	-0.02932863
56	0xbc4b2d69	-0.012400963
57	0x3aafc127	0.0013409004
58	0x3e643e3c	0.22289366
59	0x3cd1a12d	0.02558955
60	0x3d98efd1	0.07467616
61	0x3d2800bc	0.041016325
62	0x3c231c1c	0.009955432
63	0xbd9beb00	-0.07613182
