sat-code/models/maddpg_20250712-135635/checkpoint_1700/critic_agent_0.pth (torch, 24873 bytes, 5 tensors)

fc1.weight f4 [64, 18]
-0.51634395 -0.2162839 -0.57074827 -0.51998305 -0.17536163 0.12659882 -0.7529808 1.031367
0.0050274683 -0.21661499 -0.29399693 0.6338852 -0.16564718 -0.35847807 -0.7550328 1.3840972
-0.15727057 0.69433796 -0.5650995 -0.46130818 -0.5178675 -0.12218047 0.26055652 0.4657874
0.25885844 0.25803155 -0.0056098932 -0.2379087 -0.19712417 -0.002376436 -0.82470244 -0.027207095
0.29968724 0.10145403 0.50889057 -0.06319513 0.20512994 -0.15846297 0.8106224 0.19233233
0.36505833 0.16501057 0.68337 -0.39755094 -0.08258128 0.02942552 0.54046917 0.52233696
0.59248537 0.56047845 0.54983324 -0.30787197 0.0865468 0.5396198 -0.7866618 -1.4543453
-0.57440764 -0.2497132 -0.08665569 -0.26981086 -0.818521 0.009137438 -0.79964215 0.1251437
0.67297214 0.84806687 -0.8600131 0.06467157 -0.91560954 0.22863688 0.7183007 0.63131803
0.29590207 -0.07826838 -0.15271382 -0.15817708 -0.37158504 0.3153974 0.05878742 0.89676934
0.05697786 0.13969545 0.79074794 -0.6980246 0.3419606 -0.50267357 -0.27119145 0.33332872
0.86817795 -0.43012205 -0.26911497 0.04902805 0.05938614 0.15484735 -0.28329647 -0.062504716
-0.085192986 0.08691788 -0.23367342 -0.26945198 0.09860983 0.19422968 0.2242813 0.11589848
0.005531097 0.08671685 -0.16087931 -0.11433361 -0.024096765 -0.1829259 0.451435 0.50279886
-0.70386577 -0.02714894 -0.65191597 0.011545806 -0.45630983 -0.23825806 -0.23513064 0.49006563
0.4811569 0.5697062 -0.22936828 -0.10285148 -0.62454736 0.2497901 -0.12731123 -0.086999014
-0.07049882 -0.06076273 -1.3741453 -0.39545447 -0.3238725 -0.52753407 -0.92737 -0.10422706
-1.1994654 0.2918355 -0.26866138 0.027020125 -0.63695496 0.22789717 -1.6339177 0.62340266
-0.098870926 0.44089815 -0.9101848 -0.9076667 0.34037113 0.12361561 0.35508612 0.13714747
-0.016075864 0.26267543 0.1521954 -0.40833923 -0.8324412 -0.81157297 0.6069814 0.076917075
-0.15836456 -0.56311446 0.48381007 0.1298816 -0.27812728 -0.808599 0.1447507 0.03207472
0.02091799 0.1177424 0.0928715 -0.025314732 -0.08139293 -0.73842436 -0.4680336 -0.8275091
0.12241966 0.38874125 0.11014451 -0.44016162 0.24666527 -0.0090815 0.28161168 0.030132372
0.40410826 0.15304334 0.51238006 0.21591991 -0.0019502268 -0.012571119 -0.26992607 -0.001352084
0.37603772 0.09690861 0.6576451 0.2694806 -0.24826215 -0.17866082 -0.13543597 0.030733263
0.4542702 0.7047123 -0.24097411 -0.21893829 -0.6922673 -0.9310123 -0.18366049 -1.0095099
-0.078379676 -0.22924855 0.56411266 0.8365409 -1.0551724 -0.9216033 -0.121610425 -0.15059787
-0.097730696 -0.41587466 -0.01851157 -0.17332055 -0.31870133 -0.1549598 -0.20671019 0.11288204
-0.17688085 0.03206407 0.33944562 0.3119879 -0.29304832 0.29509044 -0.3439815 0.20014417
-0.12715468 0.19983993 0.24885638 0.25730425 0.31134576 -0.6570926 0.11187621 0.10688606
-0.1298805 -0.9247797 0.36761475 0.027391702 -0.55546176 -0.32348967 0.36299017 -0.54563904
-0.043751612 -1.1507955 -0.5832687 -0.61766773 -0.021020686 -0.08085082 -0.09850646 0.46242455
00000000: 1e2f 04bf 8779 5dbe 8f1c 12bf 9c1d 05bf
00000010: 0092 33be 1fa3 013e 5ac3 40bf d503 843f
00000020: 76bd a43b 52d0 5dbe c486 96be 4d46 223f
00000030: 6a9f 29be 708a b7be d449 41bf 192a b13f
00000040: 890b 21be 22c0 313f 5caa 10bf 9630 ecbe
00000050: f792 04bf c139 fabd aa67 853e b07b ee3e
00000060: 1889 843e b61c 843e 32d3 b7bb 579e 73be
00000070: ebda 49be fbbd 1bbb b31f 53bf 6ae1 debc
00000080: 9b70 993e 21c7 cf3d a746 023f 736c 81bd
00000090: 950d 523e 1e44 22be f384 4f3f c4f2 443e
000000a0: ede8 ba3e 88f8 283e 56f1 2e3f cc8b cbbe
000000b0: 6020 a9bd ca0d f13c 305c 0a3f e0b7 053f
000000c0: 1fad 173f 847b 0f3f dfc1 0c3f 65a1 9dbe
000000d0: 733f b13d 8624 0a3f ab62 49bf fd27 babf
000000e0: 610c 13bf d1b4 7fbe 8a78 b1bd a624 8abe
000000f0: 988a 51bf 31b5 153c 59b5 4cbf ac25 003e
00000100: e747 2c3f e91a 593f d229 5cbf 8772 843d
00000110: 6365 6abf c91f 6a3e 8ee2 373f 0f9e 213f
00000120: 7a80 973e 2c4b a0bd 0361 1cbe 2cf9 21be
00000130: 6540 bebe c57b a13e 14cb 703d ad92 653f
00000140: 9e61 693d 530c 0f3e 756e 4a3f bdb1 32bf
00000150: 7615 af3e 37af 00bf 9bd9 8abe 10aa aa3e
00000160: e940 5e3f f538 dcbe 70c9 89be a3d1 483d
00000170: e23e 733d 4e90 1e3e 3c0c 91be 7902 80bd
00000180: a979 aebd 0002 b23d 1648 6fbe 9cf5 89be
00000190: f3f3 c93d 25e4 463e ffa9 653e 2f5c ed3d
000001a0: 343e b53b 9b98 b13d 8cbd 24be bd27 eabd
000001b0: 9466 c5bc ed50 3bbe 7d22 e73e 6db7 003f
000001c0: 8c30 34bf 7467 debc f7e3 26bf 9f2a 3d3c
000001d0: 71a1 e9be ecf9 73be 16c6 70be e2e9 fa3e
000001e0: 325a f63e 44d8 113f 85df 6abe cca3 d2bd
000001f0: 56e2 1fbf fac8 7f3e e05d 02be 8a2c b2bd
00000200: af61 90bd 57e2 78bd fee3 afbf 0279 cabe
00000210: 9ed2 a5be 790c 07bf 1f68 6dbf ff74 d5bd
00000220: 1588 99bf 766b 953e fc8d 89be 4f59 dd3c
00000230: 7b0f 23bf e05d 693e 3724 d1bf 5197 1f3f
00000240: d77c cabd 67bd e13e df01 69bf d85c 68bf
00000250: 2045 ae3e 2e2a fd3d d9cd b53e 6370 0c3e
00000260: 88b1 83bc 657d 863e 1cd9 1b3e d711 d1be
00000270: de1a 55bf 3fc3 4fbf 2263 1b3f b386 9d3d
00000280: 522a 22be 4528 10bf f4b5 f73e afff 043e
00000290: b366 8ebe 5800 4fbf 8739 143e c860 033d
000002a0: 345c ab3c ed22 f13d 6a33 be3d d760 cfbc
000002b0: 56b1 a6bd 6109 3dbf 1aa2 efbe a3d7 53bf
000002c0: 29b7 fa3d 1809 c73e 7293 e13d dd5c e1be
000002d0: d295 7c3e 92ca 14bc 682f 903e 2ad8 f63c
000002e0: 47e7 ce3e 65b7 1c3e 572b 033f 1c1a 5d3e
000002f0: c19e ffba 18f7 4dbc c033 8abe 6938 b1ba
00000300: 0488 c03e 0578 c63d 6e5b 283f 5cf9 893e
00000310: 6f38 7ebe ddf2 36be baaf 0abe 53c4 fb3c
00000320: 1b96 e83e 0668 343f ebc1 76be 5c31 60be
00000330: 6e38 31bf d256 6ebf 7f11 3cbe 9f37 81bf
00000340: 8685 a0bd 22c0 6abe b069 103f 8b27 563f
00000350: e40f 87bf 32ee 6bbf e30e f9bd 5436 1abe
00000360: 0827 c8bd 86ed d4be 93a5 97bc f17a 31be
00000370: d22c a3be c8ad 1ebe d6ab 53be b32e e73d
00000380: 4120 35be 9d55 033d d1cb ad3e e1bc 9f3e
00000390: 6e0a 96be 1816 973e 581e b0be 98f2 4c3e
000003a0: d634 02be d7a2 4c3e 35d4 7e3e 62bd 833e
000003b0: b668 9f3e 3837 28bf 5b1f e53d 14e7 da3d
000003c0: 65ff 04be 5dbe 6cbf 0038 bc3e 9064 e03c
000003d0: be32 0ebf 70a0 a5be d9d9 b93e 00af 0bbf
000003e0: e434 33bd 444d 93bf 1951 15bf 791f 1ebf
000003f0: 9333 acbc 1d95 a5bd c1bd c9bd e9c2 ec3e

fc1.bias f4 [64]
-5.091889 -3.3556135 -1.4951829 -0.6744847 -3.5293992 0.027289154 -0.9292873 -0.67498153
5.7808504 3.4383228 -1.694559 -1.8296326 -0.05928854 5.790887 -0.25954163 -5.1096787
5.2684 4.225095 0.74454206 -0.09299591 -0.7882108 -1.9591552 -4.815775 -0.43010646
-0.56439054 0.6669549 -2.7792327 -1.316159 5.104307 3.5884387 2.0624192 -2.894212
-0.04773493 0.4579202 4.614976 -0.700081 -2.2058315 -3.2042527 0.52524316 -0.51862645
3.9492383 -2.494988 -2.6064446 4.1638603 4.2350345 -0.19481574 -4.192346 -2.9505873
1.572536 -1.6444051 0.25665247 -4.690302 -0.2570068 4.0884547 -0.41582042 1.3868785
-1.0639526 -0.7313362 1.8692724 -2.414643 4.9881945 -0.9609859 -0.7645456 4.7514668
00000000: c1f0 a2c0 5fc2 56c0 2762 bfbf 08ab 2cbf
00000010: ade1 61c0 818d df3c c6e5 6dbf 97cb 2cbf
00000020: bafc b840 7b0d 5c40 4fe7 d8bf 6731 eabf
00000030: 8ad8 72bd f24e b940 a4e2 84be 7d82 a3c0
00000040: bc96 a840 fa33 8740 4f9a 3e3f a474 bebd
00000050: 2fc8 49bf 99c5 fabf d41a 9ac0 ea36 dcbe
00000060: e67b 10bf 8ebd 2a3f f3de 31c0 e677 a8bf
00000070: 7c56 a340 fba8 6540 adfe 0340 c53a 39c0
00000080: b485 43bd 8474 ea3e e2ad 9340 8238 33bf
00000090: 582c 0dc0 7a12 4dc0 5676 063f b4c4 04bf
000000a0: 52c0 7c40 e2ad 1fc0 fdcf 26c0 583e 8540
000000b0: 6785 8740 c77d 47be b327 86c0 6cd6 3cc0
000000c0: dc48 c93f de7b d2bf f467 833e f416 96c0
000000d0: 6596 83be 9fd4 8240 6ae6 d4be 3c85 b13f
000000e0: 992f 88bf d938 3bbf 5144 ef3f 8389 1ac0
000000f0: 4a9f 9f40 2c03 76bf 43b9 43bf 040c 9840

fc2.weight f4 [64, 64]
-0.06338302 -0.010726898 -0.05956522 0.04733002 -0.57630163 0.04434228 -0.1377845 -0.44882616
-0.27165568 -0.5046026 0.032640267 -0.41746393 -0.01809285 -0.34308574 0.03959875 -0.042453192
-0.24260221 -0.35290024 -0.02544003 0.29049623 -0.013997978 -0.3413831 0.008094585 -0.4172908
0.033635598 -0.18897516 -0.046264384 -0.3017752 0.007830267 -0.5884208 -0.2874388 0.17856835
0.05177717 0.017473612 -0.019727416 0.034232095 0.08042297 -0.30990192 -0.26732886 0.0064535737
0.053324897 -0.09900335 0.025544792 -0.32848963 0.023877697 -0.15298139 -0.2323307 0.13269182
-0.40803528 -0.45157894 0.05964321 -0.3270929 0.11374694 0.03268897 -0.074955575 0.08835531
0.11861317 0.203385 -0.07214161 -0.03196435 0.040952288 0.32233104 0.33491188 -0.28718525
-0.40000865 -0.49680245 -0.7699962 0.14224139 -0.30604184 -0.10427048 -0.79046565 -0.46975502
0.58629346 -0.73592013 0.16898137 -0.3834721 0.0005036351 0.23005271 -0.07479877 -0.79269904
0.17108014 0.17561918 0.048685983 -0.40671447 0.07129579 -0.5135587 -0.8270171 -0.23290189
0.6334646 1.2528498 0.093867965 -0.30586037 0.43389243 0.07993498 0.65353805 -0.9589113
0.10897333 -0.3807182 -0.24103448 -2.0213065 -0.1756561 -0.8308967 -0.77665293 -0.32575753
0.36234036 -0.40675843 0.2010846 0.6607358 0.8591724 -1.0000236 -0.041141033 -0.5217645
-0.13840039 -0.71214736 0.83838713 -0.6633942 0.01565353 0.699915 -0.10854863 0.17624551
-0.34726503 0.05288719 -0.799507 -0.3984645 0.22927447 -0.73383904 0.3850411 0.13490324
-0.16898075 -0.0948264 -0.20708883 0.007176544 -0.14391552 0.12142593 -0.1139427 -0.025409026
0.023538051 -0.060515713 -0.068268284 0.061518542 0.017152771 -0.11438666 -0.13138501 -0.1389543
-0.13845919 -0.08561243 -0.073164485 -0.09204413 -0.05712114 -0.12533264 -0.041219767 -0.07083495
-0.15561779 -0.096338265 -0.09989782 0.07821878 0.02912239 -0.036699787 -0.0461552 0.053749636
-0.11015038 0.008470115 -0.100707136 -0.0603388 -0.06214726 0.0015117378 -0.034859776 -0.055685118
0.04933725 -0.07540047 -0.068385065 -0.18201333 0.037290856 -0.055415064 -0.17758632 0.0154090505
-0.07960881 -0.05075584 -0.058843333 -0.17545539 -0.12494297 -0.03309115 -0.12027874 -0.09728028
0.019119883 0.051261757 0.020264838 -0.082470745 -0.08050829 -0.11971608 0.017477298 0.074021935
0.04724585 0.233915 -0.08506446 -0.094735116 0.027137568 0.13514572 0.14905304 -0.16953255
-0.742587 -0.2761636 0.5672197 -0.23285581 -0.09109777 -0.06618384 0.0071494393 0.073853806
-0.58297133 -0.306821 -0.1521554 -0.51120794 -0.047576796 0.4322381 0.027931478 -0.23783723
-0.4192849 -0.16850698 0.75162613 -0.25662562 -0.3596049 0.030521473 0.010667716 -0.63191426
0.057457965 0.29211596 -0.22185154 0.29816708 -0.24326687 -0.5431034 -0.023147732 0.13049549
-0.37303773 0.07883899 0.2640534 0.12660225 0.21649823 -0.21147284 0.12122366 -0.45121557
-0.15216249 -0.32098582 -1.081392 -0.11457741 0.07565548 -0.17380525 -0.117141895 -0.06976348
0.11140614 0.022197254 -0.40777636 -0.10483219 -0.4168098 -0.019236911 -0.075894505 -0.10057892
00000000: f5ce 81bd dfbf 2fbc a9fa 73bd 20dd 413d
00000010: 8188 13bf 40a0 353d 6117 0dbe 8bcc e5be
00000020: 7416 8bbe a32d 01bf cdb1 053d d5bd d5be
00000030: 7537 94bc efa8 afbe 4d32 223d 66e3 2dbd
00000040: b76c 78be 57af b4be 9c67 d0bc ecbb 943e
00000050: c657 65bc c4c9 aebe 269f 043c 24a7 d5be
00000060: 7bc5 093d b482 41be b97f 3dbd 4782 9abe
00000070: 854a 003c bfa2 16bf 2e2b 93be 9fda 363e
00000080: 4c14 543d d224 8f3c 649b a1bc f436 0c3d
00000090: ccb4 a43d 77ab 9ebe 54df 88be 8078 d33b
000000a0: 356b 5a3d 45c2 cabd 5043 d13c cb2f a8be
000000b0: 299b c33c 27a7 1cbe 19e8 6dbe 5de0 073e
000000c0: 00ea d0be 5b35 e7be 704c 743d b878 a7be
000000d0: 28f4 e83d dfe4 053d 4f82 99bd a1f3 b43d
000000e0: 76eb f23d 2844 503e fbbe 93bd 0ded 02bd
000000f0: 96bd 273d 9308 a53e 9279 ab3e f209 93be
00000100: efcd ccbe e45c febe 791e 45bf baa7 113e
00000110: 84b1 9cbe c38b d5bd f55b 4abf bb83 f0be
00000120: 5417 163f 4365 3cbf 7409 2d3e 7556 c4be
00000130: 6106 043a f092 6b3e 1930 99bd 53ee 4abf
00000140: a22f 2f3e 84d5 333e f46a 473d e13c d0be
00000150: 8703 923d 9578 03bf 65b7 53bf d57d 6ebe
00000160: bc2a 223f 625d a03f d93d c03d bb99 9cbe
00000170: 2627 de3e f3b4 a33d 454e 273f 367b 75bf
00000180: 692d df3d 7fed c2be bed1 76be 165d 01c0
00000190: 31df 33be a5b5 54bf bad2 46bf b1c9 a6be
000001a0: ad84 b93e a442 d0be 1fe9 4d3e fb25 293f
000001b0: b9f2 5b3f c600 80bf 8083 28bd 5c92 05bf
000001c0: d5b8 0dbe 4a4f 36bf 8aa0 563f 34d4 29bf
000001d0: d53b 803c a12d 333f be4e debd b479 343e
000001e0: b9cc b1be 3da0 583d 7eac 4cbf 8a03 ccbe
000001f0: edc6 6a3e e0dc 3bbf 1b24 c53e 1324 0a3e
00000200: 4a09 2dbe 5834 c2bd 180f 54be 3729 eb3b
00000210: 975e 13be 28ae f83d ca5a e9bd 9726 d0bc
00000220: dfd2 c03c 53df 77bd 3ed0 8bbd defa 7b3d
00000230: f883 8c3c 8e43 eabd cb89 06be 094a 0ebe
00000240: 3fc8 0dbe 9255 afbd 43d7 95bd a281 bcbd
00000250: dbf7 69bd 3357 00be 0fd6 28bd ea11 91bd
00000260: 455a 1fbe ff4c c5bd 3a97 ccbd 2b31 a03d
00000270: 1492 ee3c 8452 16bd 3c0d 3dbd 9428 5c3d
00000280: 8696 e1bd 3dc6 0a3c 8b3f cebd d125 77bd
00000290: 208e 7ebd 8125 c63a 20c9 0ebd 1416 64bd
000002a0: db15 4a3d 906b 9abd 780d 8cbd b461 3abe
000002b0: 4cbe 183d e8fa 62bd 30d9 35be 3e76 7c3c
000002c0: f209 a3bd 5be5 4fbd b505 71bd 94aa 33be
000002d0: 1ae2 ffbd 968a 07bd b354 f6bd e23a c7bd
000002e0: 4da1 9c3c d9f7 513d 7202 a63c 6ce6 a8bd
000002f0: 88e1 a4bd b42d f5bd 8d2c 8f3c d098 973d
00000300: dd84 413d 6a87 6f3e 4736 aebd 7c04 c2bd
00000310: 9b4f de3c a463 0a3e 5ca1 183e f199 2dbe
00000320: 2e1a 3ebf 5165 8dbe 4f35 113f c171 6ebe
00000330: 7891 babd 658b 87bd d845 ea3b aa40 973d
00000340: 9c3d 15bf a417 9dbe a0ce 1bbe 86de 02bf
00000350: e3df 42bd 504e dd3e 8ed0 e43c 9a8b 73be
00000360: 83ac d6be 188d 2cbe 926a 403f 6f64 83be
00000370: 221e b8be 2b08 fa3c a5c7 2e3c 22c5 21bf
00000380: 0b59 6b3d 3990 953e 0d2d 63be 5ba9 983e
00000390: f31a 79be d308 0bbf 50a0 bdbc 9ca0 053e
000003a0: cdfe bebe 5676 a13d 0232 873e 05a4 013e
000003b0: b6b1 5d3e 568c 58be 1c44 f83d ba05 e7be
000003c0: 7cd0 1bbe 4158 a4be 0e6b 8abf 90a7 eabd
000003d0: 43f1 9a3d 01fa 31be 17e8 efbd 28e0 8ebd
000003e0: e728 e43d 04d7 b53c 10c8 d0be 42b2 d6bd
000003f0: 1868 d5be ba96 9dbc 946e 9bbd 52fc cdbd

fc2.bias f4 [64]
0.10093593 4.3517528 -0.124534905 0.65726775 -0.1429311 -0.09919382 -0.052903615 0.0792737
0.0023998045 -0.18733346 0.030936196 -0.057395454 2.5317192 0.15251443 -0.27046812 0.026515508
0.053103004 -0.18066515 -1.7086246 -0.004715715 -0.052559696 -0.5183304 0.5303953 0.19073312
-0.23696011 0.011294896 0.02117813 -0.08143119 -0.22489919 0.025926245 -0.14044648 -0.14232881
4.937132 -0.3055894 0.056130536 0.20070454 0.022081658 -0.16488644 -0.03130522 -0.023479305
-0.25130373 0.18580079 -0.028623613 -0.031565953 0.23881021 -0.063133985 -0.1346806 -0.13498917
-0.14878927 -0.17250162 -0.19602808 -1.1235026 -0.07344553 -0.15069903 -0.17109655 -0.33998567
-2.829188 0.52912974 -0.6574908 -0.1956862 -0.022070609 -0.0034970418 2.9646082 -0.056872677
00000000: 7fb7 ce3d 8f41 8b40 280c ffbd b342 283f
00000010: 885c 12be 2126 cbbd 76b1 58bd 405a a23d
00000020: 0a46 1d3b 58d4 3fbe e86d fd3c 7f17 6bbd
00000030: b007 2240 be2c 1c3e cc7a 8abe 0d37 d93c
00000040: 8982 593d 4900 39be 36b4 dabf 4986 9abb
00000050: d648 57bd 4db1 04bf fdc7 073f 8b4f 433e
00000060: aca5 72be 3a0e 393c c27d ad3c 65c5 a6bd
00000070: f94b 66be 4763 d43c 34d1 0fbe a5be 11be
00000080: fcfc 9d40 3776 9cbe 22e9 653d 7e85 4d3e
00000090: 98e4 b43c fed7 28be e739 00bd ac57 c0bc
000000a0: e2aa 80be 9042 3e3e 117c eabc 4d4b 01bd
000000b0: aa8a 743e 644c 81bd b6e9 09be 9a3a 0abe
000000c0: 375c 18be 44a4 30be 96bb 48be efce 8fbf
000000d0: 9c6a 96bd d950 1abe ef33 2fbe 9a12 aebe
000000e0: 6b11 35c0 0c75 073f 5151 28bf f761 48be
000000f0: 6ccd b4bc a02e 65bb 24bc 3d40 53f3 68bd

fc3.weight f4 [1, 64]
-0.27883574 -0.019669069 -0.043333434 0.08175692 -0.06266543 -0.26546142 -0.014262538 -0.0052254386
0.0038380797 -0.019846093 0.026110115 -0.016800044 0.033343475 -0.015205844 -0.014944582 0.08693593
0.0074497852 0.014922756 -0.057630695 0.000513374 0.061479945 0.02175985 -0.007877527 0.019693024
0.1435744 -0.019790402 0.06404525 0.09450327 -0.009395821 0.019754004 0.14937998 -0.020172013
0.11788408 -0.0012612895 -0.000101190584 0.07208304 0.107572205 -0.01398516 -0.028936617 -0.02552166
0.042640768 -0.43410954 -0.023226613 -0.03401776 -0.2193648 0.19482106 -0.014253571 0.0771251
-0.025676731 -0.010825685 -0.04289703 -0.108008325 0.24446817 0.026054714 0.02730405 0.025967801
-0.047284227 -0.11563967 -0.088540524 -0.009037622 0.03457484 -0.018016124 0.033949707 -0.031164477
00000000: 8fc3 8ebe 0721 a1bc 667e 31bd 2c70 a73d
00000010: bc56 80bd 8fea 87be 6cad 69bc 283a abbb
00000020: 4b88 7b3b 4694 a2bc e1e4 d53c 3fa0 89bc
00000030: 2b93 083d ef21 79bc 1fda 74bc 770b b23d
00000040: 541d f43b 937e 743c 2a0e 6cbd f293 063a
00000050: 65d2 7b3d b741 b23c be10 01bc 4453 a13c
00000060: 2b05 133e 7b1f a2bc 282a 833d ee8a c13d
00000070: eef0 19bc 26d3 a13c 11f7 183e c73f a5bc
00000080: 356d f13d da51 a5ba 4836 d4b8 46a0 933d
00000090: d14e dc3d 0322 65bc 7c0c edbc cd12 d1bc
000000a0: 16a8 2e3d 9b43 debe bd45 bebc 3556 0bbd
000000b0: 2ba1 60be 2c7f 473e cf87 69bc c4f3 9d3d
000000c0: 0258 d2bc 375e 31bc ccb4 2fbd 7833 ddbd
000000d0: dd55 7a3e b270 d53c beac df3c 6dba d43c
000000e0: 1bad 41bd 7ed4 ecbd bc54 b5bd 8912 14bc
000000f0: 599e 0d3d 8d96 93bc d90e 0b3d a54c ffbc
