sat-code/models/maddpg_20250712-135635/checkpoint_400/actor_agent_0.pth (torch, 21533 bytes, 6 tensors)

fc1.weight f4 [64, 4]
000000 78 62 bb 3e a4 97 95 bd 43 f3 83 be a7 0d dd bc
       0.36598563 -0.07304314 -0.2577153 -0.026984049
000010 08 32 1d 3e 3a 13 de 3c ef b0 16 3f 1e e7 ab 3e
       0.15351117 0.027108777 0.5886373 0.33574766
000020 05 30 c5 3e 90 a6 9d 3e 91 83 2b 3f 6a 4f 10 3f
       0.38513198 0.3079114 0.6699763 0.56371176
000030 1c ae b8 3e d5 b5 36 3e 84 34 8e 3e ab 97 1c 3f
       0.36070335 0.17842801 0.2777444 0.61168927
000040 8c 80 36 be 6f bb 56 3e 31 f2 d0 3e 3c 2a 0b 3f
       -0.17822474 0.20969938 0.40809777 0.5436132
000050 40 98 0a 3e 8c 75 29 be 98 1d 0f bf 4e 84 67 3e
       0.13534641 -0.16548747 -0.5590453 0.22609064
000060 6f 84 06 3e 51 63 91 be fd 73 f1 be b8 07 01 bf
       0.13136457 -0.28396085 -0.47158805 -0.504024
000070 dc 98 57 be ce 24 80 be f8 23 72 3e 7a 5a cd 3e
       -0.21054405 -0.2502808 0.23646533 0.4010809
000080 d9 2c 31 3e e8 fa 9a be 30 bb 29 bf b6 a1 83 3e
       0.17302264 -0.3026955 -0.6630125 0.25709313
000090 c0 36 67 3d 33 93 e8 3d 45 d1 79 bc f2 fa d5 3c
       0.056448698 0.11356201 -0.015247648 0.026120637
0000a0 73 50 06 bd ee 35 56 3e 5d 4e 05 bf f8 8e 93 3e
       -0.032791566 0.2091901 -0.520727 0.28820014
0000b0 ac 8b 96 3e e1 8b 8a bc 45 4e f2 be 16 3a f2 3d
       0.29403436 -0.016912403 -0.4732534 0.11827485
0000c0 33 d4 10 be 4c c1 98 3e 0b 5d 59 3e b9 b9 fa be
       -0.14143448 0.29834974 0.212269 -0.4896982
0000d0 0b e0 fd 3d b4 64 7a be ed fa 04 3f 7c d4 8e be
       0.123962484 -0.24452478 0.5194538 -0.27896488
0000e0 ff 23 89 bd cf 72 e2 3d a8 0c 0a 3e db bc b3 3e
       -0.06696319 0.11057054 0.1348139 0.35105023
0000f0 fa be cb bd a2 e4 64 3e 3c bd ca be d9 9c cc 3e
       -0.09948535 0.22352841 -0.395975 0.39963415
000100 e8 d5 b1 be e6 c4 ac 3d ba 02 b5 3d f8 02 ce be
       -0.3473351 0.08435993 0.08838411 -0.4023664
000110 9a 03 90 be 8c 69 50 be 80 14 e1 3b a2 38 8d 3e
       -0.28127748 -0.20352763 0.006868899 0.2758227
000120 f4 14 0a bd 06 2f 84 3c c6 7b 0b 3e cc 3d 27 be
       -0.03371139 0.016135704 0.13621435 -0.16332167
000130 75 21 d2 3d 03 ee e5 bc 1d 2d f0 3e 47 51 f7 bd
       0.10260288 -0.028067594 0.4690942 -0.12076049
000140 3c 9a a6 bd 6d c6 81 3e c3 08 50 bf 26 45 be be
       -0.081348866 0.253467 -0.8126337 -0.3716213
000150 dd 94 94 be 3f 57 61 3e 47 1b 49 3d 13 38 dc be
       -0.29019824 0.22005938 0.04909828 -0.4301153
000160 76 5e 1c be 4e be 85 3e 05 b8 c6 bd 65 cf 08 bf
       -0.15270409 0.26121753 -0.09703068 -0.5344146
000170 69 d7 2e 3e 70 a3 26 be 27 c9 a0 3e 6b 7a c8 3e
       0.1707436 -0.16273284 0.31403467 0.39155897
000180 6f 77 db 3e 2a 9e 68 be 05 cb 82 3e f7 91 6a be
       0.42864558 -0.22716585 0.25545517 -0.22907244
000190 19 60 0d 3e 1d 26 a0 3e a8 7d 27 3e d0 a0 17 bf
       0.1380619 0.31279078 0.16356528 -0.59229755
0001a0 9b 3e 4f 3d 1e 01 0b bf 9b 0a 14 3f ef 85 12 be
       0.050596815 -0.5429858 0.5782868 -0.14308904
0001b0 19 5c 6b 3d 81 e7 48 3e 63 43 33 bf 7e 52 fd be
       0.057460878 0.19619562 -0.700247 -0.49477
0001c0 2c ae a1 be 1c bb 8a be 0c 4d b9 3e c0 8d d0 3e
       -0.31578195 -0.27095878 0.36191595 0.40733147
0001d0 18 01 56 be 9f 1e 34 bb fc 67 f8 3e e6 42 eb be
       -0.20898855 -0.0027484072 0.48516834 -0.45949477
0001e0 de c5 75 3e 7f 37 2e 3e bd 5f c4 3e 24 c1 ac be
       0.24001262 0.17013358 0.38354293 -0.33741105
0001f0 92 46 62 bd c7 70 02 3f 09 f9 1e bf c6 4c e0 3e
       -0.055243082 0.50953335 -0.6209875 0.43808573
000200 63 9a 9f 3e 9e 08 af 3e a5 a2 5e 3e 56 bb c5 3e
       0.31172475 0.34186262 0.21741731 0.38619488
000210 fb 12 9a be 11 5d b9 3b 31 8d 40 bf 25 e8 8a be
       -0.30092606 0.0056568463 -0.7521544 -0.27130237
000220 05 7b cf 3e 71 3f 14 be 39 f3 23 bf ff e1 5e 3e
       0.40523544 -0.14477326 -0.64043003 0.21765898
000230 24 45 27 3e 4b 0c 81 be 99 8e de be 9f c8 93 be
       0.16334969 -0.2520469 -0.43468168 -0.28864
000240 df 66 bc 3d 54 e5 9b 3e 3f 09 04 bf 13 cf d5 3d
       0.091993086 0.304484 -0.5157661 0.10439887
000250 0e 6b c7 3e d4 a8 de 3e d9 b2 da 3e 87 51 a6 3e
       0.38948864 0.4348818 0.42714575 0.32484075
000260 23 96 24 bd ef c1 c0 bd 6b 3c 20 3f ad 21 9f be
       -0.040182244 -0.0941199 0.6259219 -0.3108038
000270 37 c5 f6 3e c2 f0 6a be 35 2c 41 bd 32 ae 07 be
       0.48197338 -0.22943404 -0.0471613 -0.13250044
000280 ab cd 07 be b9 9c 20 bd 5a 87 f3 be 0b c4 09 3f
       -0.1326205 -0.039211962 -0.47564203 0.5381476
000290 ea 67 4e bc 95 31 07 3f 1c bb 7c be d4 80 0e 3f
       -0.012598017 0.5281003 -0.24680752 0.55665326
0002a0 86 e9 48 3e 8d 88 50 3e 61 d5 40 be dd 5c 12 3f
       0.19620332 0.2036459 -0.18831398 0.5717295
0002b0 82 08 88 3e 7b 27 93 be 14 c2 07 bf 68 c6 bd 3e
       0.2656899 -0.2874106 -0.53030515 0.37065434
0002c0 98 91 b8 3e 7c ca 33 bd 10 ac 82 bc f1 d3 78 be
       0.3604858 -0.043894276 -0.015951186 -0.24299599
0002d0 b0 da 95 3e d7 7d da be c9 10 bb be ad b4 22 bf
       0.29268408 -0.42674133 -0.36536244 -0.6355694
0002e0 2c ad 69 3e 68 a7 e8 3d 3f 90 6c bc ac 30 ca be
       0.22819966 0.11360055 -0.014438688 -0.3949026
0002f0 8c a2 d5 3d e6 99 0c 3d d2 f7 36 3f 16 a5 0b 3f
       0.10431394 0.034326456 0.71471894 0.54548776
000300 27 bf c2 3e 48 6b 8c bd 5a f2 42 bf 9d e8 af 3e
       0.38036463 -0.068564 -0.7615105 0.34357157
000310 53 de 3a 3c 68 84 a2 3d 45 66 18 3f d3 4d 38 3f
       0.011405545 0.07935411 0.5953105 0.7199375
000320 43 70 b7 3d f1 b7 b5 bd 79 0a d8 be bd 62 9a 3e
       0.08956959 -0.08872975 -0.4219549 0.30153456
000330 0e bc c2 bd c2 bf 37 3e df e1 c7 be e2 b0 ab be
       -0.09508525 0.17944244 -0.39039513 -0.33533388
000340 96 f2 af 3e 87 29 d9 3e 77 56 d4 3d 58 e9 2a bf
       0.34364766 0.42414495 0.10368054 -0.66762304
000350 32 fa 82 3e 5e ac 1d 3c f1 ea 4e 3e 71 07 08 3f
       0.2558151 0.009623615 0.2020681 0.53136355
000360 1f f9 98 be b4 5f d2 3e 70 f4 b9 be 77 8c 67 3e
       -0.29877564 0.4108864 -0.36319304 0.22612177
000370 41 63 80 3e 7b 13 59 3e 0e 45 1a bf 31 d7 8e bc
       0.25075725 0.21198837 -0.6026162 -0.017436596
000380 31 54 b9 3e f1 01 b9 be 6b b5 33 3f 06 0b 16 bf
       0.36197045 -0.36134294 0.70198697 -0.5861057
000390 35 03 52 be ea dd 94 3e 01 c7 23 bf 28 b6 a9 3e
       -0.20509036 0.29075557 -0.6397553 0.33146787
0003a0 44 47 55 3c d6 de ec 3d c6 fa ff be ac 2f 6a be
       0.013017479 0.1156594 -0.49996012 -0.22869748
0003b0 48 f4 ff bd 80 68 b8 bd cc af 4a 3e b0 87 71 3e
       -0.12497765 -0.09004307 0.19793624 0.23586917
0003c0 52 b9 67 be 6f cc ed 3d 6b f8 da 3d a3 e8 8b 3e
       -0.22629288 0.11611258 0.10691913 0.27325925
0003d0 30 03 fd 3e 30 7e b3 bd fe 60 6c be 2f 51 0b bf
       0.49416494 -0.08764303 -0.23083875 -0.5442075
0003e0 86 05 7b 3e 8e e9 71 3e 25 ea db 3e 78 63 af be
       0.24513826 0.2362425 0.42952076 -0.34255576
0003f0 ec c6 e8 be a9 6b 17 bf c4 cd e7 bd e4 39 c6 be
       -0.45464265 -0.5914865 -0.113185436 -0.38716042

fc1.bias f4 [64]
000000 45 99 63 3f 30 3a 8e be 1b 8a ea bd e4 27 d9 be
       0.88905746 -0.2777877 -0.11452123 -0.42413247
000010 a3 65 95 3e 9f db 50 bd 12 ca 78 be e8 99 87 bd
       0.29179105 -0.050990697 -0.24295834 -0.06621152
000020 b5 45 aa 3e 03 77 3b 3f e8 57 e9 be 98 ed 78 3f
       0.33256307 0.7322847 -0.4557488 0.9723754
000030 ec 45 9d be 91 9e da 3c 41 d9 19 3f ac cf 09 be
       -0.3071741 0.026686938 0.6009713 -0.13458127
000040 42 e7 85 3f 2c e2 9e be b6 51 8f 3f f8 e9 77 be
       1.0461199 -0.3103193 1.1196811 -0.24210346
000050 5f b1 c3 be 4c dc 5f bf eb 27 e4 3d dd 88 bc be
       -0.3822126 -0.8744552 0.11140426 -0.36823168
000060 20 56 1f bf 1b ca ab be e7 01 59 3e 15 04 ab 3e
       -0.6224079 -0.33552632 0.21192132 0.33401552
000070 b8 b6 da bd 60 1a 56 3e fb 17 df 3e f3 0c d4 be
       -0.10679382 0.20908499 0.43572983 -0.4141613
000080 fb f4 8c 3e f3 cb 20 be a1 74 67 3f da ee 1c bf
       0.27530655 -0.157028 0.90412337 -0.6130196
000090 2e 0b 81 3f 00 15 c9 3d 40 fa 14 3f 1e d2 7d 3f
       1.0081537 0.098184586 0.5819435 0.9914874
0000a0 87 1a c5 3e 85 f7 0b bf 10 76 fa 3c ae 1a c2 3e
       0.384968 -0.5467456 0.030573875 0.3791098
0000b0 af eb 47 3f 40 56 30 3f 5a 80 13 3f bc cc 36 bf
       0.78094 0.6888161 0.57617724 -0.7140615
0000c0 0d 8e 60 3f c2 02 6d be ef 6a 5b 3e 13 3c f7 3e
       0.8771675 -0.23145583 0.2142751 0.4828802
0000d0 f2 2a 31 3f 29 90 62 be 28 8b 3b 3f ae 12 e0 be
       0.69206154 -0.22125305 0.7325921 -0.4376425
0000e0 98 5a c9 3d 82 54 ea 3e b4 ae 24 bf 24 8a 5a be
       0.098317325 0.457676 -0.64329076 -0.21341759
0000f0 37 d2 2c 3f 6f 78 fa bd ee 74 de 3d 1a 06 b5 3e
       0.6750826 -0.12230002 0.10862146 0.35356218

fc2.weight f4 [64, 64]
000000 70 29 55 bc 14 8a d7 3c 05 e5 b0 3d 5b a4 08 be
       -0.013010368 0.026310958 0.08637432 -0.13343947
000010 14 28 fd 3d 9c f6 62 be f5 d0 1d bc 38 67 a3 3c
       0.1236116 -0.22164387 -0.009632339 0.01994668
000020 5d 15 10 3d a5 32 3f 3d dc a2 15 bd 37 4a 91 3d
       0.035176624 0.046679158 -0.036532268 0.070942335
000030 6c 3a 07 be 69 41 31 3e 05 ac f7 3e 3c 9b 11 be
       -0.1320588 0.17310108 0.48373428 -0.14219373
000040 f5 cb a7 3e ea 39 83 bd 6c 56 fd 3e b4 ed 31 3e
       0.32772794 -0.064075306 0.49479997 0.17375833
000050 8b 12 ae 3d d4 b1 62 bd 19 1b 0f bd e8 f7 9e bd
       0.084996305 -0.05534537 -0.03493795 -0.07762128
000060 8e c9 26 3e cf 38 1c be 74 b3 dd bd d9 6f ca 3d
       0.16287825 -0.15256046 -0.108252436 0.098846145
000070 5c db 06 bd 40 17 a2 3e 54 2f 8f bd a4 13 ad bd
       -0.03292404 0.31658363 -0.06991449 -0.08451012
000080 1f 1d dd bc 5c 54 9d bc b3 cd 14 3d 01 ca 90 3d
       -0.026991425 -0.019205265 0.036328983 0.07069779
000090 e1 46 d3 3d 6f 68 d8 bd 92 9f 7d 3e be 6c c2 3d
       0.103162535 -0.10566794 0.24767902 0.09493397
0000a0 5b a7 9a 3d 74 06 15 bd f4 dd 03 be 0a 35 37 bd
       0.07551452 -0.036383107 -0.12877637 -0.044728316
0000b0 01 7e 31 3e c5 13 19 3d 83 00 7c 3d c9 b6 b5 3d
       0.17333223 0.03737237 0.061523926 0.08872754
0000c0 f1 5d f6 3d 79 98 84 bc e9 c1 5f 3c 03 67 21 bd
       0.12029637 -0.016185986 0.013657072 -0.03940488
0000d0 39 e5 ff b8 f1 1b d8 bc ce ba ac bc be 23 cd bd
       -0.000122020436 -0.026380511 -0.02108517 -0.10016583
0000e0 6f 40 9f 3e c8 9c 8a 3d d0 b5 03 be 54 67 bf bd
       0.31103846 0.06768185 -0.12862325 -0.0934588
0000f0 9f fb e7 3e 39 f1 b7 3d eb 92 45 3c 24 b7 31 3e
       0.4530916 0.089815564 0.012058954 0.17355019
000100 a9 75 b7 bd f9 71 43 3a 23 c1 03 bd 25 d0 4d bc
       -0.08957989 0.0007455643 -0.03216661 -0.012561833
000110 f4 da cb bd bb 63 43 3e 74 2f b9 3d 7c dc 66 bd
       -0.09953871 0.19081013 0.09042254 -0.056362614
000120 88 80 6d 3e 85 de 78 bd 59 7b 51 3e dc a5 7f 3c
       0.23193562 -0.060759086 0.2045721 0.015603509
000130 80 16 36 3e 7d 39 55 be ea 49 fe bd e7 37 48 3e
       0.1778202 -0.20822711 -0.12416442 0.19552575
000140 81 3d e2 bd c0 c4 64 3b 27 26 32 be f3 41 6f 3c
       -0.11046887 0.0034907311 -0.17397366 0.014603126
000150 b8 f1 93 3d 7b 3f b1 3e 14 14 6a 3d 54 3f f3 3d
       0.072238386 0.34618744 0.057148054 0.11877313
000160 1d ab 92 bd 93 97 01 3e c3 0e 86 3d 5f 4f e4 bc
       -0.071615435 0.12655477 0.06545784 -0.027869878
000170 80 12 05 3b 12 7d c1 be d3 5d ed 3d 00 02 19 bd
       0.0020305216 -0.37790734 0.11590161 -0.037355423
000180 89 fb a0 3d 9d 88 42 3e 3d ce 3b bd 8e 3f d9 3c
       0.078604765 0.18997426 -0.04585098 0.026519563
000190 a8 bb f8 3d 5d f4 d7 bc 28 c7 56 be c2 f7 4d 3c
       0.121451676 -0.026361639 -0.2097441 0.012571277
0001a0 24 85 2f 3d b9 76 ff 3d aa b1 c6 bd 21 5e 44 3e
       0.042851582 0.124738164 -0.097018555 0.19176532
0001b0 9b 1a 26 3d f3 28 49 bd f8 ce 2b bc b1 03 68 bd
       0.040552717 -0.049111318 -0.010486357 -0.056644145
0001c0 bf bf 6f bd 06 20 81 3c a2 e2 97 3e ce 50 6c 3d
       -0.058532473 0.01576234 0.29665095 0.05769425
0001d0 87 f6 01 3e bc c7 fb bc 0a b8 e6 3c 67 d5 bf 3d
       0.12691699 -0.03073489 0.028163929 0.09366875
0001e0 75 14 a8 bc c2 33 42 3d 77 fa 36 3e 58 e0 8d 3d
       -0.020517567 0.04741264 0.17868982 0.06927556
0001f0 99 95 8a bd 80 a4 ea 3c 20 44 0c 3c 7e df b1 3d
       -0.06766815 0.028642893 0.008561164 0.08685206
000200 6b 77 9a 3d 41 f9 82 bd 24 16 dd bd a3 ad 57 bd
       0.075423084 -0.06395198 -0.107952386 -0.052655827
000210 7e b7 0c 3e 47 fd fc 3d 47 22 6d 3d 5c 05 44 3d
       0.13741872 0.12352996 0.057894018 0.047856674
000220 41 d9 73 3e c1 03 d1 3d dd b8 10 3e 49 79 06 3e
       0.23813345 0.10205794 0.1413302 0.13132204
000230 8a f9 d0 3b c2 1c 71 3e 23 c3 90 3e a1 01 ef 3d
       0.0063774036 0.23546126 0.28273878 0.116702326
000240 29 f6 2f bd 6e e3 95 bd 97 52 7a 3d 87 be 78 3d
       -0.042959366 -0.073187694 0.06111392 0.060728576
000250 a6 d6 4a 3e 27 2e 06 be 06 70 98 bc ff c3 90 3c
       0.19808444 -0.13103543 -0.018608104 0.017671583
000260 cc db 05 be 47 d7 9e bc f4 26 58 3e b9 3c 32 3e
       -0.13072127 -0.019389762 0.2110861 0.17405976
000270 08 0f 9e bd a3 3f fd bd e9 e6 2b 3e 60 07 03 3e
       -0.07717711 -0.12365653 0.16787304 0.12795782
000280 25 d6 07 3d c9 73 38 bd 70 4d 07 3e 66 b9 a9 bb
       0.03316321 -0.045032296 0.13213134 -0.005179572
000290 c8 90 bc 3d 7d 76 ef 3c 84 03 85 3d ff e4 e4 3c
       0.09207302 0.029231304 0.06494811 0.027941225
0002a0 fd 93 ae be 2c dc 4b 3d 02 49 0d 3d 09 b5 32 bc
       -0.3409728 0.04977052 0.034493454 -0.01090742
0002b0 fd d3 83 3d f4 30 e2 3d ee 20 4b 3d 6f a1 13 be
       0.06436918 0.11044493 0.04959195 -0.14417051
0002c0 05 83 3d bd 8d 8e 9d bd 6c 4a 6c be 32 57 80 3d
       -0.046267528 -0.07693205 -0.23075265 0.06266631
0002d0 74 98 11 3d ae 24 d9 bd b7 a4 c8 3d 77 60 64 3e
       0.03554578 -0.10602699 0.09797042 0.22302423
0002e0 b0 94 d4 bc 8f 6e 6f 3d e5 e7 d4 3c 76 b1 b5 3d
       -0.025949806 0.058455046 0.025989482 0.088717386
0002f0 ec bb e5 bc ce 6f d2 3d 66 54 53 3d 9c 84 63 3d
       -0.02804371 0.10275231 0.05159416 0.055546388
000300 ec 81 01 3e 0f de 7a bd 61 c8 8a 3d 93 7f d2 3c
       0.12647218 -0.061246928 0.067765005 0.025695598
000310 67 65 f6 bd c8 2f bb 3d 64 cc 35 3e 9c 9f 61 bd
       -0.1203106 0.09139973 0.1775375 -0.055083856
000320 79 5e 71 3e 7d d8 b7 3d af 0f 02 3e 31 fc 18 3e
       0.23571195 0.08976839 0.12701295 0.14939953
000330 48 bb 99 3c fe 42 88 bd a1 be ca bd 80 80 51 3e
       0.01876606 -0.06653403 -0.09899641 0.20459175
000340 b2 74 37 3e 84 b5 93 3d a9 a3 dc bd 19 99 2f bc
       0.1791561 0.07212356 -0.10773403 -0.010717654
000350 ee 1a 4f 3d 63 48 2c 3d b9 f6 1e 3e e6 77 a8 3d
       0.05056279 0.04206122 0.15523805 0.08225994
000360 2a 0f 05 be 2a 40 07 bd ec 0c 61 3d ed 15 87 bd
       -0.12994066 -0.033020176 0.054943964 -0.06595979
000370 60 e6 c2 bb 4c e2 2b be 88 89 c8 3d 14 7a 86 bd
       -0.005947873 -0.16785544 0.09791857 -0.06566253
000380 f0 59 80 bc 16 ea ba 3d 03 ef 17 3c e9 99 8a 3d
       -0.015667886 0.091266796 0.009273293 0.06767637
000390 c0 90 10 3e dd a0 a5 3d c1 7a d1 bd e6 50 6f bd
       0.14117718 0.08087323 -0.102284916 -0.05842676
0003a0 f9 25 85 3e 1d a2 bd 3d 7b 33 89 3d 08 58 fb 3d
       0.26005533 0.09259436 0.06699272 0.1227265
0003b0 f0 8b be bd d4 4c 91 bd a1 b3 91 bc e2 ee c0 bd
       -0.09304035 -0.07094732 -0.017785849 -0.09420563
0003c0 01 e9 6d 3d 68 ba 9a bd 4a 4e dd 3e 7c d0 99 bc
       0.058083538 -0.075550854 0.43223792 -0.01877617
0003d0 0c 87 b6 3d 98 21 67 3d 00 40 69 bd b4 68 5a 3d
       0.08912477 0.056428522 -0.0569458 0.05332251
0003e0 47 b9 ec bd 9c da 0f 3e f3 b9 e4 3d ec f0 c2 3d
       -0.11558776 0.14048237 0.111682795 0.095186085
0003f0 9d 71 84 ba d1 19 fe bc 94 37 a5 3d 33 cc 2d 3e
       -0.001010466 -0.03101817 0.08067241 0.16972427

fc2.bias f4 [64]
000000 e7 fc bc 3e b7 c1 f2 bd c5 27 83 be da 5b 99 3e
       0.369117 -0.118533544 -0.2561628 0.2995289
000010 df 06 11 be 5e 94 ad 3e 40 64 b5 3d 3e 03 88 3e
       -0.14162777 0.33902258 0.08857012 0.26564974
000020 c0 36 4a 3b 65 5f 60 3e 7c 48 84 3d 53 0e a2 3e
       0.0030855387 0.2191139 0.06459138 0.31651554
000030 69 ad 75 be 76 cc 45 be de 00 cc 3e 6f 47 cf bd
       -0.23991932 -0.19316277 0.39844412 -0.10121047
000040 df b9 0f 3e f2 ab 2a 3d 88 bd 41 bd 63 d8 f7 bd
       0.14035748 0.041667886 -0.04729989 -0.12101819
000050 bd 6f f0 3d 2b 7f cc 3e 13 74 ea 3b 0f 07 2a be
       0.117400624 0.3994077 0.0071549504 -0.16604255
000060 55 29 07 3f 6b ae 65 3d f4 b8 c9 be 09 11 4f be
       0.5279744 0.05607454 -0.3939892 -0.20221342
000070 c9 e0 3d be 69 00 a1 3e 66 cd 82 3e fe c9 98 3e
       -0.1854278 0.31445625 0.25547332 0.29841608
000080 07 38 f7 3d 28 40 b3 bc d6 35 54 be 34 3b 9a 3e
       0.12071233 -0.021881178 -0.20723662 0.30123293
000090 e9 85 8f 3e 8a 0b dc 3d c7 36 d0 3c d2 e2 a6 bd
       0.28031853 0.107443884 0.025416745 -0.08148731
0000a0 7d cf 97 3d 8b c9 fe bc 70 06 d9 3d 08 3e 97 3c
       0.07412622 -0.031101963 0.10596931 0.018462196
0000b0 40 24 4f bd 7e 72 a5 3c 1f d7 3d be 43 5f 16 bd
       -0.05057168 0.020196196 -0.18539093 -0.036711942
0000c0 d5 99 6e 3d 2c a4 f3 3e 78 bb b3 bc 73 8c 79 be
       0.058252174 0.4758619 -0.021939978 -0.24369983
0000d0 6b 7f cf be c2 a2 6b bd d8 ff 44 3e 87 89 77 be
       -0.405269 -0.057528265 0.19238222 -0.24173556
0000e0 09 df ef 3e 2b 86 33 3e 3d b2 00 be a7 ba ce 3e
       0.4684985 0.1753165 -0.12567993 0.4037678
0000f0 1f 66 13 bd 91 36 7b 3d 6c de 52 3e d9 d8 35 3e
       -0.035986062 0.061331335 0.2059266 0.17758502

fc3.weight f4 [2, 64]
000000 51 4e 50 be bf 41 1e 3e 2a b3 18 3e 1f da e1 3c
       -0.20342375 0.15454768 0.14912096 0.027569829
000010 88 b8 76 3e c2 a5 82 be 12 26 ad bc 5f d8 87 bd
       0.2409383 -0.25517088 -0.021136317 -0.066330664
000020 ec ac 9c bd 1b 54 19 bd 8b 5e 2c 3e db dd 53 be
       -0.0765017 -0.037433725 0.1683294 -0.206901
000030 23 b8 b8 be f2 87 50 3d 2b 11 f8 be 73 74 f3 3d
       -0.36077985 0.050910898 -0.48450598 0.11887445
000040 68 6e 1a 3c 52 27 a8 bd c7 e0 15 3e 55 26 04 3e
       0.009425737 -0.08210625 0.14636527 0.12905248
000050 73 07 b2 bd 18 8f 7a be 23 4f 08 3e 28 79 15 bd
       -0.08692827 -0.24468648 0.13311438 -0.036492497
000060 fd 1a 05 be c5 bd b0 bc 71 24 87 3e 82 56 68 3e
       -0.12998576 -0.021574864 0.2639499 0.2268925
000070 61 5c 31 be 58 1e 6f be 2f f6 72 3c ab 8b 85 be
       -0.17320396 -0.23351419 0.014829203 -0.2608312
000080 c7 fa f5 3c 82 0d a9 bd 5e 5c a6 3d 0c 7b 07 be
       0.030026807 -0.082545295 0.081230864 -0.13230532
000090 e1 a9 c8 3a 88 bd f7 3d 03 f8 11 3e c7 80 04 3e
       0.0015309417 0.12096697 0.14254765 0.1293975
0000a0 b4 36 e2 3d 0b 2d 0e 3d 43 d8 48 3d 66 ca 18 be
       0.1104559 0.034710925 0.04903437 -0.14920959
0000b0 14 2f 93 bd ef bb 5d 3e 00 93 82 3e 8f 17 c3 bd
       -0.07186714 0.21653722 0.25502777 -0.09525978
0000c0 a5 44 43 3e 3b fa 1c be 9e 90 bf 3d 8c 15 f9 3d
       0.19069155 -0.1532983 0.093537554 0.12162313
0000d0 d6 1a b6 3e 8c a3 fe bd 2a 38 98 bd bb e6 25 3e
       0.3556735 -0.12433538 -0.074325874 0.16201298
0000e0 1e 12 8a be 49 8f d3 bc 5a ee e8 3d 24 76 84 be
       -0.26966947 -0.02582516 0.11373587 -0.25871384
0000f0 fd ec b4 be 85 3b a8 bd 5b 02 ef bd d5 24 7e 3c
       -0.35337058 -0.082144774 -0.11670371 0.015511711
000100 f0 df 0f 3e 97 40 01 be f3 49 65 3c 10 bf d8 bd
       0.14050269 -0.12622295 0.013994682 -0.10583317
000110 cf 56 60 bd b0 15 3d 3e ce 8f 8d bc b8 48 67 be
       -0.054770287 0.18465304 -0.017280485 -0.22586334
000120 00 b0 0c b8 29 76 6e be 33 cf 3a bc 67 1f 79 3e
       -3.3542514e-05 -0.23287262 -0.011401939 0.24328385
000130 60 6a fe bd 79 f0 df bd f9 2b d5 bd bb 3a 48 3e
       -0.12422633 -0.109345384 -0.10408778 0.19553654
000140 38 c3 97 be ce ce be bd 84 42 88 be f0 a5 6e bc
       -0.29641128 -0.093167886 -0.26613247 -0.01456593
000150 29 33 b7 3c 75 e2 2d 3e f6 7d ef bd 26 43 db bd
       0.022363262 0.16980918 -0.11693947 -0.10706167
000160 90 9b 1b 3e ea 01 c3 3d bb 1d 97 bd be 56 f8 bd
       0.15196061 0.095218495 -0.073787175 -0.1212592
000170 ac dd 2c be 72 9f 3b 3e 4a a4 32 3e e3 70 98 be
       -0.16881436 0.18322542 0.17445484 -0.29773626
000180 d5 2b 89 3d 50 6e 9a bd b4 94 24 bc a2 ea 11 3e
       0.066978134 -0.07540572 -0.010045219 0.14249662
000190 05 49 1f 3e f2 1b ca bd 02 d5 13 be a6 c0 4c be
       0.15555198 -0.098686114 -0.14436725 -0.19995365
0001a0 ec d9 82 3e ae e4 ae 3d ef 27 25 be 9f 78 a0 be
       0.25556886 0.08539711 -0.16128515 -0.31342027
0001b0 e8 9d a7 3c da 82 13 be 74 95 4f be e7 92 45 3c
       0.020461038 -0.14405385 -0.20271856 0.01205895
0001c0 76 c0 68 3d c9 ea 06 3e e9 05 88 3d 89 23 89 3d
       0.05682417 0.13175501 0.06641752 0.06696231
0001d0 24 d0 b6 3b b6 b2 01 be ff c9 b7 bd 3f 60 f1 3d
       0.0055790115 -0.12665829 -0.089740746 0.117859356
0001e0 5f 31 0a 3e ba 0b 94 be c6 6d 34 be d8 b8 e2 3d
       0.13495396 -0.28915197 -0.1762 0.110704124
0001f0 35 61 31 be 9b 36 92 be b8 62 05 be 57 15 c8 3d
       -0.17322238 -0.28557286 -0.1302594 0.09769695

fc3.bias f4 [2]
000000 99 69 b6 be a9 ae 80 3d
       -0.3562744 0.06283314
