sat-code/models/maddpg_20250712-135635/checkpoint_400/critic_agent_2.pth (torch, 24873 bytes, 5 tensors)

fc1.weight f4 [64, 18]
000000 5f 6c 25 be 7a 46 cf 3d a6 72 a4 3d e8 6f e0 be
       -0.16154622 0.10120864 0.0802968 -0.43835378
000010 48 ee 93 bd 2a db 99 3d 8d 35 a0 be 49 d7 d6 3e
       -0.07223183 0.07512505 -0.31290856 0.41961125
000020 96 61 21 3e 3c 1e 1c 3e 65 09 f7 3e 3b 28 05 3e
       0.15759882 0.15245908 0.48249355 0.13003628
000030 dc 61 ba 3d 46 c4 c8 be 9c af 1c bf 7c 90 08 3f
       0.091006964 -0.39212245 -0.6120546 0.53345466
000040 f8 11 b0 3e 3a 43 84 3e c2 33 33 be 22 1b d6 3c
       0.3438871 0.2583254 -0.17500213 0.026135985
000050 85 d6 98 be 8a 2d 91 3f 54 d9 58 be 2a d3 0a 3e
       -0.29851165 1.1342022 -0.21176654 0.13557115
000060 ef 6c 92 be 86 11 b3 be a9 ec 39 3e 46 eb 42 3e
       -0.28598735 -0.34974307 0.18156685 0.19035062
000070 32 fd d6 3e 03 3d b5 bc 5f 46 a8 3d 84 31 be 3f
       0.41990048 -0.02212382 0.08216547 1.4858861
000080 9f 1a 7e bf 0b 8b 80 3d cc e0 25 3f b8 c8 20 3d
       -0.9925937 0.0627652 0.6479614 0.03925392
000090 c0 cf 9f 3e a6 50 0f be 0f 96 2b bf e4 a6 b0 be
       0.31213188 -0.13995609 -0.67025846 -0.34502327
0000a0 60 c7 54 bd e2 f9 a9 3d f4 2c e5 be 32 c0 4c be
       -0.05194795 0.082996145 -0.4476086 -0.19995192
0000b0 5e 17 0a 3e 51 69 ea bd a2 a0 cf bd ac 92 0e 3e
       0.13485476 -0.11445869 -0.1013806 0.13923138
0000c0 3c 68 93 be 1c f7 7e bf 43 00 7b bf 02 ca 5e bd
       -0.28790462 -0.9959581 -0.98047274 -0.05439187
0000d0 19 9f e6 3d 03 f7 86 bd d9 6f 04 be 2b 73 10 3e
       0.11260814 -0.065900825 -0.12933291 0.14106433
0000e0 c9 f1 bc 3d 7c 53 fa 3e 61 7e 13 bf 75 e1 54 bd
       0.09225804 0.4889182 -0.57614714 -0.051972825
0000f0 43 e9 f6 bd f2 6d 33 3f 6f 1e 44 be 7e 8a 66 3e
       -0.1205621 0.7008964 -0.19152234 0.22513768
000100 fa 37 23 bf a5 96 76 3f 31 58 1b 3e 50 d8 5f 3e
       -0.6375729 0.96323615 0.15170361 0.2185986
000110 30 01 80 be a8 4d 22 3e 33 76 59 bf d8 8f 47 3f
       -0.25000906 0.15849936 -0.8494598 0.77953863
000120 da 01 cb 3d 92 f7 fc be 0f a9 38 3d 3b 19 81 bd
       0.099124625 -0.4940763 0.0450831 -0.063036405
000130 53 d6 96 3e 39 12 08 3e 5d c9 3b bd a1 6d 8a be
       0.2946039 0.13288201 -0.045846332 -0.27036765
000140 94 2f 80 bd e8 98 6f 3e 68 99 29 3f 01 d1 01 3f
       -0.06259075 0.23398173 0.66249704 0.5070954
000150 3b 19 23 3e 96 ba f7 be 45 e4 79 bd 20 d7 b8 be
       0.15927593 -0.4838454 -0.06100871 -0.36101627
000160 05 38 d8 3e bd 73 06 3f a0 50 26 3e b0 1d 69 bd
       0.4223024 0.5252035 0.16241693 -0.056913078
000170 e8 2a 78 be 3e 4b 31 bf 68 d5 42 3e 21 24 40 3e
       -0.24235117 -0.69255435 0.1902672 0.18763782
000180 28 66 70 3e c1 8a 83 3f 13 e7 2b 3e 5d 77 7b 3e
       0.2347647 1.0276719 0.16787367 0.24557252
000190 24 ee e3 3d 78 78 f1 3d 0f 0d 7e be 4a d7 4a bf
       0.11129406 0.11790556 -0.24809669 -0.79234755
0001a0 bb 8d 16 3e 2e f9 98 3f 20 f5 d1 3e 03 56 34 3f
       0.14702503 1.1951044 0.41007328 0.70443743
0001b0 50 d3 3e be f2 55 fe 3d 9d 32 5c be ec f2 a1 be
       -0.18635297 0.124187365 -0.21503682 -0.31630647
0001c0 95 6d a7 3e 54 ba 89 3e 29 b8 f9 3c b8 85 96 3e
       0.32700792 0.2689997 0.030483322 0.29398894
0001d0 e8 5f c0 bb ba fc 7c 3c 16 cb f4 be 3e 70 ad 39
       -0.005870808 0.015441114 -0.47811192 0.00033080758
0001e0 35 2f 48 bf 88 df e7 be c8 7e a2 3e 47 80 09 3e
       -0.7819703 -0.45287728 0.3173735 0.1342784
0001f0 a2 e1 3f bf 27 02 3a 3e 93 43 cb be 2d d6 d2 bc
       -0.74953663 0.18164884 -0.39699993 -0.025736893
000200 32 71 35 3d 45 27 03 3e 51 94 3e be 1f 5c 73 be
       0.044297405 0.12807949 -0.18611266 -0.2376561
000210 fa 0c 59 be e1 67 da bd 14 82 29 3d 7e c3 a1 bd
       -0.21196356 -0.106643446 0.041383818 -0.07898615
000220 6e 8a 66 3d 9f 69 97 3f 39 9f 0f 3f ca dd a7 bd
       0.05628436 1.1829108 0.5610233 -0.081966
000230 e4 9a 19 bd f9 4c 23 bf 1e 34 02 be d8 ac c3 3e
       -0.03750123 -0.63789326 -0.12715194 0.38217807
000240 89 66 86 3c 1c c5 7c 3d 12 8c da be 42 87 16 bf
       0.016406314 0.061711416 -0.4268499 -0.5880014
000250 2d 11 ea 3d 56 54 4d 3d 16 48 f6 3d 14 12 34 be
       0.11429057 0.050129257 0.12025468 -0.17585021
000260 50 df b3 bb 38 9f 67 3c 77 b8 6e 3f 55 9c 5a be
       -0.0054892674 0.014137082 0.9325022 -0.21348698
000270 48 7f b0 be bc 60 30 bf 7f 09 38 3d ed 16 c5 be
       -0.34472108 -0.68897605 0.04493093 -0.38494053
000280 8f 0f 75 3f 2a f2 a0 be ec 01 7e be f0 a2 2d be
       0.95726866 -0.31434757 -0.2480542 -0.16956687
000290 d2 4c 5b 3d 8f 08 cf bc 52 3a 8c be b4 4c b4 be
       0.05354006 -0.025272636 -0.27388245 -0.3521477
0002a0 8f 89 89 be 50 24 7c be f3 fa 9b bd 4c c6 45 bd
       -0.2686276 -0.24623227 -0.07616224 -0.048284814
0002b0 49 a1 b1 3d 11 c8 78 3f e2 7e 50 be 7a c5 39 bf
       0.08673341 0.9718028 -0.20360902 -0.7256695
0002c0 96 00 78 3d e9 27 9b bd b6 49 2a bc 21 28 a0 3f
       0.060547434 -0.07575972 -0.010393551 1.2512246
0002d0 14 eb aa 3d 25 18 9d be a0 fd 9f be b8 50 62 3d
       0.08345619 -0.30682483 -0.31248188 0.05525276
0002e0 f0 5a a3 be 80 57 e4 bd 5e 4c d9 39 bf c5 c8 3e
       -0.31905317 -0.11149502 0.00041446363 0.39213368
0002f0 a6 d2 16 be 5f 6d 60 bd 36 e2 20 3d f3 26 f2 3e
       -0.14728794 -0.054791804 0.03927823 0.4729534
000300 09 c4 8b be 2a 29 9e 3e 28 33 9e bd ea 2c 16 3d
       -0.27298 0.3089078 -0.07724601 0.036663927
000310 f0 6f f2 bc ed 0f 0c 3e b1 bc 1e 3e 08 22 1d be
       -0.029594392 0.1367795 0.15501668 -0.15345013
000320 52 cc 87 bd 66 91 de be 35 29 30 3e 99 9c 7a bd
       -0.06630768 -0.43470305 0.17203219 -0.0611845
000330 af d4 50 be 46 f0 3a 3e ce 4e 75 bd 95 c8 29 3e
       -0.20393632 0.1825572 -0.059889607 0.16580422
000340 b6 6e 86 bf c8 94 b5 3e 7e 0e c8 be cb 32 99 be
       -1.0502536 0.35465074 -0.39073557 -0.29921564
000350 b7 0b ec be ae 1d 2b 3e 76 27 6e bf 51 3a 96 3e
       -0.46102688 0.1671054 -0.9302896 0.29341367
000360 f4 81 c2 bd 5c de 11 3e 0e 3f 2d bc cc a9 4d bf
       -0.09497443 0.1424498 -0.010574115 -0.80337214
000370 53 5a 3e be c2 9e 6e be 7a ea a1 bd 2b c1 0d 3e
       -0.18589143 -0.23302749 -0.07906051 0.13843219
000380 da f5 78 be b8 70 0d bd e2 34 fc 3d ab 4b 9c be
       -0.24312535 -0.034531325 0.12314774 -0.3052648
000390 d7 e0 54 bf e4 ea 35 3e 14 33 69 3e 0a aa 1b 3e
       -0.8315558 0.17765385 0.22773391 0.15201584
0003a0 e3 66 bc 3e c7 0d a9 be 4a 55 5f b9 64 d8 22 3d
       0.36797246 -0.33018324 -0.0002129871 0.039757147
0003b0 61 4a 84 3e ae d8 69 3e cc 30 dc be d3 2c 09 3e
       0.25837997 0.22836563 -0.4300598 0.13396005
0003c0 74 20 fa 3e 14 ea 5d be 29 0b 74 3d ef 1e 21 be
       0.48852885 -0.21671325 0.059580956 -0.15734456
0003d0 49 06 d9 3b c4 d8 88 be 29 32 eb 3e 0c ac cd 3d
       0.0066230637 -0.2672788 0.45936707 0.10042581
0003e0 94 db 42 3f de ca 76 3a 2a 6a d9 be b9 b9 8a be
       0.761163 0.0009414385 -0.4246381 -0.2709482
0003f0 94 32 1e 3e 9a da 83 bd 78 34 f1 3e 87 60 4d be
       0.15448982 -0.06438179 0.47110343 -0.20056354

fc1.bias f4 [64]
000000 a4 ed 6f be a1 27 f0 3e a9 c1 c5 be de e4 80 3e
       -0.23430496 0.46905234 -0.38624313 0.25174612
000010 3d 7a 06 3f 25 b8 15 3e bd eb 3e 3f 70 a0 a9 be
       0.5253027 0.14621027 0.7457846 -0.33130217
000020 e0 b8 39 3e 2d d9 64 bd ad d1 59 be 63 9b 13 be
       0.1813693 -0.055871177 -0.21271391 -0.14414744
000030 d4 ff eb 3e e5 2b 18 3e ec da 13 3f 6f 27 24 3f
       0.4609362 0.14860494 0.57755923 0.6412267
000040 74 83 ef 3e fe d6 97 3f f7 5c 02 3f 0c 70 6b 3f
       0.46779978 1.1862485 0.50923103 0.91967845
000050 30 f1 a5 3e 18 95 d5 bc 2e 62 7b 3e e3 02 b7 3e
       0.32410574 -0.02607207 0.24549171 0.3574439
000060 c8 96 b5 be 6c dc 02 3f 3b 85 b0 3c e3 35 54 3e
       -0.354666 0.5111759 0.021547904 0.20723681
000070 ed bc e8 bd 70 29 07 3f 12 4f 12 3f 9f 5b 1b 3f
       -0.1136416 0.52797604 0.571519 0.6068668
000080 f9 b6 88 3e d3 96 a6 be 49 29 e0 bd 4f 0c 97 3e
       0.26702097 -0.32536945 -0.109453745 0.29501578
000090 19 88 51 3d e1 b1 79 3d 18 7d 41 be 34 90 15 bd
       0.051155183 0.060960654 -0.18895376 -0.036514476
0000a0 8a 92 59 be 7b 0c 5d 3e 3d eb 2a 3e f7 bb f7 3c
       -0.21247306 0.21586792 0.16691299 0.030240996
0000b0 9a 31 36 3e 71 0e 3b 3e 2e 07 70 3f 1b 4c 99 3a
       0.17792359 0.18267228 0.93760955 0.0011695655
0000c0 5a 38 3a 3d b6 01 98 3d 38 fd 64 3f 55 f1 84 bd
       0.045463897 0.07422201 0.8944888 -0.06491343
0000d0 b1 bb 3d 3b b9 65 96 bd 19 6d ac be 1e b1 3f 3e
       0.0028950984 -0.07343621 -0.33676985 0.18719909
0000e0 61 ae 38 3e 94 62 12 be 39 6a 0a 3f 72 16 37 3f
       0.1803527 -0.14295417 0.5406833 0.71518624
0000f0 13 37 51 3f 32 9b ce 3e 4a 5e 02 be 65 4b 49 3e
       0.8172466 0.4035278 -0.12731281 0.19657667

fc2.weight f4 [64, 64]
000000 d1 4d b7 be d2 37 6c be f0 49 c9 3c 7a 4d 1c 3d
       -0.35801557 -0.23068169 0.024571389 0.038159825
000010 f6 f2 f5 3c 6e bc 4a bf d2 ff 92 be f6 f3 ac bd
       0.03002308 -0.7919377 -0.287108 -0.08444969
000020 ba ec 5c bf d4 dc 98 3e 58 b0 dd bc a6 ef d3 3d
       -0.86298716 0.29855978 -0.027061626 0.10348444
000030 6a 84 6c be 47 73 6c bd 46 76 85 be 0b a3 5b 3e
       -0.23097387 -0.057727125 -0.26066798 0.21448915
000040 37 c2 98 3d d0 66 39 be 4b 81 ec bb 34 5b ed bd
       0.074589185 -0.18105626 -0.0072175614 -0.11589661
000050 1c b3 29 bd a8 a8 95 bc 96 72 6e be c3 f6 2c 3e
       -0.041430578 -0.018268898 -0.23285899 0.16891007
000060 9a 2c b7 be e6 8d 4e 3c 49 1e 5d be 21 3c e8 bd
       -0.35776216 0.012607073 -0.21593584 -0.11339594
000070 2b bf 0d be b4 4d 05 3e 8d 30 38 3e 32 d0 f1 3c
       -0.13842456 0.13017923 0.1798727 0.02951822
000080 2e 18 94 be b9 35 93 3e 36 72 32 3e f9 87 49 bf
       -0.28924698 0.28751925 0.1742638 -0.787231
000090 3a 28 d0 bd 71 aa 8d bd f7 e3 0e 3d 58 78 c8 3e
       -0.101639226 -0.06917275 0.034885373 0.39154315
0000a0 54 91 be 3d 1e 45 43 3d 4d e9 ad 3e 27 1e d5 3d
       0.09305063 0.047673337 0.33967057 0.10406142
0000b0 70 28 80 3e 91 82 07 bf e6 bb 04 be 28 ce b2 3d
       0.2503085 -0.52933604 -0.12962303 0.087307274
0000c0 08 00 36 bb 67 b4 d2 3e 79 5f 93 3d 64 8f 95 3e
       -0.0027771015 0.4115326 0.07195944 0.2921096
0000d0 83 b6 8a bd 2f 0f ba 3d 4d ae 65 bd 03 86 f7 be
       -0.067730926 0.09084927 -0.05607443 -0.4834443
0000e0 73 3e b0 be 18 28 9e be c3 de de bd 72 da 9b be
       -0.34422645 -0.30889964 -0.10882332 -0.30440098
0000f0 ed bc b5 3d f4 a0 51 3e 3c 3c de bd 5f 56 05 3e
       0.08873925 0.20471555 -0.108513325 0.13021229
000100 93 13 9b bd 40 43 ff bd c3 a6 e7 bd 63 22 13 3d
       -0.07572093 -0.12463999 -0.11311104 0.035921466
000110 e0 82 d7 bb 0a 55 ea bc 90 49 e4 38 32 44 02 bd
       -0.006576881 -0.028605003 0.00010885589 -0.031803317
000120 a6 5f 9e 3d 20 b7 bd bb 9b e8 af 3d 7b 6c ce bd
       0.07733087 -0.0057896525 0.08589288 -0.10079285
000130 3c 82 c0 bd 38 61 d6 3c 2f db 12 be 08 48 9d 3d
       -0.0939984 0.026169404 -0.14341424 0.076797545
000140 4f 27 bb bd 35 bb 50 3c 77 91 3f be 1e 8b 2d be
       -0.09138357 0.012739946 -0.18707834 -0.169476
000150 39 11 93 bd 26 f8 e6 bd bd d5 b5 bd 1d 7b 86 bd
       -0.07181019 -0.11277799 -0.08878658 -0.06566451
000160 ef a1 08 bd 49 54 ef 3c f7 28 50 bd 77 f0 ad bc
       -0.033357557 0.029214995 -0.050820317 -0.021232827
000170 33 88 d3 bc 31 6e 0d be 35 6a d1 bc 1e 7b eb bd
       -0.02582178 -0.13811566 -0.025563339 -0.11498092
000180 df 6d ac bb ab 83 6d bd 4e f6 c1 3d 0b f4 c9 bc
       -0.005262121 -0.057986896 0.09470807 -0.024652502
000190 19 b3 b9 bc 04 22 13 3e 50 4b 85 3d bb 4c 47 bd
       -0.022668408 0.14368445 0.06508505 -0.04865716
0001a0 96 0a af 3c 93 28 e7 3d 35 fd 0d be d4 a0 83 bd
       0.021367352 0.11287036 -0.13866122 -0.0642716
0001b0 2b dc b6 bd 9a 7e 47 ba 60 19 00 be e0 92 1e bd
       -0.089287125 -0.00076101127 -0.1250968 -0.03871429
0001c0 2d 80 6a bd 5a b8 2e be ee 92 13 bd 94 e1 2b be
       -0.057251144 -0.17062512 -0.036028795 -0.1678527
0001d0 e4 1b 29 bd 07 4a 2a 3a 55 e7 98 3d 70 bc 1f be
       -0.041286364 0.0006496016 0.07465998 -0.15599227
0001e0 43 f9 31 be 53 b9 a2 3d b7 e2 11 be 10 c3 c8 bd
       -0.17380242 0.07945504 -0.14246641 -0.0980283
0001f0 1b c7 55 3c b0 05 61 3c 94 22 fb 3d 38 2f 80 bb
       0.013047959 0.013734266 0.12262455 -0.003911879
000200 26 a0 15 3e 72 c1 0f 3e da 7c bb 3c d5 bd a2 3e
       0.14611873 0.14038637 0.022886682 0.31785455
000210 9b 7c 14 3f 37 98 43 3e 7a cb 79 3e d7 ad 2b bd
       0.5800263 0.19101034 0.24394026 -0.041913833
000220 91 4b 40 3e b0 56 46 3d 0f 7e 85 bd 4b 0e e1 bd
       0.18778826 0.048422515 -0.065181844 -0.10989054
000230 ad e1 96 bd 83 d2 a3 3e 5d ea ae 3e d0 f8 fd 3d
       -0.07367263 0.31996545 0.3416318 0.12400973
000240 c8 b1 49 3e 3c be c2 3e 59 dd 10 3e 2b 14 dd 3d
       0.19696724 0.38035762 0.14146937 0.10794862
000250 c6 5c c2 3d 2a 5f c1 bd 0d 29 db 3d 99 9d 84 3e
       0.094903514 -0.09441979 0.10701189 0.25901487
000260 2c 96 78 be 51 b3 04 3e 9d 8e b2 ba 55 ae 46 be
       -0.24276036 0.12959029 -0.0013622824 -0.1940244
000270 b2 15 e8 be a3 8d a6 3e b4 95 a0 3d 53 71 b3 3d
       -0.45329052 0.32529935 0.078410536 0.08761849
000280 df 2a 6c 3d 40 90 ee bc 40 77 87 3e 8c d3 21 3d
       0.057658073 -0.029121518 0.26458168 0.039508387
000290 60 2e b5 3e d2 1c a1 3e cf 53 d4 bd 23 37 c6 3e
       0.35386944 0.314673 -0.10367548 0.3871394
0002a0 23 04 81 3d ed 31 34 3f 61 16 6a 3e a1 72 5e 3d
       0.06299617 0.7038868 0.228601 0.054308537
0002b0 2b 63 08 3e 06 38 c1 3e 94 f8 73 3e fa aa e0 bd
       0.1331908 0.37738055 0.23825294 -0.10970111
0002c0 59 9b ca 3d e1 5e 02 3e 4c c6 df 3e db d5 1a bf
       0.098929115 0.12731506 0.43705976 -0.6048257
0002d0 e8 d8 c4 bb ea e0 00 bd 7a 7e ae 3d ec 6a a5 3e
       -0.0060073026 -0.031464495 0.08520217 0.32308137
0002e0 47 ad 11 bd ba 3d 07 be a4 d1 3c 3e cd f9 84 3e
       -0.03556564 -0.1320714 0.18439347 0.25971833
0002f0 29 53 33 3e 23 cf c6 3e 1e 95 ec bd 60 9a 2d 3d
       0.17512192 0.38829908 -0.11551879 0.04238355
000300 1a 5e 80 bc 8b eb 74 be c1 b1 63 be 8a 1c 38 be
       -0.015669871 -0.23917978 -0.22235776 -0.17979637
000310 f6 68 8b bc a7 f5 0e 3e 54 fb ef 3c 1d ca 80 bd
       -0.017017823 0.13960896 0.029294647 -0.0628855
000320 75 f3 a6 be 4e 87 a4 3e d9 0e ac bd 9f 27 c0 bc
       -0.32607618 0.3213448 -0.084012695 -0.023456393
000330 c5 7d 79 bd 7a 8f 9a bb 20 5e 94 3c 90 61 4c be
       -0.06091096 -0.004716811 0.018111289 -0.19959092
000340 30 2b 97 bc ec 49 26 be cf 2d be bd 7b c5 05 bd
       -0.01845321 -0.16239136 -0.09286081 -0.032659035
000350 b0 da 8f bd 20 f7 cd bc 6b 41 51 be 0d 87 ad be
       -0.07024133 -0.025142252 -0.20435111 -0.33892098
000360 a5 ac f5 3d 42 69 c8 be e8 76 22 bf 95 3d 22 3e
       0.1199582 -0.39142805 -0.63462687 0.15843804
000370 a7 a4 99 be 08 83 72 bd c1 b7 8b 3c 96 08 8c bd
       -0.30008432 -0.059206992 0.017055394 -0.06837575
000380 29 aa 03 3d dc 2e ef 3d f8 38 1e 3e 38 8c 9a 3c
       0.0321447 0.116788596 0.1545142 0.01886569
000390 f0 53 b6 bc 94 ff 43 be 37 b5 7e 3d 38 05 d3 bd
       -0.022256821 -0.19140464 0.06218454 -0.1030373
0003a0 05 92 cc bd 17 c7 57 bd a0 e9 85 3e 6e 0e de bc
       -0.099887885 -0.0526801 0.26154804 -0.02710649
0003b0 08 69 c1 bd 63 ce 0d be 91 18 16 be 24 14 0d bd
       -0.09443861 -0.13848262 -0.14657809 -0.034443036
0003c0 04 5c a0 be 35 87 54 3d 26 0d 26 3e 4f ec 59 be
       -0.31320202 0.051886756 0.16215953 -0.21281551
0003d0 8a a7 da bd 2a 1f a2 be 4d 04 1d 3e cd 2e 09 bf
       -0.10676487 -0.316644 0.15333672 -0.5358704
0003e0 92 34 93 bc 07 83 01 3b 17 5c cf bd 46 ae 3c 3c
       -0.017969403 0.0019761936 -0.101249866 0.011516159
0003f0 5a 80 94 3c bb d0 ac be 48 96 5b 3d 55 53 cc be
       0.018127609 -0.33753 0.053610116 -0.39907327

fc2.bias f4 [64]
000000 af ea dc 3e ed 00 80 bd ac d7 8b 3f a5 39 3b 3d
       0.431478 -0.062501766 1.0925193 0.04570927
000010 e6 64 25 3e 6f df 52 bc e9 26 4f 3c 34 96 d0 bc
       0.16151771 -0.0128706535 0.012643554 -0.025462247
000020 80 56 16 be 75 94 a8 bd f4 6d 5a bc 73 31 92 bd
       -0.14681435 -0.08231441 -0.013331879 -0.07138338
000030 e4 21 ab be a2 8a 60 be 00 aa 2e 3e 41 c7 06 3f
       -0.33424294 -0.21927884 0.17057037 0.5264779
000040 29 87 f2 bd 99 ec a7 bd 2a 48 2f 3f 2c 80 04 be
       -0.11842186 -0.08199424 0.6846949 -0.12939519
000050 67 b8 64 3c 08 7e 10 bf b5 e6 49 3f 8a ac 19 3e
       0.013959981 -0.5644231 0.78867656 0.15007225
000060 ea 70 c8 bd 97 ad a6 bd 49 77 71 3c ce 60 d8 3e
       -0.09787162 -0.081385784 0.014737912 0.42261356
000070 0c a0 37 be 19 3e ea 3c 86 ea 38 bd 2c a3 78 be
       -0.17932147 0.028594064 -0.045145534 -0.24280995
000080 13 e7 93 be ab 9f 35 bd ae c0 e4 bd 08 6f 8a be
       -0.28887233 -0.044341724 -0.11169563 -0.27037835
000090 31 5a a7 3d 1f a6 3b 3d e1 3b 31 3d 67 3d 5d 3f
       0.081714995 0.045812722 0.043269996 0.8642182
0000a0 84 ee 55 3e 05 88 38 be 80 63 a7 be ac b4 62 be
       0.20891768 -0.18020637 -0.326931 -0.22139233
0000b0 34 31 db bd 92 06 31 3e 8d ed 05 be 69 ec 6d bc
       -0.10702744 0.17287663 -0.130789 -0.014521697
0000c0 47 25 da bd fb f9 58 3f 7c ce 79 be 79 27 7c be
       -0.10651641 0.8475644 -0.24395174 -0.24624433
0000d0 af d2 b5 bd b8 35 82 3e 0f bd 06 bd 8a c9 a8 3c
       -0.08878075 0.2543161 -0.032895144 0.020603914
0000e0 b7 3a b8 bd 31 79 14 3e 3d f5 a3 3d 2e 3c cc 3e
       -0.08995574 0.14499356 0.0800576 0.39889663
0000f0 67 e6 01 bc 90 db db 3e 77 e8 5b 3f a1 52 75 bd
       -0.007928467 0.4294095 0.8590159 -0.059893254

fc3.weight f4 [1, 64]
000000 bf 74 fa bd 29 5f f5 bc 6a 6f ac bd 44 61 9c 3c
       -0.12229299 -0.029952602 -0.08419688 0.019089349
000010 88 50 1e be ed cf 05 3d b9 f9 bd 3c b0 12 31 3d
       -0.15460408 0.032668997 0.023190366 0.043230712
000020 3a a9 1f bd 5e 95 c9 3d 55 15 1c 3e fa 81 58 3d
       -0.038979746 0.09842943 0.15242513 0.05285833
000030 3f 22 fb bc 21 32 36 bb c7 1c 86 be f9 de 96 3c
       -0.030655978 -0.0027800875 -0.2619383 0.018416869
000040 b7 32 ab 3d bd 45 db 3c 1b 4d 4a be 95 70 d9 bc
       0.083592825 0.026766652 -0.19755976 -0.026542941
000050 b8 e4 92 bc af e5 71 3d c7 e5 66 bd 42 ee 39 bb
       -0.017931327 0.059056934 -0.056371477 -0.0028370772
000060 a0 6c 69 bd d6 f9 91 bc 42 dd 01 3d 61 03 4d bd
       -0.05698836 -0.017819326 0.03170515 -0.05005205
000070 15 af 47 3d 82 5e 36 bd da 68 6e bb 7e 58 a5 3b
       0.048750956 -0.044523723 -0.0036378414 0.0050459495
000080 44 fc e3 3e 56 2a 5a 3d e0 f5 8c 3e 96 e6 e1 bc
       0.445284 0.05326303 0.27531338 -0.027575772
000090 5e 5f 01 be fc b9 5a 3c 94 7c ed bc e8 1f 14 3c
       -0.12634036 0.013350006 -0.028990068 0.00904081
0000a0 b4 6a c3 bd bd 7f 4a 3e d3 9d 33 3e 56 04 ab 3e
       -0.095418364 0.19775291 0.17540674 0.33401746
0000b0 ad 43 75 3d 84 f1 0a be 2d ef 36 bb 76 bc de 3b
       0.059878994 -0.13568693 -0.0027913556 0.0067973686
0000c0 ca 89 8d bd 01 2e 1d 3c 96 75 0b 3e a1 af 46 3e
       -0.06911047 0.009593488 0.13619074 0.19402935
0000d0 1a ec c2 3c c5 fd d1 bd ed 53 1b bb a8 0b ed bc
       0.023794223 -0.10253481 -0.0023701147 -0.028936222
0000e0 33 ef fa 3d 1c d5 84 3d 8d ce 7b be c7 27 64 3d
       0.12252655 0.0648596 -0.24590512 0.055701997
0000f0 69 98 85 3b 2f 19 5b 3b 50 64 47 bd 79 44 43 3e
       0.0040770066 0.0033431759 -0.04867965 0.19069089
