sat-code/models/maddpg_20250712-135635/checkpoint_400/critic_agent_1.pth (torch, 24873 bytes, 5 tensors)

fc1.weight f4 [64, 18]
0	0xbfb1fe6c	-1.3905768
1	0xbb812e68	-0.0039422996
2	0x3e477dd7	0.19481598
3	0x3f9863f0	1.1905499
4	0xbdeea30e	-0.11652194
5	0x3caabcb1	0.020841928
6	0x3ed8c72b	0.42339453
7	0x3e633b8c	0.22190684
8	0xbd84908a	-0.06472881
9	0xbeb53f85	-0.35400024
10	0xbe1a1b67	-0.15049516
11	0x3ec30a81	0.3809395
12	0xbc6751dd	-0.014118639
13	0x3fb3ba0b	1.4041151
14	0x3f406dfd	0.7516783
15	0xbdbd19cf	-0.09233438
16	0xbe7d060f	-0.24709342
17	0x3f3f085d	0.74622136
18	0xbd66c4a8	-0.05633989
19	0xbe55e21f	-0.2088704
20	0x3d12c7d0	0.035835087
21	0x3d3ca288	0.04605344
22	0xbe1c2b45	-0.15250881
23	0xbddedb05	-0.108816184
24	0xbde61ae9	-0.112356015
25	0xbdcd6de1	-0.10030723
26	0xbe80907e	-0.2511024
27	0xbb7afd00	-0.0038297772
28	0x3ddc5e16	0.10760133
29	0xbd8a0986	-0.06740098
30	0x3e591ec7	0.21203147
31	0xbd34455d	-0.044011462
32	0x3dd68fc1	0.10476638
33	0xbe7fe4b3	-0.24989586
34	0x3dacda0d	0.084400274
35	0xbdaf31c2	-0.085544124
36	0xbcbeb3e0	-0.02327913
37	0xbda4aa6b	-0.08040317
38	0xbebb592f	-0.3659148
39	0x3dcab6cb	0.09898146
40	0x3e2e9552	0.17049149
41	0x3e587bed	0.21141024
42	0x3e3bcd81	0.18340112
43	0xbe22b682	-0.15889934
44	0x3dd328e2	0.10310532
45	0xbde46a3a	-0.111530736
46	0xbf1a79b7	-0.6034197
47	0xbead47d7	-0.33843872
48	0xbde1cf29	-0.11025841
49	0x3ef5d2a4	0.4801227
50	0xbd92c12a	-0.07165749
51	0xbeec011d	-0.460946
52	0xbf326b76	-0.6969522
53	0xbe4158e1	-0.18881561
54	0x3dd2a0f9	0.10284609
55	0xbda47640	-0.08030367
56	0xbe0e9347	-0.1392337
57	0xbe8d86f7	-0.27642033
58	0x3e31d33a	0.17365733
59	0x3e43373c	0.19064039
60	0x3e8fc45b	0.28079495
61	0xbea6b4fc	-0.32559955
62	0xbd6707ff	-0.05640411
63	0x3e1c1070	0.15240645
64	0xbd9fbd0f	-0.07799732
65	0xbe492440	-0.19642735
66	0xbdea70d1	-0.11447299
67	0xbe19d1c9	-0.15021433
68	0x3de65f39	0.11248631
69	0x3e7d3435	0.24726947
70	0xbd0b6501	-0.03403187
71	0xbea67d16	-0.32517308
72	0xbe139764	-0.1441322
73	0xbe1c2af3	-0.15250759
74	0x3e390e48	0.18071854
75	0xbef5a22f	-0.479753
76	0x3dcd33c6	0.100196406
77	0x3dd2ac36	0.10286753
78	0x3f15a395	0.5845273
79	0x3ddcb2bb	0.10776278
80	0xbd370fb9	-0.04469273
81	0x3def6c68	0.11690599
82	0xbea064a6	-0.3132679
83	0x3e863a43	0.26216325
84	0xbd39bcc2	-0.04534603
85	0xbee41ed2	-0.44554764
86	0x3f2ab05a	0.6667534
87	0x3e61aeeb	0.22039382
88	0xbdba065d	-0.09083245
89	0xbca4985c	-0.020092182
90	0xbeab71a3	-0.33485135
91	0xbf2d45fc	-0.6768491
92	0xbf0deda4	-0.55440736
93	0xbee28716	-0.44243687
94	0xbd8534b4	-0.06504193
95	0xbce7af1f	-0.028281746
96	0x3c7f1062	0.015567871
97	0x3ed18073	0.4091831
98	0xbe8caf19	-0.2747734
99	0x3f151374	0.5823281
100	0x3e0ec0ab	0.13940684
101	0x3e8dff8b	0.27734026
102	0xbe1980df	-0.14990567
103	0xbed4f8f3	-0.41596183
104	0xbf4dd0dc	-0.8039682
105	0x3ee1c3a8	0.44094586
106	0x3f694410	0.9111948
107	0x3ee0c2e5	0.43898693
108	0xbe344598	-0.17604673
109	0xbd340838	-0.04395315
110	0x3d02fa8f	0.031977233
111	0x3ea22e51	0.31675962
112	0xbdd1818a	-0.10229786
113	0xbe47e923	-0.19522528
114	0xbe9af487	-0.30264685
115	0x3eccbc22	0.39987284
116	0x3e5030b0	0.20331073
117	0xbd13e28c	-0.036104724
118	0xbee97e2e	-0.4560408
119	0x3beb1060	0.007173583
120	0xbebe3cae	-0.3715567
121	0xbdb2ceef	-0.08730876
122	0xbdb8f5d9	-0.09031267
123	0xbe934743	-0.28765306
124	0xbf534dd4	-0.8254063
125	0x3f26f8b1	0.6522322
126	0xbec24efd	-0.37950888
127	0xbe539559	-0.2066244
128	0x3da0f972	0.07860078
129	0x3f3bc990	0.73354435
130	0x3cd6c6a9	0.026217775
131	0x3e0b4635	0.13601
132	0x3cb062eb	0.021531543
133	0x3eae9cb3	0.34103927
134	0x3d9b44f2	0.0758151
135	0x3e6c826d	0.23096628
136	0xbe86865f	-0.26274392
137	0x3e3678d0	0.17819524
138	0xbdb2322c	-0.08700976
139	0x3f1c584d	0.61072236
140	0xbce1c50b	-0.027559778
141	0x3f217902	0.6307527
142	0xbe60e6e1	-0.21963073
143	0x3d6a02a5	0.05713143
144	0x3e51b262	0.20478204
145	0xbf1a6c37	-0.6032137
146	0xbdab8225	-0.083744325
147	0xbeea1a37	-0.45723125
148	0xbd2071ad	-0.03917091
149	0xbe3bbc05	-0.18333443
150	0xbe5e44dc	-0.21705955
151	0xbd82edec	-0.06393036
152	0xbc0cfc3e	-0.008605061
153	0x3e36f879	0.17868222
154	0xbe45a92c	-0.19302815
155	0x3e237666	0.15963134
156	0x3e59dd83	0.21275906
157	0xbefa9e01	-0.48948672
158	0xbf09095c	-0.53529906
159	0xbea07579	-0.31339625
160	0xbec7701c	-0.3895272
161	0x3e274568	0.1633507
162	0xbe838eb9	-0.25694826
163	0xbe111346	-0.14167508
164	0xbdc58220	-0.0964396
165	0xbf185878	-0.5950999
166	0xbebce4da	-0.3689335
167	0xbe56c810	-0.20974755
168	0x3e5da12a	0.2164351
169	0xbebbdbc3	-0.36691102
170	0xbe539ed1	-0.20666052
171	0x3f0c4944	0.54799294
172	0xbee9cba9	-0.45663193
173	0x3f04269f	0.5162143
174	0xbeee71a7	-0.46571085
175	0xbf5588ba	-0.83411753
176	0xbe8769a6	-0.2644779
177	0xbf2152e8	-0.6301713
178	0xbf05b7ef	-0.52233785
179	0xbef8ef6c	-0.48620164
180	0x3d9d6bde	0.0768659
181	0x3e04652c	0.12929219
182	0xbf1b1845	-0.6058391
183	0x3f143a37	0.5790133
184	0xbe86f893	-0.26361522
185	0x3cebfa26	0.028805804
186	0xbef069e9	-0.46955803
187	0x3f2894a5	0.65851814
188	0xbddd0fea	-0.10794051
189	0xbb43fb51	-0.0029904435
190	0xbf3b62fc	-0.73197913
191	0x3e09c27b	0.13453095
192	0xbf002c1c	-0.50067306
193	0x3f5e5711	0.868516
194	0xbf1afa6b	-0.6053836
195	0x3eb4253f	0.35184667
196	0xbf26afbb	-0.65111893
197	0x3e9e2464	0.3088714
198	0x3e5b36e1	0.21407653
199	0xbd5ef613	-0.054433893
200	0xbf5ad34c	-0.85478663
201	0x3e44c836	0.19217
202	0xba5ba093	-0.00083781144
203	0x3d80f9ae	0.062976226
204	0xbb6f3fe9	-0.00365066
205	0xbee78615	-0.45219484
206	0xbdd5eecc	-0.104459375
207	0xbeef4561	-0.4673262
208	0x3f1d96d7	0.6155829
209	0x3f247ba4	0.6425116
210	0xbfc65098	-1.5493345
211	0xbe28823e	-0.16455933
212	0xbdae94a8	-0.08524448
213	0xbf2bf887	-0.671761
214	0x3f5b1c21	0.85589796
215	0x3ea51b8c	0.3224758
216	0xbe76a2a1	-0.24085476
217	0x3dc69921	0.09697176
218	0x3d8f6da1	0.07003332
219	0x3eaddf7f	0.33959576
220	0xbea16753	-0.31524143
221	0xbd54990d	-0.051903773
222	0xbde137bc	-0.109969586
223	0xbe53f813	-0.20700102
224	0xbe10134c	-0.14069861
225	0xbe3f626b	-0.18689887
226	0xbe99bab9	-0.3002527
227	0x3ead3404	0.33828747
228	0x3e6baa60	0.23014212
229	0x3f077e1d	0.5292681
230	0x3df1e567	0.11811333
231	0xbe749cad	-0.23887892
232	0xbe34404f	-0.17602657
233	0x3eb2caba	0.34920293
234	0x3c0a5315	0.00844266
235	0xbe0b5b53	-0.13609056
236	0xbe1a5f73	-0.15075473
237	0xbcfaf5f2	-0.030634854
238	0xbfc4f488	-1.5387125
239	0xbeb0a910	-0.34503984
240	0x3e93e6be	0.2888698
241	0x3d368108	0.044556648
242	0x3dd15237	0.10220759
243	0x3ef21038	0.47278
244	0x3ebf40d1	0.37354138
245	0xbe390ebd	-0.18072028
246	0xbe4b165f	-0.19832753
247	0xbe40cb06	-0.18827447
248	0x3e6369a5	0.22208269
249	0x3e2ba84f	0.16763423
250	0x3ec31e5f	0.3810911
251	0xbe1a4bcc	-0.15067977
252	0xbd1a9910	-0.037743628
253	0xbd7c914a	-0.061661996
254	0xbec9faee	-0.39449257
255	0xbe66954f	-0.22517894

fc1.bias f4 [64]
0	0xbed57b56	-0.4169566
1	0xbd8c072f	-0.06837308
2	0x3ecfc6be	0.40581316
3	0x3f0ee003	0.55810565
4	0x3f089374	0.53349996
5	0xbeb3ae1b	-0.3509377
6	0x3cf19fd0	0.02949515
7	0x3f169cce	0.58833015
8	0x3d883152	0.06650032
9	0xbf06e451	-0.52692133
10	0xbdd11195	-0.10208432
11	0xbd35f19b	-0.044419866
12	0x3e06a663	0.13149409
13	0x3ecac188	0.39600778
14	0x3df0f2f9	0.11765093
15	0xbe27ace7	-0.16374551
16	0x3d174238	0.036928385
17	0x3d62731c	0.055285558
18	0x3e4912c6	0.19636068
19	0xbc50e692	-0.012750285
20	0x3efc5ad5	0.4928805
21	0xbc94ed53	-0.018179571
22	0xbe1c0ac6	-0.15238485
23	0x3f2b27de	0.6685771
24	0x3f18335e	0.5945338
25	0x3e2b7107	0.16742335
26	0xbcd6c4d2	-0.026216898
27	0x3f2aa29f	0.6665439
28	0x3f396e63	0.7243406
29	0x3ea2abce	0.31771702
30	0x3ebb65b3	0.36601028
31	0xbd9ec42f	-0.07752263
32	0xbf09b273	-0.53787917
33	0xbedcfa40	-0.43159676
34	0x3f04a70e	0.51817405
35	0x3e16eed7	0.14739548
36	0x3f03446b	0.5127627
37	0x3ea47878	0.3212316
38	0x3f0b149b	0.54328316
39	0x3f28d37b	0.65947694
40	0xbe892dbb	-0.26792702
41	0x3edcb8e0	0.43109798
42	0xbf3126bd	-0.69199735
43	0x3f0f1b07	0.55900615
44	0xbe6fef58	-0.23431146
45	0x3e080a87	0.13285266
46	0x3f54b6e8	0.8309159
47	0xbd81d577	-0.06339543
48	0x3ea37979	0.31928614
49	0x3f0927ab	0.53576154
50	0x3de39e1e	0.11114143
51	0xbe08b899	-0.13351668
52	0x3f04f14f	0.5193071
53	0x3f1b0cb1	0.6056624
54	0x3f28abbf	0.65887064
55	0x3e1b85a8	0.15187705
56	0xbe8a69a4	-0.27033722
57	0x3ea36f7f	0.31921002
58	0x3f6ed9b6	0.9330095
59	0x3e57a057	0.21057259
60	0xbe3ae495	-0.1825126
61	0x3d387fe6	0.04504385
62	0xbdc47bc5	-0.0959392
63	0x3ee9414f	0.4555764

fc2.weight f4 [64, 64]
0	0xbf27aea6	-0.6550087
1	0x3a579a00	0.0008224547
2	0xbef33503	-0.47501382
3	0xbe043f3b	-0.12914746
4	0xbde432bb	-0.111424886
5	0xbda9158b	-0.08256062
6	0xbdef83df	-0.11695074
7	0xbf44d7c2	-0.7689172
8	0xbaec719a	-0.0018039227
9	0xbdc9f7ca	-0.09861715
10	0xbdc26071	-0.09491051
11	0x3d8e9bac	0.06963286
12	0x3dac23c4	0.08405259
13	0xbbbe97c1	-0.0058164303
14	0xbd307d2c	-0.043088123
15	0xbeb9d0a6	-0.36292
16	0xbed4c46c	-0.41556108
17	0xbb12a480	-0.0022375882
18	0xbdbb8cf0	-0.09157741
19	0x3d42df84	0.047576442
20	0xbd23737c	-0.039905056
21	0xbe5476fc	-0.20748514
22	0xbe802710	-0.25029802
23	0x3d10670f	0.035254534
24	0x3dae70fc	0.08517644
25	0xbe09be84	-0.13451582
26	0xbab5bf4a	-0.0013866213
27	0x3e4404b1	0.19142415
28	0x3e0d2aa5	0.13785799
29	0xbd0006aa	-0.031256355
30	0xbdbde48c	-0.092721075
31	0x3d02f635	0.031973083
32	0xbc9e16db	-0.019298008
33	0x3d3e3495	0.046436865
34	0xbad36d2e	-0.001613056
35	0xbd5fe84d	-0.0546649
36	0xbe6f4174	-0.23364812
37	0xbcd695d1	-0.026194485
38	0xbe5ea693	-0.2174323
39	0x3c04abe2	0.008097621
40	0xbe7e25d5	-0.2481912
41	0xbeb49c45	-0.35275474
42	0x3da348da	0.0797288
43	0x3e2799c8	0.16367257
44	0xbd41fcfc	-0.047360405
45	0x3b6c11e5	0.0036021408
46	0x3d666183	0.05624534
47	0xbef58478	-0.47952628
48	0xbd2bb12b	-0.041917007
49	0xbcf51386	-0.029916536
50	0xbde13b8e	-0.10997687
51	0x3e0e1541	0.13875295
52	0xbdf36b8b	-0.118857466
53	0xbeb10085	-0.3457071
54	0x3be834b2	0.00708636
55	0xbc56ae7f	-0.013103127
56	0xbd8ebbbf	-0.069694035
57	0xbd15fada	-0.036616184
58	0xbf08f91a	-0.535051
59	0x3d1ed06e	0.038772993
60	0x3cccfe5c	0.025023632
61	0xbdd57b6b	-0.10423931
62	0xbec8c5ba	-0.39213353
63	0x3d845bb1	0.06462801
64	0xbd10aa68	-0.035318762
65	0x3c4f33e0	0.012646645
66	0xbe79367a	-0.24337187
67	0x3e09e264	0.13465267
68	0xbe341286	-0.17585191
69	0x3de912c8	0.11380535
70	0xbe23857c	-0.15968889
71	0x3d1e1ee8	0.038603693
72	0xbd3f299c	-0.04667054
73	0x3d479f02	0.048735626
74	0x3d8d9de0	0.06914878
75	0xbc9c9dfa	-0.019118298
76	0xbe153257	-0.14569984
77	0x3e93e546	0.2888586
78	0x3da24f20	0.07925248
79	0xbe19e64d	-0.15029259
80	0xbd33d398	-0.043902963
81	0x3deef110	0.11667073
82	0xbdcaec44	-0.09908345
83	0x3d077103	0.03306676
84	0x3dda5bcf	0.10662042
85	0xbd99882b	-0.07496675
86	0xbe5d92f6	-0.21638092
87	0xbd243533	-0.040089797
88	0xbdd0afff	-0.101898186
89	0x3df321da	0.11871691
90	0xbde58e93	-0.112088345
91	0xbd09470c	-0.03351502
92	0xbe200910	-0.15628457
93	0xbe0382e8	-0.12842906
94	0x3ce7062b	0.028201183
95	0xbdf47c00	-0.119377136
96	0x3e005079	0.12530698
97	0x3d441a67	0.04787674
98	0x3dd20f63	0.10256841
99	0xbe40a7eb	-0.18814056
100	0xbe8a0631	-0.2695785
101	0x3e2a58e5	0.16635473
102	0x3d7bcc31	0.06147403
103	0xbe41f151	-0.18939711
104	0xbdb58c3b	-0.088646375
105	0x3d5a7a40	0.053339243
106	0xbd837b5b	-0.064200126
107	0xbdfa82fc	-0.122320145
108	0xbdd5c8c4	-0.10438684
109	0x3d81c339	0.06336064
110	0x3d1130b6	0.035446845
111	0xbe548469	-0.20753635
112	0xbe4ed8ec	-0.20199937
113	0xbe0fb11b	-0.14032404
114	0x3dc41020	0.09573388
115	0xbe18cac6	-0.14921102
116	0xbe54ee72	-0.20794085
117	0xbe95e517	-0.29276344
118	0xbd20e24b	-0.03927831
119	0x3d640543	0.05566908
120	0x3e19c5ae	0.15016815
121	0x3b8dfbf8	0.0043330155
122	0xbe491bf0	-0.19639564
123	0x3e07e0e5	0.13269384
124	0x3e5ea567	0.21742783
125	0xbd3603c6	-0.044437192
126	0xbc5c0922	-0.013429912
127	0x3ddec62a	0.108776405
128	0xbe6e1565	-0.23250349
129	0xbdd16c7e	-0.10225771
130	0xbe84b580	-0.25919724
131	0x3d2c53e8	0.042072207
132	0xbe0aa187	-0.1353818
133	0xbe3b3ada	-0.18284169
134	0xbee3819b	-0.4443482
135	0xbe9db088	-0.30798745
136	0x3dc82959	0.097735114
137	0xbeae0bb7	-0.33993313
138	0xbf181b09	-0.5941625
139	0xbd9c39e3	-0.076282285
140	0xbeb6c26e	-0.35695213
141	0xbf7d3105	-0.9890292
142	0x3de43524	0.11142948
143	0xbed01294	-0.40639174
144	0x3e1985f2	0.14992502
145	0xbcf43080	-0.029808283
146	0xbb4ee31a	-0.0031568469
147	0x3dca38fc	0.0987415
148	0xbdd941f4	-0.10608283
149	0xbf46a9d3	-0.7760288
150	0x3e392eae	0.18084213
151	0xbd7bee12	-0.06150634
152	0xbf193e88	-0.5986104
153	0xbe35e101	-0.17761613
154	0xbc9ffdc1	-0.019530179
155	0xbebf47f6	-0.3735959
156	0xbeb8d5c4	-0.3610059
157	0xbc4743d3	-0.012162167
158	0xbce42411	-0.027849229
159	0xbdb15ce6	-0.08660297
160	0xbd912f5a	-0.0708911
161	0xbd6350ab	-0.055496853
162	0x3e8cc40d	0.27493325
163	0xbdf8efd3	-0.12155118
164	0xbe27e01b	-0.16394083
165	0xbe8ea00a	-0.27856475
166	0xbd18f643	-0.03734423
167	0xbcacde47	-0.021102084
168	0xbe593da2	-0.21214917
169	0xbd960d70	-0.07326782
170	0xbedac942	-0.42731673
171	0xbd8f97fc	-0.070114106
172	0xbd9b8c95	-0.07595173
173	0x3cedf104	0.02904559
174	0xbe46e396	-0.19422755
175	0xbf757b88	-0.9589162
176	0x3e0d7bfd	0.13816829
177	0xbe9cc9e1	-0.3062277
178	0x3e641d51	0.22276808
179	0xbea80b2d	-0.32821026
180	0xbd73dddb	-0.05953775
181	0xbe45178c	-0.19247264
182	0x3f06176a	0.5237948
183	0x3cab7b07	0.020932687
184	0xbd3eae4d	-0.046552945
185	0x3d2fef6c	0.04295294
186	0x3e1cb1f8	0.15302265
187	0x3d377f86	0.04479935
188	0xbea849a0	-0.3286867
189	0xbe4e745f	-0.2016158
190	0x3e6ba734	0.23013002
191	0xbd0a1a5d	-0.03371655
192	0xbd1ed934	-0.03878136
193	0x3c1b0ba0	0.009463221
194	0xbe420d33	-0.18950348
195	0x3b0feb94	0.0021960484
196	0xb8ec0968	-0.00011255109
197	0x3dd8b9ec	0.10582337
198	0xbe96be1c	-0.29441917
199	0x3d6a86f7	0.05725762
200	0x3cdef131	0.027214618
201	0xbd6ff84a	-0.058586396
202	0xbe4bc534	-0.19899446
203	0xbe530bb2	-0.2060993
204	0xbe170246	-0.14746961
205	0xbeb2bf9e	-0.34911817
206	0x3d2590b8	0.040421218
207	0x3dc474dd	0.095926024
208	0xbec54654	-0.3853022
209	0xbdf97f04	-0.121824294
210	0x3db3f30e	0.087865934
211	0xbdb1bb65	-0.08678321
212	0xbdd4a2f0	-0.1038264
213	0xbe3f4845	-0.18679912
214	0xbe48b6af	-0.19600938
215	0xbedf0c07	-0.43563864
216	0xbe4955e7	-0.19661675
217	0x3e5198e6	0.20468482
218	0xbe1a1907	-0.1504861
219	0x3e202e0d	0.15642567
220	0xbe920aad	-0.2852377
221	0xbe1b5a70	-0.15171218
222	0xbe21aff3	-0.15789776
223	0xbdbe6545	-0.092966594
224	0x3e8e26cd	0.27763978
225	0xbedd407d	-0.43213263
226	0xbedb14af	-0.42789218
227	0xbe73ba2b	-0.23801486
228	0x3b592c39	0.003313793
229	0xbe386afb	-0.1800956
230	0xbe654331	-0.22388913
231	0xbbbbd575	-0.005732233
232	0x3d68ecf4	0.0568666
233	0xbc9d537b	-0.019204846
234	0x3eb1563f	0.34636113
235	0x3bd6ed57	0.006559055
236	0xbd206344	-0.039157167
237	0xbe640b34	-0.22269899
238	0xbf2444c6	-0.6416744
239	0x3e75cb89	0.24003424
240	0x3d66d0f9	0.056351636
241	0xbea4d65c	-0.32194793
242	0xbe058081	-0.13037302
243	0xbc760629	-0.015016117
244	0xbc68d3c5	-0.014210646
245	0xbdb00b79	-0.08595938
246	0xbf3281e6	-0.6972946
247	0x3e2f18d4	0.17099315
248	0x3d8ebd72	0.069697276
249	0xbd943b68	-0.07237893
250	0xbe0f0438	-0.13966453
251	0x3dca62ba	0.09882112
252	0xbe18c19b	-0.14917605
253	0x3d803008	0.06259161
254	0xbd9e7f05	-0.07739071
255	0xbed64a88	-0.41853738

fc2.bias f4 [64]
0	0xbe7476ff	-0.23873518
1	0x3da06464	0.07831648
2	0x3ea52be3	0.32260045
3	0xbd654b8f	-0.05598026
4	0xbe134238	-0.14380729
5	0x3cd6d647	0.026225222
6	0xbe43e86b	-0.19131629
7	0x3df45596	0.11930387
8	0xbe8ab275	-0.27089277
9	0x3f08ef76	0.5349039
10	0x3f05e3eb	0.523009
11	0xbdc18cb9	-0.09450669
12	0xbb4911ff	-0.0030680893
13	0x3ecb17c3	0.39666566
14	0x3d21d80f	0.03951269
15	0x3ee7db90	0.452847
16	0xbe3b734a	-0.18305698
17	0xbd152a51	-0.03641731
18	0x3f1a64cd	0.6031006
19	0xbe8f771b	-0.28020558
20	0x3e7c80b0	0.24658465
21	0x3c323aa0	0.010878235
22	0xbe143fc1	-0.14477445
23	0xbdd9e0ae	-0.106385574
24	0xbe349725	-0.17635782
25	0x3f7baaed	0.9830769
26	0x3e3080e8	0.17236674
27	0x3d900793	0.07032695
28	0xbe065bae	-0.1312091
29	0xbcfa192a	-0.030529577
30	0x3ef05920	0.46942997
31	0x3eb4affc	0.35290515
32	0xbe7e3bda	-0.24827519
33	0xbe6de9b3	-0.2323368
34	0x3dea597d	0.1144285
35	0x3d48ae16	0.048994146
36	0xbe3efa3d	-0.18650146
37	0x3e860eeb	0.26183257
38	0x3d144445	0.03619792
39	0xbba1019d	-0.0049135224
40	0xbdb611b0	-0.088900924
41	0xbea70276	-0.32619065
42	0xbda1b35e	-0.0789554
43	0xbe3dfa49	-0.18552507
44	0xbcf78b73	-0.030217862
45	0x3d4bb5b4	0.049733832
46	0xbbb4b643	-0.0055148914
47	0xbe88cb16	-0.26717442
48	0xbdf1a835	-0.11799661
49	0x3c0c1b01	0.00855136
50	0xbd954ea3	-0.072903894
51	0xbcb85a71	-0.022504063
52	0xbdfdbf49	-0.123900004
53	0xbe09f3c4	-0.13471895
54	0xbcc1619c	-0.023606114
55	0xbe2973f4	-0.16548139
56	0xbe80b9bd	-0.25141707
57	0x3db7cecf	0.089749925
58	0xbe26817b	-0.1626033
59	0xbdb2becf	-0.087278
60	0xbea187e2	-0.31548983
61	0xbe4184c2	-0.188983
62	0xbdd97e94	-0.10619846
63	0x3f84b88f	1.0368823

fc3.weight f4 [1, 64]
0	0x3de8e97a	0.11372657
1	0xbd1d92d1	-0.038470093
2	0xbeb8bf08	-0.36083245
3	0xbcbaa7d5	-0.022785107
4	0x3debc7a0	0.11512685
5	0x3d109d6d	0.035306383
6	0xbaf07b78	-0.0018347343
7	0xbdfdd118	-0.12393397
8	0x3e09cabd	0.13456245
9	0x3cd27057	0.025688333
10	0xbd1de7d6	-0.038551174
11	0x3c261ebe	0.010139165
12	0xbb7f9443	-0.0038998283
13	0xbd997aea	-0.07494147
14	0x3c09f5f1	0.008420453
15	0x3de96a07	0.11397176
16	0x3dcb3b2a	0.09923394
17	0xbd001ba5	-0.031276364
18	0x3bf09d3d	0.007342963
19	0x3d4d5b4c	0.050135896
20	0xbd766d5c	-0.060162887
21	0x3c0bec71	0.008540259
22	0x3caf284e	0.021381523
23	0x38ab2946	8.161603e-05
24	0xbb556f6f	-0.003256764
25	0xbd8c8b1f	-0.06862473
26	0xbcc56de8	-0.024100259
27	0xbc8f4d8f	-0.017493038
28	0xbc9d3fd1	-0.01919547
29	0x3dc92e2e	0.09823261
30	0x3de38845	0.11109976
31	0xbd1d4dbb	-0.038404208
32	0x3c9d6109	0.019211309
33	0x3daf4877	0.085587434
34	0xbd16cbbb	-0.036815386
35	0xbdabc252	-0.08386673
36	0x3c8fcb1f	0.01755291
37	0x3ca24ca0	0.019811928
38	0x3cd57afa	0.026059616
39	0x3d4b61da	0.049653865
40	0x3b23a140	0.0024967939
41	0xbce5ee87	-0.02806784
42	0x3e11becd	0.14232941
43	0xbc9cc412	-0.019136462
44	0x3d0ad7a3	0.033897053
45	0xbe04a694	-0.1295417
46	0x3d0e50c9	0.03474501
47	0x3c9460b8	0.018112525
48	0x3d0ccf4c	0.03437738
49	0x3d66f6dd	0.05638777
50	0x3caaad97	0.020834727
51	0x3d1eca84	0.038767353
52	0xbd54689d	-0.05185758
53	0x3c3ab488	0.011395581
54	0x3c8d2853	0.017231142
55	0x3b08832e	0.0020830142
56	0x3d83a05a	0.06427069
57	0x3aafc127	0.0013409004
58	0x3e7e9900	0.24863052
59	0xbae63c6d	-0.0017565616
60	0x3dd9a38e	0.10626899
61	0x3e0a3e05	0.13500221
62	0xbc7cda26	-0.01543287
63	0xbd923182	-0.07138349
