sat-code/models/maddpg_20250712-135635/checkpoint_1200/actor_agent_2.pth (torch, 21533 bytes, 6 tensors)

fc1.weight f4 [64, 4]
000000 64 68 cd 3e 37 88 46 be 8c e4 1f be 6b b2 fb bd
       0.40118706 -0.193879 -0.15614527 -0.1228989
000010 7a 59 e5 3d 47 fd 72 be cb 75 56 bd 76 33 93 3e
       0.11198707 -0.2372943 -0.05235843 0.287502
000020 ae b1 92 3e a8 72 9d be 66 46 a1 be 6f 4f d3 3d
       0.28651184 -0.30751538 -0.31499022 0.10317885
000030 4e ce 89 be b7 85 c6 be ec 98 db bd d5 d5 bb 3e
       -0.2691521 -0.3877389 -0.10722527 0.36686578
000040 0e 9d c9 3e d1 d2 09 be a8 e9 7f 3e 33 58 cf be
       0.39377636 -0.13459326 0.24991477 -0.40496978
000050 11 a6 a7 bd dd 5b 3c be 91 3f b6 bd 88 af 92 bc
       -0.081859715 -0.18394418 -0.08898843 -0.017905965
000060 9a fb f6 bd 1c 2f d9 3d 23 34 a9 be 0a 62 6b 3e
       -0.12059708 0.106046885 -0.3304759 0.22986618
000070 cf 0a ae 3d a9 df 5f bc 50 ff 06 bf e6 47 78 bc
       0.08498155 -0.013664165 -0.52733326 -0.015153861
000080 10 e7 b2 3e 1f 54 78 3e b4 3e 76 bd 67 04 3e bf
       0.34941912 0.2425084 -0.060118392 -0.7422547
000090 eb 1f e3 3e 1d 0b c5 3e 51 95 03 bf d2 ac a3 be
       0.4436029 0.3848504 -0.51399714 -0.3196779
0000a0 ce 26 a4 3d 29 22 b6 3c 4f cb a0 3d 38 d6 0f bf
       0.08015214 0.022233086 0.07851278 -0.56186247
0000b0 0e a9 98 3c ea e3 1b bb 08 76 23 bf a9 6d 0e 3e
       0.018635299 -0.002378697 -0.63851976 0.1390902
0000c0 4e 92 c7 3d 31 f1 88 bd eb df cd 3d 16 b7 13 bf
       0.09744702 -0.066866286 0.100524746 -0.5770124
0000d0 1a 70 2b bf bf eb ee 3d ca fa 3b bc d8 2a e0 3e
       -0.6696793 0.11666059 -0.011473367 0.43782687
0000e0 83 74 c9 3e 6a d3 46 3e 8e ea dc 3e 54 0b 03 3f
       0.39346704 0.19416586 0.431477 0.5118916
0000f0 84 a9 9e 3d 06 72 69 3d 91 71 a4 bd cf ad 3c bf
       0.07747176 0.056993507 -0.080294736 -0.7370271
000100 7b a9 8f be 77 90 f2 3e b5 27 32 3f ee 7d 6f 3e
       -0.2805899 0.47375843 0.6959184 0.23387882
000110 15 f9 90 3d de 80 0d 3e 5b ff 28 be 6f 89 2c 3e
       0.070787586 0.1381869 -0.1650366 0.16849302
000120 22 ff 07 3e 34 8c 18 bf 75 9a ff 3d 9a a5 8b be
       0.13280919 -0.59588933 0.12480632 -0.2727478
000130 a0 1e 4c 3e 9b 32 c9 3e 19 ad eb be ac da 2c 3f
       0.19933558 0.3929642 -0.460305 0.67521167
000140 ee fe 02 3e 19 3e c5 3b 1a 88 02 3f 71 b6 b3 bd
       0.1279256 0.0060193655 0.50988925 -0.08775032
000150 c4 70 8a 3e af 10 5d 3d 08 1a e1 3e ac f3 d3 be
       0.27039158 0.05397099 0.43965173 -0.41396844
000160 92 b4 01 bf 05 d2 13 3e 57 10 20 bf a2 fc b9 be
       -0.50666153 0.14435585 -0.6252493 -0.36325556
000170 b6 c9 3a bb 1b 04 9d 3c 4c 4e 28 3f 6f 08 b0 3e
       -0.0028501577 0.019166997 0.6574447 0.34381434
000180 c7 74 5a 3e d7 18 84 3e 4d 1d 77 bf f3 75 5a 3f
       0.2133361 0.258002 -0.96529084 0.85336226
000190 d0 d6 3e 3d db 59 9c be 97 75 89 3c d2 6b 9c be
       0.04659158 -0.30537304 0.016779704 -0.3055101
0001a0 0b c3 6a 3e dd ac 31 be 9d 5c 88 be 42 68 9b bc
       0.22925965 -0.17351098 -0.26633158 -0.018970612
0001b0 89 16 9f 3d cf a1 00 3d 1c 00 26 bf 51 8a 8a be
       0.0776797 0.031404313 -0.64843917 -0.27058652
0001c0 9f 5a d2 bd 86 23 95 be b9 46 b7 3d de dc b2 bd
       -0.10271191 -0.29128665 0.08949036 -0.08733533
0001d0 f8 da 71 be ce 0f cd be a0 0f d0 3c 38 aa b8 3e
       -0.23618686 -0.4005112 0.025398076 0.36067367
0001e0 fe a7 94 be 24 f7 53 be c0 15 99 3d 10 2a 84 3e
       -0.29034418 -0.20699745 0.074748516 0.2581334
0001f0 52 9f 9e 3e 2d 5d 96 3d da 82 0f bf 4c c3 0d bf
       0.30980927 0.073419906 -0.5605904 -0.55376124
000200 a9 ae e8 3e eb b7 1f 3c 25 57 0a 3f 9b 5e 49 3f
       0.45445755 0.009748439 0.5403922 0.7865998
000210 2e 15 c1 3e 71 4b b0 3e 01 8a 42 bc fa a8 9b 3d
       0.3771147 0.34432557 -0.011873723 0.07600589
000220 fb 77 c8 3e 21 c6 23 be f5 0c 10 3c 2e 6e 31 3f
       0.39154038 -0.15993549 0.008792152 0.69308746
000230 75 e8 0a 3e 82 92 1d 3d c1 b3 77 3c 95 09 18 3f
       0.13565238 0.0384698 0.01511854 0.5938962
000240 0b 64 ff 3c 48 a4 3c bd d2 88 5a 3e 90 e5 0c bd
       0.031175634 -0.04605511 0.21341255 -0.034398615
000250 74 97 ff 3e 72 2e 31 3e fe 56 13 be ce 17 3b 3f
       0.49920237 0.17302874 -0.14388654 0.730832
000260 4a a0 fb be 36 f3 bf 3e 0b 92 7f be bd 0f 1c 3e
       -0.49145728 0.37490243 -0.24958055 0.15240379
000270 e5 79 ac 3e 15 12 df 3e ba 99 c4 3e d5 67 ed 3e
       0.33686748 0.43568483 0.38398534 0.4636828
000280 cd 70 be be 4c 22 b4 3e 01 6d 0f 3f ac 0f 20 3e
       -0.37195435 0.35182416 0.560257 0.15630978
000290 d1 1e b3 3e 5c dd 8b 3e 10 8e d9 be 60 4d 68 3c
       0.3498445 0.2731732 -0.42491198 0.014178604
0002a0 65 11 a9 be 03 e7 c6 be 34 f4 1a bf 9a 1f 1f bf
       -0.33021083 -0.38848123 -0.60528874 -0.62157595
0002b0 7c 1a c5 3c cc 51 59 3e 64 c8 e3 be 1f ce b6 be
       0.02406048 0.2122261 -0.44488823 -0.35704133
0002c0 67 2c 51 be c3 d0 a1 be 87 a4 63 be 42 d6 cc be
       -0.20427094 -0.31604585 -0.22230731 -0.40007216
0002d0 3b fa 5d 3e 22 60 ba bc fb 4f c5 3e ce 84 5a bf
       0.21677487 -0.022750918 0.38537583 -0.85358894
0002e0 8b 76 df bd 10 56 01 3f da e2 31 be c6 2b e9 3e
       -0.10911282 0.50521946 -0.17371693 0.4554121
0002f0 33 b4 c5 3d a8 1b 16 be be 9c 43 be 06 21 0d bc
       0.09653511 -0.14658988 -0.19102761 -0.00861383
000300 98 13 2d 3e 76 3c b4 3e 77 ad 5e 3e 96 a1 df be
       0.16902006 0.35202378 0.21745859 -0.43677968
000310 66 85 88 be 6a d0 0d 3e f6 08 10 bd 65 1c c2 bd
       -0.26664275 0.13849035 -0.035164796 -0.09478072
000320 16 fa b5 3e a6 55 17 3e 50 44 27 3e 9d 73 0b bf
       0.35542363 0.14778766 0.16334653 -0.54473287
000330 07 73 7c 3e 66 77 a2 3c c1 d2 e9 be e2 e3 d9 be
       0.24653254 0.019832324 -0.45668605 -0.42556673
000340 4b 1b f2 be ce e6 86 3b 51 b3 ca be e5 3e fe be
       -0.47286448 0.0041168695 -0.39589933 -0.4965736
000350 a9 0d 82 be 1f fd 26 be 6d 85 06 3f 44 64 ba 3e
       -0.25401047 -0.16307496 0.5254734 0.36404622
000360 f4 8a 24 3e 2a 50 50 3e d7 27 2c 3f 8c 7d 03 3f
       0.16068631 0.2034308 0.6724829 0.51363444
000370 d7 c7 cf 3e 30 2b 7a bb e5 2e 8e 3e cb 7d 40 3e
       0.40582153 -0.0038172714 0.27770153 0.18797986
000380 84 a9 1b 3e e9 c9 df 3e 64 39 26 be e2 65 f8 3d
       0.15201384 0.43708733 -0.1623283 0.121288076
000390 8e 50 db 3e 74 45 08 be 63 d9 7c be 5b 52 81 bf
       0.42834896 -0.13307744 -0.24692301 -1.0103258
0003a0 cc 9a 87 3e 1b ae c9 bd 8d 7c df be 72 83 53 3f
       0.26485288 -0.09847661 -0.43649712 0.82622445
0003b0 a5 96 98 bd 98 3e bf 3e bf 93 5c 3e 5e 96 b3 be
       -0.07450608 0.37352443 0.21540736 -0.3507566
0003c0 ab e3 c6 3e aa 1a ea 3d 1c b5 4f 3d 04 bd c8 3d
       0.38845572 0.11430867 0.05070983 0.09801677
0003d0 8a 09 81 3e 12 91 01 3e bd c6 cd 3e 2e 99 99 3c
       0.2520259 0.12652996 0.40190688 0.0187498
0003e0 c1 07 c8 3d 75 c5 66 3e b8 b1 2b bf e3 af 16 3e
       0.09767104 0.22536261 -0.6706805 0.14715533
0003f0 a9 20 d8 be 4c 91 e0 3e 2e b7 50 3e 4a fa 75 3e
       -0.42212418 0.43860853 0.20382378 0.24021259

fc1.bias f4 [64]
000000 81 d8 db 3e 7a f3 ca 3e 0d 93 e5 3e 01 b9 ad be
       0.42938617 0.39638883 0.44838753 -0.3393021
000010 7e 5c 08 3f f4 cf c5 3e dd a2 c2 be 33 9b 91 3e
       0.5326613 0.38635218 -0.3801488 0.2843872
000020 2f 7a 64 3f 4f b2 95 3e f6 9d 7a 3f f1 4b 77 3f
       0.8924894 0.292376 0.9789728 0.9660025
000030 0b a6 9a 3f 0a cd 72 3e 6b 43 d4 3e 49 f5 5e 3f
       1.2081922 0.23711029 0.41457686 0.87093025
000040 9d 8f da 3e 6e 80 26 3f b6 b6 92 be 0e 0c 3e bf
       0.42687693 0.6503972 -0.28655022 -0.74237144
000050 57 0b 81 be 11 76 17 bf b0 57 f9 3d 9d e6 2c 3f
       -0.25203964 -0.5916453 0.12174928 0.6753939
000060 0b 59 a8 be 7d c8 1b bf 0a 1f 04 3f 38 9d 0a bf
       -0.32880434 -0.60852796 0.5160986 -0.54146147
000070 b8 e5 07 3f 62 19 89 be c0 13 51 bd 7f 1e 8a 3f
       0.530849 -0.26777178 -0.051044226 1.0790557
000080 b0 25 a2 be b8 d9 c3 be b2 c7 44 bf 45 68 51 bf
       -0.31669378 -0.38252044 -0.7686721 -0.8179973
000090 f3 4c 8c 3f b7 c4 10 be f1 03 00 3e 41 c4 46 3d
       1.0960983 -0.14137541 0.12501504 0.048527006
0000a0 fd 2e 22 3f 7a 72 66 be dc f8 9d 3e be b8 ed 3e
       0.6335295 -0.22504607 0.30853927 0.4643001
0000b0 c5 b3 87 be ea ab 54 3f 09 54 0f bf ff 9d 18 3f
       -0.2650434 0.8307482 -0.559876 0.5961608
0000c0 50 90 63 bd fe 93 0d 3f 9c 95 a8 be 04 39 6e 3f
       -0.05555755 0.55303943 -0.32926643 0.9305575
0000d0 02 b2 a8 3e ac 51 4d be 8c 23 9c 3f e4 79 e7 be
       0.3294831 -0.20050687 1.2198348 -0.45210183
0000e0 e4 ec ad 3d f2 ca e8 3e 3f 7f 31 bf 16 9d 54 3f
       0.08492449 0.45467335 -0.6933479 0.83052194
0000f0 75 3b 94 3e 9d 22 bc be 2b aa 2e be e9 40 2f 3d
       0.28951612 -0.36745158 -0.17057101 0.042786513

fc2.weight f4 [64, 64]
000000 51 01 bc 3c 9e a2 74 3e 54 10 8d bc 11 51 a2 bd
       0.022949846 0.23890159 -0.0172197 -0.079256184
000010 27 a5 99 3d f3 c5 77 bd dd df f3 3c 6a 10 ab bd
       0.075022034 -0.060491513 0.029769832 -0.0835274
000020 6e 87 2d 3e cf d8 6c 3d 57 35 2c 3e ea 97 43 3e
       0.16946194 0.057823952 0.16817223 0.1910092
000030 55 2b 89 3e 43 f7 4c be 14 2d a5 ba 72 7f 3e 3e
       0.26790872 -0.20016198 -0.0012601935 0.18603304
000040 c9 75 0c 3d 78 30 97 bc 6b 6a 22 bd 43 e5 59 3c
       0.034292016 -0.018455729 -0.03965227 0.013299289
000050 d3 18 61 bd 4b 5b d6 3d be 22 d1 3d 3a 1d c8 bd
       -0.054955315 0.104666315 0.10211705 -0.097711995
000060 8b 93 a9 3d 91 ca a3 3e 8b 4f 33 3e a6 04 d1 3d
       0.08280095 0.31990483 0.17510812 0.10205965
000070 91 53 46 be 38 e6 ee 3c 78 87 fe 3d b7 bf ad bd
       -0.19367816 0.029162511 0.12428182 -0.08483832
000080 87 81 bd bd ca 19 11 3e 0e 76 4a be 79 65 b6 bd
       -0.09253221 0.14169994 -0.19771597 -0.08906073
000090 90 4f a4 bd ed 3c 71 3c 1b 0c 38 be 26 f9 75 3c
       -0.08022988 0.0147239985 -0.17973368 0.015013015
0000a0 f6 d1 81 3d 30 13 3f 3c e6 d3 56 3e 7c 27 1f bd
       0.06338875 0.0116622895 0.2097927 -0.038856015
0000b0 5f 3b 9a 3e b8 18 84 3d 6b 31 c7 bd c4 9e f6 bc
       0.30123422 0.06450027 -0.097262226 -0.030105002
0000c0 09 67 d5 3d b1 bd 01 be dd c5 8d bd e1 a8 fe 3d
       0.10420043 -0.12670018 -0.06922505 0.12434555
0000d0 22 a8 9c 3e 99 4e 6c 3d b8 51 87 3c 68 73 d5 bd
       0.30597025 0.057692144 0.016518459 -0.104224026
0000e0 ee 4a df 3c fa 2c 5f 3d d6 10 23 be 79 b9 a4 3d
       0.027257409 0.054486252 -0.15924391 0.080431886
0000f0 d5 12 d1 3d c7 1d e5 3d 03 91 1f 3d f0 a2 3d bd
       0.1020867 0.1118732 0.038956653 -0.046297967
000100 b4 86 1c 3d 09 6d e1 be 22 49 d2 3d f8 83 e2 bd
       0.0382144 -0.440285 0.10267855 -0.11060327
000110 ae 67 cf bd 27 20 92 3e 2f 41 2a 3e be b8 27 3e
       -0.10127197 0.28540155 0.16626428 0.16379067
000120 0f 84 59 3d 0d 9e 35 3e 0d 99 c9 3c 22 ee 87 3e
       0.053104457 0.17736073 0.024609113 0.26548868
000130 e4 62 75 3e f2 d6 01 3e 05 9e 91 bd 47 a4 f4 3d
       0.23963505 0.12679651 -0.07110218 0.11945396
000140 41 84 26 be a1 8a 6e 3d 9d c0 e5 39 b9 71 eb bd
       -0.16261388 0.058237676 0.00043821792 -0.114963
000150 ad cf c2 bd bb e5 db 3c e7 5e bb bd ca b6 0d 3f
       -0.09512267 0.026842942 -0.091489606 0.5535704
000160 bc ec e0 3d 4f 7b cc be db 7c 55 39 3c 4f f0 3d
       0.109826535 -0.39937827 0.00020359775 0.11733863
000170 a5 9c 8d 3e ee 6f 96 bd 5a b9 d5 3d 8e c2 09 3e
       0.27658573 -0.07345568 0.10435744 0.13453123
000180 ad 2d 9e 3d e6 d6 13 3d 03 cf 9e 3c e3 f4 a9 bd
       0.07723556 0.036093615 0.01938582 -0.082986616
000190 f0 ea 6a 3f e3 aa e9 3c 2d 1f a9 3e d9 a8 9f 3d
       0.91764736 0.028523868 0.33031598 0.07795877
0001a0 11 d7 76 bd a0 34 6d bd d4 08 fe bd ef ca 0d 3e
       -0.060263697 -0.057911515 -0.124040276 0.13846944
0001b0 be 6b 89 3b 19 c9 a6 3d 02 37 a9 bd cd 55 bd 3e
       0.004193752 0.08143825 -0.08262445 0.36979523
0001c0 a0 76 e2 bb fd 75 81 3e 5b c1 e0 3d 97 11 64 bd
       -0.006911114 0.2528533 0.1097438 -0.055680837
0001d0 4b 7a 8f bc 87 1e 09 be 19 32 d7 bc 3c 88 6e 3d
       -0.017514369 -0.13390552 -0.026269006 0.058235392
0001e0 f6 62 e9 bd c1 49 32 bd dc be 30 bc 8d 7d 94 3d
       -0.113958284 -0.04352737 -0.010787692 0.072505094
0001f0 1f 36 93 3d f3 bc aa bd db 4b ba 3c b6 6e 48 be
       0.07188057 -0.083368205 0.022741249 -0.19573483
000200 41 77 95 bd 8b bd c3 3d fa 28 92 3d 7c 3e f9 bd
       -0.072981365 0.09557637 0.07136722 -0.12170121
000210 1d b5 81 bc 0d fd 22 bd be 50 c8 3d 25 5f 46 3d
       -0.015833432 -0.03979211 0.09781025 0.04843058
000220 1b 5d 97 bd c3 11 c8 bd 96 8b f1 bd fc 04 ba 3d
       -0.07390805 -0.09769013 -0.11794202 0.09082982
000230 71 b2 3b bd 7f 36 05 bd 7b 15 2a 3c fa d8 ba 3c
       -0.04582447 -0.032522675 0.010381098 0.02280854
000240 fe 2c 14 3b 63 7a 53 bd ba 55 e2 bd 72 9d e5 ba
       0.0022609825 -0.05163039 -0.11051507 -0.0017518236
000250 9f 55 00 be cc 02 f9 bd 40 12 c2 3c 72 08 a7 bd
       -0.12532662 -0.121587366 0.023690343 -0.08155908
000260 3f 6b 5e bd 70 9a 69 bd 2b 57 6d 3c 20 d3 f7 bc
       -0.054301497 -0.05703205 0.0144861145 -0.03025204
000270 4e 6b 2a bd 58 a5 75 bd 16 80 dd bd 29 32 ca 3b
       -0.04160624 -0.059972137 -0.10815446 0.0061705303
000280 3f 0a e3 3d 0c b2 9e bc ee 9f 02 3c 54 c0 57 bd
       0.11085939 -0.019372009 0.0079727005 -0.052673653
000290 ce 3c 95 bd 60 73 81 3c 90 92 e7 bd 28 5c c5 bb
       -0.07286988 0.015802085 -0.113072515 -0.006022949
0002a0 2c 5d d5 3d da 0e 50 bd 00 a5 94 3b 14 99 f6 bd
       0.10418162 -0.050795414 0.004536271 -0.12040916
0002b0 00 e9 20 bd b9 96 80 3d 72 a3 6e bd 63 78 9b bd
       -0.039284706 0.06278748 -0.058261342 -0.07591321
0002c0 78 df 4f bd 76 2b 67 3d 8b 97 9a 3c b9 ca 11 bd
       -0.050750226 0.056437932 0.01887109 -0.035593722
0002d0 20 c3 dd 3c 96 d0 f0 bd 27 44 da 3d 57 92 b2 bd
       0.027070582 -0.117585346 0.1065753 -0.08719318
0002e0 a9 32 f2 bd c2 62 d6 bd 4a 57 43 bc 4f f5 f0 3d
       -0.11826069 -0.10468055 -0.011922667 0.11765539
0002f0 a3 0e a7 3b 42 88 8b bd e0 54 01 bd 4a 41 9b bd
       0.0050981804 -0.068130985 -0.031575084 -0.07580812
000300 47 a9 fc 3c 54 87 28 be 84 68 26 3e 2d 5e 59 3d
       0.030842436 -0.16457874 0.16250807 0.05306833
000310 31 33 bb bd 90 58 6e 3e 3c ab 43 bd 62 0a ba 3d
       -0.09140623 0.23275971 -0.047770724 0.090840116
000320 4b 13 a7 bd cd f1 b4 3d 78 c2 69 3d 57 23 28 3d
       -0.08157977 0.08835182 0.057070225 0.041049328
000330 24 5b c9 bc a2 41 c0 bd 96 74 63 3d 81 43 2c 3c
       -0.024579592 -0.093875185 0.055531107 0.010514141
000340 99 e1 c3 bd e3 1b a0 3d 13 eb 01 3e b4 ce b9 3d
       -0.09564514 0.07817819 0.1268733 0.090726286
000350 8a 98 94 bd 0f 4c 96 bd ad 45 c2 be 77 65 87 3e
       -0.07255657 -0.07338726 -0.37943783 0.264446
000360 06 0c b9 3c a3 a8 a3 be 7c 77 ba 3d 34 bf 6b 3d
       0.022588741 -0.31964597 0.09104821 0.057555392
000370 fd 1a cb 3e 9a e4 91 3d aa be ad bd 7f 5f e8 3d
       0.39669028 0.071236804 -0.08483632 0.113463394
000380 03 6c 8e 3d 53 88 b3 bd 8e 3b 32 3e c1 ad 44 3e
       0.06954195 -0.08766236 0.17405531 0.19206907
000390 10 a2 e9 3e 6d 83 e4 3d 7e bf 5f bd 84 a5 d7 3d
       0.45631456 0.1115788 -0.05462598 0.105296165
0003a0 cd c9 9c be 56 ac 27 bd a0 76 c9 bd c0 87 02 bd
       -0.30622712 -0.040935837 -0.09837079 -0.031867743
0003b0 25 21 24 bd de cc cd 3c 18 cb ed bd 87 c2 f2 3e
       -0.04007067 0.025122102 -0.11611003 0.47414038
0003c0 8f 9f 07 be 6a bd 91 bd a3 5d 91 bc 9e 5e 88 3d
       -0.1324446 -0.07116206 -0.017744845 0.06658672
0003d0 33 7a 8d bd 3f 2a f4 3d a5 7b 56 3d f5 69 c6 3d
       -0.06908073 0.1192212 0.05236401 0.096881784
0003e0 04 d2 3b bd 77 6f a7 bd b2 3e 8a 3d bb 9e 02 be
       -0.045854583 -0.08175557 0.067502394 -0.12755863
0003f0 c1 71 67 bd 61 9b 6b 38 5a 3c f8 3d 12 42 c4 be
       -0.05650497 5.6173074e-05 0.12120886 -0.38331658

fc2.bias f4 [64]
000000 e5 5f df 3e e6 ae 7d 3e ad 1b 56 bc 9e f2 86 bd
       0.4362785 0.2477375 -0.013068122 -0.06589244
000010 68 94 03 be 92 ac 28 3d 6e e5 bb be 4d cb 55 3f
       -0.12849581 0.0411802 -0.36698478 0.8351334
000020 37 52 d1 3e 7f a6 07 3f fd 13 5b 3e 37 e1 7a 3e
       0.40883037 0.5298843 0.21394344 0.24499975
000030 02 0a 21 3f e1 d1 97 bd 72 df 36 bf 45 8b 38 3c
       0.62905896 -0.07413078 -0.714347 0.011263673
000040 ef fb 45 be da af 88 be 6c 5c 78 3e e7 6d 2d be
       -0.19334386 -0.26696664 0.24254006 -0.16936456
000050 f8 81 99 3d 0e af a7 be bf 80 1f 3f 32 b6 be 3e
       0.07495493 -0.32750744 0.62305826 0.3724838
000060 9c 77 6b be a5 78 bb be cf 4c 5b 3e 57 bf c9 be
       -0.22994846 -0.36615482 0.21416019 -0.39403793
000070 b4 46 c3 be 57 32 f9 3e c9 a8 dd 3d 77 95 80 3d
       -0.3813988 0.4867122 0.10823209 0.06278508
000080 06 19 2d 3f a6 48 de be b6 13 86 be 8f a3 37 3d
       0.6761631 -0.434148 -0.26186913 0.044833716
000090 24 ef 59 bf 91 60 a1 bd dc 30 37 bc 28 9c 25 3f
       -0.85130525 -0.07879747 -0.011181083 0.646914
0000a0 62 19 5a be 7e 57 32 3f 0d 93 32 3d 3b 3d 15 3d
       -0.21298745 0.6966475 0.04359727 0.036435347
0000b0 b3 55 9c be 8f 35 cc 3e 69 ea 8e bd fd 77 2f 3e
       -0.30534133 0.39884612 -0.06978304 0.17135616
0000c0 4f 54 ea 3d 98 a0 25 3e 86 75 af be 75 53 17 3f
       0.11441862 0.16174543 -0.3426935 0.5911172
0000d0 09 31 c5 be d9 1d 05 bf 19 05 31 3d 6d 5e d6 3e
       -0.38513973 -0.5199867 0.043217752 0.41868916
0000e0 5f 24 40 bf f0 7b 18 bf b3 21 c1 3e d1 94 ed be
       -0.750555 -0.59564114 0.37721023 -0.464026
0000f0 80 81 ea 3e 16 47 96 3e 48 b1 2a 3d ae 2c a6 bd
       0.45801926 0.2935111 0.041672975 -0.08113991

fc3.weight f4 [2, 64]
000000 ae 1a 18 bd d2 1f cd 3e 04 9b 97 3d e4 7b 36 3e
       -0.03713482 0.4006334 0.07402614 0.17820698
000010 84 5c 42 3d bc 19 80 3d 6e db 14 be 7d 00 9a bc
       0.04745151 0.062549084 -0.14536831 -0.018799061
000020 e8 59 1e 3e ed 61 ff 3e c3 b9 d5 bd 4e 41 20 be
       0.15463984 0.498794 -0.10435822 -0.15649912
000030 e3 19 80 3e 09 d7 66 3c ee a5 e6 bd 00 de 7f be
       0.2501975 0.014089354 -0.11262117 -0.2498703
000040 04 38 77 3e 89 ef f9 3e cf 18 a7 3e 44 6f d3 3d
       0.24142462 0.48815563 0.32636115 0.103239566
000050 9c a7 91 3e 95 07 6a 3e 85 0d 49 3e ac 5e 3e 3e
       0.28448188 0.22854455 0.19634064 0.18590802
000060 44 a4 58 3e a9 84 a0 be 19 9f af 3e b7 6b 93 be
       0.21156412 -0.31351212 0.3430107 -0.28793117
000070 fa d4 b9 3d 02 dc cc bd dc 71 ef 3e 43 b3 40 bd
       0.09073825 -0.10002901 0.46766555 -0.047045957
000080 40 ab a1 bd 01 f1 02 be 0a 4a 3f be a1 32 e6 3d
       -0.078939915 -0.12787248 -0.18680587 0.112401254
000090 61 f4 40 be a6 1f 84 3d 05 ef 9c be 79 ff 80 3e
       -0.18843223 0.06451349 -0.30651107 0.2519491
0000a0 ba f1 f3 bc 23 84 50 be ee 28 00 bd be bc 60 3e
       -0.02977835 -0.20362906 -0.031289034 0.21947
0000b0 55 70 1c 3e 4e 26 54 3e 47 19 29 3f 7d 72 c7 bd
       0.15277226 0.20717737 0.66054195 -0.09738634
0000c0 bb e8 27 3e ee ce 62 3e 1a 7c 8e bd ba b5 94 bc
       0.16397373 0.2214925 -0.06957264 -0.01815306
0000d0 f3 c1 e4 bc 5f 63 8e bd 91 87 ad 3e 7e d2 31 be
       -0.027924513 -0.06952547 0.3389249 -0.17365453
0000e0 47 76 31 be e5 7f 3c 3d 31 2b 3d be 6f b9 ef bd
       -0.17330275 0.046020407 -0.18473507 -0.117052905
0000f0 21 4b 28 bd a6 a9 4e 3e 7d 02 9e be 75 35 c6 3c
       -0.041087274 0.20181903 -0.30861273 0.024195412
000100 75 39 55 3e 68 c1 21 3e cb a0 57 bd b7 ba 59 be
       0.208227 0.15796435 -0.05264358 -0.21262632
000110 2c 1b 55 3d b0 17 e7 bd 7f 81 aa bd 36 d5 82 3e
       0.052027866 -0.11283815 -0.08325481 0.25553292
000120 a4 e0 5e 3e 14 4e 84 3c 70 e9 ab 3d 5a e6 14 3e
       0.21765381 0.016150512 0.08394134 0.14540997
000130 6d 76 5d 3e 25 52 aa 3d a3 98 8c be 70 ae e6 bd
       0.21627207 0.08316449 -0.27460203 -0.1126374
000140 02 5f 2b 3e b9 ae b6 bc 70 6f ea be 53 6f 95 bc
       0.16735461 -0.022300111 -0.45788145 -0.01824156
000150 8f 01 20 be d0 01 c3 be 84 a6 55 3e df 87 78 3d
       -0.15625595 -0.3808732 0.20864302 0.06067645
000160 a7 e5 b2 bd 4c 56 66 be eb d9 2d be 6d c6 77 be
       -0.08735209 -0.22493857 -0.1697766 -0.24196787
000170 01 fc 15 bf e6 79 4d 3e 7f 8e 19 bd 04 3a 6c bc
       -0.5858765 0.20066032 -0.03748941 -0.014418129
000180 42 52 3d 3e e8 ba a7 bd 43 82 77 bd 94 a6 14 be
       0.1848841 -0.081899464 -0.06042696 -0.1451667
000190 b0 61 ae be de fd c5 3d 90 dd c0 3e 8f 80 89 3e
       -0.34058905 0.09667562 0.3766904 0.26855895
0001a0 83 83 05 3e 28 39 93 3e ae f5 96 3d 39 18 9a 3e
       0.13038449 0.28754544 0.073710784 0.30096605
0001b0 87 fd 33 be 9f 1f 8c 3e 3a 86 f2 bb b5 7a 88 3d
       -0.17577182 0.27367875 -0.007401255 0.066640295
0001c0 ad b7 3d 3c 46 73 14 3e b1 6e 78 bc 78 c7 f9 3d
       0.011579436 0.14497098 -0.01516311 0.12196249
0001d0 48 00 08 3c c0 e9 ff bc d3 79 e9 bd 44 36 31 3e
       0.008300848 -0.03123939 -0.11400189 0.17305857
0001e0 05 ac 6d be 0c e6 bb be fe cf 1f 3e a8 db a5 bd
       -0.23210151 -0.3669895 0.15606686 -0.08098537
0001f0 12 5f 02 3e 80 a8 95 3e 83 eb 09 bf 06 f7 49 3e
       0.12731579 0.29230118 -0.5387499 0.19723138

fc3.bias f4 [2]
000000 a1 b9 b7 bc 1e 20 11 3f
       -0.022427382 0.5668963
