sat-code/models/maddpg_20250712-135635/checkpoint_300/actor_agent_0.pth (torch, 21533 bytes, 6 tensors)

fc1.weight f4 [64, 4]
000000 81 8c cd 3e 84 15 88 bd 61 e2 8c be b6 ed b0 bc
       0.40146258 -0.06644729 -0.27516463 -0.021597724
000010 31 de 1e 3e cd 5f 26 3d 50 da 12 3f 36 c5 a4 3e
       0.15514447 0.040618706 0.5736437 0.3218171
000020 7c e2 d2 3e 6e 22 a7 3e 0e 2e 29 3f a1 f0 07 3f
       0.4118842 0.32643455 0.660859 0.53101546
000030 e8 85 cb 3e aa b3 51 3e 0f 59 8a 3e 4e 07 0e 3f
       0.397506 0.20478693 0.2702107 0.55479896
000040 94 ea 34 be 82 8a 57 3e 49 51 dc 3e 01 fc 10 3f
       -0.1766761 0.2104893 0.43030766 0.5663453
000050 e2 fc 17 3e c2 fe 2b be c0 00 fc be 03 56 88 3e
       0.14842561 -0.16796401 -0.49219322 0.26628122
000060 7f 62 91 3d 24 bc c0 be ca 69 d8 be 36 41 f6 be
       0.07098865 -0.3764354 -0.4226821 -0.48096627
000070 dc 98 57 be ce 24 80 be f8 23 72 3e 7a 5a cd 3e
       -0.21054405 -0.2502808 0.23646533 0.4010809
000080 7f 5f f6 3d 65 bb c0 be 2c 52 17 bf c3 00 3a 3e
       0.12029933 -0.3764297 -0.5910976 0.18164353
000090 17 e0 ac 3d e7 20 01 3e 6f 36 65 bd b3 e8 8c 3c
       0.08441179 0.12610207 -0.055960115 0.017200803
0000a0 71 71 05 bd 88 f3 4c 3e 57 44 03 bf ea 75 94 3e
       -0.03257889 0.20014775 -0.51276153 0.2899621
0000b0 d2 4a a1 3e 3c 59 5d bc fe e9 f1 be 79 bf b0 3d
       0.31502396 -0.013510045 -0.47248834 0.086302705
0000c0 e6 56 17 be bb 7d 92 3e dc 1c 92 3e e9 97 f4 be
       -0.14779243 0.2861155 0.28537643 -0.47772148
0000d0 1f 87 04 3e c4 62 69 be a4 78 06 3f 12 54 85 be
       0.1294217 -0.22791582 0.52527833 -0.26040703
0000e0 f8 3c 53 bd d3 7c f2 3d 4e ee 77 3e 1b 2f dc 3e
       -0.051571816 0.118402146 0.24212 0.4300469
0000f0 e5 8d 08 be dc 64 56 3e 70 ee c8 be 22 55 cf 3e
       -0.13335378 0.20936912 -0.39244413 0.4049464
000100 fa ea bd be d1 d2 a5 3d b7 c6 5f 3d e3 b3 96 be
       -0.37093335 0.08096851 0.05463287 -0.29434118
000110 9a 03 90 be 8c 69 50 be 80 14 e1 3b a2 38 8d 3e
       -0.28127748 -0.20352763 0.006868899 0.2758227
000120 a2 b7 61 bc 8d 10 0a 3d d6 55 de 3d db e9 08 be
       -0.013776692 0.03370719 0.10856216 -0.13370459
000130 9d e3 01 3e ec c2 48 bc f4 28 fa 3e 73 ab d8 bd
       0.12684484 -0.012253504 0.4885937 -0.10579576
000140 ce 1d 08 be 21 67 68 3e 04 e6 44 bf 02 07 c5 be
       -0.1329262 0.2269559 -0.76913476 -0.3848191
000150 a6 3b 92 be f2 ba 57 3e 51 61 87 3d b7 ca fb be
       -0.28561133 0.21067408 0.066103585 -0.49178097
000160 f7 36 45 be 42 64 74 3e 11 29 39 bd 37 1a 0a bf
       -0.19259249 0.2386637 -0.04520518 -0.5394625
000170 1e 9d 1e 3e 1a 6c 34 be 53 10 98 3e 44 86 b8 3e
       0.15489623 -0.17619362 0.29699954 0.36039937
000180 68 31 d7 3e 82 5b 76 be ec ef 7d 3e c6 1f 69 be
       0.4202988 -0.24058345 0.24798554 -0.22766027
000190 22 06 ef 3d ee c9 96 3e a3 c3 6e 3e b5 a5 1c bf
       0.116710916 0.29450935 0.23316817 -0.6119035
0001a0 0d e9 17 3d b7 64 ff be 3e 02 05 3f de 68 28 be
       0.03708749 -0.49881527 0.51956546 -0.16446254
0001b0 79 33 e1 3c 80 7f 49 3e 91 78 27 bf c9 ac fb be
       0.027490364 0.19677544 -0.65418345 -0.49155262
0001c0 2c ae a1 be 1c bb 8a be 0c 4d b9 3e c0 8d d0 3e
       -0.31578195 -0.27095878 0.36191595 0.40733147
0001d0 b7 5d 18 be 8d 76 20 bb 2c 17 ee 3e 1b a7 d9 be
       -0.148795 -0.0024484724 0.46502054 -0.42510304
0001e0 99 32 6f 3e ff 38 32 3e d6 1c b8 3e f6 80 b3 be
       0.23359145 0.17404555 0.359595 -0.35059327
0001f0 12 32 86 bd 99 0d ff 3e 88 aa 18 bf f1 fb ee 3e
       -0.06552519 0.49815062 -0.5963521 0.4667659
000200 7a 05 9d 3e c3 b7 a5 3e 32 a1 37 3e 74 bc 92 3e
       0.3066824 0.32366762 0.17932585 0.28659403
000210 51 bd ab be 15 74 01 3c b3 77 2b bf dd 50 86 be
       -0.33542874 0.007901211 -0.6697952 -0.2623357
000220 4b 3c dd 3e bd a3 16 be 6f fe 28 bf 24 29 30 3e
       0.43210062 -0.14710899 -0.66013235 0.17203194
000230 42 4c 8c 3d 34 d6 a9 be 5b 8d ac be 8e ef 96 be
       0.068504825 -0.33171237 -0.33701596 -0.2947964
000240 cd 87 08 3e 2f d9 9a 3e 3e 09 15 bf 29 b1 14 3d
       0.13333054 0.30243823 -0.5821723 0.036301766
000250 da 5d cd 3e ef a8 e0 3e 73 3a b8 3e b3 d3 81 3e
       0.40110666 0.43878886 0.35982093 0.25356826
000260 d2 f7 89 bc 80 e7 93 bc 7a 14 28 3f 43 00 83 be
       -0.016841803 -0.018054724 0.65656245 -0.25586137
000270 1d 3c 01 3f 9a f4 56 be dd 21 a6 bd 50 18 f1 bd
       0.5048235 -0.20991746 -0.08111928 -0.11772215
000280 af 75 0c be 9e 1d a7 ba db e0 03 bf 14 b9 f8 3e
       -0.13716768 -0.0012749915 -0.5151498 0.48578703
000290 ee 24 5b bc 7d d8 03 3f 67 63 80 be f7 60 10 3f
       -0.013375504 0.5150221 -0.25075838 0.56397957
0002a0 ba e7 4b 3e 48 02 53 3e 4a 2c 3a be 31 a4 18 3f
       0.19912615 0.20606339 -0.18180957 0.59625536
0002b0 24 14 85 3e c8 7a 94 be 98 8a fb be 0e ea c9 3e
       0.2599193 -0.28999925 -0.49129176 0.39436382
0002c0 1d 9e c3 3e 07 8b 52 bd 61 e7 84 bc 9f d0 79 be
       0.38206568 -0.051402118 -0.016223611 -0.24395989
0002d0 53 0e 96 3e 97 e6 d9 be 02 01 be be 6e 75 24 bf
       0.29307804 -0.4255874 -0.37110144 -0.64241683
0002e0 8e d9 61 3e d5 b6 d1 3d f0 9b 1e bc cc c0 db be
       0.22055647 0.102399506 -0.009680733 -0.4292053
0002f0 56 34 14 3e 2c e7 68 3d b5 04 34 3f 52 62 ea 3e
       0.1447309 0.056861088 0.7031968 0.45778137
000300 be a3 e2 3e c3 7f 29 bd bd 1b 47 bf 4c 25 8a 3e
       0.4426555 -0.04138161 -0.777767 0.2698158
000310 9a e8 f1 3c 45 2a a8 3d 3f 20 14 3f 45 4b 20 3f
       0.029529858 0.08211187 0.57861704 0.6261485
000320 34 ca 94 3d d3 c8 de bd fb 54 c4 be c5 a3 b9 3e
       0.0726513 -0.10878148 -0.38346085 0.3625776
000330 a3 e7 03 be ef 2d 25 3e cf 7c b5 be e9 81 aa be
       -0.12881331 0.16130804 -0.35446784 -0.3330224
000340 55 f6 b2 3e d1 0c d4 3e f6 be 09 3e 00 4e 2b bf
       0.3495356 0.41416028 0.13451752 -0.66915894
000350 8e 30 74 3e 8e 37 50 3c b1 c1 2e 3e 77 18 09 3f
       0.23846647 0.012708558 0.17066075 0.53552955
000360 04 d2 ab be 4c 3c c3 3e 05 1a c7 be 3d 16 2d 3e
       -0.33558667 0.3813194 -0.3888704 0.16903014
000370 ec 69 79 3e 04 e9 4d 3e 39 9b 13 bf e8 61 0d bd
       0.24356812 0.2010842 -0.57658726 -0.0345172
000380 89 3a cc 3e 4f 49 a5 be bb fe 37 3f c0 05 09 bf
       0.3988841 -0.32282493 0.7187306 -0.535244
000390 80 35 82 be 50 0e 89 3e d3 19 26 bf 12 bf ac 3e
       -0.25431442 0.26768732 -0.64883155 0.33739525
0003a0 c3 ea f9 bb c8 e7 c6 3d c1 47 e0 be 70 d8 76 be
       -0.0076268627 0.097121775 -0.43804744 -0.24106002
0003b0 48 f4 ff bd 80 68 b8 bd cc af 4a 3e b0 87 71 3e
       -0.12497765 -0.09004307 0.19793624 0.23586917
0003c0 6b eb 83 be 19 25 a7 3d f9 5d 90 3e bf 23 b5 3e
       -0.25765547 0.08161373 0.28196695 0.35378835
0003d0 13 48 ff 3e 11 e7 bc bd 48 81 4a be bc 7c 05 bf
       0.49859676 -0.0922376 -0.1977588 -0.52143455
0003e0 6a 33 63 3e 76 d8 5b 3e 88 fd d1 3e 8d cd d4 be
       0.22187582 0.21469292 0.41013741 -0.41563073
0003f0 24 8e 07 bf 26 32 13 bf 38 f9 ab bd b4 e8 ad be
       -0.52951264 -0.57498395 -0.08397144 -0.339666

fc1.bias f4 [64]
000000 61 26 49 3f 15 c1 6b be a5 bf 03 bd b1 36 b3 be
       0.78574187 -0.23022874 -0.03216519 -0.35002664
000010 82 fe 8f 3e 7a db ae bd ce 82 a2 be e8 99 87 bd
       0.28123862 -0.085379556 -0.3174042 -0.06621152
000020 ef 6c be 3e ae 28 30 3f 8a 2d c4 be 57 c7 7f 3f
       0.37192485 0.6881207 -0.38315994 0.99913543
000030 62 df ad be a6 e3 be 3d 50 37 fa 3e 42 7d 4b bd
       -0.3395949 0.09320764 0.48870325 -0.049680002
000040 70 9f 70 3f 2c e2 9e be a6 9b 87 3f 4e 00 69 be
       0.9399328 -0.3103193 1.0594375 -0.22754022
000050 d5 7c d2 be 65 35 39 bf f4 5a 8e 3d 5a 10 d1 be
       -0.41110864 -0.723471 0.06950942 -0.40832788
000060 91 d9 19 bf 22 7c ca be 94 fb a4 3e 96 38 7c 3e
       -0.60097605 -0.3954783 0.3222319 0.24630961
000070 b8 b6 da bd c3 11 45 3e 22 e1 ca 3e 02 d2 c7 be
       -0.10679382 0.19245057 0.39624888 -0.3902741
000080 bd 33 90 3e 29 2c e7 bd ea a4 67 3f c7 55 1e bf
       0.28164473 -0.1128772 0.90486014 -0.61849636
000090 e1 0e 89 3f c4 f3 21 3e 1b b6 16 3f 57 f8 76 3f
       1.0707666 0.15815645 0.5887162 0.96472687
0000a0 36 8c 07 3f da fe 0c bf dc 77 04 3d 71 6b bf 3e
       0.5294832 -0.5507637 0.03234087 0.3738666
0000b0 80 50 28 3f d3 8b 19 3f 50 b9 10 3f 93 c8 23 bf
       0.65747833 0.5997898 0.56532764 -0.63977927
0000c0 cd 3e 69 3f ae e4 20 be 47 fa 66 3e bc 2f cd 3e
       0.9111145 -0.15712234 0.2255641 0.4007548
0000d0 12 e7 10 3f cb 25 3e be 9e 02 3a 3f bb a9 cc be
       0.56602585 -0.18569104 0.72660244 -0.39973244
0000e0 d9 81 00 3d c1 10 f9 3e e2 61 1c bf 24 8a 5a be
       0.031373832 0.48645595 -0.6108686 -0.21341759
0000f0 59 10 ff 3e b6 d2 93 be df 69 cd 3d 08 4e 61 3e
       0.4981716 -0.28871697 0.10029959 0.22002423

fc2.weight f4 [64, 64]
000000 31 02 cd 3b 9d 12 4d 3d 17 7f e4 3d e9 dd e0 bd
       0.0062563648 0.05006658 0.11157053 -0.10979826
000010 e1 e3 0b 3e 66 67 28 be 84 b7 b7 3a 38 67 a3 3c
       0.13661148 -0.16445693 0.0014016484 0.01994668
000020 fd d9 ab 3d 9e 06 68 3d c8 04 e4 bc 65 44 c1 3d
       0.08391187 0.056646936 -0.027834311 0.09436873
000030 c2 3f 18 be 26 0f 35 3e f3 96 f7 3e ff a0 2e be
       -0.14868072 0.1768156 0.48357353 -0.17053603
000040 e7 95 87 3e ea 39 83 bd 6a 69 e4 3e a5 ec 42 3e
       0.26481554 -0.064075306 0.44611675 0.19035585
000050 89 23 bc 3d bd 54 bc bd ad 22 73 bd 39 cc 55 bd
       0.09186465 -0.0919585 -0.05935924 -0.052196715
000060 af ff 3a 3e 10 01 11 be ed e4 c8 bd dd f6 d3 3d
       0.18261598 -0.14160562 -0.09809289 0.1034982
000070 5c db 06 bd b3 93 6b 3e 4e 63 67 bd 16 19 9e bd
       -0.03292404 0.23005562 -0.05649119 -0.077196285
000080 6f 81 15 ba be f4 3a bb 18 dd 80 3d 72 04 d6 3d
       -0.0005703186 -0.0028527225 0.0629217 0.104500666
000090 20 d8 f1 3d 10 b3 a3 bd ae 1e 4e 3e ac c3 e0 3d
       0.11808801 -0.07993138 0.20128891 0.109748214
0000a0 0b 5a 04 ba fe f8 c0 bc 64 8c db bd f3 da 5e bb
       -0.0005048818 -0.023556229 -0.10720137 -0.0034005016
0000b0 9f c5 3f 3e 55 0b 38 3d 49 1c 93 3d 54 43 d6 3d
       0.1872773 0.044932682 0.07183129 0.104620606
0000c0 26 67 19 3e f6 bc 26 bc 07 94 6f 3d ac 1e 75 bd
       0.14980754 -0.010176888 0.05849078 -0.059843704
0000d0 cf 54 55 3c 8f fc 11 bb 78 27 21 bd 35 d2 90 bd
       0.013020708 -0.002227578 -0.03934428 -0.07071344
0000e0 9c 7b a1 3e cb bc 97 3d 6f 85 ce bd 54 67 bf bd
       0.3153962 0.07409056 -0.10084044 -0.0934588
0000f0 54 a6 c0 3e 99 f7 d9 3d 5d 8c db 3c 52 1a 19 3e
       0.37626898 0.10642929 0.026800329 0.14951447
000100 af 89 c4 bd 7c aa b9 bb f3 09 36 bd 17 68 bc bc
       -0.095965736 -0.0056660753 -0.044443082 -0.022998853
000110 1f 6a e7 bd d3 11 0e 3e 44 86 a3 3d 7c dc 66 bd
       -0.11299538 0.13873987 0.079845935 -0.056362614
000120 e3 90 3c 3e dd f3 88 bd 2d c4 35 3e 6e 8d 35 3b
       0.18414645 -0.06687138 0.17750616 0.0027702707
000130 3f ec 42 3e 03 1a 46 be e7 e9 ff bd bf 34 47 3e
       0.19035433 -0.1934586 -0.12495785 0.19453715
000140 6d cf 6e bd c0 c4 64 3b c0 0a fd bd 15 e7 42 3c
       -0.058303285 0.0034907311 -0.12355566 0.011895915
000150 a5 71 81 3d 72 dd bc 3e 5b 5f 8f 3d 64 6c f6 3d
       0.06320504 0.368877 0.070006095 0.120323926
000160 61 14 97 bd de 12 00 3e cc 0c 63 3d 29 a4 0a bd
       -0.07376934 0.12507197 0.055432126 -0.03384796
000170 80 12 05 3b c4 40 95 be 0f 8d ec 3d bb 13 68 bd
       0.0020305216 -0.29150975 0.11550342 -0.05665944
000180 b9 ef 81 3d 64 aa 32 3e f2 e3 7a bd bb de d6 bb
       0.063445516 0.17447811 -0.06125254 -0.0065573133
000190 5f f3 d1 3d ff c7 26 bd 43 33 16 be 5e e4 4c 3c
       0.102514975 -0.040718075 -0.14667992 0.012505619
0001a0 22 af ec 3d 55 31 dc 3d 0c 56 e3 bd 6b 0f 23 3e
       0.115568414 0.10751597 -0.111003965 0.1592385
0001b0 c2 da 24 3d b0 1f 58 bd 44 8c 1d bc 92 0d 6a bd
       0.040247686 -0.052764595 -0.009615961 -0.057141848
0001c0 2c 86 9e bd b0 73 9f 3c d2 3d 82 3e a4 a9 8e 3d
       -0.07740435 0.019464344 0.2543779 0.0696595
0001d0 f8 2f fc 3d 50 45 1d bd 7f df 1e 3d 7a 0b 8e 3d
       0.12313837 -0.03839618 0.03878736 0.06935783
0001e0 64 a9 1a bc 9b 52 47 3d 9e 0b 1b 3e 58 e0 8d 3d
       -0.0094398 0.048662763 0.1514115 0.06927556
0001f0 24 83 37 bd fe 44 cc 3c 69 e7 cf 3b bd 36 df 3d
       -0.0448028 0.024935242 0.006344725 0.108991124
000200 d6 82 2d 3d 38 52 5a bd e6 16 e0 bd c0 67 55 bd
       0.042361103 -0.053301066 -0.109418675 -0.052100897
000210 8c 9f 0a 3e b2 6c 3e 3d 1f eb 5c 3d 5c 05 44 3d
       0.13537425 0.04649038 0.053935166 0.047856674
000220 2c 0b 32 3e e8 96 a7 3d f6 c2 f5 3d fd eb c7 3d
       0.17387074 0.0818308 0.120000765 0.09761808
000230 55 e9 d2 3c 6c 3e 1e 3e 82 a8 98 3e fb 94 c6 3d
       0.025746027 0.154535 0.2981606 0.096963845
000240 e8 50 82 3c 6e e3 95 bd 3d e6 6a 3d 9c 86 d4 3c
       0.01590772 -0.073187694 0.05734848 0.025943093
000250 ef 64 32 3e c1 81 24 bd bf d1 68 bb b2 b8 b7 bc
       0.17421316 -0.040162805 -0.003552541 -0.022426937
000260 d8 f6 3a be 2d 89 03 bd 36 74 01 3e 00 da 1e 3e
       -0.18258226 -0.032113243 0.12641987 0.15512848
000270 08 0f 9e bd ac 89 84 bc 2b 34 18 3e 9d aa e9 3d
       -0.07717711 -0.016178928 0.1486365 0.11409495
000280 d7 1b d0 3c 62 69 50 bd c8 4b bb 3d 21 10 02 bd
       0.0254039 -0.05088175 0.091453135 -0.031753663
000290 fb e5 7a 3d c7 27 ad 3c 9a eb 3f 3d 60 85 25 bc
       0.061254483 0.021137131 0.046855547 -0.0101026
0002a0 6c 60 c9 be 91 2f 36 3d 16 e4 ff 3c 82 64 a7 bd
       -0.39331377 0.044478957 0.03123669 -0.08173467
0002b0 ec ce ff 3c 11 18 bb 3d 59 f3 d1 3c 35 a9 04 be
       0.031226598 0.0913545 0.025628733 -0.12955172
0002c0 18 42 b5 bd 5b 49 57 bd e8 e2 9e be 65 38 4d 3d
       -0.08850497 -0.05256019 -0.3103249 0.05010261
0002d0 a0 ac 8e 3c c6 8e cd bd 99 32 d2 3c 08 97 48 3e
       0.017416298 -0.100369975 0.025658892 0.19588864
0002e0 74 2f c4 bd 39 1d d3 bc 42 3a d4 3b 76 b1 b5 3d
       -0.095793635 -0.02577077 0.0064766714 0.088717386
0002f0 f0 51 27 3c f0 c6 8a 3d 7d f1 07 3d 6c 16 dc 3d
       0.0102124065 0.067762256 0.033189286 0.10746464
000300 a0 92 01 3e 2a cc b6 bd 45 2d 35 3d f7 eb 00 3b
       0.12653589 -0.0892566 0.044232626 0.0019671896
000310 06 af 09 be 9e 7b 9c 3d b6 1d 40 3e 9c 9f 61 bd
       -0.13445672 0.076407656 0.18761334 -0.055083856
000320 cc a4 7f 3e b0 3a d4 3d b9 a6 08 3e e9 1d 1c 3e
       0.24965209 0.10362756 0.1334485 0.15245785
000330 74 b7 05 3d b0 8a 73 bd 7e 91 f6 bd 78 40 80 3e
       0.032645658 -0.059458435 -0.12039469 0.25049186
000340 40 cb 56 3e 84 b5 93 3d b4 57 08 bd df 68 d5 bc
       0.20975971 0.07212356 -0.033286765 -0.026050983
000350 e1 8c 91 3d ab eb 59 3d 23 b0 3c 3e 8b a2 80 3d
       0.07106949 0.053203266 0.18426566 0.062810026
000360 16 8c 0d be 09 ba 26 bd 35 bf 98 3d 4e 14 42 bd
       -0.1382297 -0.04070476 0.07458345 -0.047382645
000370 60 e6 c2 bb ec c6 9e bd 1e d3 c2 3d 75 6d 89 bd
       -0.005947873 -0.07752785 0.09512924 -0.067103304
000380 b0 a3 18 bd 0a f1 98 3d aa 8e d7 3b a1 e9 9a 3d
       -0.03726548 0.074678496 0.006578286 0.075640924
000390 b1 9b 19 3e ac b5 78 3d a3 a1 6c bd d8 b2 6f bd
       0.15000798 0.06072013 -0.057771336 -0.058520168
0003a0 dd 53 f4 3e 66 75 96 3d 70 24 26 3d ac dd ff 3d
       0.47720233 0.07346611 0.040562093 0.124934524
0003b0 33 b9 bd bd 0a 3a 80 bd 2c e9 45 bc d2 df f0 bd
       -0.092638396 -0.0626107 -0.012079518 -0.1176144
0003c0 9d 52 6f 3d 76 1d d6 bd 81 ab e3 3e b2 6d 60 3c
       0.058428396 -0.10454838 0.44466785 0.013698028
0003d0 b4 c0 b2 3d 8c 9d f0 3c ff 98 88 3c 85 40 19 3d
       0.087281615 0.029372 0.016674517 0.037415046
0003e0 a7 30 e4 bd a6 99 75 3e 9d 26 f7 3d ec f0 c2 3d
       -0.11142092 0.23984393 0.12067912 0.095186085
0003f0 e0 a0 ae 3d eb 3d 1a bd 3b 96 99 3d 11 59 26 3e
       0.08526778 -0.037656706 0.07499357 0.16244914

fc2.bias f4 [64]
000000 b0 c9 a6 3e ef 4a 98 bd 2e 51 93 be 68 c8 bf 3e
       0.3257575 -0.074361674 -0.28772873 0.37457585
000010 8e d1 32 be 4c 59 96 3e 40 64 b5 3d 06 26 c4 3e
       -0.17462751 0.29365003 0.08857012 0.3831026
000020 c0 36 4a 3b f6 22 a2 3e 67 da 2c bd 90 bf 81 3e
       0.0030855387 0.31667298 -0.042200472 0.25341463
000030 c6 67 42 be 76 cc 45 be 84 38 d0 3e 74 92 79 be
       -0.18984899 -0.19316277 0.40668118 -0.24372274
000040 1d ed 66 3e 82 b3 83 3d 0c c4 18 3c e9 59 0a be
       0.22551389 0.06430723 0.009324085 -0.1351086
000050 bd 6f f0 3d bc 21 af 3e 6d 21 4b 3d 0f 07 2a be
       0.117400624 0.34205425 0.049592424 -0.16604255
000060 f0 ca f3 3e 09 d2 69 3d 5c a5 b8 be a9 21 7b be
       0.47615767 0.05708507 -0.3606366 -0.24524559
000070 c9 e0 3d be 26 35 84 3e 89 fe 06 3e bd 24 e3 3e
       -0.1854278 0.258218 0.13183035 0.44363967
000080 19 92 20 bb 28 40 b3 bc 60 54 64 be 69 41 80 3e
       -0.0024501143 -0.021881178 -0.22297812 0.25049904
000090 4a 0e 2e 3e 8a 0b dc 3d 5d 35 95 3d ba ba 0b bd
       0.16997638 0.107443884 0.07285569 -0.034113623
0000a0 b0 aa 94 bd 8b c9 fe bc 22 ff 37 3e 06 63 ba bc
       -0.072591186 -0.031101963 0.17968419 -0.022752296
0000b0 40 24 4f bd 89 18 1f 3d d6 a8 31 be 43 5f 16 bd
       -0.05057168 0.038841758 -0.17349562 -0.036711942
0000c0 df d2 e7 3a 0a 21 d9 3e ca b7 eb bd 73 3c a7 be
       0.0017686746 0.4240802 -0.11509664 -0.32663307
0000d0 8f a1 f1 be 72 c9 bf bd eb d3 90 3e 42 7b b0 be
       -0.47193572 -0.093645945 0.2828668 -0.34469038
0000e0 b2 08 e0 3e e1 9b 8c 3e d1 f8 96 bd 02 c7 c2 3e
       0.43756634 0.27462676 -0.07371677 0.38042456
0000f0 d3 0e 0f be 2b c8 df 3c 4a f5 99 3e 1a d6 44 3d
       -0.13970499 0.027317127 0.30069953 0.048055746

fc3.weight f4 [2, 64]
000000 99 2d 60 be 29 3e 01 3e 2a 9f fe 3d 17 29 13 bc
       -0.21892394 0.12621368 0.12432702 -0.008981965
000010 c2 a6 0b 3e 4a 63 90 be 12 26 ad bc 8f 52 ce bd
       0.13637832 -0.28200752 -0.021136317 -0.100743406
000020 ec ac 9c bd 84 f7 9f bd c8 ed 64 3d d7 f1 5f be
       -0.0765017 -0.07810882 0.05589083 -0.21869598
000030 a7 52 af be f2 87 50 3d 35 f2 f3 be 6b 6c a5 3d
       -0.34242746 0.050910898 -0.47645727 0.0807732
000040 e9 b4 44 bc 9b 33 f2 bd e9 f2 1c 3e af fd e6 3d
       -0.012006023 -0.11826249 0.15327038 0.11278855
000050 73 07 b2 bd b3 d8 88 be 5d 03 91 3d 28 79 15 bd
       -0.08692827 -0.26727828 0.070807196 -0.036492497
000060 d1 91 fe bd c6 bd b0 bc 22 30 69 3e 26 d6 2e 3e
       -0.12430156 -0.021574866 0.22772267 0.17073879
000070 61 5c 31 be 7c 84 76 be 79 5a 14 3c 6f ba 94 be
       -0.17320396 -0.24073976 0.0090547735 -0.29048488
000080 ac a5 44 3d 82 0d a9 bd 03 23 92 3d 5b 14 1d be
       0.04800956 -0.082545295 0.07135584 -0.15339796
000090 6c 53 00 bc 88 bd f7 3d 04 1d db 3d ae 76 a4 3d
       -0.007832389 0.12096697 0.10698894 0.08030449
0000a0 fc 57 81 3d 0b 2d 0e 3d dd 35 ff 3c 0d 47 23 be
       0.0631561 0.034710925 0.031153614 -0.15945072
0000b0 14 2f 93 bd 1c 18 dc 3d 2c 76 2a 3e 8f 17 c3 bd
       -0.07186714 0.10746786 0.16646641 -0.09525978
0000c0 a9 d2 27 3e df 70 22 be b4 00 98 3d c7 26 d2 3d
       0.16388954 -0.1586337 0.07422009 0.102613024
0000d0 88 44 95 3e 70 2e c8 bd ed a2 d8 bd 37 8b 1c 3e
       0.29153848 -0.09774482 -0.105779506 0.15287481
0000e0 70 b8 90 be 9f 00 8b bd 4e 96 d0 3d 50 5b 8a be
       -0.28265715 -0.06787228 0.10184918 -0.2702279
0000f0 39 58 96 be 68 d3 c7 bd c2 db 21 be d7 39 36 3c
       -0.29364184 -0.097571194 -0.15806487 0.0111221885
000100 2e 16 11 3e a2 bc 18 be 4b 56 29 3a b0 af 07 be
       0.14168617 -0.14915708 0.0006459697 -0.13250613
000110 c9 5f b4 bd 16 d4 21 3e ce 8f 8d bc 41 ae 86 be
       -0.08807332 0.1580356 -0.017280485 -0.2630482
000120 00 b0 0c b8 b9 2f 78 be 0f 74 d0 bc 2a 99 65 3e
       -3.3542514e-05 -0.24236955 -0.025445966 0.22421709
000130 02 1b dd bd 79 f0 df bd 47 ca aa bd bb e2 1c 3e
       -0.10796167 -0.109345384 -0.083393626 0.15320866
000140 4b 34 97 be 5e 47 b9 bd ca 0d 86 be b2 3f 31 bd
       -0.29532084 -0.09046815 -0.26182395 -0.043273635
000150 29 33 b7 3c 29 20 11 3e bc 6f 1c be 26 43 db bd
       0.022363262 0.14172424 -0.15276998 -0.10706167
000160 13 ba 19 3d 96 09 c3 3d 88 05 fb bd 2b be ee bd
       0.03753097 0.09523313 -0.122569144 -0.116573654
000170 ac dd 2c be 82 09 09 3e 5a 12 12 3e 3e 71 a6 be
       -0.16881436 0.13382533 0.14264813 -0.32508272
000180 54 68 59 3d 50 6e 9a bd b2 a1 1d bd dd 6f 92 3d
       0.05307801 -0.07540572 -0.038484283 0.071502425
000190 89 0e 0a 3e f2 1b ca bd ef 52 39 be 81 02 47 be
       0.13482107 -0.098686114 -0.18098043 -0.19434549
0001a0 28 ec 58 3e ae e4 ae 3d d2 f7 30 be 98 04 9d be
       0.21183836 0.08539711 -0.17282036 -0.30667567
0001b0 e8 9d a7 3c 73 52 21 be a5 f6 2f be e7 92 45 3c
       0.020461038 -0.15754108 -0.17183931 0.01205895
0001c0 54 08 60 3d ca 53 c1 3d d4 99 4e 3d f3 d6 57 3d
       0.054695442 0.094398096 0.05043967 0.052695226
0001d0 69 cf ba 3b 71 19 c2 bd 3a b9 af bd 4a 3f f2 3d
       0.0057009947 -0.09477509 -0.08580251 0.11828478
0001e0 8d b5 d9 3d b7 2a 9f be 19 80 40 be f2 bd a5 3d
       0.10630331 -0.31087276 -0.18798865 0.0809287
0001f0 90 34 17 be ad e4 8e be 10 d8 f8 bd a1 62 a6 3d
       -0.14766145 -0.2790884 -0.12150586 0.08124281

fc3.bias f4 [2]
000000 e9 5f bd be 4f d1 05 bd
       -0.36987236 -0.032670315
