sat-code/models/maddpg_20250712-135635/checkpoint_300/critic_agent_0.pth (torch, 24873 bytes, 5 tensors)

fc1.weight f4 [64, 18]
000000 6b 0f 0c bd 28 59 bd bd c7 7b 8c be 55 83 eb bd
       -0.03419439 -0.09245521 -0.27438185 -0.11499659
000010 ed ab dc bd 5c 05 d0 be 9e e6 9b be 1b 96 d5 be
       -0.1077498 -0.4062909 -0.30449384 -0.41716084
000020 61 f7 1c 3e 87 17 f1 3d 68 bf ba be e7 8c 88 3e
       0.15328743 0.117720656 -0.36474156 0.2667
000030 dd 34 84 be 7c fd 6c be fd cc fc be a8 0e a0 bf
       -0.2582158 -0.23143572 -0.49375144 -1.2504473
000040 09 0f 6d 3c fb 65 b8 3e 3e 4a 77 3d c6 e3 6e 3e
       0.014468917 0.36015305 0.060373537 0.23329076
000050 ae d7 8a 3e 38 5d 5c 3e 97 a4 6b 3d fe f4 59 3e
       0.27117676 0.21519935 0.057530012 0.21284863
000060 a4 90 4e 3e c4 06 97 3e 06 05 63 be 01 e2 63 be
       0.20172364 0.2949735 -0.22169885 -0.22254182
000070 10 9a 70 be 41 ae 7e 3e dc 9e a4 3d 9d 5d 45 bd
       -0.2349627 0.2487116 0.080381125 -0.04818498
000080 c2 a2 ec bd d4 2f cc 3e 01 8e b9 bd ba 96 2d 3e
       -0.11554481 0.3988024 -0.09060288 0.16952029
000090 97 d5 c9 3d 87 f6 d4 bc 6e cd 6b 3e 63 ba 50 be
       0.09855192 -0.02599646 0.23027584 -0.20383601
0000a0 d4 98 e5 bc b7 15 3b 3e e0 36 29 3e 5d 7b 99 be
       -0.028026976 0.18270002 0.1652484 -0.2997693
0000b0 e6 fd 9b 3d 7c b6 25 bc 65 c4 02 3f 8a fa 69 be
       0.07616787 -0.010114308 0.51080924 -0.2284948
0000c0 93 4f ce 3e 32 c2 24 be f4 19 31 be 6f fc 96 bb
       0.40295085 -0.16089705 -0.17295057 -0.004607729
0000d0 91 09 00 3f 88 a7 16 bf 17 4b ba bc dc 1a e6 bc
       0.500146 -0.5884938 -0.022740884 -0.02808898
0000e0 11 04 60 bf 9e b6 1d 3f 4c 12 99 be b0 98 f5 bc
       -0.87506205 0.61606777 -0.29896772 -0.029980034
0000f0 62 db f9 be e2 94 cc 3e 30 e2 40 be 20 17 17 3d
       -0.48800188 0.3995734 -0.18836284 0.036887288
000100 79 99 11 3e 2f 6c 9a 3f 29 d4 76 bf d9 d5 65 3f
       0.14218701 1.2064265 -0.9641748 0.8977943
000110 68 6b 51 be 00 09 01 3e e5 55 a6 3e 7c 4e 8d 3f
       -0.20451128 0.1260109 0.32487407 1.1039577
000120 07 ef b1 ba 3c eb f0 3c 4d 53 19 3e 98 c1 3a 3e
       -0.0013575264 0.029409043 0.14973183 0.18237913
000130 58 e1 28 be 1e 19 e1 bd dd a0 d2 bd 77 27 fc 3d
       -0.16492212 -0.10991119 -0.102845885 0.12312215
000140 6f f5 e9 be 1a c6 b5 3c 80 c6 57 bf 59 ed 97 3e
       -0.45695063 0.022189189 -0.8428726 0.2967327
000150 e8 d5 fd 3e ec 8a 5c 3e 3f 11 05 bf 6a 5c af be
       0.4957726 0.2153737 -0.5197944 -0.34250194
000160 2a 27 71 be 3a 59 e8 3e 70 c9 89 be 03 77 a5 3d
       -0.23550096 0.45380574 -0.26911497 0.0807934
000170 df 9f 45 3a 3a 00 25 3e 3c 0c 91 be a1 7f 66 3a
       0.0007538776 0.16113368 -0.28329647 0.0008792822
000180 5c bf 16 be 3f 30 ae 3d 61 c2 4e be af 64 73 be
       -0.14721435 0.08505296 -0.20191337 -0.23768876
000190 67 bf 16 3d 6b 77 07 3e d4 1f 59 3e 84 1d 01 3e
       0.03680363 0.13229148 0.21203548 0.12608916
0001a0 e3 0f b6 3c 46 81 01 3e a7 ad 1a be d9 5c 2b be
       0.022224372 0.1264697 -0.15105306 -0.16734637
0001b0 bd 05 31 3e fa 73 8e bc 7a aa 3f be 28 b0 7b be
       0.17287345 -0.017389286 -0.18717375 -0.24578917
0001c0 69 18 5f be ea bf 25 be 02 6c d0 be 84 ac 6f be
       -0.21786655 -0.1618649 -0.40707403 -0.23405653
0001d0 a7 1a a3 bd 4c b6 31 be 29 48 b0 be e5 45 9b bd
       -0.07964068 -0.17354697 -0.34430054 -0.07581691
0001e0 47 6a cd bc 90 db 22 3d a5 83 3c 3e 98 7b 10 be
       -0.025075091 0.039760172 0.18409593 -0.14109647
0001f0 89 4f 2a bf 53 49 d5 be 65 a0 7e 3d 93 62 ba bc
       -0.6652761 -0.41657504 0.062164683 -0.022752082
000200 ce af 15 3e 19 0e b5 3d 21 b3 24 be 7e b4 09 bf
       0.14617845 0.088405795 -0.16083957 -0.53791034
000210 8e fb 6b 3d 10 b8 7a 3d 56 a8 39 bf ba 56 a0 3e
       0.057612948 0.061210692 -0.72522485 0.31316167
000220 1a 71 10 bf c0 3e d6 bd c5 5b 79 3f 0c 1c 2c 3f
       -0.5642258 -0.10461187 0.97405654 0.67230296
000230 6f 98 40 be be 95 0e bf b8 2f 23 bf 69 93 92 be
       -0.18808149 -0.5569724 -0.6374469 -0.2862809
000240 92 91 0b be 0a c5 4d 3e 7f f6 22 3f f0 3e d6 be
       -0.1362975 0.20094696 0.63657373 -0.41844893
000250 84 d4 6e 3d 7d b3 a2 bb d9 36 d9 be 33 29 3b 3e
       0.05830814 -0.0049652443 -0.42424658 0.18277435
000260 4b 1e 76 be 31 68 81 be df c0 c0 3e d9 d7 83 3d
       -0.24034993 -0.25274804 0.3764715 0.06437654
000270 a4 7e 2b 3d ac ab c0 be f8 af 46 3e c7 93 b8 be
       0.04186882 -0.37630975 0.19403064 -0.36050245
000280 a9 8b a4 be 62 a2 dc 3e 17 b5 92 bd f1 d7 fd ba
       -0.32137802 0.43092638 -0.071634464 -0.0019366724
000290 73 5d f5 be ce 3b 34 3d fe ab c0 3d c8 79 f2 bc
       -0.4792286 0.044002347 0.09407805 -0.029599085
0002a0 f5 b5 ab 3e a6 6a 81 bd db d1 d4 bd ec 82 79 be
       0.3353726 -0.0631917 -0.10391589 -0.24366349
0002b0 e0 ce cd be 16 9a 26 be 9c 26 b1 be 0c 7f b5 3e
       -0.40196896 -0.16269717 -0.3459977 0.35448492
0002c0 89 a4 4b 3f 2c 71 b7 be 29 08 5f bf 22 87 8c be
       0.79547936 -0.3582853 -0.87121826 -0.27446848
0002d0 81 90 17 bf 5b 48 ba be 12 33 ac 3d a2 b6 48 3f
       -0.5920487 -0.36383328 0.084081784 0.78403676
0002e0 a1 bd ef be 6c 26 e6 bd 58 94 14 bd ff 86 09 bf
       -0.46824363 -0.11237797 -0.036274284 -0.5372161
0002f0 f1 0e 8a 3c 67 31 09 3e 85 37 72 3e 75 2b c5 3f
       0.016852828 0.13397752 0.23653992 1.5403887
000300 f6 18 0e be 5f f7 5b 3f 49 3b d0 be 4f 35 40 be
       -0.1387671 0.85924333 -0.4067023 -0.18770336
000310 f8 83 8f 3e 17 0d bc 3f 0f 92 28 3e 30 e5 9a 3d
       0.28030372 1.4691495 0.16461967 0.07563245
000320 96 4f 34 bf e4 c7 ce be 17 2b 4c be 81 63 68 3d
       -0.7043394 -0.4038688 -0.19938312 0.05673552
000330 b8 5c a4 bc 71 6f 18 3d f1 94 3d 3e 71 41 4d 3d
       -0.020063743 0.037215654 0.18513848 0.050111238
000340 51 7d 04 3f df bf b8 3e 70 15 c4 bf 6d 44 01 bf
       0.5175372 0.36083886 -1.5319042 -0.50495034
000350 ec 70 27 3e 30 b8 aa be 41 21 61 bc 48 c0 ef 3e
       0.1635167 -0.3334365 -0.0137408385 0.46826386
000360 73 b5 f2 bd 5b c9 dd be d3 7c b8 bd d0 6d 60 be
       -0.11851015 -0.43317685 -0.09008183 -0.2191689
000370 07 e2 4f be 24 7a d0 bd 45 14 6d be 22 fd 26 3e
       -0.20301066 -0.101795465 -0.23152263 0.163075
000380 41 20 35 be ff f4 bb 3d e7 56 86 3e 70 7f c7 3e
       -0.17688085 0.09177589 0.26238176 0.38964415
000390 f9 ed 9b be ae 98 3f 3e ec 1b a4 be 81 d8 3d 3e
       -0.30454996 0.18710586 -0.32052553 0.18539621
0003a0 b1 ea 33 be 89 78 81 3e 78 20 21 be 42 b2 7e 3e
       -0.17569996 0.25287274 -0.15735042 0.24872687
0003b0 e2 28 96 be 72 b1 f2 be cc 7d 90 be 9f 10 ba 3d
       -0.29328066 -0.47401005 -0.28220975 0.090852015
0003c0 7d d5 e7 3d d4 d9 d7 3d 59 09 aa bd 67 16 ac bd
       0.113200165 0.10539594 -0.08302564 -0.084027104
0003d0 5d 14 3b be 5a ff 8a 3d a4 a9 fd be ea 61 a7 be
       -0.18269487 0.06786986 -0.49543488 -0.3269189
0003e0 0d 29 99 3e 84 2f b3 bc 0b 59 15 3e a7 05 84 be
       0.29914132 -0.021873243 0.14584748 -0.25785562
0003f0 b4 65 02 bc 11 e0 7b bd c5 b6 cb bd 23 3e d3 3e
       -0.007958818 -0.061492983 -0.0994697 0.41258344

fc1.bias f4 [64]
000000 f0 0f 8e 3e 48 d2 0b 3f eb 26 40 3f bc d1 34 be
       0.27746534 0.5461774 0.75059384 -0.17658132
000010 9d 1e 48 3e 93 6c a5 3d 6e d3 5a bd c2 44 01 3e
       0.19542928 0.080773495 -0.05342429 0.12623885
000020 72 a7 6f 3e d0 80 1e bc 0f 1f 00 3e 96 11 96 be
       0.23403719 -0.009674266 0.12511848 -0.29310292
000030 87 65 1f bc 56 7e f5 3e d6 a0 2b be d7 34 d6 be
       -0.009728796 0.4794795 -0.16760573 -0.4183719
000040 9c dc d2 3d 34 c3 c6 3e a2 c9 55 3f 5e 5c ea bd
       0.10295984 0.38820803 0.8351079 -0.11443399
000050 96 20 2c 3f b0 0e 3b 3f 41 1e 8c 3e 91 f5 06 3f
       0.6723722 0.73069286 0.27366832 0.52718455
000060 1b 78 0d 3d f3 92 7b bd d2 62 dd 3e fa a6 a4 bd
       0.03453837 -0.06141944 0.43239456 -0.08039661
000070 93 77 80 3e ce 41 5f 3f 44 24 18 3f 1a ad 1a bf
       0.25091228 0.87209785 0.59430337 -0.6042038
000080 59 00 89 bc e3 19 20 3e 6b 1f ab bd 8a b1 83 3e
       -0.016723799 0.15634875 -0.08355602 0.2572139
000090 2f b7 46 3f 2c 1c d8 bc 1d d2 7f 3f d8 02 9b bb
       0.77623266 -0.02638062 0.9992998 -0.0047305636
0000a0 d0 fc c5 be 61 de 45 3f cf 6b 0d 3e 40 35 27 3f
       -0.38669443 0.7729245 0.13810657 0.6531563
0000b0 ed 21 18 3e d8 a7 5d 3e 98 a7 96 3e a8 62 ce 3e
       0.14856692 0.21646059 0.2942474 0.40309644
0000c0 03 c4 67 be 5e ce b1 3e 8d 99 06 be 05 51 40 be
       -0.22633366 0.34727758 -0.13144512 -0.18780906
0000d0 a3 54 68 be 5c 3d bb bc 61 35 a8 be 81 92 43 be
       -0.22688536 -0.022856407 -0.32853225 -0.19098856
0000e0 cd ac c5 3e f9 aa 00 bf ad 3b 0f be ff 43 d4 3e
       0.386084 -0.50260884 -0.13987608 0.41458127
0000f0 50 0a e0 be c4 ea 01 bf 82 ad 02 be 91 0b 9a be
       -0.43757868 -0.5074885 -0.127615 -0.3008695

fc2.weight f4 [64, 64]
000000 f5 ce 81 bd c8 5a 48 3d 2c 3c c6 3c 87 ce 81 3d
       -0.06338302 0.0489147 0.024198614 0.0633822
000010 cf d2 f3 be 40 a0 35 3d 9f 41 98 bd 9c c5 d5 be
       -0.47621772 0.04434228 -0.07434391 -0.41752326
000020 2e a9 36 be ee eb d4 be dc f7 8c 3d c6 78 cd be
       -0.17837974 -0.4158625 0.06883213 -0.40131205
000030 14 38 4c bd 6e 86 9a be 4d 32 22 3d 8a ff 97 bd
       -0.049858168 -0.30180687 0.03959875 -0.07421787
000040 8b 4c 52 be 80 b3 b7 be 9c 67 d0 bc bd 3a a8 3e
       -0.20537011 -0.35879135 -0.02544003 0.32857314
000050 6f b7 47 3b dc f9 93 be fe d4 b3 3d 53 6b b5 be
       0.0030474325 -0.28901565 0.087808594 -0.35433444
000060 7b c5 09 3d fa 17 e5 bd ab ef a8 3b 47 82 9a be
       0.033635598 -0.11186214 0.005155524 -0.3017752
000070 7f 08 bc 3d 6f b4 00 bf 65 02 83 be 36 fa 4c 3e
       0.09181308 -0.5027532 -0.25587764 0.20017323
000080 4c 14 54 3d 58 16 ce 3d c1 73 a6 3d f4 36 0c 3d
       0.05177717 0.100628555 0.08127547 0.034232095
000090 e2 e1 02 3e 95 b9 94 be fe 05 80 be 80 78 d3 3b
       0.1278148 -0.29047838 -0.25004572 0.0064535737
0000a0 3f 87 1b 3e c9 b4 89 bd 8e ad b9 3d 8a 85 83 be
       0.15188311 -0.06723935 0.09066306 -0.2568782
0000b0 70 ea fc 3d 7e 7c d0 bd 8f bb 0e be 89 0d 6e 3e
       0.12349403 -0.10179995 -0.13938735 0.23247351
0000c0 04 a7 c0 be 1f 1b cc be 80 e9 a7 3d 86 77 80 be
       -0.37627423 -0.39864442 0.081988335 -0.2509119
0000d0 28 f4 e8 3d 7a c9 61 3d 1a 93 6e bd 80 47 dd 3d
       0.11374694 0.055123784 -0.058245756 0.10804653
0000e0 b5 94 09 3e 30 7f 5e 3e 60 8b ac 3c f0 d9 ad 3d
       0.13435633 0.21728206 0.021062553 0.08488834
0000f0 98 be 10 3e 93 08 a5 3e 78 a0 ea 3e ac f2 87 be
       0.14135206 0.32233104 0.45825553 -0.2655233
000100 62 9e 60 bd cf 43 4c be 3e 63 2c bc 6e 16 a5 be
       -0.054838546 -0.19947742 -0.010521708 -0.32243675
000110 aa 14 71 bc c3 8b d5 bd 5e f5 72 be 0e df 07 3e
       -0.014714399 -0.10427048 -0.23726413 0.13268682
000120 64 7c a5 3e da eb 73 be 5c b4 b0 bd 0b 40 70 be
       0.32321465 -0.23820439 -0.08628151 -0.2346193
000130 61 06 04 3a 9a 40 e7 bd fd f5 8e bd f5 73 cc bd
       0.0005036351 -0.11291619 -0.06980512 -0.099830545
000140 f5 4e 86 3d 0d b9 40 be 43 e2 c5 3d ce 71 1e bf
       0.065580286 -0.18820591 0.096622966 -0.618924
000150 a9 ea 13 3e 4b 26 12 be 83 f4 2f be 12 e3 0a bd
       0.14444984 -0.1427242 -0.17183118 -0.033907957
000160 56 5f 5a be 65 78 50 3e be 49 95 be 05 7b ba bd
       -0.2132543 0.20358427 -0.29157823 -0.09105495
000170 01 a3 9e be 85 b8 0d bd ff 30 80 bc b1 70 d0 be
       -0.30983737 -0.0345998 -0.015648363 -0.40710977
000180 69 2d df 3d 1b 28 f1 be 15 b1 2b be 24 05 2c bf
       0.10897333 -0.4710091 -0.1676677 -0.67195344
000190 9c fe f1 3c 81 0f d8 be e3 33 ae 3c 01 96 dc 3d
       0.029540353 -0.4219933 0.021264976 0.107707985
0001a0 7e d3 b3 3e 38 5d 50 be 4f 83 a2 3d b0 d7 13 3e
       0.35122293 -0.2034806 0.079352014 0.14437747
0001b0 23 48 55 3e 89 ac 98 3d 42 ba 25 3f 70 54 07 3e
       0.20828299 0.074547835 0.6473733 0.13215804
0001c0 b7 0e b6 bd e0 fe a8 be 17 9a 1d 3e 62 e5 4e be
       -0.088895254 -0.33006954 0.15390812 -0.2020469
0001d0 d5 3b 80 3c 7f 4a 4a 3c 84 ea 6c bd 8a 76 1d 3d
       0.01565353 0.012346863 -0.05784084 0.038443126
0001e0 28 23 de be 33 7b 09 3e 96 95 a0 3e 6c c5 05 bc
       -0.43386197 0.13425903 0.31364125 -0.008164745
0001f0 48 2d 3d bc bd 5a 7d bf 23 c2 ab bd 68 3c 26 be
       -0.01154644 -0.9896658 -0.08386638 -0.1623398
000200 4f cf fd bd 8d 46 00 bd e0 f9 05 be 37 29 eb 3b
       -0.123930566 -0.031317282 -0.13083601 0.007176544
000210 e0 04 c4 bd 28 ae f8 3d ca 5a e9 bd 97 26 d0 bc
       -0.09571242 0.12142593 -0.1139427 -0.025409026
000220 96 c6 a8 3d 88 68 f2 bc 3e d0 8b bd a4 09 bf 3d
       0.08241002 -0.02959086 -0.068268284 0.09328011
000230 f8 83 8c 3c f0 3a a9 bd cb 89 06 be 52 c4 ee bd
       0.017152771 -0.082631946 -0.13138501 -0.11658539
000240 ee fa fd bd 21 a1 70 bd 43 d7 95 bd 25 4a 84 bd
       -0.12401377 -0.058747414 -0.073164485 -0.064594544
000250 24 bb cf bc 33 57 00 be 0f d6 28 bd 30 68 23 3c
       -0.02535779 -0.12533264 -0.041219767 0.009973571
000260 45 5a 1f be f5 af 4b bd 30 8c 8b bd 90 3e e1 3d
       -0.15561779 -0.049728353 -0.06813848 0.10998261
000270 35 4d 5b 3d 08 d4 ea 3c b0 06 6d bc 94 28 5c 3d
       0.053540427 0.028665558 -0.014466926 0.053749636
000280 86 96 e1 bd 88 c1 24 3d 88 b0 7d bd 8c f1 ca bc
       -0.11015038 0.04022363 -0.06193593 -0.024773382
000290 80 1b be ba 71 99 04 3c 12 8a d2 3c 14 16 64 bd
       -0.0014504045 0.008093224 0.025700603 -0.055685118
0002a0 31 42 95 3d 90 6b 9a bd 78 0d 8c bd c8 9c e1 bd
       0.07288016 -0.07540047 -0.068385065 -0.11016232
0002b0 db 0b ab 3d e8 fa 62 bd 8a 09 1e be 18 1e 34 3d
       0.083518706 -0.055415064 -0.15433326 0.043974012
0002c0 f2 09 a3 bd 18 b7 ae bc b5 05 71 bd c0 05 0c be
       -0.07960881 -0.02132754 -0.058843333 -0.13674068
0002d0 1a e2 ff bd bf a9 4a bc a0 5c b5 bd e2 3a c7 bd
       -0.12494297 -0.012369572 -0.088555574 -0.09728028
0002e0 1a 3e 86 3d d9 f7 51 3d 9e 60 a1 3d d4 b4 4f bd
       0.06554814 0.051261757 0.078797564 -0.05070956
0002f0 eb fd 58 bd b4 2d f5 bd 3c c9 35 3d 06 97 f5 3d
       -0.05297653 -0.11971608 0.044381365 0.11991696
000300 f7 a5 01 3e c7 82 93 3d bd ce 09 3d 09 ed e3 bd
       0.12660967 0.07202678 0.033644427 -0.11129195
000310 f7 e0 55 3c 67 e5 d3 3d 1b 1d 80 3e 4b ee c9 3d
       0.013054124 0.103464894 0.25022206 0.09859904
000320 b9 b3 f5 3c dc 5f 79 bd 88 3e a5 3e 1a 7d 1e bd
       0.029992925 -0.060882434 0.3227427 -0.038693525
000330 64 2f cb bd a7 d8 05 3e 17 a1 a6 3d 94 14 54 3d
       -0.099211484 0.13070928 0.08136194 0.051777437
000340 b8 48 8c be eb e1 d3 3d 02 f6 83 bd 05 c7 58 be
       -0.2739923 0.10345825 -0.06443407 -0.2116967
000350 3d 92 a6 3d 7d a1 35 3e 52 8a 18 3e 74 04 a9 3c
       0.081333615 0.17737384 0.14896515 0.020632006
000360 df 01 6b bc c1 58 81 bc a8 9b 63 bd bf ac 29 bd
       -0.014343708 -0.015789391 -0.055568367 -0.04142451
000370 0a 7f 49 3d dc b9 49 3e 0c 5b 26 3c 60 b9 d8 bc
       0.04919342 0.19699806 0.010153543 -0.026455581
000380 f4 99 b6 3d ce 78 90 3e 3b a5 a3 3d 30 93 d2 ba
       0.08916083 0.28217167 0.079904996 -0.0016065594
000390 86 03 8a 3e 22 eb 54 3d 75 c1 33 3e ae 03 8e be
       0.26955813 0.051982053 0.17554267 -0.27737182
0003a0 3c 13 28 be 65 54 ac 3d 89 6f 8c 3e 14 c4 57 3e
       -0.16413587 0.084145345 0.27428845 0.21070892
0003b0 07 8f 65 3e 91 ef 9a 3d 6e f8 36 3e c6 cc 7a 3e
       0.22417842 0.07565225 0.17868206 0.24492177
0003c0 d6 84 a6 3d 37 0f e0 3c cc f0 30 be 0b ae 16 3e
       0.08130805 0.027351005 -0.17279357 0.1471483
0003d0 ff d7 36 3d 6c 7b c8 bc a8 68 ae 3e 28 e0 8e bd
       0.044639584 -0.024472915 0.3406422 -0.06976348
0003e0 5e a4 16 bd 1e d7 d0 bd 47 91 cd 3d a8 e5 07 3d
       -0.036777847 -0.1019728 0.10037475 0.033178
0003f0 e4 c9 ed 3c 6c 7e 30 bb bc 82 d1 3d 0b 7f 16 bd
       0.029026933 -0.0026930822 0.10230014 -0.03674225

fc2.bias f4 [64]
000000 62 4a 4e 3e 1b 27 92 3e 03 30 c9 bd 52 87 51 3f
       0.20145562 0.2854546 -0.09823611 0.8184711
000010 e4 1d 06 bd a1 a7 15 bd 76 b1 58 bd 2e ff e3 3d
       -0.03274335 -0.036536817 -0.052903615 0.11132656
000020 96 08 ff 3c f1 b1 fe bd 90 6d 7e 3d a3 de 66 bd
       0.031132024 -0.124362834 0.062116206 -0.056364667
000030 f9 d7 e2 3e ed 97 3c 3e f7 aa 74 be 19 c0 4b 3d
       0.443054 0.1841733 -0.23893343 0.049743745
000040 6c b2 87 3d 0e 85 33 be 09 37 73 3f 2e e6 5d 3d
       0.06625828 -0.17531225 0.9500585 0.054174595
000050 c5 16 3b bc 8d 68 46 3e 29 56 2b 3f 8d 61 de 3e
       -0.011419003 0.1937582 0.66928345 0.434338
000060 ac a5 72 be 3a 0e 39 3c d4 a7 58 3d cd 0a 93 bd
       -0.23696011 0.011294896 0.05289443 -0.071797945
000070 ce 95 c4 bd 41 73 82 3d 75 ed af bd 2b 1a 8f bd
       -0.095988855 0.06369639 -0.08590213 -0.06987413
000080 80 1b 85 be 3e 59 1d be 76 b9 cd 3d 34 52 98 3e
       -0.25997543 -0.15366074 0.100451395 0.29750216
000090 bc 33 e0 bd 51 e4 0b be 01 a6 57 bb ad a6 bc 3c
       -0.109473675 -0.13661315 -0.0032905343 0.023028696
0000a0 f5 d6 6e be 30 c9 5e 3e a2 b0 3e 3d 4d 4b 01 bd
       -0.23324187 0.21756434 0.04655517 -0.031565953
0000b0 9a 3d be 3e ae 47 c4 39 b6 e9 09 be af 78 d3 bd
       0.37156373 0.0003743744 -0.1346806 -0.10325753
0000c0 91 bc f4 bd 62 70 11 be 96 bb 48 be b1 4b 62 3e
       -0.11950029 -0.14203027 -0.19602808 0.22099186
0000d0 74 bf 2a bd 09 b3 f4 bd 96 27 0f be 40 5f 5c be
       -0.04168649 -0.11948211 -0.13979945 -0.2152071
0000e0 55 bc 70 3f e3 2f d2 3e b0 cf 42 be f7 61 48 be
       0.9403737 0.4105216 -0.19024539 -0.1956862
0000f0 06 2d 0e 3d 52 0e b1 3d c2 e0 b5 be b9 c8 10 bd
       0.034710906 0.086453095 -0.3552304 -0.035347674

fc3.weight f4 [1, 64]
000000 7b 97 c1 be cc d5 19 3e 8d ff 7c bd 47 3c 9a bd
       -0.37810883 0.15022963 -0.06176715 -0.07531028
000010 8d bb 32 be 3d 81 b2 be 6c ad 69 bc 91 2d 11 38
       -0.17454357 -0.34864226 -0.014262538 3.461313e-05
000020 ba 51 0c 3d 76 20 a9 bd 47 3d b7 bb 94 92 31 bc
       0.034257628 -0.082581446 -0.0055920216 -0.01083817
000030 3a 55 01 3c f0 4f 40 bd bd c3 84 3c e3 b6 e1 3d
       0.007893855 -0.046951234 0.016206617 0.11021211
000040 0b 6e 8b bc 58 46 35 3c 8b 72 e8 bd 05 2b 4f 3d
       -0.017020246 0.011064135 -0.11349972 0.050578136
000050 a7 38 bc 3d b7 68 a7 bd 53 9a b3 bd df bb c8 bc
       0.09190493 -0.0817427 -0.087696694 -0.024503646
000060 2b 05 13 3e 7b 1f a2 bc 1d 34 c4 3d c0 ff cc 3d
       0.1435744 -0.019790402 0.09580252 0.10009718
000070 7e 47 37 3d 8c e7 8e 3d cd ac 43 3e 44 aa 5f bd
       0.044745915 0.06977758 0.19108887 -0.054605737
000080 28 6f 06 3c 9b 86 03 3e a7 ec c0 3b cc c6 50 3d
       0.008205213 0.12844317 0.005887586 0.050970837
000090 98 6f 1c 3e b5 61 25 3c 6c 14 28 3b f6 b4 9f 3c
       0.15276945 0.010094096 0.0025646938 0.019495469
0000a0 8e 4f b1 3d 01 87 ee be 1d 10 12 bd 35 56 0b bd
       0.08657752 -0.46587375 -0.035659898 -0.03401776
0000b0 2b f0 b6 be 67 3c 84 3e cf 87 69 bc be f7 de 3d
       -0.3573011 0.25827333 -0.014253571 0.10887097
0000c0 58 85 ba 3b 32 a6 a7 3c cc b4 2f bd 6c 8b b5 be
       0.0056921653 0.02046499 -0.04289703 -0.35457933
0000d0 e8 69 8d 3e 6e 06 ba bb fb e6 8f bb 18 63 d9 3c
       0.27619863 -0.005677036 -0.0043915487 0.02653651
0000e0 f1 27 ba bd 23 5d e7 bd c1 66 01 bd 89 12 14 bc
       -0.090896495 -0.11297061 -0.031592134 -0.009037622
0000f0 29 80 4a bd db ad 8e bd fc 12 a0 3d b2 42 05 3a
       -0.04943863 -0.06966754 0.07816121 0.0005083486
