sat-code/models/maddpg_20250712-135635/checkpoint_100/actor_agent_2.pth (torch, 21533 bytes, 6 tensors)

fc1.weight f4 [64, 4]
00000000: cd15 c63e e7b9 87be ce21 783c 99dc 533d
00000010: ac2d fd3c 1e0c 8fbe 7230 9fbd 1805 c73e
00000020: 1e30 5f3e c747 84be e9e5 33bf 7472 b73d
00000030: 4ece 89be ee03 c8be d817 d7bd 1ed9 bb3e
00000040: 4fdb bd3e b23e 67be 3e60 bb3e cb04 09be
00000050: 8625 253d 3172 2e3c 4bcd e13d 0e67 bcbc
00000060: 6660 c5be 61b2 9cbd 842d b9be 4317 1f3e
00000070: da87 e03d 1e2e 003e 64c4 c2be b2ba c33b
00000080: 44eb e23e 4d16 ca3e ec0f ef3b 1b7b f8be
00000090: 9d24 f43e e03d e83e 8f54 84be 6a95 d0be
000000a0: 802e 0f3e 7bd5 b13d e080 cb3b d047 55be
000000b0: 2a8c 2fbd e974 013d 47ab 05bf ee69 5a3e
000000c0: 790c 893d cd72 2a3d 7481 b13e 572e 84be
000000d0: 10a6 d0be 6998 493e 5bd6 f93e f1cc 4b3e
000000e0: 004e e63e c3ed 143e 4cdb 0e3f 0fe8 cf3e
000000f0: 8564 813c 3d93 92bd 831d 68be be15 c3be
00000100: a246 c7be 20f2 c83e b093 b23e 92a2 713e
00000110: f257 d33d 8382 723e 64e0 e9bc 75a3 f63d
00000120: 2f65 933e ee75 e9be 69dd a13e 51b9 03bc
00000130: 0997 8b3e 51be fd3e 6286 72be e766 c63e
00000140: 7bd0 f63d f633 66bd b105 f13e 361b 5cbe
00000150: 99dd 8e3e a276 c3bd 9756 b13e a6ba 0ebf
00000160: 7667 fcbe 0297 363e 9a77 2dbf 56d7 9bbe
00000170: 8190 52bd 4db6 02be f1de 003f 3f65 6d3e
00000180: d772 6f3e 722f b03e e6d1 0cbf 80cc ef3e
00000190: 1daa 053d 27e3 22be 55ce bfbd 660c 56be
000001a0: e544 ec3d 1589 aebe c17f 1f3c 9782 843e
000001b0: 2ce1 4f3e ff5b e43c 5553 acbe 45f6 ffbd
000001c0: 2af5 5bbd f2aa 77bd b1d7 643e f17b eabc
000001d0: f8da 71be ce0f cdbe a00f d03c 38aa b83e
000001e0: fea7 94be 24f7 53be c015 993d 102a 843e
000001f0: f636 c93e 9a25 883e 886b d3be 6602 8fbe
00000200: 2712 ee3e 6446 053e f336 1f3e d7f3 e83e
00000210: 5fbd cf3e 71b6 743e b3b2 3fbe f6ef 75be
00000220: cbec ca3e 01f9 6bbe 661e 88be 9f0f df3e
00000230: c0b5 003e f306 ca3d e900 f73d 2274 6b3e
00000240: 6ad0 273c 215b a33c 9faa 1f3d b7e9 5d3d
00000250: d147 033f bfc8 c03d 4988 43be 6883 c63e
00000260: 7ebc 0bbf 1878 a83e a356 b03d a670 2dbd
00000270: 7c26 ba3e 9b8b ca3e 542d ac3e 5b69 d33e
00000280: 409e a8be 2242 a53e 330b 8c3e 1889 233e
00000290: e9b9 f03e e561 d63e 6ccf 8abe a334 88bd
000002a0: 0a62 b4be 4441 bbbe 6d89 08bf b1af fdbe
000002b0: cedb bc3d 853d 9e3e 7905 cbbe ba11 a5be
000002c0: 973a 80be 1fce a9be 9ae7 3dbe 41ea 73be
000002d0: 2211 433e c587 3abe d715 e23e c55b 32bf
000002e0: 1aa1 9ebd bf03 c93e 16d1 e9bd 11d3 a63e
000002f0: df8e 61bd 42e4 bfbe a6b2 e2bd d3f9 89bc
00000300: db17 4b3e 6a97 813e 87d5 2c3e be5b 63be
00000310: 5b8c 9cbe e5f2 643d 3e6d 623c 9303 24bd
00000320: bf91 d53e 29fc 603b fedf 70bd 2c1b a9be
00000330: 3b1f 9e3e a42a 603e 7cf6 97be 7a86 1cbe
00000340: 9803 d9be 9200 14be 9876 8cbe 9455 c9be
00000350: 8210 92be c079 46be 623e fd3e 68c7 aa3e
00000360: 693b 833e 7ee1 c63e 26c6 ba3e 23ca 803e
00000370: 0a55 bb3e 75ff 10be 24b0 253e 415a 1bbd
00000380: 0d13 6b3e 35c9 f23e cf0f 1c3e bbcc 6b3d
00000390: cd32 f53e cb84 40be a52c 86be 1234 0abf
000003a0: b4e7 813e 1f59 a5bd 7a03 aabe 0507 ec3e
000003b0: 16e1 03be df46 f93e a78d 583e e82c 5dbe
000003c0: 0b6b dc3e b407 983e 7339 8c3d aa20 993e
000003d0: ba16 6c3e e050 d4ba d524 683e 78c4 98bc
000003e0: 776f 133e aa6b 973e dd13 ecbe b159 30bd
000003f0: 9aed f4be fde1 ae3e bd33 b63e 3cf7 b73e
0.38688508 -0.2650902 0.015144778 0.05172405 0.030905567 -0.27938932 -0.07772912 0.38871074
0.21795699 -0.25836012 -0.7027269 0.08957377 -0.2691521 -0.39065498 -0.10502595 0.36689085
0.37081382 -0.2258251 0.36596864 -0.13380735 0.04031899 0.010647343 0.11025485 -0.022998359
-0.3855011 -0.076512106 -0.36167538 0.15536217 0.10963412 0.12517592 -0.3804046 0.0059731835
0.44320118 0.3947014 0.007295599 -0.48531422 0.47684184 0.45359707 -0.25845763 -0.40738994
0.13982582 0.08683296 0.0062104315 -0.20828176 -0.04285828 0.031605635 -0.52214473 0.21329471
0.06691832 0.04161339 0.34669077 -0.25816604 -0.40751696 0.19687046 0.48796353 0.19902398
0.44981384 0.14543824 0.5580337 0.40606734 0.015795002 -0.0715699 -0.22667508 -0.38102525
-0.38921076 0.39247227 0.34878302 0.23597172 0.103195086 0.23682599 -0.02854938 0.12042896
0.28788134 -0.45597786 0.31614235 -0.008039788 0.27263668 0.49559262 -0.23684075 0.38750383
0.12051483 -0.056201898 0.47074655 -0.21494755 0.2790344 -0.09544112 0.34636375 -0.5575355
-0.49297684 0.17831042 -0.6776062 -0.30437726 -0.05140734 -0.12764855 0.5034018 0.23183154
0.23383652 0.34411198 -0.5500778 0.4683571 0.032632936 -0.15906964 -0.093655266 -0.20903167
0.11536578 -0.3408896 0.009735049 0.25880882 0.2030074 0.027875898 -0.33657327 -0.12498144
-0.053700604 -0.06046576 0.22347905 -0.028623553 -0.23618686 -0.4005112 0.025398076 0.36067367
-0.29034418 -0.20699745 0.074748516 0.2581334 0.39299744 0.26591188 -0.41292977 -0.27931517
0.46498224 0.13015133 0.15548305 0.45498535 0.40574166 0.23897721 -0.18720512 -0.24017319
0.39633784 -0.23044206 -0.26585692 0.43566605 0.12569332 0.09864607 0.120607205 0.2299352
0.010242561 0.019940915 0.038981076 0.054177966 0.5128146 0.09413289 -0.19094957 0.3877213
-0.5458449 0.32904124 0.08610275 -0.042343758 0.36357486 0.39559636 0.33628333 0.41291317
-0.32933235 0.32277018 0.27352294 0.15970266 0.47016838 0.41871563 -0.27111375 -0.06650665
-0.35231048 -0.3657323 -0.53334695 -0.49548104 0.09221612 0.3090631 -0.39652613 -0.32240087
-0.250447 -0.3316507 -0.1854538 -0.2381983 0.19049504 -0.18215854 0.44157287 -0.6967128
-0.077455714 0.3926067 -0.11416833 0.32582906 -0.055067893 -0.37478834 -0.11069231 -0.016842758
0.19833319 0.25310832 0.16878329 -0.22202966 -0.30575833 0.055895705 0.013819991 -0.04004247
0.41712758 0.0034329987 -0.058807366 -0.33028543 0.30883202 0.21891266 -0.2968024 -0.15285674
-0.42385554 -0.14453343 -0.2743423 -0.39323103 -0.2852822 -0.19382381 0.49461657 0.3335526
0.25631264 0.38843912 0.364793 0.25154218 0.36588317 -0.14159949 0.16180474 -0.03792787
0.22956486 0.47419134 0.15240405 0.057568293 0.4789032 -0.18800656 -0.26205936 -0.53985703
0.25372088 -0.08073639 -0.33205777 0.46099105 -0.12878832 0.48686883 0.21147786 -0.21599162
0.43050417 0.29693377 0.06846895 0.29907733 0.23055544 -0.0016198419 0.226703 -0.018648371
0.14397989 0.2957433 -0.46108904 -0.043054286 -0.47837526 0.3415679 0.35586348 0.35930812

fc1.bias f4 [64]
00000000: 1dfe 1cbb de6d 523e 0ae1 403d 26d6 adbe
00000010: 9723 453e 65a8 0f3f ee32 8fbe 00dd 893e
00000020: 59b9 013f 4d78 fc3e 62e1 33bc a2f8 143f
00000030: 7a49 243f 554e 0d3f 3139 f23d 6edd 8fbd
00000040: 3abf ccbd 4f99 2c3f 42b7 bbbe a3bf 91be
00000050: ae51 babe 1fdc f3be a33d a4be d8ff d13e
00000060: ae70 f43d 89c8 06bf 557e f23c d054 7fbd
00000070: 03ba 1c3f 6219 89be c013 51bd c706 043f
00000080: 1a60 c8be 7397 26be 8c1a ffbe 096e 953c
00000090: 53e5 283f bbc0 b03d 295b ab3e 026f e7bc
000000a0: 3983 033e e3e1 a1be 5f34 213e 9963 e93e
000000b0: b691 f1be 9885 2f3e ce9c 80be cb66 f23e
000000c0: 5698 bcbe 6ecb 193f 5b30 debe 6e48 dc3e
000000d0: d4fb 34bd c83b 6cbe 221b c93e cafe 70be
000000e0: bd44 dbbd d4cf e2bd 8226 26be e4de 393f
000000f0: fb4f d7be 1329 05bf f405 463e a3f4 1ebe
-0.0023955174 0.20549724 0.047089614 -0.33952445 0.19251858 0.56116325 -0.27968544 0.26926422
0.50673443 0.49310532 -0.010979028 0.58191884 0.64174616 0.5519765 0.11827315 -0.07024656
-0.09997411 0.6742143 -0.36663252 -0.2846652 -0.36390442 -0.47628877 -0.32078275 0.41015506
0.119355544 -0.5264974 0.029601255 -0.062336743 0.6122133 -0.26777178 -0.051044226 0.5157284
-0.3913582 -0.16268711 -0.4982494 0.018240945 0.6597492 0.086305104 0.33467987 -0.028251175
0.12843026 -0.3161765 0.15742634 0.455838 -0.4718148 0.17140806 -0.25119632 0.4734405
-0.36834973 0.60076034 -0.43396267 0.4302401 -0.044185475 -0.2306968 0.39278513 -0.23534694
-0.1070647 -0.11074796 -0.16225627 0.7260573 -0.42053208 -0.520158 0.19338208 -0.15523009

fc2.weight f4 [64, 64]
00000000: 2393 5e3b 206e 8d3d 92a0 653d aca5 b6bd
00000010: 1058 fd3c 74b7 08be 80e2 753d 49ee a4bd
00000020: 4aa3 fc3d f1b6 f13c bccc 313d 69aa bc3d
00000030: fe13 533c 9f85 743d 5a1c 3dbd ad81 363d
00000040: 3373 5fbd 95b6 8abd a159 d53c be56 95bc
00000050: 96bf 6ebd aa15 c73d 81f6 ed3d 7c8b 94bd
00000060: 975a 9d3d d9bd b73d 6807 ae3d 9935 d73d
00000070: faf3 f7bd 38e6 ee3c 7887 fe3d 2e43 f7bd
00000080: c2fb dabd 8564 f63d 836c 10be cace 89bd
00000090: c50b 45be c5f2 bdbb 6832 6cbe bbb2 1dbd
000000a0: e2a8 20bd 6732 4cbb 9163 703d 4dc7 d3bd
000000b0: 7fd2 d03d ca9b 833c 3448 ffbd 03da 05bd
000000c0: aaf3 523d 577e 60be a8a1 c5bd 2009 b53d
000000d0: 9c38 b03d d00a 3f3d 3cee 0fbd ca99 f3bd
000000e0: fa75 84bc d698 dd3b dc59 a3bd 7191 0dbc
000000f0: dc2a 993d 0531 b43d 41f4 243d adce bfbd
00000100: b3d4 50bb 74f8 8cbd d712 babd ea5d f3bd
00000110: f943 f9bd ec51 5a3e c2bd 9cbd b649 6b3d
00000120: 8027 8abc 051f c33d c255 4cbd c67b ee3d
00000130: 6dbf 5e3d 80db ca3d 2d87 9ebd 9412 c43c
00000140: 1d94 bbbd c829 27bd f754 febd 7893 17be
00000150: 753a bdbd f2ab 93bc bcf2 86bd 826c 843e
00000160: 7924 503d 37dd 49be 3e75 56bd 2788 043c
00000170: 2de2 083e ee6f 96bd 5ab9 d53d 944d 4d3d
00000180: 7916 a03d 9c5a 27bd 6df6 ed3c ed71 63bd
00000190: e9e2 de3e 8dac ebba 9d4a 8e3e 8fe0 703d
000001a0: 3bbe 8c3c 631f 12be efd1 24bc 8f5a 093d
000001b0: 3486 ff3d 006e d23b 9b01 78bd a80f 0e3e
000001c0: a388 34bd aabd 743d 3305 453d 7e70 0bbe
000001d0: 6b8f 283e 3a46 d5bd 8db5 1bbd 4b11 333d
000001e0: 1a27 28be b1f6 ffbd eaca 173d c207 febc
000001f0: a252 4b3d c470 debd 2321 a6bd b295 29bd
00000200: a63d 93bd 0cc7 c63d ca31 923d 7c3e f9bd
00000210: 50ab 68bc 38fe 22bd be50 c83d c05e 463d
00000220: e2be 93bd 5a65 c5bd 8814 efbd 08ad bb3d
00000230: 74fb 35bd a436 05bd 5038 543c 783d be3c
00000240: 40ec 8e3b 1c7b 4cbd ba55 e2bd 009a 6cba
00000250: a4fe fdbd 064a f8bd 4012 c23c fcf1 a1bd
00000260: 60b7 5cbd 709a 69bd f04f 753c 20d3 f7bc
00000270: b8a4 29bd 58a5 75bd 1680 ddbd 00a7 e83b
00000280: a600 e83d d875 92bc 6092 143c 90a6 57bd
00000290: 0ee4 90bd 7060 923c 9092 e7bd 0005 66bb
000002a0: 784d d93d b0da 4cbd 00a5 943b 9c99 f6bd
000002b0: 00e9 20bd e047 833d dc88 6bbd 4879 9bbd
000002c0: 9072 4abd 1887 663d 0010 a13c e82f 0ebd
000002d0: 20c3 dd3c d474 f0bd defb df3d 8c60 afbd
000002e0: 9ad6 eebd 4663 d6bd 80dd 45bc 5609 f53d
000002f0: 40b5 e73b d823 88bd e054 01bd ea04 9abd
00000300: e845 f93c a965 90bd 090c 5fbc 3055 823d
00000310: d39c bcbd 8415 203e 853f 54bd f1a9 a03d
00000320: 6611 83bd af21 cc3d f318 b13d c69e c63d
00000330: 6e66 e1bc 49d4 56bd a20c ae3d a335 4b3d
00000340: eea1 213d ab02 ec3d 1ede 7bbd 992d 083e
00000350: c09a 97bd 427e a9bd 0654 bbbd 8ca7 8e3d
00000360: f44a 293d d5fd febd 6ddc cf3d 926c 893d
00000370: f712 8b3e 9ae4 913d aabe adbd 0d2c f23d
00000380: 4bbb 973d a7e9 a2bd ad86 133e b82a 4f3e
00000390: de5c 5c3e 4ad5 f73d 77f6 b43d 7cf1 193e
000003a0: b6bc babd bc2b 13bd cd54 95bc 62c6 6c3c
000003b0: 7229 703c a7df c43c a261 9bbc 24f6 2a3e
000003c0: 41ba b7bd 00f4 d03d e4bc 9cbc 2a1d 8e3d
000003d0: f41f 8b3d eee3 e43d fe71 b83d 07e4 bd3d
000003e0: c182 653a 61ad babd c21b 1d3d d68f 3dbd
000003f0: 9aa2 3cbd acf9 193c 8ff6 f43d 88a8 3ebc
0.0033962212 0.0690577 0.056061335 -0.08918318 0.03092578 -0.13351232 0.06003046 -0.08053262
0.123358324 0.029506179 0.04340814 0.09212191 0.0128831845 0.059697744 -0.046169616 0.044557262
-0.054553222 -0.06773106 0.026043715 -0.018229838 -0.05828818 0.09720929 0.116192825 -0.07253167
0.07683294 0.089717574 0.084975064 0.1050827 -0.12107082 0.029162511 0.12428182 -0.120733604
-0.1069255 0.12030891 -0.14103894 -0.06728895 -0.19242771 -0.0057967626 -0.23066103 -0.03850053
-0.03922356 -0.0031157972 0.058688704 -0.10340748 0.10196399 0.016065497 -0.124649435 -0.032678615
0.051501907 -0.21923195 -0.09649974 0.08839631 0.086045474 0.04664117 -0.035139307 -0.11894567
-0.016169537 0.006762604 -0.07976124 -0.008640633 0.07478878 0.08798412 0.040272 -0.09365592
-0.003186506 -0.06883326 -0.09085625 -0.11883147 -0.12171168 0.21320313 -0.07653381 0.057443343
-0.016864538 0.09527401 -0.049886473 0.11644702 0.054381777 0.099051476 -0.077406265 0.02393464
-0.0915911 -0.04081133 -0.124185495 -0.14802349 -0.092396654 -0.018026326 -0.06589267 0.25864035
0.050816033 -0.19713293 -0.052357905 0.008089102 0.13367529 -0.07345568 0.10435744 0.050122812
0.07816786 -0.040857896 0.029048169 -0.05552857 0.43532494 -0.0017980501 0.277913 0.058807906
0.017180553 -0.14269786 -0.010059818 0.03353363 0.12476769 0.0064218044 -0.060548406 0.1387316
-0.04407562 0.05975119 0.04810066 -0.13617131 0.1646096 -0.10413785 -0.038014937 0.043717664
-0.16421166 -0.124982245 0.03705875 -0.031009559 0.04963935 -0.10861352 -0.08111789 -0.041402526
-0.07189493 0.09705934 0.07138403 -0.12170121 -0.014201 -0.039793223 0.09781025 0.048430204
-0.072141424 -0.09638472 -0.11673838 0.091638625 -0.044429258 -0.032522812 0.012952879 0.02322267
0.0043616593 -0.049922094 -0.11051507 -0.00090256333 -0.124020845 -0.12123494 0.023690343 -0.07907483
-0.053885818 -0.05703205 0.014972672 -0.03025204 -0.041416854 -0.059972137 -0.10815446 0.007099986
0.11328249 -0.017878458 0.009068102 -0.05264908 -0.07074748 0.01786825 -0.113072515 -0.0035098195
0.10610479 -0.050013244 0.004536271 -0.120410174 -0.039284706 0.064101934 -0.057503566 -0.07591492
-0.04942566 0.05628118 0.01966095 -0.034713656 0.027070582 -0.11741033 0.10936712 -0.08563337
-0.11662026 -0.10468154 -0.0120767355 0.11964671 0.007071167 -0.06647462 -0.031575084 -0.075204685
0.030428842 -0.0705064 -0.013613709 0.063639045 -0.09209599 0.15633208 -0.05181839 0.07844914
-0.06399803 0.09967362 0.08647337 0.096982524 -0.027514663 -0.052448545 0.08498503 0.0496117
0.03946107 0.115239464 -0.061491124 0.13298644 -0.07402563 -0.08276035 -0.091468856 0.06965551
0.041331246 -0.12450758 0.10149465 0.06710161 0.27162907 0.071236804 -0.08483632 0.11824808
0.0740877 -0.07954722 0.14406843 0.2023114 0.21519801 0.121012285 0.08836072 0.15033525
-0.09118025 -0.03593038 -0.018228913 0.014451595 0.014658319 0.024032427 -0.018967453 0.16695458
-0.08971072 0.10202789 -0.019133039 0.06939156 0.06793204 0.11176287 0.09006117 0.092720084
0.00087551406 -0.09115101 0.03835655 -0.04627975 -0.046053506 0.009397905 0.1196109 -0.011636861

fc2.bias f4 [64]
00000000: 0d92 6abe e48f ff3d 20f5 39bc 611f 803e
00000010: 4360 f1bd 92ac 283d 713a c1bd 2a73 05bd
00000020: cb13 abbc 5ba0 7d3e 5860 e1bd 55d7 48be
00000030: 13d0 7d3e 915c 8fbd 71f7 c6bd 3cf0 72bd
00000040: 9a3e b4bd 8d98 843e f04a bc3e 76ce 183e
00000050: c7de 163e 02e5 a03e cbbb dc3d e7f0 3c3e
00000060: 2226 153e d377 babc c9bf a93e 1d81 34bd
00000070: e3b4 703e ecfa 0abe 0582 0b3e fe26 843d
00000080: 2351 133c e553 53be 4e9d 2cbe 710a ae3d
00000090: 558c 2bbe 9160 a1bd db21 52be 467a de3d
000000a0: fc86 47be 777a 21bc 0d93 323d 65c2 783e
000000b0: cc8c 613e 6a32 a33e c7a2 083e 51cf 98bd
000000c0: 8c34 cdbd 8581 dabd 94ca 06be 9929 36be
000000d0: 09bc d0bd 7aa6 5dbe 66a5 b13e 2f6a d6bd
000000e0: 9e5d 63be 084d be3d 7562 8abc 4c1d 37be
000000f0: 636b 41be 90a3 823c a00f 7ebd a902 0cbd
-0.22907276 0.12478617 -0.011349946 0.2502394 -0.117859386 0.0411802 -0.09434975 -0.032580532
-0.020883461 0.24768202 -0.11004704 -0.19613393 0.24786405 -0.070000775 -0.097151645 -0.059311137
-0.08801003 0.25897637 0.36775923 0.14922509 0.1473342 0.3142472 0.10778006 0.18451272
0.14565328 -0.022762215 0.33154133 -0.044068445 0.23506503 -0.13572282 0.13623817 0.0645275
0.0089915125 -0.20637472 -0.16856882 0.08498085 -0.16752751 -0.07879747 -0.20520727 0.108631656
-0.19485086 -0.009855858 0.04359727 0.24292906 0.22026366 0.318744 0.13343345 -0.074614175
-0.10019788 -0.10669235 -0.13163215 -0.17789306 -0.10192115 -0.21645537 0.34696501 -0.10469472
-0.22203681 0.09292036 -0.016892651 -0.1788227 -0.18888621 0.015947133 -0.06202662 -0.034182224

fc3.weight f4 [2, 64]
00000000: aa1d e0bd 8756 4b3e 2af8 993d 778a fa3d
00000010: 873c 743d bc19 803d aa5c 1bbe 0212 b9bb
00000020: 79ec b03d f4ff b63d 5d82 eebd 3412 06be
00000030: 5f65 a13d f612 463c ab72 06be d2fb 16be
00000040: c972 003d 5bd2 893e 851f b93e e1fc d53d
00000050: c30f 9d3e 6c1f 5d3e da29 e63d 60c8 233e
00000060: ef23 0b3e 30f7 4cbe 1456 b53e e559 0bbe
00000070: 1412 c53d a391 18be 75a1 723e a0b4 40bd
00000080: 7d19 6bbc a4fc 21be e423 37be 39c8 9e3d
00000090: ac8d 35be a61f 843d 1af9 27be cf8d 013e
000000a0: 0198 33bd d028 3bbe ee28 00bd 8c79 243e
000000b0: 5263 1b3e f50b 083e 19e1 833e 3930 c5bd
000000c0: d4a5 f73d 289c b83d 5ef0 ccbd 9817 c2bc
000000d0: 7d30 623c a87c dfbd 2493 a23e fa38 00be
000000e0: 94e1 4abe 8f4b 1e3d 9ec0 4dbe a44d 30be
000000f0: 28ee 26bd d7bc d63d 2f81 14be 8ba5 6f3c
00000100: 3268 c13d 16ca 24be 5423 59bd 1b92 e3bd
00000110: 0f74 553d b017 e7bd e706 07be 630f d23d
00000120: 4d32 833d f43f 89be 6493 383c 6c0e 963d
00000130: 4165 d7bd 8d09 b03d 8d55 8dbe 9803 00be
00000140: 1a57 aa3d 847e 8cbe 632e 03bf d249 92bd
00000150: 2a37 5abe 471b e0be f76f f73b 00b2 5bbd
00000160: 8259 18be 874c 63bd f6f7 89be 2333 12be
00000170: 86f2 c9be 7b9e ad3d a82b 70be 4636 85bc
00000180: e8a5 993d 6067 f0bd 4a3d a2bd c55f 9dbd
00000190: 7150 a5be defd c53d 6b4c ddbd 9170 553c
000001a0: b633 263d 5daa e93d aef5 963d ebae 11be
000001b0: 4064 acbe 32d7 f3bd 7697 38be dafb 3bbc
000001c0: b019 28bd 7385 033d 531e 97bd 79c6 ad3c
000001d0: 4db9 c8bd 9a02 aabd 7dd6 aebe 6367 993d
000001e0: 033d 80be c2b8 aebe 5040 5a3d 62c6 08be
000001f0: 3baf 1d3d 0847 2f3d 59af efbe 608e 4b3d
-0.10943158 0.19857226 0.07518037 0.12233441 0.059628036 0.062549084 -0.15172067 -0.0056478987
0.086388536 0.08935538 -0.116459586 -0.13092881 0.07880663 0.012089482 -0.1312968 -0.147445
0.031359468 0.269183 0.3615686 0.104486234 0.30676088 0.21594018 0.11238451 0.15994406
0.13587926 -0.2001617 0.35417235 -0.13608511 0.09622589 -0.14899306 0.23694403 -0.047047257
-0.014349339 -0.15819031 -0.17884785 0.07753033 -0.17729825 0.06451349 -0.16403618 0.12651752
-0.043846134 -0.18277287 -0.031289034 0.16061991 0.15174606 0.13285811 0.25757673 -0.09628338
0.12092176 0.090141594 -0.10006784 -0.023692891 0.013805506 -0.10912448 0.31752884 -0.12521735
-0.19812614 0.038646277 -0.20093009 -0.17217118 -0.040754467 0.10485237 -0.14502405 0.014626871
0.09443702 -0.16092715 -0.053012207 -0.11111852 0.052112635 -0.11283815 -0.13186227 0.10256841
0.064060785 -0.26806605 0.011265609 0.073269695 -0.105173595 0.08595572 -0.27604333 -0.12501371
0.083173946 -0.27440274 -0.51242656 -0.07142986 -0.21310106 -0.4377081 0.007551189 -0.05363655
-0.14877895 -0.055492904 -0.26946992 -0.1427732 -0.39442843 0.084774934 -0.23454154 -0.016261231
0.07502347 -0.11738467 -0.07921846 -0.07684282 -0.32287934 0.09667562 -0.10805591 0.013027326
0.04057666 0.11409447 0.073710784 -0.14226882 -0.33670235 -0.119062796 -0.18026528 -0.01147362
-0.041040123 0.03210969 -0.07378831 0.021212803 -0.09800968 -0.083012775 -0.34148017 0.074904226
-0.25046548 -0.34125334 0.05328399 -0.13356927 0.03849719 0.04279235 -0.46813467 0.049696326

fc3.bias f4 [2]
00000000: a067 413d f47c 51be
0.047217965 -0.20457822
