sat-code/models/maddpg_20250712-135635/checkpoint_800/actor_agent_2.pth (torch, 21533 bytes, 6 tensors)

fc1.weight f4 [64, 4]
0	0x3ec83798	0.39104915
1	0xbe4e259d	-0.20131536
2	0xbd107c10	-0.035274565
3	0x3c95ce1f	0.018286763
4	0x3d987bf9	0.07445521
5	0xbea2ac85	-0.31772247
6	0xbe1955a7	-0.1497408
7	0x3eaf4dff	0.34239194
8	0x3e7c144c	0.24617118
9	0xbeb87954	-0.36030066
10	0xbf0450bb	-0.51685685
11	0xbd2227ee	-0.03958886
12	0xbe89ce4e	-0.2691521
13	0xbec803ee	-0.39065498
14	0xbdd717d8	-0.10502595
15	0x3ebbd91e	0.36689085
16	0x3ec46bcb	0.3836349
17	0xbe2da7df	-0.16958569
18	0x3ed7c1f5	0.42140165
19	0xbe23fb10	-0.16013741
20	0xbd19f263	-0.037584674
21	0xbe22f5fb	-0.15914147
22	0xbd5c9e83	-0.053862106
23	0xbc98d4dc	-0.018656187
24	0xbe97d2c4	-0.2965299
25	0xbcce34f4	-0.025171734
26	0xbec33957	-0.38129684
27	0x3e7cd3d8	0.24690187
28	0x3db75cd1	0.0895325
29	0x3c5fd77a	0.013662213
30	0xbf0d3690	-0.5516138
31	0xbdb3336c	-0.08750042
32	0x3eca5b80	0.39522934
33	0x3e8e2b84	0.27767575
34	0xbde6baab	-0.11266073
35	0xbf20eb74	-0.6285927
36	0x3ee6d13a	0.45081502
37	0x3eb8a68f	0.36064574
38	0xbed4a38d	-0.4153103
39	0xbef281ec	-0.47364748
40	0x3dbefa12	0.09325041
41	0x3bcddd62	0.0062824944
42	0x3b94a314	0.004536042
43	0xbeb426ff	-0.35186002
44	0x3d080a93	0.03321321
45	0x3d201dc7	0.039090898
46	0xbf24c179	-0.64357716
47	0x3e472e0b	0.19451158
48	0x3da92646	0.08259253
49	0xbdc0194a	-0.093798235
50	0x3e725299	0.23664321
51	0xbebedb20	-0.37276554
52	0xbf1c7503	-0.61116046
53	0x3e121bf2	0.14268473
54	0x3e97044b	0.29495463
55	0x3ea440b9	0.3208063
56	0x3ed4e0e7	0.41577837
57	0x3e4fd4a7	0.20295964
58	0x3eda76ec	0.42668855
59	0x3f0a244b	0.5396163
60	0x3d7416ad	0.059591938
61	0x3ce9ba61	0.028531255
62	0xbdcfe1e1	-0.10150505
63	0xbeeb602e	-0.45971817
64	0xbe9d9551	-0.30777982
65	0x3ef0e486	0.4704935
66	0x3f0e6381	0.5562058
67	0x3ebde005	0.37084976
68	0x3db2b43e	0.08725785
69	0x3e16affe	0.14715573
70	0xbe3a2c2d	-0.18180914
71	0x3d833dff	0.06408309
72	0x3e7524e8	0.2393986
73	0xbed9db93	-0.42550334
74	0x3e3e3fec	0.18579072
75	0xbdfa888d	-0.12233076
76	0x3e82f421	0.2557688
77	0x3ed84d90	0.42246675
78	0xbf06156c	-0.5237644
79	0x3ec0126a	0.3751405
80	0x3e05e9ce	0.1307747
81	0x3cf6719b	0.030083468
82	0x3f1ee8e7	0.6207413
83	0xbe114b06	-0.14188775
84	0x3e85a6e7	0.261039
85	0xbc0c269c	-0.008554127
86	0x3ece2261	0.40260604
87	0xbf03aac1	-0.51432425
88	0xbebe29df	-0.3714132
89	0x3e5b5eb3	0.21422844
90	0xbf0f5207	-0.5598454
91	0xbea94fe1	-0.33068755
92	0xbcecb13a	-0.028893102
93	0x3d33f936	0.043938838
94	0x3e8a1aad	0.26973477
95	0x3ed57c8c	0.41696584
96	0x3e86543e	0.26236147
97	0x3e664cfe	0.22490308
98	0xbf5bb904	-0.85829186
99	0x3ee1c765	0.44097438
100	0x3c3f222c	0.011665862
101	0xbe5ca6c6	-0.21547994
102	0xbd4a2765	-0.049353976
103	0xbe865b95	-0.26241747
104	0x3e5e7c2e	0.21727058
105	0xbe409214	-0.18805724
106	0xbe13edac	-0.14446133
107	0x3e77a75c	0.24184936
108	0x3dc72a6f	0.097248904
109	0x3d230e96	0.039808832
110	0xbf0967aa	-0.53673804
111	0xbeba0b33	-0.3633667
112	0xbd6c7179	-0.057725403
113	0xbe72ba87	-0.23703967
114	0x3e17a114	0.1480754
115	0xbdda09e2	-0.10646416
116	0xbe71daf8	-0.23618686
117	0xbecd0fce	-0.4005112
118	0x3cd00fa0	0.025398076
119	0x3eb8aa38	0.36067367
120	0xbe94a7fe	-0.29034418
121	0xbe53f724	-0.20699745
122	0x3d9915c0	0.074748516
123	0x3e842a10	0.2581334
124	0x3eaeef0b	0.3416675
125	0x3de1a677	0.11018079
126	0xbf1b9166	-0.60768735
127	0xbef77b7f	-0.48336408
128	0x3ee611ac	0.44935358
129	0x3da7c79e	0.08192371
130	0x3e75a750	0.23989606
131	0x3ec312ac	0.38100183
132	0x3eca340d	0.39492837
133	0x3eb31f55	0.34984842
134	0xbde4251a	-0.11139889
135	0xbe4e51f3	-0.20148449
136	0x3eb63559	0.35587576
137	0xbe539d23	-0.20665412
138	0xbe2631b2	-0.16229895
139	0x3ef595a4	0.4796573
140	0x3dd25af6	0.10271256
141	0x3cd6ad2d	0.026205624
142	0xbca7baf5	-0.02047489
143	0x3ef14bb7	0.47128078
144	0x3d180234	0.037111476
145	0xbce5f756	-0.02807204
146	0x3db4591f	0.08806061
147	0xbd52387b	-0.051323395
148	0x3ef89e3a	0.48558217
149	0x3e27ed01	0.16399004
150	0xbe62cd87	-0.22148715
151	0x3f04faaf	0.5194501
152	0xbf1c54b9	-0.61066777
153	0x3e95a550	0.29227686
154	0xbe3a5a06	-0.18198404
155	0x3befee71	0.0073221256
156	0x3eb8057c	0.35941684
157	0x3ecfb433	0.4056717
158	0x3ebbdd4b	0.3669227
159	0x3ed524a0	0.41629505
160	0xbea84d01	-0.3287125
161	0x3ec4f40a	0.38467437
162	0x3eb9d79f	0.36297318
163	0x3e96c9e0	0.29450893
164	0x3eca5982	0.39521414
165	0x3e957eae	0.2919821
166	0xbee9e9bd	-0.4568614
167	0xbdd8f129	-0.10592873
168	0xbeb66993	-0.35627422
169	0xbe9ddbec	-0.3083185
170	0xbf321f8d	-0.6957939
171	0xbf2577b6	-0.6463579
172	0x3d2c3745	0.042044897
173	0x3e57740c	0.21040362
174	0xbee96126	-0.4558193
175	0xbed45a56	-0.4147517
176	0xbe61ca76	-0.22049889
177	0xbea7b12d	-0.32752362
178	0xbe6b15d7	-0.2295755
179	0xbecae630	-0.39628744
180	0x3e6219c4	0.22080141
181	0xbc6354cb	-0.013875197
182	0x3f265d9a	0.64986575
183	0xbf23ff0e	-0.6406106
184	0xbdaa5ef6	-0.083188936
185	0x3eee58b5	0.46552053
186	0xbd4a1c7f	-0.049343582
187	0x3eacd374	0.33755076
188	0x3c181046	0.009281224
189	0xbea91b70	-0.33028746
190	0xbe47af7d	-0.19500537
191	0xbd1a8baa	-0.03773085
192	0x3e4c60b3	0.19958763
193	0x3eae5dac	0.3405584
194	0x3e8ccd04	0.27500165
195	0xbea89e87	-0.32933447
196	0xbe9096c7	-0.28240034
197	0x3df19875	0.11796657
198	0xbdecde67	-0.115658574
199	0xbdc71d8d	-0.09722433
200	0x3ed74a9b	0.42049107
201	0x3dc78be1	0.09743477
202	0x3bdd4191	0.006752201
203	0xbecaf9b1	-0.39643624
204	0x3e933252	0.2874933
205	0x3d9c2092	0.076234
206	0xbef60ced	-0.48056737
207	0xbea2b2b2	-0.3177696
208	0xbefc6f1e	-0.49303526
209	0xbe09b915	-0.1344951
210	0xbed0d792	-0.40789467
211	0xbefd1cf8	-0.49436164
212	0xbe921082	-0.2852822
213	0xbe4679c0	-0.19382381
214	0x3efd3e62	0.49461657
215	0x3eaac768	0.3335526
216	0x3e5ea6af	0.21743272
217	0x3e6af36c	0.2294442
218	0x3efcf2e4	0.4940406
219	0x3f0862fd	0.53276044
220	0x3ecb3a7e	0.39693063
221	0x3c060985	0.008180981
222	0x3e8006cc	0.25005186
223	0x3d60653c	0.054784045
224	0x3e3b6a19	0.18302192
225	0x3eda890f	0.42682692
226	0x3c1ba0c6	0.009498781
227	0x3e068c9d	0.13139577
228	0x3ed58792	0.41704994
229	0xbe3c0207	-0.18360148
230	0xbe9038a4	-0.28168213
231	0xbf3b0cc2	-0.7306634
232	0x3e66e8c1	0.22549726
233	0xbe1d1625	-0.15340479
234	0xbeb707db	-0.3574818
235	0x3f31a26e	0.69388473
236	0xbd58d0f2	-0.05293364
237	0x3ec8a600	0.39189148
238	0x3e1baa11	0.15201594
239	0xbeb34a6c	-0.35017717
240	0x3ecd5537	0.40104076
241	0x3df0643b	0.117378674
242	0x3dab8454	0.08374849
243	0x3e593696	0.21212229
244	0x3e7f629c	0.2493996
245	0x3dcca20a	0.09991844
246	0x3eca5610	0.39518785
247	0x3cab65bc	0.020922534
248	0x3de23aae	0.110463485
249	0x3e5c6322	0.21522191
250	0xbf250f4c	-0.64476466
251	0xbd0b5f70	-0.034026563
252	0xbf0f7568	-0.5603852
253	0x3eae07fd	0.3399047
254	0x3eabe3e4	0.33572304
255	0x3e6a3ad5	0.22874005

fc1.bias f4 [64]
0	0x3f0ad129	0.54225403
1	0x3eb93fa1	0.36181358
2	0x3e6102ec	0.21973771
3	0xbeadd626	-0.33952445
4	0x3f217720	0.63072395
5	0x3ed91cd6	0.42404813
6	0xbe6c611b	-0.23083918
7	0x3e55b8ee	0.20871326
8	0x3f540ed3	0.8283512
9	0x3e2fee80	0.17180824
10	0x3f5c526d	0.8606327
11	0x3f6b29f5	0.91860896
12	0x3f94acc0	1.1615219
13	0x3e560557	0.20900474
14	0x3ec628e1	0.38703063
15	0x3f5be4af	0.8589582
16	0x3ee425fc	0.4456023
17	0x3f13d86e	0.5775212
18	0xbec419bf	-0.38300893
19	0xbf4a5b33	-0.7904541
20	0xbd43c201	-0.04779244
21	0xbed7f842	-0.42181593
22	0xbd403c96	-0.04693278
23	0x3f06a9f6	0.5260309
24	0xbedb5744	-0.42840016
25	0xbf2d79d6	-0.6776403
26	0x3f03f4b0	0.5154524
27	0xbf07daf1	-0.53068453
28	0x3f1a5cac	0.60297656
29	0xbe891962	-0.26777178
30	0xbd5113c0	-0.051044226
31	0x3f6e15d9	0.93002087
32	0xbec13e76	-0.37742966
33	0xbeeed9fe	-0.4665069
34	0xbf293924	-0.66102815
35	0xbf492c92	-0.78583634
36	0x3f777d92	0.9667598
37	0xbe64c0df	-0.223392
38	0x3e83ab10	0.25716448
39	0xbce830d5	-0.028343597
40	0x3f36084e	0.7110642
41	0xbe617bc3	-0.22019868
42	0x3ec334e4	0.3812629
43	0x3ec330ea	0.38123256
44	0xbe90d53f	-0.28287694
45	0x3f647a09	0.8924871
46	0xbf103c93	-0.5634243
47	0x3f03a728	0.51426935
48	0xbd94bc52	-0.07262482
49	0x3f4df19e	0.80446804
50	0xbeec4c0f	-0.46151778
51	0x3f667cb6	0.90034044
52	0x3dcdba2d	0.10045276
53	0xbe6c3bc8	-0.2306968
54	0x3f91918e	1.1372545
55	0xbe90718c	-0.2821163
56	0x3c85e552	0.0163447
57	0x3eef29dd	0.46711627
58	0xbf19064e	-0.59775245
59	0x3f528448	0.82233095
60	0x3df80cc4	0.1211181
61	0xbec9d79c	-0.3942231
62	0xbe6f58ad	-0.23373671
63	0xbecdd7d4	-0.40203726

fc2.weight f4 [64, 64]
0	0x3d211a20	0.039331555
1	0x3eafcd4c	0.34336317
2	0x3c5d2f99	0.013500118
3	0xbdb6a5ac	-0.08918318
4	0x3d97ffb0	0.074218154
5	0xbdc2484d	-0.094864465
6	0x3d98f909	0.07469375
7	0xbd864f9f	-0.06558155
8	0x3e0feb8d	0.14054699
9	0x3d0e18f3	0.034691762
10	0x3ddee599	0.10883636
11	0x3e829097	0.25500938
12	0x3e71e0c8	0.23620903
13	0xbda06792	-0.078322545
14	0xbc10ff90	-0.008849993
15	0x3e062e79	0.13103665
16	0x3c81afaf	0.015830843
17	0xbccfc28b	-0.02536132
18	0x3da70978	0.08156103
19	0x3aa4cdc4	0.001257353
20	0xbd38c7e9	-0.045112524
21	0x3dbcb649	0.09214456
22	0x3e2b1a83	0.16709332
23	0xbc1c3e4a	-0.009536335
24	0x3db6ca83	0.08925345
25	0x3e4bf1d5	0.1991647
26	0x3e217a19	0.15769233
27	0x3d9eebfb	0.077598535
28	0xbe868906	-0.26276416
29	0x3ceee638	0.029162511
30	0x3dfe8778	0.12428182
31	0xbdced391	-0.10098947
32	0xbdb35994	-0.0875732
33	0x3df1e65a	0.11811514
34	0xbe24b7f0	-0.16085792
35	0xbd983cbc	-0.07433459
36	0xbd511dd9	-0.051053856
37	0x3c42ee3b	0.011897619
38	0xbe333a84	-0.1750279
39	0xba9d5f9c	-0.0012006643
40	0x3d91464b	0.070934854
41	0xbbbf662b	-0.005841037
42	0x3e94c31b	0.29055104
43	0xbd9b2442	-0.07575275
44	0x3e9be55f	0.30448434
45	0x3d6145d0	0.05499822
46	0xbdf7de3d	-0.121029355
47	0xbddd80d3	-0.10815587
48	0x3d897ee0	0.067136526
49	0xbd8a7512	-0.06760611
50	0xbdc653e3	-0.09683969
51	0x3de57359	0.112036414
52	0x3eace157	0.3376567
53	0x3d3f0ad0	0.04664117
54	0x3c884e6d	0.016638959
55	0xbdda4d37	-0.10659259
56	0x3bb83719	0.0056218025
57	0x3cdae4b7	0.026720388
58	0xbdd3434d	-0.10315571
59	0x3d27384a	0.040825166
60	0x3dbdf245	0.09274725
61	0x3dc0b36c	0.09409222
62	0x3cb4dd55	0.022078196
63	0xbd978cb6	-0.07399885
64	0x3d0a0d0b	0.033703845
65	0xbec3795e	-0.38178533
66	0x3d393648	0.045217782
67	0xbdf35dea	-0.11883147
68	0xbdcaa0a1	-0.09893919
69	0x3e8a26ed	0.26982823
70	0x3db9bbf1	0.0906905
71	0x3e182f82	0.14861873
72	0x3d427666	0.047476195
73	0x3e283c5b	0.16429274
74	0x3ce597c8	0.028026477
75	0x3e5a21f1	0.2130201
76	0x3e36cc60	0.178514
77	0x3da8ea53	0.08247819
78	0xbda98f37	-0.08279269
79	0x3df42e83	0.11922934
80	0xbe155525	-0.14583261
81	0x3d19cbee	0.037547998
82	0xbc77331e	-0.015087871
83	0xbe0c69c7	-0.13712226
84	0xbdadbc6a	-0.08483203
85	0x3d0e149e	0.03468763
86	0xbd328ccd	-0.04359131
87	0x3ea497c1	0.3214703
88	0x3daae07d	0.08343599
89	0xbe9bb7b7	-0.304136
90	0xbd802109	-0.06256301
91	0x3de39412	0.111122265
92	0x3eb0da15	0.34541383
93	0xbd966fee	-0.07345568
94	0x3dd5b95a	0.10435744
95	0x3e05bcdf	0.1306033
96	0x3da84ae4	0.08217409
97	0x3cb5fe87	0.022216095
98	0x3d3aa28a	0.045565166
99	0xbdf42748	-0.11921555
100	0x3f48c3d0	0.78423786
101	0x3c65729d	0.014004377
102	0x3ea86cba	0.32895452
103	0x3d73f606	0.059560798
104	0xbbca2107	-0.006168488
105	0xbd9213be	-0.07132672
106	0xbe0189c6	-0.12650213
107	0x3df78500	0.120859146
108	0xbcbc9527	-0.02302034
109	0x3d9c2f1d	0.07626174
110	0xbdccfbf8	-0.10008997
111	0x3e6e0e2b	0.23247592
112	0xbcad2fc3	-0.021140939
113	0x3e4054e9	0.1878239
114	0x3dde7e44	0.10863927
115	0xbd6849cb	-0.056711
116	0x3c97119a	0.01844101
117	0xbdd5463a	-0.10413785
118	0xbd239fb0	-0.03994721
119	0x3d7fc16a	0.062440313
120	0xbe0b23d0	-0.1358788
121	0xbd331bdb	-0.043727737
122	0x3c3d348c	0.011548173
123	0x3d292ae6	0.041300677
124	0x3d7ff70d	0.062491465
125	0xbdb571b6	-0.08859579
126	0x3b0c7809	0.0021433851
127	0xbdbbb795	-0.09165875
128	0xbd933da6	-0.07189493
129	0x3dc6c70c	0.09705934
130	0x3d9231ca	0.07138403
131	0xbdf93e7c	-0.12170121
132	0xbc68ab50	-0.014201
133	0xbd22fe38	-0.039793223
134	0x3dc850be	0.09781025
135	0x3d465ec0	0.048430204
136	0xbd93bee2	-0.072141424
137	0xbdc5655a	-0.09638472
138	0xbdef1488	-0.11673838
139	0x3dbbad08	0.091638625
140	0xbd35fb74	-0.044429258
141	0xbd0536a4	-0.032522812
142	0x3c543850	0.012952879
143	0x3cbe3d78	0.02322267
144	0x3b8eec40	0.0043616593
145	0xbd4c7b1c	-0.049922094
146	0xbde255ba	-0.11051507
147	0xba6c9a00	-0.00090256333
148	0xbdfdfea4	-0.124020845
149	0xbdf84a06	-0.12123494
150	0x3cc21240	0.023690343
151	0xbda1f1fc	-0.07907483
152	0xbd5cb760	-0.053885818
153	0xbd699a70	-0.05703205
154	0x3c754ff0	0.014972672
155	0xbcf7d320	-0.03025204
156	0xbd29a4b8	-0.041416854
157	0xbd75a558	-0.059972137
158	0xbddd8016	-0.10815446
159	0x3be8a700	0.007099986
160	0x3de800a6	0.11328249
161	0xbc9275d8	-0.017878458
162	0x3c149260	0.009068102
163	0xbd57a690	-0.05264908
164	0xbd90e40e	-0.07074748
165	0x3c926070	0.01786825
166	0xbde79290	-0.113072515
167	0xbb660500	-0.0035098195
168	0x3dd94d78	0.10610479
169	0xbd4cdab0	-0.050013244
170	0x3b94a500	0.004536271
171	0xbdf6999c	-0.120410174
172	0xbd20e900	-0.039284706
173	0x3d8347e0	0.064101934
174	0xbd6b88dc	-0.057503566
175	0xbd9b7948	-0.07591492
176	0xbd4a7290	-0.04942566
177	0x3d668718	0.05628118
178	0x3ca11000	0.01966095
179	0xbd0e2fe8	-0.034713656
180	0x3cddc320	0.027070582
181	0xbdf074d4	-0.11741033
182	0x3ddffbde	0.10936712
183	0xbdaf608c	-0.08563337
184	0xbdeed69a	-0.11662026
185	0xbdd66346	-0.10468154
186	0xbc45dd80	-0.0120767355
187	0x3df50956	0.11964671
188	0x3be7b540	0.007071167
189	0xbd8823d8	-0.06647462
190	0xbd0154e0	-0.031575084
191	0xbd9a04ea	-0.075204685
192	0xbc363f04	-0.0111234225
193	0xbec0dde1	-0.3766928
194	0x3d8a404d	0.06750546
195	0x3d825530	0.063639045
196	0xbe090273	-0.1337984
197	0x3e8469b4	0.25861895
198	0xbd8cb4f1	-0.06870449
199	0x3dc02ff2	0.09384145
200	0xbdb47b1d	-0.088125445
201	0x3db345cb	0.08753546
202	0x3d033c7e	0.03204011
203	0x3d6df3ed	0.058093954
204	0xbdab2d0a	-0.083582
205	0xbdb8f70d	-0.09031496
206	0x3cfd6daf	0.03093609
207	0x3c2b5829	0.010458031
208	0xbd36a7b3	-0.044593524
209	0x3d9a5fc6	0.075377986
210	0xbd867626	-0.06565504
211	0x3dca8414	0.09888473
212	0xbdda693c	-0.10664603
213	0xbdb495b2	-0.088176146
214	0xbe6d0ee2	-0.23150209
215	0x3e12884b	0.14309804
216	0x3cbdac38	0.02315341
217	0xbe59fd77	-0.21288095
218	0x3d09c616	0.033636175
219	0x3dd49e6f	0.10381781
220	0x3ecd707e	0.40124887
221	0x3d91e49a	0.071236804
222	0xbdadbeaa	-0.08483632
223	0x3dd29ec4	0.102841884
224	0x3d186229	0.037202988
225	0xbdb5d309	-0.088781424
226	0x3e006d56	0.12541708
227	0x3e321f69	0.17394795
228	0x3eb0f262	0.34559923
229	0x3dbc9f8d	0.092101194
230	0xbd22f630	-0.039785564
231	0x3dc63aa2	0.09679152
232	0xbe4b0d72	-0.19829348
233	0xbd324598	-0.0435234
234	0xbdb41455	-0.087929405
235	0x3c0f182d	0.008733791
236	0xbd2ca3b6	-0.042148314
237	0xbbea472c	-0.0071495976
238	0xbd821e37	-0.06353419
239	0x3eac0036	0.3359391
240	0xbdfb523d	-0.12271545
241	0xbbe1eb1f	-0.0068944837
242	0xbce98542	-0.028505925
243	0x3d4e2ac1	0.050333742
244	0xbd91fce8	-0.07128316
245	0x3de4e3ee	0.11176287
246	0x3cc187e2	0.023624364
247	0x3d8c4857	0.06849735
248	0xbd1258c5	-0.03572919
249	0xbdc87903	-0.09788706
250	0x3c65bdad	0.014022273
251	0xbd9d3274	-0.07675639
252	0xbda21b2f	-0.07915341
253	0xbc878202	-0.016541485
254	0x3e120994	0.14261466
255	0xbe36c447	-0.17848311

fc2.bias f4 [64]
0	0x3ee6edf0	0.45103407
1	0x3e441ca3	0.19151549
2	0xbc39f520	-0.011349946
3	0xbe51cffe	-0.20489499
4	0xbe039468	-0.12849581
5	0x3d28ac92	0.0411802
6	0xbecda20f	-0.40162703
7	0x3f5668f2	0.83753884
8	0x3eae2d89	0.34019116
9	0x3e9eabf2	0.3099056
10	0x3e4c858e	0.19972822
11	0x3e729a59	0.23691691
12	0x3f31065b	0.6915032
13	0xbd8f5c91	-0.070000775
14	0xbf40c804	-0.753052
15	0xbba9b81c	-0.0051794183
16	0xbdb5c4c2	-0.08875419
17	0xbea0cc97	-0.3140609
18	0x3e785c6c	0.24254006
19	0xbe7548ad	-0.23953505
20	0x3d9981f8	0.07495493
21	0xbed5a5bd	-0.4172801
22	0x3f017d64	0.50581956
23	0x3ecd2917	0.40070412
24	0xbeb040d2	-0.34424454
25	0xbe9b3f34	-0.30321658
26	0x3e5b4ccf	0.21416019
27	0xbec49bfe	-0.38400263
28	0xbefed9b5	-0.49775472
29	0x3ef172d1	0.4715791
30	0x3da0bf60	0.07849002
31	0x3d8426fe	0.0645275
32	0x3f34b3b8	0.7058673
33	0xbee289eb	-0.44245848
34	0xbe8ffed5	-0.2812411
35	0xbd7d9775	-0.06191202
36	0xbf268697	-0.6504912
37	0xbda16091	-0.07879747
38	0xbd04d94f	-0.032433804
39	0x3f219353	0.63115424
40	0xbe475dd4	-0.19469386
41	0x3f1f567a	0.6224133
42	0x3d32930d	0.04359727
43	0x3db39c20	0.08770013
44	0xbebf3d68	-0.37351537
45	0x3efa73cd	0.48916474
46	0xbd7997ec	-0.0609359
47	0x3e1afd4f	0.15135692
48	0xbdcd348c	-0.10019788
49	0x3dd581cf	0.1042515
50	0xbeb52f60	-0.35387707
51	0x3f12632e	0.57182586
52	0xbee0288b	-0.43780932
53	0xbf0a140b	-0.53936833
54	0xbbb3db9d	-0.0054888264
55	0x3ee5be36	0.44871682
56	0xbf2eee7a	-0.68332636
57	0xbf2316a3	-0.63706416
58	0x3ece6370	0.4031024
59	0xbee6ff8f	-0.4511685
60	0x3eeed344	0.46645558
61	0x3ef8d936	0.4860322
62	0x3d237d8d	0.039914656
63	0xbd180d04	-0.037121788

fc3.weight f4 [2, 64]
0	0xbd41051a	-0.047124006
1	0x3ecb1e19	0.396714
2	0x3d99f82a	0.07518037
3	0x3df9c51d	0.121957995
4	0x3d425c84	0.04745151
5	0x3d8019bc	0.062549084
6	0xbe12ee29	-0.14348663
7	0xbc64c3f5	-0.013962735
8	0x3db07cbe	0.08617543
9	0x3edb0939	0.42780474
10	0xbdb7aef8	-0.089689195
11	0xbe0eeb89	-0.13957037
12	0x3dfa0cf2	0.122095
13	0x3c4612f6	0.012089482
14	0xbd98496d	-0.0743588
15	0xbe6bfd88	-0.23045933
16	0x3d175644	0.036947504
17	0x3ee9cb00	0.4566269
18	0x3ea718cf	0.32636115
19	0x3dc3e8f1	0.095659144
20	0x3e91a79c	0.28448188
21	0x3e5e2d99	0.21697082
22	0x3dd80208	0.105472624
23	0x3e2872e1	0.16450073
24	0x3e044c51	0.12919737
25	0xbe7931a4	-0.24335343
26	0x3eaf9f19	0.3430107
27	0xbe953ff9	-0.2915037
28	0x3db05762	0.08610417
29	0xbd970dae	-0.07375656
30	0x3eea7595	0.45792833
31	0xbd40b4a0	-0.047047257
32	0xbda3bba0	-0.07994771
33	0xbe0b78d5	-0.13620313
34	0xbe40b49d	-0.18818898
35	0x3dc0c449	0.094124384
36	0xbe33cf31	-0.17559506
37	0x3d841fa6	0.06451349
38	0xbe846651	-0.2585931
39	0x3e269a92	0.16269901
40	0xbd33961c	-0.043844327
41	0xbdcf8193	-0.10132136
42	0xbd0028ee	-0.031289034
43	0x3e0ab8ef	0.13547109
44	0x3e009ec6	0.12560567
45	0x3e1f9142	0.15582755
46	0x3f28d24d	0.65945894
47	0xbdb4b5b2	-0.08823718
48	0x3df7a5d4	0.12092176
49	0x3dc80bf8	0.09767908
50	0xbd8aab36	-0.06770937
51	0xbc5fce98	-0.013660096
52	0xbd053b3b	-0.03252719
53	0xbd85290c	-0.0650197
54	0x3ea650f2	0.3248363
55	0xbe35b1ae	-0.1774356
56	0xbe2f1e43	-0.17101388
57	0x3d3ec43d	0.046573866
58	0xbe4143d6	-0.18873534
59	0xbde9811a	-0.11401577
60	0xbd1d81cd	-0.038453866
61	0x3e0c14f2	0.13679865
62	0xbe946788	-0.28985238
63	0x3c3f6b7a	0.011683339
64	0x3e1bb342	0.152051
65	0x3dd4b3ea	0.103858784
66	0xbd592354	-0.053012207
67	0xbdc447e4	-0.095840245
68	0x3d551b2c	0.052027866
69	0xbde717b0	-0.11283815
70	0xbe1b3ee8	-0.15160716
71	0x3e4e7d56	0.20165
72	0x3d8fa656	0.07014148
73	0xbd543995	-0.051812727
74	0x3d1c95c1	0.038228754
75	0x3de97ae9	0.114003964
76	0x3e43657b	0.1908168
77	0x3db0098d	0.08595572
78	0xbe9d9986	-0.30781192
79	0xbdf13288	-0.11777216
80	0x3d8cb65a	0.06870718
81	0xbd91182a	-0.07084687
82	0xbeea6f70	-0.45788145
83	0xbd8c053c	-0.06836936
84	0xbe20018f	-0.15625595
85	0xbecfa9a2	-0.40559107
86	0x3dea8be0	0.1145246
87	0x3e0a9b29	0.13535751
88	0xbda3dd93	-0.08001246
89	0xbe480d02	-0.19536212
90	0xbe2dd9eb	-0.1697766
91	0xbea052c8	-0.31313157
92	0xbef6fb72	-0.48238713
93	0x3e24a6e4	0.16079289
94	0xbde4722d	-0.1115459
95	0xbc853646	-0.016261231
96	0x3e0c1a18	0.13681829
97	0xbe1be73c	-0.15224928
98	0xbdf4b16d	-0.11947904
99	0x3c25256b	0.010079722
100	0xbebd7665	-0.3700439
101	0x3dc5fdde	0.09667562
102	0x3eb04b4a	0.3443244
103	0x3e804d1c	0.2505883
104	0x3d2661fd	0.040620793
105	0x3e545d3f	0.20738696
106	0x3d96f5ae	0.073710784
107	0xb910b181	-0.00013799036
108	0xbe5dd3b3	-0.21662788
109	0x3e3808b7	0.17972074
110	0xbd908974	-0.07057467
111	0x3bf05f65	0.0073355907
112	0xbd2819b0	-0.041040123
113	0x3d406d52	0.046979256
114	0xbdc62061	-0.096741445
115	0x3d94a436	0.07257883
116	0xbd489a79	-0.04897544
117	0xbdbd5e53	-0.092465065
118	0xbe11589b	-0.14193957
119	0x3df7d501	0.12101174
120	0xbe9b1849	-0.30291966
121	0xbeb54c08	-0.3540957
122	0x3dcbaccc	0.09945068
123	0xbe221cfe	-0.15831372
124	0x3dab5eec	0.08367714
125	0x3e2ae803	0.16690068
126	0xbed15a10	-0.40889025
127	0x3d516790	0.051124156

fc3.bias f4 [2]
0	0xbd0570a9	-0.032578144
1	0x3f15d93c	0.585346
