sat-code/models/maddpg_20250712-135635/checkpoint_500/actor_agent_0.pth (torch, 21533 bytes, 6 tensors)

fc1.weight f4 [64, 4]
00000000: 9774 c43e 41bc 6ebd 732f 99be 3ba0 7cbc
00000010: b6d5 233e 1f28 673d 5089 123f c038 b33e
00000020: 6865 d43e ce55 ad3e de98 223f 8503 093f
00000030: eb0e bf3e fdb2 5a3e 987a 723e 22db 133f
00000040: 488b 29be 3ef6 583e 2487 e63e 726c 133f
00000050: b25f 043e 08b2 20be 5390 12bf 89b8 6a3e
00000060: 9dd7 1f3e d1f2 82be 3cca febe 5241 1bbf
00000070: dc98 57be ce24 80be f823 723e 7a5a cd3e
00000080: 2e00 443e f636 71be b27d 39bf 39f1 913e
00000090: d0b6 8c3d 3e18 ff3d 93f6 53bd 54dc 933d
000000a0: cf27 a0bd 5829 413e 55c2 f7be 5361 a33e
000000b0: 3184 8e3e fe2d 21bd 49ce f4be e1d5 b73d
000000c0: 6764 28be ddc5 9d3e 23e5 693e 289a fbbe
000000d0: 0ded e83d 8438 76be a833 ff3e 58fc 92be
000000e0: 4ad7 5abd 836f d73d 2f23 273e 7e51 ce3e
000000f0: ca27 edbd 7048 6b3e c07d b2be 1d2f d83e
00000100: 2425 b6be e2e5 a03d f949 8d3d 8daa d1be
00000110: 9a03 90be 8c69 50be 8014 e13b a238 8d3e
00000120: 52b6 e7bc 7c14 9e3c d085 0a3e 1c34 31be
00000130: 74d9 be3d 5a86 5cbd 5284 0d3f 1227 3dbe
00000140: 1ec3 30be ffec 4c3e f332 6fbf d1d6 c9be
00000150: ab5d 9bbe d37b 603e 81d0 e33d ec06 c7be
00000160: 677b 4ebe 0a50 693e 5921 03be 7498 0ebf
00000170: 5f5b 193e a4e3 57be 7baf 9e3e 3afd a73e
00000180: a620 f13e df88 0cbe 9687 6e3e cce2 25be
00000190: f9ca f53d 625c 953e 2c6e 273e 1b09 29bf
000001a0: 92a3 5a3d 63e6 10bf 9c4c 143f 72ba 52be
000001b0: 4b7c 403d 78a1 2e3e 98a2 3bbf 09ad 07bf
000001c0: 2cae a1be 1cbb 8abe 0c4d b93e c08d d03e
000001d0: ea03 73be 6a65 b2bc 90e2 e33e e6bf c2be
000001e0: 1399 873e efbc 3e3e 21fc a33e 97a9 bcbe
000001f0: ec88 a1bd 5ced 003f f509 06bf 6d4e ef3e
00000200: fa7d a33e d29e b83e 813e 3d3e 73e2 a83e
00000210: 47d9 76be 831d 993c 73ab 4cbf cf80 a7be
00000220: 8249 d43e 6f07 23be 47df 2abf acfa 843e
00000230: d3ac 2c3e 004f 85be df8e e1be c3c4 b2be
00000240: 0792 b03d 4c62 943e 4afe 03bf 4bbd de3d
00000250: c6c9 ca3e 51bc e63e 8104 cf3e 8e37 8b3e
00000260: b380 1dbd 7cd3 e7bd 77e3 293f 1019 8ebe
00000270: cca3 043f da2b 2ebe effd 73bd 7013 bdbd
00000280: f917 ffbd b574 ecbd dca7 e9be 5d12 033f
00000290: 0ef6 5cbd 640f 033f c415 77be 5aed 083f
000002a0: a121 4e3e 06b8 583e 2697 58be 438b 083f
000002b0: ff70 5b3e 1b7f bbbe d4ce e8be aab4 ad3e
000002c0: c985 bf3e 4d94 13bd 6ec7 79bd f478 83be
000002d0: 9904 9f3e b90f d6be acc0 dcbe 664e 2abf
000002e0: 457c 5e3e c01f cb3d e654 253d 041e c1be
000002f0: 9769 043e 8cd5 b03d 5264 3d3f 2528 1c3f
00000300: d072 bb3e 2e6d 9fbd 9bcc 47bf 934f c73e
00000310: deea 533d 7b12 f53d 5af4 203f cce2 343f
00000320: 7332 c83d 4617 e4bc f221 acbe 288b 953e
00000330: 5afa 10be 24a5 1d3e a958 ebbe 7cf8 b7be
00000340: 53c0 b13e e1ba cb3e 44b0 163d 2372 2bbf
00000350: 6bc1 853e 9d45 8e3c 4e09 503e dce9 fb3e
00000360: 5eb9 a8be 5bc8 c53e 15dc d0be d1a1 8c3e
00000370: da25 683e 11b1 463e cc15 15bf 0e61 16bd
00000380: f980 af3e 4775 ccbe 206e 2d3f bda3 05bf
00000390: 3a09 7fbe e28a 823e c74d 34bf 4d48 cc3e
000003a0: 80ec b9bb c24c 903d 90b7 f6be 52c0 83be
000003b0: 48f4 ffbd 8068 b8bd ccaf 4a3e b087 713e
000003c0: f88c 6bbe 3c69 cc3d 7f17 a73d 0786 de3e
000003d0: 4711 fe3e c4c7 dfbd 3f09 8abe 1198 12bf
000003e0: bfc8 7a3e 5282 863e 929a cd3e 4511 c6be
000003f0: 8523 bdbe 9f41 1fbf d9df d6bd 732b fdbe
0.383702 -0.058285 -0.29919013 -0.015419061 0.15999493 0.056434747 0.5724077 0.35004234
0.41483617 0.33854526 0.63514507 0.53520995 0.3731607 0.21357341 0.23679578 0.57756245
-0.16557038 0.21187684 0.4502498 0.5758735 0.1292713 -0.15692914 -0.5725147 0.22921957
0.15609594 -0.2557588 -0.49763668 -0.60646546 -0.21054405 -0.2502808 0.23646533 0.4010809
0.19140694 -0.23556122 -0.7245742 0.2850435 0.06870806 0.12455796 -0.051748823 0.07219759
-0.07820093 0.18863428 -0.4839045 0.3191019 0.2783523 -0.039350502 -0.47813633 0.08976341
-0.1644455 0.3081502 0.22841315 -0.4914105 0.11373339 -0.24044997 0.49844098 -0.28708148
-0.053427972 0.10519316 0.16322015 0.4029655 -0.11579855 0.22976851 -0.34861565 0.42223445
-0.3557521 0.07856347 0.06898875 -0.40950432 -0.28127748 -0.20352763 0.006868899 0.2758227
-0.02828518 0.019296877 0.13527608 -0.17305034 0.0931882 -0.053839065 0.5528003 -0.18471935
-0.17261931 0.20012282 -0.9343712 -0.39421704 -0.303449 0.21922235 0.11123753 -0.38872468
-0.20164262 0.22784439 -0.1280569 -0.55701375 0.14976262 -0.21082932 0.30993256 0.32810384
0.4709522 -0.13724087 0.2329391 -0.16199797 0.120016046 0.29172045 0.16350621 -0.6602952
0.05337865 -0.5660154 0.57929397 -0.20578936 0.046993535 0.17053783 -0.73294973 -0.52998406
-0.31578195 -0.27095878 0.36191595 0.40733147 -0.23731962 -0.021776874 0.4450879 -0.38037032
0.26483974 0.1862676 0.32028297 -0.36848137 -0.07887444 0.5036218 -0.52358943 0.46739522
0.3193205 0.3605867 0.18480875 0.32985267 -0.24106322 0.01869083 -0.7994911 -0.3271546
0.41462332 -0.15920804 -0.66746944 0.25972497 0.16862802 -0.26036835 -0.44054314 -0.34915742
0.086216025 0.28981245 -0.5155989 0.108759485 0.39607066 0.4506555 0.40433124 0.27190822
-0.038452815 -0.11319634 0.6636271 -0.27753496 0.51812434 -0.17008916 -0.05956834 -0.09232223
-0.12455744 -0.115456976 -0.4563588 0.51199895 -0.053945594 0.5119536 -0.24129397 0.5348717
0.20130016 0.2116395 -0.21151409 0.53337497 0.21429823 -0.3662041 -0.45470297 0.33926898
0.37406757 -0.036030103 -0.060981207 -0.25678217 0.31058195 -0.4180887 -0.43115747 -0.66525877
0.21727093 0.09918165 0.04036417 -0.37718213 0.12930904 0.08634481 0.739812 0.60998756
0.36611032 -0.07784496 -0.7804658 0.38927898 0.05173766 0.119664155 0.6287285 0.70658565
0.097752474 -0.027843129 -0.33619648 0.2920773 -0.14158002 0.15395027 -0.4596608 -0.35931766
0.34717044 0.39791015 0.036789194 -0.66971034 0.2612413 0.017367179 0.2031605 0.49201858
-0.32953924 0.38629422 -0.4079291 0.27467206 0.22670689 0.19403483 -0.58236384 -0.036713652
0.34278086 -0.39933226 0.6774616 -0.5220297 -0.24905863 0.25496584 -0.7043118 0.3989891
-0.005673945 0.070458904 -0.48186922 -0.25732666 -0.12497765 -0.09004307 0.19793624 0.23586917
-0.23002994 0.09981009 0.081587784 0.4346163 0.49622557 -0.10926774 -0.2696018 -0.57263285
0.24490641 0.26271302 0.4015699 -0.3868505 -0.36941162 -0.62209505 -0.10491914 -0.49447212

fc1.bias f4 [64]
00000000: d80b 733f 45e6 d0be 68b8 45be 7dd0 09bf
00000010: 888c be3e c83f d83d 4475 87bd e899 87bd
00000020: 2c07 003f 72e2 503f 834d 1abf 28b7 933f
00000030: de41 cabe 4457 ca3c fdd7 1e3f 05bd 86be
00000040: 8829 933f 2ce2 9ebe a94c 923f b761 01be
00000050: 966a 38be 9b48 76bf 2759 af3e 7310 cfbe
00000060: eeda 31bf 44e0 8cbe 63c6 9e3e 9dcd 153f
00000070: b8b6 dabd b8a9 463d 06fc df3e 0be4 0bbf
00000080: 4f37 343e 262c 52bc 3647 823f 4a0a 0bbf
00000090: 3392 a33f aa8b 42bd c287 ca3e 73c5 623f
000000a0: 357c 883e d9b2 15bf c1af 32bc bd8c e43e
000000b0: 3814 693f 961e 553f eeb9 473f 94a2 4cbf
000000c0: 97ef 8d3f 0b86 a3be 9b11 f43d 4591 3e3f
000000d0: 5c7f 653f ff57 bebe 25d3 733f 9b00 b8be
000000e0: 8340 8cbd 0adc 283f f735 31bf 248a 5abe
000000f0: 2625 263f b748 7f3d 2b1f b4bc d23f e63e
0.9493995 -0.40800682 -0.19308627 -0.5383375 0.37216592 0.1055904 -0.066141635 -0.06621152
0.50010943 0.8159553 -0.60274523 1.154027 -0.39503378 0.024699815 0.6204832 -0.26316085
1.1497049 -0.3103193 1.1429645 -0.12634932 -0.1800941 -0.9620454 0.34247705 -0.40442237
-0.69474685 -0.2751485 0.31010732 0.58516866 -0.10679382 0.0485017 0.43746966 -0.5464484
0.17599224 -0.012827909 1.0177982 -0.54312575 1.2778991 -0.047496475 0.395567 0.88582534
0.26657262 -0.58476025 -0.010906161 0.44638625 0.91046476 0.83249795 0.7801808 -0.79935575
1.1088742 -0.31938204 0.119174205 0.74440414 0.8964746 -0.3717651 0.95244056 -0.35937962
-0.06848242 0.6596075 -0.6922297 -0.21341759 0.64900434 0.062325206 -0.021987518 0.44970566

fc2.weight f4 [64, 64]
00000000: 4567 243c ce32 6a3d 73ce ea3d 7585 d0bd
00000010: e3bb ec3d 7b26 25be 494d 97bc 3867 a33c
00000020: c8d7 923d bdf0 643d b3cd 19bc 27d5 c53d
00000030: f726 29be dd76 173e 6e68 f23e d352 01be
00000040: 3e72 353e ea39 83bd 9c44 ba3e 0367 3c3e
00000050: 508e bf3d c0e0 ebbd 0904 febd f2c8 8ebd
00000060: b280 3b3e 529b 13be 3d2a 07be 5b25 c03d
00000070: 5cdb 06bd 6b27 523e 6342 6dbd b19f 7abd
00000080: 951b 9fba 3b64 58bd 5e3b 8a3d 167c a83d
00000090: f9e9 f73d 42d6 a3bd 271f 443e 1061 e63d
000000a0: 8583 583d 826c 44bc 1d25 c4bd 0a26 01bd
000000b0: ca12 423e 2d8f ce3c f4d7 933d 2315 0b3e
000000c0: e61f 203e 32c6 463d 6db8 ba3d 318e d0bd
000000d0: ad3c 343c cc84 1a3c 395a 54bd 4c5d 8abd
000000e0: 3819 9b3e 0ed1 b03d 8fda 09be 5467 bfbd
000000f0: 2aeb b03e 1a76 d43d 30d9 e13c 1162 a03d
00000100: cb74 d5bd 45be 39bb f6b7 22bd d6dc b3bc
00000110: 5875 70bd 153f 2a3e 4eba c03d 7cdc 66bd
00000120: 3000 633e 05bc 6bbd 21ae 453e 09e3 a13a
00000130: a7e5 493e 5d7c 58be 0bab b9bd 4280 4a3e
00000140: 783b 3cbc c0c4 643b 5612 73bd b782 2abc
00000150: 4576 4b3d 390f b93e 37a4 a53d 1a84 cd3d
00000160: 0ecb aebd c36f fc3d 3661 b33d 7e53 d6bc
00000170: 8012 053b db2a 8cbe 0a1c e73d 2abf 32bd
00000180: 9d49 913d 7591 473e 747d 72bd 01e4 1b3c
00000190: 0b65 ed3d 2df1 0dbd dcc0 20be cf7a 1b3b
000001a0: 4d1e c53d 74b4 f43d 68b4 dbbd 3632 433e
000001b0: 8bd2 dc3c ce02 30bd f0ff 74bc a0b0 80bd
000001c0: 047e 9fbd 9ac4 773b 70a4 833e 8d24 953d
000001d0: 5a72 fe3d 92f1 27bd b7e7 3e3d 3cf7 9b3d
000001e0: f5dc e2bc bfcd 423d 0cff 203e 58e0 8d3d
000001f0: b629 653d dd29 8e3c 5030 4d3b e475 393e
00000200: 6d14 9e3d edc7 86bd 6ef6 e8bd 1489 75bd
00000210: 0e5c 373e 7810 0d3e 5efc b93d 5c05 443d
00000220: 2a27 833e 1983 e83d 7a2a f43d b90f 0a3e
00000230: fed2 883c 41ff 793e 66a1 a23e cc4e d73d
00000240: 3415 443e 6ee3 95bd a4f8 a03e 5f4c 993d
00000250: f171 5f3e 5e22 b8bd 50bf 2f3d 0d85 a53c
00000260: bbf2 13be 2684 c7bc e9e3 7f3e f8a1 4b3e
00000270: 080f 9ebd 6631 f93b 7ffc 2b3e d35c e83d
00000280: 703e d43c f813 1c3d 6c1c fe3d 107f 053a
00000290: e358 c33d 22fc ab3c 6ea1 143e a91f d93c
000002a0: ecbb a1be 7586 193d 3ed8 ca3c 974d c03b
000002b0: 3710 8a3d 1f1c 113e a95e 693d 94e6 1dbe
000002c0: 8dc1 47bd c7c3 b6bd b8be 64be 8019 1d3e
000002d0: 7049 1c3d 1d35 e2bd d955 fc3d b5fb 523e
000002e0: 1cad 90bc 6173 ac3d d040 52bc 76b1 b53d
000002f0: 8978 083e f5b7 ba3d cee3 3a3d fde9 3c3e
00000300: b518 c73d b0d5 9bbd 4de2 563d 3f8c 0d3c
00000310: c8af c4bd e5df ecbc 0577 453e 9c9f 61bd
00000320: 8827 133e 3548 9e3d bf6b e63d 517f ea3d
00000330: 6798 a63c 5de3 34ba b833 5dbd dd91 613e
00000340: b2dc 243e 84b5 933d a87e 1ebe b347 1dbd
00000350: 766b 8e3c 388b ff3c a9d6 113e 5cb2 7d3d
00000360: 2064 10be dace 47bd ac9b d23d 8cf1 bebd
00000370: 60e6 c2bb f678 29be fd22 af3d 776d 8ebd
00000380: 1e83 dfbc 96e0 753d d02c 89bc 9f71 583d
00000390: 60cb ed3d 69e4 893d 45af 88bd b32a 96bd
000003a0: df09 843e 0f49 b43d 625f 633d e62a 993d
000003b0: 0c5f f2bd 947b 68bd 344b 23bd c330 dfbd
000003c0: 35f3 993c 935c c1bd dbd2 b43e 2419 39bd
000003d0: ce90 8f3d d962 173d 18a9 96bd f70e af3c
000003e0: f3f4 dabd 3be9 c53d 2942 d13d ecf0 c23d
000003f0: aecd 6b3d 6615 3dbd a2a9 8b3d b9c8 1f3e
0.010034387 0.057177357 0.11465158 -0.10181705 0.11559274 -0.1612796 -0.01846947 0.01994668
0.07170063 0.05589365 -0.009387421 0.09659796 -0.1651877 0.14791436 0.473453 -0.12629251
0.17719361 -0.064075306 0.3638047 0.18398671 0.09353316 -0.11517477 -0.124031134 -0.06971921
0.18310812 -0.14414719 -0.13199706 0.09382125 -0.03292404 0.2052285 -0.05792464 -0.06118745
-0.0012138957 -0.052829962 0.06749605 0.082267925 0.121051736 -0.07999851 0.19152509 0.11248982
0.0528598 -0.011988761 -0.09577391 -0.031530418 0.1895248 0.025214756 0.07218924 0.13582282
0.15637168 0.048528858 0.09117208 -0.10183371 0.011000794 0.009431075 -0.051843856 -0.06756076
0.30292678 0.08633624 -0.1346228 -0.0934588 0.34554416 0.103740886 0.027569383 0.07831205
-0.10422667 -0.002834217 -0.03972622 -0.021955889 -0.058705658 0.16625626 0.09410535 -0.056362614
0.2216804 -0.057552356 0.19304706 0.0012350987 0.19716512 -0.21141191 -0.09065827 0.19775489
-0.011488788 0.0034907311 -0.05934366 -0.010407141 0.049673337 0.36144426 0.08087962 0.10034962
-0.08534823 0.12326004 0.08758776 -0.026162859 0.0020305216 -0.27376446 0.11284645 -0.04363934
0.07094119 0.19489081 -0.059201673 0.00951481 0.11591538 -0.03465383 -0.1569857 0.0023724323
0.0962492 0.11948481 -0.10727769 0.19062123 0.026955863 -0.042971425 -0.014953598 -0.062836885
-0.077877074 0.0037806393 0.25711393 0.07282362 0.124241546 -0.041001864 0.0466077 0.076155156
-0.027693251 0.047559496 0.15722293 0.06927556 0.05594798 0.017353946 0.0031309314 0.18111378
0.0771874 -0.065811016 -0.11375128 -0.05994518 0.1790621 0.13775814 0.09081338 0.047856674
0.25615817 0.1135313 0.11922164 0.1348256 0.016702171 0.24413778 0.31763762 0.10513076
0.19148713 -0.073187694 0.31439698 0.0748527 0.21820809 -0.0899093 0.04290706 0.020205045
-0.14448063 -0.024355005 0.24989285 0.19886005 -0.07717711 0.0076047657 0.16795538 0.1134583
0.025908679 0.03810498 0.12407765 0.0005092481 0.09538438 0.02099425 0.14514706 0.026504355
-0.31588686 0.037481744 0.024761315 0.0058686244 0.06741374 0.14170884 0.05697504 -0.1541999
-0.04876857 -0.0892406 -0.22338378 0.15341759 0.038155973 -0.11045287 0.12321062 0.20603831
-0.01766067 0.08420444 -0.012832835 0.088717386 0.1332723 0.09117118 0.045627408 0.18448634
0.09721509 -0.07609117 0.05246191 0.008639394 -0.0960384 -0.028915355 0.19283684 -0.055083856
0.14370549 0.07728616 0.1125102 0.11450065 0.020336343 -0.0006900335 -0.0540044 0.22028299
0.16099814 0.07212356 -0.15478003 -0.038398456 0.017385226 0.031194314 0.14242043 0.061937675
-0.14100695 -0.048781253 0.10283598 -0.09323415 -0.005947873 -0.16550049 0.08551595 -0.069544725
-0.027284201 0.060028635 -0.016745001 0.052842733 0.11611056 0.06733019 -0.06674055 -0.07332363
0.2578878 0.08802997 0.055510886 0.07478885 -0.11834535 -0.05675848 -0.03986664 -0.108979724
0.018792728 -0.09441485 0.3531712 -0.04518999 0.07010041 0.036959503 -0.07356471 0.02136944
-0.106912516 0.09663626 0.10217697 0.095186085 0.0575692 -0.046162985 0.06819464 0.15603913

fc2.bias f4 [64]
00000000: 0c86 8b3e faeb 73bc 2e5e a7bb 9be0 783e
00000010: 96f0 c93c f4ec 8a3e 4064 b53d 2437 bc3d
00000020: c036 4a3b 54bb b83d 6e89 843e 69d6 a23e
00000030: a07f b9be 76cc 45be d367 373e fdc6 c33d
00000040: b660 05bb 7d9d 243d 0678 7abd a79f ef3d
00000050: bd6f f03d 6c09 a23e fdaf 473e 0f07 2abe
00000060: 9043 133f a557 5c3d a1ad 95be 612d 8abd
00000070: 965f 41be f67a 733e 404d ea3e 54a1 113e
00000080: 48ab b73e 2840 b3bc fa4e 563d a76f 683e
00000090: f05d f23e 8a0b dc3d ebf4 fb3d f6d6 a5bd
000000a0: 46ac 7b3e 8bc9 febc f420 a43d 9171 29be
000000b0: 4024 4fbd 39e7 7d3e b469 6abe 435f 16bd
000000c0: 627a 9f3e c068 e23e cbbf 6e3e cb3b 393c
000000d0: c8ff 83be 0533 4dbe a354 b539 4952 d23b
000000e0: d760 ba3e 8183 9b3c 34ad 0dbe 15c5 943e
000000f0: ebd1 19be 5440 e3bd ae60 ac3b 8467 cf3e
0.27250707 -0.014887804 -0.0051076626 0.2430443 0.024650853 0.27133906 0.08857012 0.09190205
0.0030855387 0.09020105 0.258861 0.31804207 -0.36230183 -0.19316277 0.179107 0.095594384
-0.0020351834 0.040189255 -0.06114962 0.11700373 0.117400624 0.31647813 0.19500728 -0.16604255
0.5752497 0.05379452 -0.2923403 -0.067469366 -0.1888412 0.23777375 0.45762062 0.14221698
0.35872865 -0.021881178 0.05232141 0.22698842 0.47337294 0.107443884 0.12302574 -0.08097641
0.24577436 -0.031101963 0.08014098 -0.16547228 -0.05057168 0.24795236 -0.22891885 -0.036711942
0.31148058 0.44220543 0.2331535 0.01130576 -0.25781083 -0.20038994 0.0003458607 0.0064185006
0.36402008 0.018983604 -0.13835603 0.29056612 -0.15021484 -0.11096254 0.0052605486 0.40508664

fc3.weight f4 [2, 64]
00000000: 2e9b 29be b8e2 193e 8aae 2c3e f247 0e3d
00000010: 91f9 b73e c57f 5cbe 1226 adbc fa10 b3bd
00000020: ecac 9cbd 498d 80bd 92f4 273e 0d7c 27be
00000030: c91e cbbe f287 503d 6ca9 dfbe d28f 313e
00000040: f704 54bb 5227 a8bd 45e0 3c3e 12ef 283e
00000050: 7307 b2bd 93ac 57be 033e b53e 2879 15bd
00000060: ded3 eebc 0a09 9abc f7c8 e83e 7fb4 5d3e
00000070: ab32 31be 37dc 2dbe 3a0e ae3d 96a6 9abe
00000080: 3e9a 953d 820d a9bd 4f5b f93d c446 c8bd
00000090: 90fa 903d 88bd f73d 895c 103e 3e78 8b3e
000000a0: 796a 263e 0b2d 0e3d 249d 7b3d b646 18be
000000b0: 142f 93bd 70e1 c83e d3c3 6e3e 8f17 c3bd
000000c0: 7fa6 553e e0f4 eabd b41b 093e 4d24 153e
000000d0: 6ad2 b23e d746 03be 658d a3bd 382c 303e
000000e0: 6be6 6dbe ead1 08bd 6d1d 883e e593 52be
000000f0: 5274 b6be 2506 a7bd 7eba dabd d0b2 b53d
00000100: dacb 593e 142e bbbd cd4e 453d 2e75 70bd
00000110: fceb 95bc 9722 4d3e ce8f 8dbc d2d1 53be
00000120: 00b0 0cb8 1e7e 6abe 3d87 953d 2318 8f3e
00000130: 17f1 fabd 79f0 dfbd 35bb 9dbd f6b5 893e
00000140: 9839 90be 4cd1 bdbd 6021 8fbe 1559 7a3c
00000150: 2933 b73c ebfe 423e 78d1 4dbd 2643 dbbd
00000160: 478c 4f3e 1902 c33d b0a6 733c 95de a7bd
00000170: fcad 29be 1142 553e 0255 5c3e a84f 9bbe
00000180: 213e d13d 506e 9abd bd7d ca3c 87a6 4e3e
00000190: ec8c 463e f21b cabd 9fd4 dabd 041d 0cbe
000001a0: c783 973e aee4 ae3d e8e6 f4bd df1f 9dbe
000001b0: e89d a73c 2104 9ebd 2b1c 32be e792 453c
000001c0: 25f2 c23d 0eb5 193e 1809 df3d 39be d63d
000001d0: d725 233d 91e5 f7bd 3f82 8bbd 9f26 1b3e
000001e0: 66d2 1e3e 5594 84be 4eb1 03be c0bd 0a3e
000001f0: 9be3 2bbe 6022 90be a528 debd 81da 0e3e
-0.16563103 0.15027893 0.16863456 0.03473658 0.35932592 -0.21533115 -0.021136317 -0.087434724
-0.0765017 -0.06276948 0.1640189 -0.16355915 -0.39671925 0.050910898 -0.43683946 0.1734002
-0.0032351592 -0.08210625 0.18444927 0.16497448 -0.08692827 -0.21061926 0.35398874 -0.036492497
-0.02915376 -0.018803138 0.45465824 0.21650885 -0.17304485 -0.16978537 0.08498807 -0.3020522
0.0730481 -0.082545295 0.12175619 -0.097791225 0.07079041 0.12096697 0.140978 0.27240175
0.16251554 0.034710925 0.061429158 -0.14870724 -0.07186714 0.39234495 0.23316889 -0.09525978
0.20864294 -0.114724874 0.13389474 0.14564629 0.34926158 -0.12819992 -0.07985953 0.17204368
-0.23232429 -0.033403315 0.2658495 -0.2056423 -0.3563562 -0.08155469 -0.10680102 0.088719964
0.2126917 -0.09139648 0.048170853 -0.0587055 -0.018301003 0.20032726 -0.017280485 -0.20685509
-3.3542514e-05 -0.22899672 0.07301185 0.27948102 -0.122530155 -0.109345384 -0.077017225 0.26896638
-0.2816894 -0.09268436 -0.2795515 0.015280028 0.022363262 0.19042556 -0.050248593 -0.10706167
0.20268355 0.095218845 0.014871284 -0.08196751 -0.16570276 0.20825984 0.21516803 -0.3033421
0.10216928 -0.07540572 0.02471816 0.20180713 0.19389695 -0.098686114 -0.106850855 -0.13682944
0.29592726 0.08539711 -0.11958104 -0.30688378 0.020461038 -0.07715631 -0.17393558 0.01205895
0.09518842 0.15010473 0.10890406 0.10485501 0.03983101 -0.12104333 -0.06811952 0.15151452
0.15509948 -0.25894418 -0.12860605 0.13548946 -0.16786043 -0.28151226 -0.10847596 0.1395054

fc3.bias f4 [2]
00000000: bd1a 10be 9db9 513e
-0.140727 0.20480962
