sat-code/models/maddpg_20250712-135635/checkpoint_700/actor_agent_0.pth (torch, 21533 bytes, 6 tensors)

fc1.weight f4 [64, 4]
0	0x3ec2bf4a	0.38036567
1	0xbc9799b3	-0.018505907
2	0xbea391b2	-0.31947094
3	0x3c5f2251	0.0136190215
4	0x3e17aabb	0.14811222
5	0x3d85ca7c	0.065327615
6	0x3ec75399	0.38930967
7	0x3ec9b0f9	0.39392832
8	0x3ece9ace	0.40352482
9	0x3eaf2a97	0.3421218
10	0x3eee8a66	0.46589965
11	0x3f0d4bea	0.5519396
12	0x3eb9e69a	0.36308748
13	0x3e66ba76	0.22532067
14	0x3d900eb3	0.07034054
15	0x3f1a1ddf	0.6020183
16	0xbe1a2e6c	-0.15056771
17	0x3e54183e	0.20712373
18	0x3f0505cb	0.51961964
19	0x3f1336f8	0.5750575
20	0x3e492f26	0.19646892
21	0xbd1e9088	-0.038712054
22	0xbf036710	-0.51329136
23	0x3e126b4e	0.14298746
24	0x3df2f42c	0.11862978
25	0xbe72cfb0	-0.23712039
26	0xbf077e6b	-0.52927274
27	0xbf27206f	-0.65283865
28	0xbe5798dc	-0.21054405
29	0xbe8024ce	-0.2502808
30	0x3e7223f8	0.23646533
31	0x3ecd5a7a	0.4010809
32	0x3e689b54	0.22715503
33	0xbe23f7fe	-0.1601257
34	0xbf259e3f	-0.6469459
35	0x3ec77aeb	0.38960966
36	0x3d86bc3c	0.065788716
37	0x3ded266b	0.11579593
38	0x3c7442bc	0.014908489
39	0x3d24d914	0.040246084
40	0xbd9e3a95	-0.077260174
41	0x3e46fbcc	0.1943199
42	0xbf0805f8	-0.5313411
43	0x3e99ae61	0.30015853
44	0x3e8be06d	0.2731966
45	0xbca647d8	-0.02029793
46	0xbee33adc	-0.44380844
47	0x3e07c277	0.13257776
48	0xbe36d188	-0.17853367
49	0x3e9cf957	0.3065898
50	0x3e3e3e00	0.18578339
51	0xbf04931a	-0.5178696
52	0x3e3b9d84	0.18321806
53	0xbe169c3a	-0.14708033
54	0x3f1ef1b8	0.62087584
55	0xbf05d3eb	-0.52276486
56	0xbd6025cb	-0.054723542
57	0x3dc73ec3	0.09728768
58	0x3e7d7052	0.24749878
59	0x3ecba1ad	0.39771786
60	0xbdf2d526	-0.11857061
61	0x3e706855	0.234773
62	0xbed2b988	-0.41157174
63	0x3ed4426e	0.41456932
64	0xbea7a7a6	-0.32745093
65	0x3de5c104	0.112184554
66	0x3d979548	0.0740152
67	0xbea142b2	-0.31496197
68	0xbe90039a	-0.28127748
69	0xbe50698c	-0.20352763
70	0x3be11480	0.006868899
71	0x3e8d38a2	0.2758227
72	0xbcf4aae0	-0.029866636
73	0x3cf860fd	0.030319685
74	0x3e5191ea	0.20465818
75	0xbebf5ff8	-0.37377906
76	0x3def9511	0.11698354
77	0xbd0f6499	-0.035008047
78	0x3f3b85b2	0.7325088
79	0xbe30f89e	-0.1728234
80	0xbe3f9565	-0.18709333
81	0x3e28d654	0.1648801
82	0xbf5667aa	-0.8375193
83	0xbf149128	-0.5803399
84	0xbe7c7fa7	-0.2465807
85	0x3e756d1a	0.239674
86	0x3dfa0feb	0.12210067
87	0xbe6906ad	-0.22756453
88	0xbe57907c	-0.2105121
89	0x3e41f538	0.189412
90	0x3dd0051a	0.10157223
91	0xbf3e1bbf	-0.7426109
92	0x3e49f3a5	0.1972185
93	0xbe342af4	-0.1759451
94	0x3e85e576	0.26151627
95	0x3eb0a62c	0.3450178
96	0x3ef1c1e2	0.47218233
97	0xbe1ee4f7	-0.1551703
98	0xbd3faf0a	-0.04679779
99	0xbdcd0404	-0.100105315
100	0x3df75c28	0.12078124
101	0x3e971862	0.2951079
102	0x3e2bce50	0.1677792
103	0xbf3bd2f6	-0.73368776
104	0xba0fd775	-0.00054871227
105	0xbeff4362	-0.49856097
106	0x3f0c30b0	0.5476179
107	0xbe12b531	-0.14326932
108	0x3d248c71	0.040172998
109	0x3e2343c4	0.1594382
110	0xbf13d43c	-0.5774572
111	0xbf0c118e	-0.54714286
112	0xbea1ae2c	-0.31578195
113	0xbe8abb1c	-0.27095878
114	0x3eb94d0c	0.36191595
115	0x3ed08dc0	0.40733147
116	0xbe6e6aa1	-0.23282863
117	0xbca2d0f7	-0.019875033
118	0x3edad3fa	0.4273985
119	0xbec38c0a	-0.3819278
120	0x3e826f0c	0.25475347
121	0x3e3d0d61	0.18462135
122	0x3e690c90	0.22758698
123	0xbee69771	-0.45037416
124	0xbda7aed7	-0.08187645
125	0x3f008d43	0.5021555
126	0xbf098a0a	-0.53726256
127	0x3ef5227f	0.4787788
128	0x3e9c0cb4	0.30478442
129	0x3ebd66aa	0.3699239
130	0x3dd6b47b	0.10483643
131	0x3e85f12c	0.26160562
132	0xbe8b6e44	-0.27232563
133	0x3dc52351	0.09625877
134	0xbf7cd058	-0.9875541
135	0xbe1a9c0c	-0.1509859
136	0x3ed8aadd	0.42317858
137	0xbe16a77a	-0.14712325
138	0xbf22ebae	-0.6364087
139	0x3e7cbe3c	0.24681944
140	0x3e0d1f61	0.13781501
141	0xbe8559fd	-0.26045218
142	0xbef5a074	-0.4797398
143	0xbebcb490	-0.36856508
144	0x3d9289d7	0.07155197
145	0x3e8d70b7	0.27625057
146	0xbea8f8b8	-0.33002257
147	0x3e19d019	0.15020789
148	0x3ec526a7	0.38506052
149	0x3ee71693	0.4513441
150	0x3e8aa90a	0.27082092
151	0x3e630d0f	0.2217295
152	0xbcdfedff	-0.027335165
153	0xbe45385e	-0.19259784
154	0x3f2c56d7	0.6732001
155	0xbe9cbb08	-0.30611444
156	0x3f02f737	0.5115847
157	0xbe3915ef	-0.18074773
158	0xbe88c4ee	-0.26712745
159	0xbd760ae0	-0.060068965
160	0xbc5d310f	-0.013500466
161	0x3b576823	0.0032868467
162	0xbf021838	-0.50818205
163	0x3f2a8857	0.6661429
164	0xbd500ed6	-0.0507954
165	0x3f017d2b	0.50581616
166	0xbe5ce529	-0.21571793
167	0x3f0285b0	0.5098524
168	0x3e50c7bb	0.20388691
169	0x3e5c8893	0.21536474
170	0xbe9be2eb	-0.30446562
171	0x3f03c489	0.51471764
172	0x3e72d8b8	0.23715484
173	0xbea3a66d	-0.3196291
174	0xbf118418	-0.56842184
175	0x3e8fb089	0.28064373
176	0x3ebf0a46	0.37312526
177	0x3c059bb4	0.008154798
178	0xbc7a5cc2	-0.015280904
179	0xbe86e617	-0.2634742
180	0x3e8d4233	0.27589568
181	0xbed0fa87	-0.40816137
182	0xbea8b3b1	-0.32949594
183	0xbf5409ce	-0.8282746
184	0x3e423fa7	0.18969594
185	0x3bfa658a	0.007641499
186	0x3ea491bd	0.3214244
187	0xbf1cfc4d	-0.6132248
188	0x3e032002	0.12805179
189	0x3da27520	0.07932496
190	0x3f1b9f57	0.6079001
191	0x3f2bd376	0.6711954
192	0x3ebec726	0.37261313
193	0xbd4c2014	-0.04983528
194	0xbf30c9fc	-0.69058204
195	0x3ef88a1a	0.48542863
196	0x3d201de8	0.03909102
197	0x3df9f224	0.12204388
198	0x3eec50b9	0.46155336
199	0x3f3dea8f	0.74186033
200	0x3dd4e616	0.10395448
201	0xbc9c1d81	-0.019057037
202	0xbed7ae8f	-0.42125365
203	0x3e8f6b98	0.28011775
204	0xbe20a40c	-0.15687579
205	0x3df85d0f	0.121271245
206	0xbe7faed6	-0.24969038
207	0xbf0bbb22	-0.54582417
208	0x3eac8044	0.3369161
209	0x3ec29f61	0.3801222
210	0x3e20ffd3	0.15722589
211	0xbf3f7841	-0.7479287
212	0x3e831f77	0.25609943
213	0x3c655d47	0.01399929
214	0x3cc99541	0.024607303
215	0x3efab34e	0.48964924
216	0xbebb695e	-0.36603826
217	0x3eb97cc4	0.36228
218	0xbe9e64bf	-0.30936238
219	0x3e99539a	0.29946595
220	0x3e6534b1	0.22383381
221	0x3e436087	0.19079791
222	0xbf06cdb5	-0.52657634
223	0xbcbcb783	-0.023036724
224	0x3ebe316b	0.37147078
225	0xbedef6a7	-0.43547556
226	0x3f39b750	0.7254534
227	0xbeddbbf8	-0.4330747
228	0xbe8423fc	-0.25808704
229	0x3e783ce9	0.24241985
230	0xbefe2e54	-0.4964472
231	0x3f0b71e1	0.5447064
232	0x3bcedf8d	0.0063132704
233	0x3da551f6	0.080722734
234	0xbef65066	-0.48108214
235	0xbe86322a	-0.26210147
236	0xbdfff448	-0.12497765
237	0xbdb86880	-0.09004307
238	0x3e4aafcc	0.19793624
239	0x3e7187b0	0.23586917
240	0xbe4c080a	-0.19924942
241	0x3e0dac2d	0.13835211
242	0x3e167116	0.14691576
243	0x3eff8b41	0.4991093
244	0x3f01120b	0.50418156
245	0xbcbf0800	-0.023319244
246	0xbe4941e0	-0.19654036
247	0xbefaef7c	-0.49010837
248	0x3e79388e	0.2433798
249	0x3e86d632	0.26335293
250	0x3e9a410d	0.30127755
251	0xbeff4664	-0.4985839
252	0xbec257b9	-0.37957552
253	0xbf1e7f2d	-0.61912805
254	0xbde08485	-0.10962776
255	0xbefa5c88	-0.4889872

fc1.bias f4 [64]
0	0x3f7b400e	0.98144615
1	0xbf34f2d6	-0.7068304
2	0xbef37d57	-0.47556564
3	0xbf58f003	-0.8474123
4	0x3ee17ee4	0.44042122
5	0x3ef9ffab	0.48827872
6	0x3d0e8deb	0.034803312
7	0xbd8799e8	-0.06621152
8	0x3f39dab5	0.72599345
9	0x3f5c0791	0.85949045
10	0xbf2c0083	-0.6718828
11	0x3fae2a3f	1.3606642
12	0xbeed7119	-0.4637535
13	0x3e55ea76	0.20890221
14	0x3f32eab2	0.69889367
15	0xbeb589ed	-0.35456792
16	0x3fa1a158	1.2627363
17	0xbe9ee22c	-0.3103193
18	0x3fa2be6c	1.2714362
19	0x3d0439e4	0.03228177
20	0xbd57354f	-0.052541073
21	0xbf57f4aa	-0.843577
22	0x3f0d2fd2	0.55151093
23	0xbec130f3	-0.37732658
24	0xbf6921fd	-0.91067487
25	0xbe68c5bf	-0.22731684
26	0x3e951c29	0.29123047
27	0x3f5251c6	0.82156026
28	0xbddab6b8	-0.10679382
29	0x3d462422	0.048374303
30	0x3e922be2	0.28549105
31	0xbf2138dd	-0.6297739
32	0x3c69000d	0.0142212035
33	0x3d383c2a	0.044979252
34	0x3f8eb486	1.1148841
35	0xbef8b63c	-0.48576534
36	0x3fbe39ac	1.486135
37	0xbe755ecf	-0.23961948
38	0x3ebb9f91	0.36645177
39	0x3f396eab	0.7243449
40	0x3ec6cfc0	0.38830376
41	0xbf106b23	-0.5641348
42	0xbe47d58b	-0.19515054
43	0x3f0aec47	0.5426678
44	0x3f823b04	1.017426
45	0x3f6b439d	0.91900045
46	0x3f849385	1.0357519
47	0xbf8c32cb	-1.0953001
48	0x3fac193a	1.3445199
49	0xbf1aacaf	-0.60419744
50	0x3d14e92d	0.036355186
51	0x3f6ef432	0.9334136
52	0x3f79659a	0.97420657
53	0xbf2ffc11	-0.68744
54	0x3f9327a8	1.1496477
55	0xbe5b4f13	-0.21416883
56	0xbe4775da	-0.1947855
57	0x3f59abde	0.85027874
58	0xbf262805	-0.64904815
59	0xbe5a8a24	-0.21341759
60	0x3f4c7046	0.79858816
61	0x3e84dd02	0.25949866
62	0xbe5a095f	-0.21292637
63	0x3ee91d0d	0.45529976

fc2.weight f4 [64, 64]
0	0x3b9c04f1	0.0047613312
1	0x3d68b1cc	0.056810185
2	0x3de86402	0.113472
3	0xbdcdd66e	-0.10050665
4	0x3de863ac	0.11347136
5	0xbe02babe	-0.12766549
6	0x3abefdf8	0.0014571538
7	0x3ca36738	0.01994668
8	0x3e2bb7ca	0.16769329
9	0x3d4e1d8d	0.05032115
10	0x3bba21c7	0.005680296
11	0x3dbed4b3	0.09317913
12	0xbe2b14ec	-0.167072
13	0x3e4e9979	0.20175733
14	0x3eeddc43	0.4645711
15	0xbdebc303	-0.11511805
16	0x3e82f841	0.25580028
17	0xbd8339ea	-0.064075306
18	0x3ec5dce6	0.38645095
19	0x3e41b48a	0.18916526
20	0x3e17e1e7	0.14832269
21	0xbd89bab4	-0.06725064
22	0xbd9f62ac	-0.07782492
23	0xbd83125d	-0.06399987
24	0x3e3f946f	0.18708967
25	0xbe15cf14	-0.14629775
26	0xbdd716eb	-0.10502418
27	0x3dbb272b	0.0913833
28	0xbd06db5c	-0.03292404
29	0x3e5442b0	0.20728564
30	0xbd7e4dc3	-0.062085878
31	0xbd680395	-0.05664404
32	0xbafadaa9	-0.0019138652
33	0x3cd6ed1c	0.02623611
34	0x3da2eb91	0.07955087
35	0x3dced582	0.10099317
36	0x3df10be5	0.11769847
37	0xbda5bdc3	-0.08092835
38	0x3e1073f9	0.1410674
39	0x3dfacce5	0.12246112
40	0xbdf56e00	-0.119838715
41	0xbc12e3da	-0.008965457
42	0xbdc0b8f5	-0.09410278
43	0xbd9438ac	-0.07237372
44	0x3e3a66bc	0.18203253
45	0x3cf30e4b	0.029669901
46	0x3d8689d3	0.06569257
47	0x3e0bc4fa	0.1364936
48	0x3e1e9d73	0.1548975
49	0x3d40b950	0.047051728
50	0x3dd12b7a	0.102133706
51	0xbd60473b	-0.05475543
52	0x3bf5eace	0.0075047975
53	0x3c4b49d9	0.012407743
54	0xbd41087c	-0.047127232
55	0xbd856370	-0.06513107
56	0x3e752e7c	0.23943514
57	0x3dcb076e	0.099135265
58	0xbdf025ac	-0.11725935
59	0xbdbf6754	-0.0934588
60	0x3eb36cf6	0.35044068
61	0x3da7e097	0.08197134
62	0x3cd1687a	0.025562514
63	0x3d9cefb7	0.076629095
64	0xbdbbc75f	-0.091688864
65	0x3b24d54c	0.002515155
66	0xbd0484e3	-0.032353293
67	0xbca4a5fa	-0.020098675
68	0xbd50e768	-0.051001936
69	0x3e02c313	0.12769727
70	0x3d8ec35e	0.06970857
71	0xbd66dc7c	-0.056362614
72	0x3e0adc1a	0.13560525
73	0xbd282a04	-0.041055694
74	0x3e2a086d	0.16604777
75	0x3c585bc2	0.0132054705
76	0x3e591daa	0.21202722
77	0xbe845667	-0.2584717
78	0xbd92bb7b	-0.07164665
79	0x3e37d7ed	0.17953463
80	0xbdc45e78	-0.09588331
81	0x3b64c4c0	0.0034907311
82	0x3cfbe3de	0.030748304
83	0x3bfa6dde	0.0076424917
84	0xbbc9cdef	-0.0061585824
85	0x3ea67943	0.3251439
86	0x3d82f54c	0.06394443
87	0x3da6cd1c	0.0814459
88	0xbdc11920	-0.0942862
89	0x3e0ab35e	0.13544986
90	0x3d63af42	0.05558706
91	0xbc7d3c42	-0.015456261
92	0x3b051280	0.0020305216
93	0xbe8dd356	-0.277003
94	0x3e0201c2	0.12695983
95	0xbd454e41	-0.048170332
96	0x3da06c38	0.07833141
97	0x3df8b776	0.121443674
98	0xbd963b99	-0.07335586
99	0xbc6d47e8	-0.014482476
100	0x3e030eff	0.1279869
101	0xbcdc1d6d	-0.0268695
102	0xbde2b9de	-0.110706076
103	0xbbf5500d	-0.0074863494
104	0x3ea92509	0.33036068
105	0x3df2c48d	0.11853895
106	0xbdd9351b	-0.10605832
107	0x3e63069f	0.22170494
108	0x3d37d65c	0.044882163
109	0xbd465057	-0.04841646
110	0x3c21f095	0.009884019
111	0xbd758ac0	-0.059946775
112	0xbd9484ed	-0.07251916
113	0x3c2cb237	0.010540537
114	0x3e7517a2	0.23934796
115	0x3d42533e	0.047442667
116	0x3e0d1c72	0.13780382
117	0xbd3241cb	-0.043519776
118	0x3d31028d	0.043215323
119	0x3d9d5a22	0.07683207
120	0xba604d7d	-0.00085564685
121	0x3cf77986	0.030209314
122	0x3e06d7f2	0.13168314
123	0x3d8de058	0.06927556
124	0x3d8130f8	0.06308168
125	0x3d2ab200	0.04167366
126	0x3c6c1724	0.014409814
127	0x3e3a78d4	0.18210155
128	0x3dbe9da0	0.09307408
129	0xbd8f7ac0	-0.070058346
130	0xbdf4d890	-0.119553685
131	0xbd95ad3b	-0.07308432
132	0x3e268748	0.16262543
133	0x3e317c6c	0.1733262
134	0x3d88a4e4	0.066720754
135	0x3d44055c	0.047856674
136	0x3e80997e	0.25117105
137	0x3df7a7af	0.1209253
138	0x3d55ad0c	0.052166983
139	0x3e1e9629	0.15486969
140	0x3bb86fb4	0.0056285504
141	0x3e7da743	0.24770837
142	0x3ea6ffa9	0.32616928
143	0x3d5ab401	0.05339432
144	0x3e97a0a8	0.29614758
145	0xbd95e36e	-0.073187694
146	0x3f1a7dff	0.60348505
147	0x3e324794	0.17410117
148	0x3e196ba4	0.14982468
149	0xbdfd5151	-0.123690255
150	0x3da97a25	0.0827525
151	0xbd08138f	-0.033221778
152	0xbe244fdd	-0.1604609
153	0xbcea4cc0	-0.02860105
154	0x3e5f5465	0.21809538
155	0x3e41912d	0.18903036
156	0xbd9e0f08	-0.07717711
157	0x3ba09dd3	0.0049016266
158	0x3e2fda3e	0.17173097
159	0x3da76c82	0.08174993
160	0x3ca6b98e	0.020352151
161	0x3e5bd68b	0.2146856
162	0x3dfeb3ec	0.12436661
163	0xbcc97d21	-0.024595799
164	0x3dc21651	0.09476913
165	0x3c79eb49	0.01525385
166	0x3e4602a5	0.19336946
167	0x3d04932b	0.032366913
168	0xbd10c9d0	-0.035348713
169	0x3c485d22	0.012229236
170	0x3c2b37a2	0.010450276
171	0xbc613dd2	-0.013747649
172	0x3dbbff6e	0.09179579
173	0x3df27531	0.11838759
174	0x3dca4d64	0.09878042
175	0xbe25c1c8	-0.16187203
176	0xbd295beb	-0.041347425
177	0xbdbce3ef	-0.092231624
178	0xbe72307b	-0.23651306
179	0x3e337e02	0.17528537
180	0x3d227f8d	0.039672423
181	0xbdfbfe62	-0.12304379
182	0x3daa04d4	0.08301702
183	0x3e41acbc	0.18913549
184	0xbd61ced6	-0.055128895
185	0x3cdd26aa	0.026995976
186	0xbda8c6b0	-0.08241022
187	0x3db5b176	0.088717386
188	0x3e1d3e8d	0.15355892
189	0x3db2ea6a	0.08736117
190	0x3d36ed96	0.044660173
191	0x3e40329d	0.18769307
192	0x3dc8e52d	0.09809337
193	0xbd9d3e4f	-0.076779
194	0x3d6550d3	0.055985283
195	0x3c263daa	0.010146538
196	0xbdc27560	-0.09495044
197	0xbd9d02cb	-0.07666548
198	0x3e202bb7	0.15641676
199	0xbd619f9c	-0.055083856
200	0x3d109024	0.035293713
201	0x3dab88ab	0.08375677
202	0x3ded40db	0.11584636
203	0x3de619c8	0.11235386
204	0x3d16585b	0.036705356
205	0xbdf615aa	-0.12015851
206	0xbd5624c8	-0.05228117
207	0x3e646b68	0.22306597
208	0x3d669df2	0.056302972
209	0x3d93b584	0.07212356
210	0xbe79912d	-0.24371786
211	0xbd7acb0b	-0.061228793
212	0xbbbe265a	-0.0058029117
213	0x3c682d7e	0.014171002
214	0x3dd5b922	0.10435702
215	0x3e1116b8	0.14168823
216	0xbe13aeb5	-0.14422114
217	0xbd1ff211	-0.039049212
218	0x3e00f9d1	0.12595297
219	0xbda5c7c4	-0.08094743
220	0xbbc2e660	-0.005947873
221	0xbe31ae03	-0.17351536
222	0x3dbdd535	0.09269182
223	0xbd8182cf	-0.06323778
224	0xbcbed211	-0.023293527
225	0xbd6fb280	-0.05851984
226	0xbd071cd7	-0.03298649
227	0x3cc99c4c	0.024610661
228	0x3dfbb1ce	0.12289773
229	0x3d93260f	0.071849935
230	0xbd9d94d0	-0.07694399
231	0xbdaedb23	-0.08537891
232	0x3e570055	0.2099622
233	0x3dc0a995	0.09407345
234	0x3d6b676e	0.057471685
235	0x3e02c6fb	0.12771218
236	0xbdec2f94	-0.11532512
237	0xbd48d9a4	-0.049035683
238	0xbd24a330	-0.04019469
239	0xbde63fb8	-0.11242622
240	0x3c6e0460	0.01452741
241	0xbdc7ded6	-0.097592995
242	0x3eaa9d1e	0.33322996
243	0xbdaa544a	-0.08316858
244	0x3d9f5cd6	0.07781379
245	0x3d06419f	0.032777425
246	0xbd8d4480	-0.06897831
247	0x3cd1d5f3	0.025614714
248	0xbbf74aee	-0.007546774
249	0x3dbd1e6b	0.092343174
250	0x3de4c2fa	0.11170001
251	0x3dc2f0ec	0.095186085
252	0x3d5f001d	0.054443467
253	0xbccbef60	-0.024894416
254	0x3d993ac6	0.07481913
255	0x3e1d3314	0.15351516

fc2.bias f4 [64]
0	0x3e48c6b7	0.19607054
1	0x3e20d0f2	0.15704706
2	0x3e945081	0.2896767
3	0x3e790149	0.24316896
4	0x3e8f5897	0.27997276
5	0x3e0aef4e	0.1356785
6	0x3db56440	0.08857012
7	0xbd4efd15	-0.050534327
8	0x3b4a36c0	0.0030855387
9	0x3c2bc1e2	0.010483237
10	0x3f127e1d	0.57223684
11	0x3e90696a	0.28205425
12	0xbf255e5d	-0.6459711
13	0xbe45cc76	-0.19316277
14	0xbdf0db05	-0.11760525
15	0x3e86fc0a	0.26364166
16	0xbd8ad467	-0.06778794
17	0x3d249d7d	0.040189255
18	0xbd805894	-0.06266895
19	0x3edad639	0.42741564
20	0x3df06fbd	0.117400624
21	0x3e45f1a2	0.19330457
22	0x3e3789be	0.17923638
23	0xbe2a070f	-0.16604255
24	0x3f1c7eb4	0.61130834
25	0x3d5c57a5	0.05379452
26	0xbe43964b	-0.19100301
27	0x3e33a927	0.17544995
28	0xbe415f96	-0.1888412
29	0x3e2bf3e9	0.16792263
30	0x3f1472fc	0.5798795
31	0xbd5b14ca	-0.053486623
32	0x3f022357	0.50835174
33	0xbcb34028	-0.021881178
34	0x3eb38991	0.35065892
35	0x3e66d675	0.22542746
36	0x3f163596	0.58675516
37	0x3ddc0b8a	0.107443884
38	0x3e8482fd	0.25881186
39	0xbdc6544e	-0.096840486
40	0x3edaf783	0.4276696
41	0xbcfec98b	-0.031101963
42	0x3e002458	0.12513864
43	0xbe98cb37	-0.2984254
44	0xbd4f2440	-0.05057168
45	0x3f0e0d19	0.55488735
46	0xbe6c3971	-0.23068787
47	0xbd165f43	-0.036711942
48	0x3f15635c	0.58354735
49	0x3ebb0efb	0.36534867
50	0x3ee4efec	0.44714296
51	0x3e6fceb7	0.23418699
52	0x3cf84d19	0.0303102
53	0xbecb2c36	-0.39682168
54	0xbe6eabd4	-0.23307735
55	0x3e5d6258	0.21619546
56	0x3e4a2891	0.19742037
57	0xbd83f0e1	-0.064424284
58	0xbd5b8b39	-0.05359957
59	0x3e0219e0	0.12705183
60	0xbeb6a001	-0.35668948
61	0xbe541c1c	-0.20713848
62	0xbe57b11d	-0.21063657
63	0x3f0f5c11	0.5599986

fc3.weight f4 [2, 64]
0	0xbdfe6e23	-0.12423351
1	0x3df6d785	0.12052826
2	0x3e24b698	0.16085279
3	0x3c844ba8	0.016149357
4	0x3ecf8fe5	0.4053947
5	0xbe32b6ed	-0.17452593
6	0xbcad2612	-0.021136317
7	0xbe014df1	-0.12627389
8	0xbd9cacec	-0.0765017
9	0xbd729428	-0.059223324
10	0x3e79ff0e	0.24413702
11	0xbdb6f5e2	-0.08933617
12	0xbedc6076	-0.43042344
13	0x3d5087f2	0.050910898
14	0xbed3aba9	-0.41341904
15	0x3e39b8a8	0.18136847
16	0xbcd889b3	-0.026432848
17	0xbda82752	-0.08210625
18	0x3e3cdd4a	0.1844379
19	0x3e5ad127	0.21368848
20	0xbdb20773	-0.08692827
21	0xbe31a353	-0.1734746
22	0x3ec2ffd9	0.3808582
23	0xbd157928	-0.036492497
24	0x3d090e1a	0.033460714
25	0xbc9a090a	-0.018803138
26	0x3f245e9b	0.64206856
27	0x3e423a24	0.18967491
28	0xbe3132ab	-0.17304485
29	0xbdbc2dfb	-0.091884576
30	0x3dd7fbbd	0.10546062
31	0xbea98988	-0.3311274
32	0x3d84f5f1	0.06492222
33	0xbda90d82	-0.082545295
34	0x3dec62aa	0.11542256
35	0xbd4e656b	-0.05038969
36	0x3dacf8b1	0.084458716
37	0x3df7bd88	0.12096697
38	0x3dd7ed34	0.1054329
39	0x3e92a096	0.28638142
40	0x3e54061c	0.20705456
41	0x3d0e2d0b	0.034710925
42	0x3d242cb6	0.040081702
43	0xbe22dce4	-0.15904576
44	0xbd932f14	-0.07186714
45	0x3f0a1c73	0.5394966
46	0x3e6eb614	0.23311645
47	0xbdc3178f	-0.09525978
48	0x3e5df37a	0.2167491
49	0xbd4ce74b	-0.050025266
50	0x3e0a5413	0.13508634
51	0x3e0abc48	0.13548386
52	0x3eb5618a	0.3542598
53	0xbe1cba66	-0.1530548
54	0xbdf2be43	-0.11852696
55	0x3e33af72	0.17547396
56	0xbe42b076	-0.19012627
57	0xbd75c184	-0.059999004
58	0x3e72ffdc	0.23730415
59	0xbe25d733	-0.16195373
60	0xbebc3ffd	-0.3676757
61	0xbdacfd9b	-0.08446809
62	0xbe1ab666	-0.15108642
63	0x3ddb3329	0.107031174
64	0x3e5b2619	0.21401252
65	0xbdbcf780	-0.092268944
66	0x3d43402b	0.047668617
67	0xbd74fa87	-0.059809234
68	0xbd8bcaa8	-0.06825763
69	0x3e44c654	0.19216281
70	0xbc8d8fce	-0.017280485
71	0xbe5ee5db	-0.2176737
72	0xb80cb000	-3.3542514e-05
73	0xbe854db4	-0.26035845
74	0x3dfdcaf8	0.12392229
75	0x3e92dc0f	0.28683516
76	0xbe0f6ab7	-0.14005552
77	0xbddff079	-0.109345384
78	0xbdb66fcc	-0.08908042
79	0x3ea660c8	0.32495713
80	0xbe94ed5f	-0.2908735
81	0xbdbdd14c	-0.09268436
82	0xbe8c84ec	-0.2744516
83	0x3d7e9b0e	0.06215959
84	0x3cb73329	0.022363262
85	0x3e44b6f2	0.19210413
86	0xbda13dec	-0.07873139
87	0xbddb4326	-0.10706167
88	0x3e5417ac	0.20712155
89	0x3dc30219	0.095218845
90	0xbdbd9fc1	-0.09258986
91	0xbda909f1	-0.08253849
92	0xbe29adfc	-0.16570276
93	0x3e52838f	0.20557998
94	0x3e5ffd1f	0.21873902
95	0xbe9fe8b4	-0.31232226
96	0x3dcf5925	0.10124425
97	0xbd9a6e50	-0.07540572
98	0x3cfda7cf	0.030963806
99	0x3e53b936	0.20676121
100	0x3e49b1d5	0.19696744
101	0xbdca1bf2	-0.098686114
102	0xbdded8df	-0.10881209
103	0xbe5ee8a4	-0.21768433
104	0x3ee6e601	0.45097354
105	0x3daee4ae	0.08539711
106	0xbdce6b9b	-0.10079118
107	0xbea2f0c0	-0.31824303
108	0x3ca79de8	0.020461038
109	0xbdaa377f	-0.08311366
110	0xbe31b95b	-0.17355864
111	0x3c4592e7	0.01205895
112	0x3dc42bff	0.09578704
113	0x3e1bad0e	0.15202734
114	0x3de5d8a0	0.112229586
115	0x3de03351	0.10947288
116	0x3dbec8d7	0.09315651
117	0xbe0747a6	-0.13210925
118	0xbd9ae77b	-0.07563683
119	0x3e171d80	0.14757347
120	0x3e1daff1	0.15399148
121	0xbe86a84b	-0.26300272
122	0xbe4f4c0a	-0.2024385
123	0x3e0bf485	0.13667496
124	0xbe3de893	-0.18545751
125	0xbe935e75	-0.28783002
126	0xbdf63f86	-0.12023835
127	0x3e17d5cc	0.14827651

fc3.bias f4 [2]
0	0x3e358ba9	0.17729057
1	0x3e818e6f	0.2530398
