sat-code/models/maddpg_20250712-135635/checkpoint_700/actor_agent_1.pth (torch, 21533 bytes, 6 tensors)

fc1.weight f4 [64, 4]
-0.060995832 0.17385139 -0.47671744 -0.40843612 -0.31570837 0.40209463 -0.6889356 -0.17659089
0.03140757 0.08019471 -0.41271886 0.5584078 0.15059087 0.0027106162 -0.4809542 0.590865
0.14262019 0.13396202 -0.27567822 -0.34075 -0.4246385 0.00263193 0.66245556 -0.33359864
-0.3816909 0.19380082 0.1894209 -0.47764844 0.41716096 -0.13008755 0.13749345 -0.39436665
-0.73673946 -0.038927533 0.06739909 -0.31920704 -0.29178977 0.4394644 0.4165127 -0.923506
-0.18228117 0.41046914 -0.6454309 0.17432912 0.15942109 -0.31575295 -0.103732266 -0.39329606
0.27409184 0.09237184 -0.49302357 -0.07650885 -0.25673124 0.18043831 0.11069567 0.12780839
0.41113827 -0.02161423 -0.5467838 -0.05975598 0.005212568 -0.0387459 -0.6312405 -0.7907578
0.38666242 -0.0033461568 0.24747425 -0.5523566 0.04480821 -0.5096871 -0.152602 0.56300384
0.1795226 0.08655568 -0.56450194 0.41709778 -0.24405925 -0.13938199 -0.009019076 0.36857134
0.29501215 0.4396266 -0.27129543 0.012290192 -0.21335736 0.40728948 -0.33452597 0.31085867
0.15797843 -0.40290597 -0.3673521 0.39552507 0.45737916 0.17465602 -0.6095802 0.059117865
0.38993847 -0.31108126 -0.43572363 -0.16581883 -0.12067431 -0.35815215 0.37108952 0.3630818
0.030839441 0.36460003 0.6457077 -0.094257735 0.44692108 0.027447559 -0.10212012 -0.3988606
0.03394241 0.11885404 0.15612881 0.028628008 -0.47626203 0.017575698 0.69988525 -0.49821767
-0.3694209 0.46938968 0.38387907 -0.36290768 0.295363 -0.2323887 0.27613512 -0.35450628
0.25326696 0.33620343 -0.15272617 0.38109928 -0.14096943 0.57146174 -0.45249906 -0.48992532
-0.44249624 0.034669034 -0.46118623 0.65440136 0.1484655 0.28537288 -0.4618576 -0.05501615
-0.11777383 0.24182773 0.47403443 -0.6019137 0.3864986 0.46069968 -0.31709474 0.4266627
0.31064156 -0.2027164 0.8116143 -0.28408512 -0.5296823 0.14493245 -0.7474881 0.011685246
-0.2992382 0.31141406 -0.1422204 -0.16707933 0.56904113 -0.36078745 0.64157695 -0.46877792
-0.26058617 0.41112342 -0.52950394 -0.54035693 -0.11793263 0.22248359 0.5022331 -0.23790604
-0.15838295 -0.17253023 -0.17444156 0.19868433 0.10695816 0.29991114 0.5227555 0.059516072
-0.06630686 -0.29418465 -0.36341733 -0.10464407 -0.0085102655 0.14778404 -0.38287312 0.21732363
-0.14272945 0.59984946 -0.059752107 -0.22935964 -0.15789363 0.48777974 -0.74581784 -0.14028282
0.1724265 -0.18539463 -0.27250758 -0.15186241 -0.21195307 -0.102635935 -0.07252708 0.099832915
-0.48085517 -0.29339623 -0.2314757 -0.60436064 0.45904487 0.120684475 -0.12928164 -0.24495882
0.115454905 0.0903174 -0.08024369 -0.33264327 0.05695352 -0.23584509 0.1944335 0.06716033
0.19162291 0.23546027 0.014537044 0.17915577 -0.31477538 -0.06365111 -0.3975077 0.3307609
-0.45788422 0.40514147 -0.24358998 -0.014395549 -0.07653654 0.113163896 0.17849697 -0.15634947
0.15291545 -0.040662855 0.53835005 0.25532067 0.41183868 -0.057748687 -0.32681713 0.4832534
0.2442236 0.3146149 -0.14571989 0.5447126 -0.27828795 0.2672266 -0.45154512 0.25114232
00000000: c4d6 79bd 1906 323e 4f14 f4be 8a1e d1be
00000010: 87a4 a1be 59df cd3e 155e 30bf 3ed4 34be
00000020: 39a5 003d 203d a43d e34f d3be d0f3 0e3f
00000030: 7e34 1a3e 98a4 313b a13f f6be ee42 173f
00000040: 070b 123e 572d 093e b225 8dbe c976 aebe
00000050: 386a d9be 757c 2c3b b096 293f 71cd aabe
00000060: fd6c c3be b973 463e 8df7 413e 568e f4be
00000070: 1f96 d53e ac35 05be 15cb 0c3e 6dea c9be
00000080: f59a 3cbf 7a72 1fbd 8908 8a3d 1b6f a3be
00000090: 7865 95be 7a01 e13e 2741 d53e e46a 6cbf
000000a0: eaa7 3abe 0329 d23e f63a 25bf 5583 323e
000000b0: 483f 233e 5faa a1be 9571 d4bd 1a5e c9be
000000c0: c455 8c3e 722d bd3d 966d fcbe acb0 9cbd
000000d0: 4772 83be d2c4 383e 69b4 e23d 34e0 023e
000000e0: b780 d23e 5310 b1bc 06fa 0bbf b0c2 74bd
000000f0: 31ce aa3b 05b4 1ebd fa98 21bf 1a6f 4abf
00000100: 9ef8 c53e 324b 5bbb e469 7d3e 3e67 0dbf
00000110: d088 373d db7a 02bf b343 1cbe 0521 103f
00000120: c6d4 373e 1b44 b13d 3383 10bf d78d d53e
00000130: abea 79be 27ba 0ebe bfc4 13bc 62b5 bc3e
00000140: d50b 973e bd16 e13e 3ce7 8abe cd5c 493c
00000150: 5a7a 5abe 3f88 d03e fd46 abbe de28 9f3e
00000160: 19c5 213e b149 cebe 9315 bcbe 4382 ca3e
00000170: 9a2d ea3e 07d9 323e 730d 1cbf 9325 723d
00000180: 04a6 c73e 0b46 9fbe 2b17 dfbe 69cc 29be
00000190: 1824 f7bd b85f b7be 72ff bd3e dce5 b93e
000001a0: ffa2 fc3c dbac ba3e 1a4d 253f 330a c1bd
000001b0: d7d2 e43e b4d9 e03c 5a24 d1bd 7537 ccbe
000001c0: 3207 0b3d bf69 f33d 3be0 1f3e 4985 ea3c
000001d0: 9ed8 f3be e9fa 8f3c ae2b 333f 6316 ffbe
000001e0: bc24 bdbe d853 f03e cc8b c43e 09cf b9be
000001f0: d239 973e 4ef7 6dbe 9561 8d3e d981 b5be
00000200: 35ac 813e db22 ac3e 4064 1cbe 721f c33e
00000210: 4a5a 10be 514b 123f f5ad e7be 7ed7 fabe
00000220: de8e e2be 1e01 0e3d 9a20 ecbe d986 273f
00000230: 5707 183e 651c 923e 9978 ecbe 9d58 61bd
00000240: 6833 f1bd b0a1 773e a4b4 f23e 0417 1abf
00000250: 25e3 c53e d4e0 eb3e 3e5a a2be 8973 da3e
00000260: 690c 9f3e e394 4fbe f4c5 4f3f 9b73 91be
00000270: 4299 07bf 2c69 143e 615b 3fbf 7973 3f3c
00000280: c035 99be aa71 9f3e 39a2 11be d816 2bbe
00000290: aeac 113f 22b9 b8be 633e 243f a903 f0be
000002a0: 8d6b 85be c57e d23e 928d 07bf d554 0abf
000002b0: aa86 f1bd bdd2 633e 5992 003f a49d 73be
000002c0: 242f 22be c4ab 30be cfa0 32be e873 4b3e
000002d0: e10c db3d f48d 993e 4ed3 053f 20c7 733d
000002e0: e4cb 87bd 5f9f 96be d611 babe a14f d6bd
000002f0: a46e 0bbc b354 173e f207 c4be 168a 5e3e
00000300: ab27 12be bc8f 193f a0be 74bd 41dd 6abe
00000310: deae 21be 44be f93e ebed 3ebf 4da6 0fbe
00000320: 9390 303e 17d8 3dbe 1d86 8bbe d281 1bbe
00000330: 3a0a 59be ca32 d2bd 1489 94bd 3375 cc3d
00000340: a632 f6be 0838 96be f707 6dbe 61b7 1abf
00000350: ee07 eb3e 6c29 f73d 6862 04be 7cd6 7abe
00000360: 9f73 ec3d 54f8 b83d ce56 a4bd 3850 aabe
00000370: 1848 693d 6081 71be 9319 473e 5b8b 893d
00000380: cc38 443e 7f1c 713e c82c 6e3c 9c74 373e
00000390: 3d2a a1be 835b 82bd 2186 cbbe 7e59 a93e
000003a0: cd6f eabe b46e cf3e a76f 79be 4fdb 6bbc
000003b0: 31bf 9cbd 79c2 e73d e9c7 363e 131a 20be
000003c0: de95 1c3e 188e 26bd 4fd1 093f 64b9 823e
000003d0: 85dc d23e e389 6cbd 9354 a7be fd6c f73e
000003e0: c015 7a3e 3415 a13e 9837 15be 4972 0b3f
000003f0: c27b 8ebe edd1 883e ec30 e7be ba95 803e

fc1.bias f4 [64]
1.0012994 0.41972095 0.9253537 1.0600725 0.50492543 0.7927789 0.6504619 -0.33696595
1.0368079 -0.12643667 0.13987374 -0.047161408 -1.2480056 0.29444626 0.51855415 -0.27503633
-0.4868907 0.5699133 -1.0166981 -0.2531325 0.1388354 0.5445033 0.10101246 -1.5482236
-0.14222965 -0.29381728 1.1367006 1.0108314 -0.2872179 0.8111684 -0.024751542 -0.24910326
-0.025037961 -0.03321931 0.73958725 1.414643 -0.6732465 -1.0175003 -0.13260897 0.3092611
-0.10597774 0.74576885 -0.36521694 0.45991817 0.6189424 -0.2551195 -0.1713137 -0.8486066
-0.4347998 0.10807158 0.5437435 0.57168174 -0.19585505 -0.6644955 1.6150321 0.81602025
-0.8068495 0.4539635 -0.6115714 1.2382954 -0.1481162 -0.26935685 -0.6547583 -0.02525753
00000000: 942a 803f aae5 d63e fbe3 6c3f 75b0 873f
00000010: cb42 013f 8ff3 4a3f ac84 263f cd86 acbe
00000020: 1fb6 843f 9d78 01be 103b 0f3e 522c 41bd
00000030: a6be 9fbf a9c1 963e f7bf 043f 90d1 8cbe
00000040: bd49 f9be d7e5 113f 2a23 82bf 959a 81be
00000050: de2a 0e3e 9164 0b3f 9fdf ce3d 312c c6bf
00000060: a6a4 11be 386f 96be 687f 913f ec62 813f
00000070: 390e 93be bba8 4f3f bfc3 cabc ed14 7fbe
00000080: 691c cdbc f910 08bd 9755 3d3f 0613 b53f
00000090: e259 2cbf 733d 82bf a5ca 07be 7957 9e3e
000000a0: db0a d9bd b5ea 3e3f b7fd babe 657a eb3e
000000b0: 0273 1e3f 069f 82be dc6c 2fbe 483e 59bf
000000c0: 149e debe a254 dd3d c632 0b3f bc59 123f
000000d0: 3a8e 48be 611c 2abf 5fb9 ce3f b4e6 503f
000000e0: b08d 4ebf e76d e83e f18f 1cbf 7780 9e3f
000000f0: c6ab 17be 24e9 89be 3d9e 27bf e1e8 cebc

fc2.weight f4 [64, 64]
0.08788604 0.121156275 -0.13232574 0.045466278 0.03517237 -0.3817764 0.11813055 0.09450533
-0.05169376 0.11579776 -0.20829926 0.12575954 -0.062035687 -0.057526782 0.083372205 -0.012852029
0.07484097 -0.06034206 0.04442713 -0.0875306 -0.10300615 -0.073113814 0.034567114 -0.054513805
0.09931463 0.07987231 -0.023761585 -0.026373459 -0.12555869 -0.080863036 0.1349247 0.1489196
0.073595606 -0.2009758 -0.29282984 -0.020111188 -0.055522088 0.07001848 0.03424318 -0.3763324
-0.28280717 0.1363473 0.069677025 0.12387527 0.27378365 0.13264804 -0.02589773 -0.36428422
-0.00014421261 -0.1449012 0.027226621 0.2810949 0.07148155 -0.038550623 0.1727589 -0.24949768
0.00043897968 -0.34916753 -0.17914192 0.22626477 0.11539536 0.07823707 -0.10717776 -0.26360935
0.2586785 0.16281785 0.19859403 0.025127556 0.07392781 0.2359607 0.16638024 0.0661205
0.37183103 0.093101144 0.022926226 0.14642566 -0.023658052 0.11376787 0.1546396 0.32552347
-0.14310429 -0.26217005 -0.110177234 0.086008996 0.062411208 0.065314874 0.13231158 -0.13121206
-0.13457371 0.06105596 0.1184966 0.014976399 0.014241568 0.10391416 -0.042234175 -0.13045695
0.080407605 0.087966114 -0.11870514 0.090765946 -0.19055204 -0.11284587 -0.18973957 0.20268765
-0.10159138 0.0643635 0.014608371 0.07250337 -0.34834012 0.024238033 0.21067238 -0.13650535
0.06722525 0.027106717 0.1435682 -0.27510208 0.124431595 -0.021493308 0.016918719 -0.6036355
-0.0005655141 0.06593621 0.073636994 0.35558176 -0.0348547 -0.022963747 0.058604036 -0.100576475
-0.041819584 -0.19476493 -0.09757925 0.072235435 0.12537643 -0.38763556 -0.00029620258 0.09401998
-0.20419087 0.05932894 -0.019835541 0.13010113 0.11502626 0.019225804 0.09189458 -0.1182999
-0.014456654 -0.098864935 0.11652042 -0.018276764 0.11933352 -0.10279477 0.022556383 0.10126825
0.24083675 -0.031806305 0.065494485 0.06916835 -0.056159917 -0.3166933 -0.10822152 0.10239364
0.022328204 -0.09071895 -0.21227172 0.07484847 0.025007244 0.113941275 0.15858728 -0.22633597
-0.16476937 0.10450179 0.0060980213 0.1447887 0.29574588 0.029270573 -0.16008842 -0.1497292
-0.06594235 0.042383708 0.15854777 0.22506496 -0.26738003 0.010879357 0.0082770325 0.40582573
-0.050343003 -0.18496373 -0.053475548 0.10196423 0.230029 0.14674284 -0.004645669 -0.07711476
0.017784974 0.18495126 0.11094476 0.016079789 0.02997538 0.3833325 0.07702651 0.032280263
0.27254176 -0.16848102 -0.027265478 0.10260439 -0.051735602 -0.07142247 -0.008514666 0.45243192
-0.044986624 -0.21319325 -0.18944022 -0.111265354 0.13052134 -0.02409747 0.18870445 0.059948746
0.025986044 0.0005850792 0.081395246 0.076114945 -0.053785134 0.23138058 0.019177895 0.0406266
-0.06391661 0.054867893 -0.021429855 0.0059548984 -0.07773038 0.027772527 -0.052627273 0.37780973
0.09719602 0.036124248 0.05014958 0.022375755 -0.043006103 0.07216415 0.3232682 -0.11907963
0.037928216 9.11427e-05 0.07821033 -0.17724988 0.1529649 -0.040066637 0.19154218 -0.44190517
-0.06056933 0.1595283 -0.09334544 0.24240156 -0.115867205 0.10098646 -0.1165901 -0.13705908
00000000: 99fd b33d c820 f83d 6680 07be d93a 3a3d
00000010: e710 103d 3278 c3be 6eee f13d 038c c13d
00000020: d6bc 53bd 6027 ed3d 674c 55be 1cc7 003e
00000030: 2219 7ebd 34a1 6bbd 0cbf aa3d 5191 52bc
00000040: 3946 993d 3c29 77bd 39f9 353d 3e43 b3bd
00000050: e3f4 d2bd b2bc 95bd 3f96 0d3d de49 5fbd
00000060: 7865 cb3d 1894 a33d a8a7 c2bc 270d d8bc
00000070: 7592 00be 859b a5bd b329 0a3e 617e 183e
00000080: 4bb9 963d 9acc 4dbe cbed 95be 38c0 a4bc
00000090: 216b 63bd d965 8f3d 9442 0c3d a4ae c0be
000000a0: 1acc 90be a09e 0b3e d4b2 8e3d 51b2 fd3d
000000b0: 5f2d 8c3e e3d4 073e 7a27 d4bc 7683 babe
000000c0: c737 17b9 fb60 14be 5d0a df3c aceb 8f3e
000000d0: eb64 923d 42e7 1dbd b6e7 303e 527c 7fbe
000000e0: db26 e639 16c6 b2be fb70 37be f4b1 673e
000000f0: 6754 ec3d c23a a03d 0380 dbbd cef7 86be
00000100: 8271 843e b9b9 263e 3c5c 4b3e 4ed8 cd3c
00000110: 7767 973d af9f 713e 955f 2a3e 2f6a 873d
00000120: a360 be3e d0ab be3d c8cf bb3c 9cf0 153e
00000130: 88ce c1bc 21ff e83d d859 1e3e 03ab a63e
00000140: ee89 12be 273b 86be 9aa4 e1bd 7c25 b03d
00000150: e5a2 7f3d cec3 853d b07c 073e 745c 06be
00000160: b1cd 09be d015 7a3d 58ae f23d 925f 753c
00000170: 7755 693c f2d0 d43d befd 2cbd 8296 05be
00000180: beac a43d 9427 b43d ae1b f3bd 7fe3 b93d
00000190: 1320 43be bc1b e7bd 174b 42be 5a8d 4f3e
000001a0: 240f d0bd 03d1 833d f357 6f3c a67c 943d
000001b0: a359 b2be d78e c63c 80ba 573e 0fc8 0bbe
000001c0: 64ad 893d e80e de3c 8b03 133e 2eda 8cbe
000001d0: fed5 fe3d bc12 b0bc 2099 8a3c db87 1abf
000001e0: 023f 14ba 9009 873d fece 963d d00e b63e
000001f0: cdc3 0ebd 781e bcbc c90a 703d 0afb cdbd
00000200: 034b 2bbd 7570 47be a1d7 c7bd 2cf0 933d
00000210: ae62 003e 2b78 c6be a34b 9bb9 8c8d c03d
00000220: 6917 51be e702 733d 257e a2bc 3b39 053e
00000230: e392 eb3d 6f7f 9d3c 3a33 bc3d 3847 f2bd
00000240: 9adb 6cbc b379 cabd 42a2 ee3d 27b9 95bc
00000250: 2265 f43d 1086 d2bd 2ac8 b83c ba65 cf3d
00000260: e99d 763e 5447 02bd f921 863d 23a8 8d3d
00000270: f107 66bd a025 a2be 3fa3 ddbd c2b3 d13d
00000280: a3e9 b63c dbca b9bd c25d 59be 284a 993d
00000290: fedb cc3c 0b5a e93d b464 223e 9ec4 67be
000002a0: 4db9 28be 0905 d63d e9d1 c73b 7d43 143e
000002b0: 016c 973e d7c8 ef3c 38ee 23be 9d52 19be
000002c0: c80c 87bd 8a9a 2d3d 595a 223e 6e77 663e
000002d0: 09e6 88be 553f 323c 649c 073c 64c8 cf3e
000002e0: 7734 4ebd 2267 3dbe 2d09 5bbd 9fd2 d03d
000002f0: b98c 6b3e c143 163e b23a 98bb 58ee 9dbd
00000300: cbb1 913c dd63 3d3e 0237 e33d c3b9 833c
00000310: ee8e f53c 2844 c43e 13c0 9d3d 4f38 043d
00000320: 988a 8b3e 4a86 2cbe da5b dfbc 4022 d23d
00000330: b6e8 53bd f245 92bd 1981 0bbc 28a5 e73e
00000340: e543 38bd 554f 5abe 9efc 41be 17df e3bd
00000350: 63a7 053e 0f68 c5bc bd3b 413e d18c 753d
00000360: afe0 d43c 0060 193a 8db2 a63d 27e2 9b3d
00000370: cd4d 5cbd 08ef 6c3e f61a 9d3c 1468 263d
00000380: b6e6 82bd 28bd 603d aa8d afbc 4f21 c33b
00000390: 1b31 9fbd 3683 e33c b28f 57bd 4770 c13e
000003a0: b50e c73d 05f7 133d a569 4d3d 5c4d b73c
000003b0: 2b27 30bd ccca 933d 6983 a53e 05e0 f3bd
000003c0: 9e5a 1b3d dd23 bf38 bd2c a03d fe80 35be
000003d0: d5a2 1c3e ea1c 24bd a223 443e 6541 e2be
000003e0: 8c17 78bd 635b 233e e52b bfbd 1d38 783e
000003f0: c94b edbd fdd1 ce3d cac6 eebd 3759 0cbe

fc2.bias f4 [64]
0.3806118 0.8504692 -0.1600576 0.61691743 0.5114219 0.19290589 0.85185194 -0.6773819
-0.02787932 -0.06851052 -0.031493977 0.39262864 0.018609524 0.36717054 0.46402827 0.0068630176
-1.1474184 0.11291562 0.12357629 0.304082 0.5248144 -0.57371086 -0.7299565 -0.05865478
-0.04457474 0.9692308 -0.09616125 0.08537371 0.07440746 0.23818588 -0.34718776 0.2006868
-0.040261693 0.26845333 0.6622361 0.72296786 0.14103849 -0.13623428 -0.8264797 0.15942715
-0.6085643 0.7866479 0.0033188476 -0.02319938 0.8601626 0.19789654 0.8274361 0.31473362
0.7852673 0.07834968 0.40433216 -0.08175794 -0.7802772 0.08568458 0.64998055 -0.28311968
0.74412334 0.0898032 -0.8811623 0.9093446 0.9173052 -0.6940168 -0.01873103 0.08034595
00000000: 8ddf c23e 59b8 593f 24e6 23be 4dee 1d3f
00000010: 8cec 023f 1f89 453e f812 5a3f e668 2dbf
00000020: 2c63 e4bc 3e4f 8cbd d4ff 00bd 9f06 c93e
00000030: 0073 983c c7fd bb3e 1d95 ed3e 2ae3 e03b
00000040: 9bde 92bf 4e40 e73d 9115 fd3d a3b0 9b3e
00000050: 3d5a 063f b7de 12bf 6ede 3abf ff3f 70bd
00000060: 0194 36bd 821f 783f 30f0 c4bd 69d8 ae3d
00000070: f062 983d 00e7 733e 98c2 b1be d780 4d3e
00000080: 72e9 24bd b772 893e 4e88 293f 6c14 393f
00000090: 656c 103e 0081 0bbe 2c94 53bf df40 233e
000000a0: dfca 1bbf c261 493f 0681 593b a00c bebc
000000b0: 9e33 5c3f 64a5 4a3e dad2 533f c424 a13e
000000c0: 4707 493f cc75 a03d a004 cf3e b570 a7bd
000000d0: 3fc0 47bf 667b af3d 2065 263f 10f5 90be
000000e0: de7e 3e3f bdea b73d da93 61bf cfca 683f
000000f0: 83d4 6a3f 16ab 31bf d171 99bc 6b8c a43d

fc3.weight f4 [2, 64]
0.079247095 0.07990501 -0.18512863 0.06094046 0.17024805 0.3847131 0.025072265 -0.19701667
-0.110252514 -0.02291829 -0.031163394 -0.12778816 -0.16416733 0.14143254 0.13897453 -0.25432873
-0.15006067 -0.035545222 -0.03858431 0.14814557 0.2011699 -0.09520718 -0.05523435 -0.1175229
-0.010854026 0.11717397 0.045639247 -0.032475438 0.015250439 0.24431144 -0.4716337 -0.2564307
0.13231541 0.1450789 -0.04854889 0.12318595 0.037110034 -0.20982783 -0.17490159 -0.67933965
-0.07783162 0.10412817 0.40758786 -0.0665724 0.15404522 0.09459817 0.19815339 0.06711627
0.14979829 -0.09419254 0.61867803 0.12368943 -0.082878835 -0.050330475 0.19185136 -0.17911682
0.18182556 0.15702774 -0.11738088 0.14800182 0.1626848 -0.114049606 0.05272929 0.2469195
0.21789481 0.06381218 0.025068754 0.02357081 -0.008550153 -0.16205896 0.049126104 -0.1567058
0.044659257 0.06428057 0.083883196 0.18987545 0.14746387 0.20289934 0.26397476 0.1051113
-0.15879342 0.03210241 -0.20767699 0.0023796037 0.038541924 -0.122053705 -0.08846259 0.038501408
-0.08244614 0.18243118 -0.10514712 0.015950494 -0.115078084 -0.27176106 -0.19758391 0.58049434
-0.099229395 -0.063768975 0.18919341 0.046281967 0.32536757 -0.04674598 -0.23020859 0.06929802
-0.19437018 0.05687273 0.31212196 0.12108807 0.14821944 0.14476338 0.15878329 -0.030449107
0.2728554 0.07670166 0.2288404 -0.34355974 -0.22070648 0.116583705 0.11342059 -0.047407173
0.17468393 -0.14036098 -0.22447845 0.21673132 0.15450989 -0.12682144 0.11372587 -0.18210989
00000000: 4d4c a23d 3da5 a33d 5c92 3dbe b49c 793d
00000010: 8155 2e3e 1ef9 c43e 5a64 cd3c bdbe 49be
00000020: 12cc e1bd 23bf bbbc 604a ffbc e6da 02be
00000030: 7b1b 28be b1d3 103e 574f 0e3e 6037 82be
00000040: 81a9 19be de97 11bd 950a 1ebd 79b3 173e
00000050: 7bff 4d3e fbfb c2bd 6a3d 62bd d9af f0bd
00000060: 16d5 31bc e8f8 ef3d 38f0 3a3d f704 05bd
00000070: fadc 793c c72c 7a3e f979 f1be e24a 83be
00000080: b17d 073e 908f 143e 33db 46bd ea48 fc3d
00000090: b100 183d 1bdd 56be 6719 33be 34e9 2dbf
000000a0: 2f66 9fbd 2641 d53d 5baf d03e 1c57 88bd
000000b0: 08be 1d3e afbc c13d b9e8 4a3e 4174 893d
000000c0: b964 193e 05e8 c0bd af61 1e3f e250 fd3d
000000d0: 61bc a9bd 5427 4ebd af74 443e 666a 37be
000000e0: 7b30 3a3e e1cb 203e 6365 f0bd ca8d 173e
000000f0: d896 263e d792 e9bd abfa 573d 77d8 7c3e
00000100: d11f 5f3e f6af 823d fd5c cd3c 9217 c13c
00000110: f115 0cbc c9f2 25be 7438 493d 7c77 20be
00000120: a0ec 363d 88a5 833d f4ca ab3d b66e 423e
00000130: c500 173e d8c4 4f3e b327 873e 9844 d73d
00000140: be9a 22be d17d 033d 47a9 54be 20f3 1b3b
00000150: 23de 1d3d 4bf7 f9bd e02b b5bd a7b3 1d3d
00000160: 86d9 a8bd 3dcf 3a3e 6057 d7bd 9caa 823c
00000170: 0fae ebbd 4424 8bbe 7053 4abe 479b 143f
00000180: c838 cbbd 4f99 82bd ebbb 413e 2992 3d3d
00000190: 9496 a63e b678 3fbd cdbb 6bbe 1fec 8d3d
000001a0: fa08 47be 61f3 683d 73ce 9f3e 06fd f73d
000001b0: d6c6 173e da3c 143e 1698 223e 6870 f9bc
000001c0: b4b3 8b3e c315 9d3d 2355 6a3e 10e7 afbe
000001d0: e100 62be 70c3 ee3d 0e49 e83d 062e 42bd
000001e0: 58e0 323e caba 0fbe aedd 65be d1ee 5d3e
000001f0: d737 1e3e 7bdd 01be 1ce9 e83d 047b 3abe

fc3.bias f4 [2]
0.31028184 0.6927894
00000000: 43dd 9e3e a55a 313f
