sat-code/models/maddpg_20250712-135635/checkpoint_1300/actor_agent_0.pth (torch, 21533 bytes, 6 tensors)

fc1.weight f4 [64, 4]
00000000: 0d3f ba3e 9d26 8dbd f868 dbbe fda9 6c3e
00000010: 3aa4 b73d c8d7 a93d 552b d43e 004d e63e
00000020: 2672 b93e c165 b23e ca00 bb3e 1feb f73e
00000030: 3729 b03e fdd5 893e b478 c4bd a232 e43e
00000040: 38c1 1dbe 6cc7 8a3e e94c da3e 71ea 1f3f
00000050: 1037 6b3e 3dd1 02bd 8659 afbe c018 3b3e
00000060: 6beb 613e 37a4 aabd 7ba9 0abf 950a 1fbf
00000070: 65d1 15be d88c 3dbe 0d94 9b3e 4c25 f03e
00000080: 95cb 833e 23a8 c8bd 4ad4 fbbe 9fa8 053f
00000090: 2e46 0ebd e906 213d 47d6 933d ffce 543d
000000a0: 4f75 b8bb 99b0 6c3e 1c50 0abf e062 bf3e
000000b0: 8a33 6e3e bdf0 bfbc d937 abbe ad2b 703e
000000c0: d65f 46bd 031f b33e 8689 713e 1493 38bf
000000d0: 0242 733e 8136 0bbe e018 c23e 197f 16bf
000000e0: 86f5 68bd 50b1 d93d dd98 4e3e f874 303f
000000f0: e156 c6bc 1c78 8b3e 0807 adbe f901 e63e
00000100: 681c 35be 917c de3d 482c c43d df8b e6be
00000110: 9a03 90be 8c69 50be 8014 e13b a238 8d3e
00000120: e019 46bc 4ebc 3c3d 060a 283e 9223 3cbe
00000130: 364d 033e 00a2 91bc b488 6c3f 03d4 4d3d
00000140: f6dd 17be 8b9c 9f3d df2d 67bf 7cb3 0dbf
00000150: 35de 6abe 8a63 8e3e ce3e 043d 14c7 a7be
00000160: 5c2c 0ebe 7433 693e e974 7f3e 4d2b 34bf
00000170: 5e86 8a3e 3301 83bd 8098 853e 56cc 833e
00000180: 6de1 0a3f 4c4e 83bd e466 4fbe b4b9 96be
00000190: 6a04 aa3d b4a1 7b3e 967f b13e 4e3d 13bf
000001a0: 8ca0 1b3e f403 80be 7e3b e23e bfed 6ebd
000001b0: c1f5 7fbc 7acc a43d cb22 0ebf 57a0 06bf
000001c0: fc24 a6be 1171 8fbe 3cd6 b43e cbd7 cb3e
000001d0: 5746 2dbe 6c09 8a3d 9d15 9d3e 35f5 b5be
000001e0: 32a0 983e fbe0 d83d 50ed 203e bf20 11bf
000001f0: 4176 4dbd c41c 053f 1416 dbbe b515 f33e
00000200: 1d28 913e c79c ec3e 1cbe 973c 7e49 d33e
00000210: e8b0 8abe 09a4 a23d eb54 8fbf fdd5 1bbe
00000220: 61ee e03e 8fea 09be 9a48 1ebf 9300 e83e
00000230: fc15 203e bd03 1ebe 680f f2be 03ab 7dbe
00000240: b62e 5239 eb2a 983e a9c3 28be bac0 643e
00000250: 80e7 be3e 5517 023f 09c1 8e3e 51fb 953e
00000260: b736 f83d f1d4 04be 9c77 313f 3de9 f8bd
00000270: a2c6 123f dea7 f0bd 5e39 f6be dff7 3abe
00000280: 712d 953d b4cf a03d 576f 8bbe 5286 003f
00000290: 1b26 893d 7553 183f 3b24 debc c87f d63e
000002a0: 92a7 363e 3caa 783e 86f9 7bbe e5d7 b93e
000002b0: 72df 363e 56bb 6cbe b717 05bf 6371 053f
000002c0: f365 b83e cfd7 74bd 3595 48bc bcfe aebd
000002d0: 2dc1 8e3e eb6e 26bf 8b62 dcbe 3007 63bf
000002e0: 8de8 263e a771 dfbd fe1c 113f 6f66 febe
000002f0: 41d4 a93d 92f1 e73d 8765 e03e 5e83 213f
00000300: b7b4 ab3e dc94 1cbd 8c7d 12bf 5ef2 113f
00000310: 8d12 383d a64d f03d cc7c 073f 0d42 5d3f
00000320: 2711 1a3e 5465 2ebd d1c6 a2be 5739 eb3d
00000330: 2081 b7bd b1f5 203e 4279 6bbe ab52 e1be
00000340: d21d aa3e 9d2e a73e fd7a 253d 6a08 49bf
00000350: 39fe 853e 1928 533d b706 17be bfb4 b93e
00000360: 568c a5be 45e0 cb3e 1393 c2be bf3e c33e
00000370: 6676 3f3e 6d0b 773e 0f9e d1be 3588 303c
00000380: 5a92 b83e 36dd d2be 64d3 323f c03b 31bf
00000390: 2e63 44be 3885 8e3e 7aa2 fbbe 2cf2 fa3e
000003a0: b437 a53c 788f a03d 216a b3be bb1b cdbe
000003b0: e535 0bbc 4c44 383d 6a00 a43d c80c b73e
000003c0: 1000 1bbe dd4b 3b3e 4561 73bd b8ea 283f
000003d0: 5035 f93e f943 f8bd 71a3 1fbe cd27 a4be
000003e0: 2c1f 623e 7971 983e ef3d 483e a98d 13bf
000003f0: 7da2 e9be efd1 09bf 4467 16be 112a 0cbf
0.3637623 -0.068921305 -0.42853522 0.2311172 0.089668706 0.0829311 0.4143931 0.4498062
0.362199 0.34843257 0.3652404 0.4842157 0.34406444 0.26921073 -0.09593335 0.4456988
-0.15405738 0.27105272 0.42636803 0.62467104 0.22970223 -0.031937826 -0.34247988 0.1827116
0.22062461 -0.08332103 -0.54164857 -0.6212552 -0.14630659 -0.18510759 0.3038639 0.46903455
0.25741258 -0.097976945 -0.491854 0.5221042 -0.034734897 0.03931323 0.072186045 0.05195522
-0.0056292186 0.23114242 -0.5402849 0.37380123 0.23261848 -0.023430223 -0.33441046 0.23454161
-0.04843124 0.34984598 0.23587617 -0.72099423 0.23755649 -0.1359501 0.37909603 -0.58787686
-0.056874774 0.10629523 0.201755 0.6892848 -0.024211349 0.27240074 -0.33794427 0.4492338
-0.17686617 0.10863603 0.095787585 -0.45028588 -0.28127748 -0.20352763 0.006868899 0.2758227
-0.01209113 0.04607802 0.16410074 -0.18372944 0.12822422 -0.017777443 0.9239609 0.05025102
-0.14830765 0.0779353 -0.9030437 -0.55351996 -0.22936328 0.27810317 0.032286458 -0.32769072
-0.1388411 0.22773534 0.24946941 -0.7037857 0.2705564 -0.06396713 0.2609291 0.25741833
0.5425022 -0.06411418 -0.20254093 -0.29438555 0.08301623 0.24573404 0.34667653 -0.5751542
0.15197963 -0.25003016 0.44186014 -0.0583322 -0.015622557 0.08046813 -0.5552184 -0.5258841
-0.32450092 -0.2801595 0.35319698 0.39813074 -0.16921364 0.06740078 0.30680552 -0.3553864
0.2980972 0.105897866 0.15715528 -0.5669059 -0.050161604 0.5199702 -0.42790282 0.474775
0.28350917 0.46213362 0.018523268 0.41267008 -0.27088094 0.079414435 -1.119779 -0.15218349
0.4393187 -0.13468383 -0.6182953 0.45312938 0.15633386 -0.15431114 -0.4727738 -0.24772267
0.00020044562 0.29720244 -0.16480888 0.22339144 0.37285995 0.5081685 0.2788165 0.29293302
0.12119811 -0.12971856 0.69323134 -0.12153862 0.5733434 -0.11750768 -0.48090643 -0.18258618
0.07284058 0.07852116 -0.27233383 0.50204957 0.06696721 0.59502345 -0.027116885 0.41894364
0.1783736 0.2428369 -0.24606904 0.36297527 0.17858675 -0.23118338 -0.5198931 0.5212614
0.3601528 -0.059776124 -0.012242605 -0.085446805 0.27881756 -0.65013 -0.43043932 -0.8868284
0.16299649 -0.10910349 0.56684864 -0.49687526 0.08292437 0.11325373 0.4382746 0.63091075
0.33536312 -0.0382279 -0.5722282 0.5701045 0.044939566 0.1173356 0.529248 0.8642891
0.15045606 -0.042577103 -0.3179231 0.11485546 -0.089601755 0.15718724 -0.22995475 -0.44008383
0.33225876 0.3265275 0.040400494 -0.78528464 0.2617052 0.051551912 -0.14748655 0.3627071
-0.3233363 0.39819542 -0.38002834 0.3813381 0.18697509 0.24125452 -0.40940902 0.010774662
0.36049157 -0.41184396 0.69853806 -0.69231796 -0.19178459 0.27836013 -0.49147397 0.49012887
0.020168163 0.078398645 -0.35041907 -0.4006022 -0.008496736 0.044987008 0.080078915 0.3575194
-0.15136743 0.18290658 -0.059418935 0.6598315 0.48673487 -0.1212234 -0.15589692 -0.32061616
0.22082204 0.29774073 0.19554876 -0.5763803 -0.4563178 -0.5383596 -0.1468783 -0.5475169

fc1.bias f4 [64]
00000000: 063b 963f 0efd 61bf 481e c4be 4bb0 26bf
00000010: aa93 de3e 344d 173f ab32 403f 8d71 2a3c
00000020: 6d3b 343f 5431 7d3f 4754 38bf a8a4 e63f
00000030: 10f8 d2be 7762 2d3e 4674 293f 4efc b4be
00000040: d505 a03f 2ce2 9ebe 4d3c a33f 3790 cb3d
00000050: 32ab 053e 8eec 75bf becc f53e 1695 37be
00000060: 97dd 67bf ea45 853d 2289 7d3e f64b 8d3f
00000070: 469e edbd 3d78 923e 02ea f33e 6a5c 21bf
00000080: 33f6 c93e ed67 8d3d 52ad bb3f 826c bebe
00000090: d81a d03f 9db2 c13d 1bb8 953e 50d2 723f
000000a0: 1cd1 0c3f 57e2 bcbe 5cac 64be 4591 3e3f
000000b0: c65d 9c3f 7eb1 9a3f b726 aa3f b1c6 cebf
000000c0: 239d c93f bde5 7bbf 422f 153e b3f1 613f
000000d0: 220c a43f f64e ebbe 6897 aa3f 0f81 5ebd
000000e0: 0074 b6bd 3c25 803f 8666 19bf 8cfb 46be
000000f0: 760d 433f ec6d bc3e 3041 c4bb ac43 073f
1.1736763 -0.88276756 -0.38304353 -0.6511275 0.43472034 0.5910218 0.75077313 0.010403049
0.70403177 0.98903394 -0.720036 1.8018999 -0.41204882 0.16932093 0.66193044 -0.35348743
1.250178 -0.3103193 1.2752777 0.09939616 0.13053587 -0.9606408 0.48007768 -0.17927966
-0.90572494 0.06507476 0.24759343 1.1038806 -0.11602454 0.2860736 0.4763947 -0.6303164
0.39445648 0.06904588 1.4662268 -0.3719216 1.6258192 0.09457896 0.29242024 0.9485216
0.55006576 -0.36891434 -0.22331375 0.74440414 1.2216117 1.2085416 1.3293065 -1.6154386
1.5751079 -0.9839743 0.14568809 0.8825943 1.2816203 -0.4595868 1.3327456 -0.0543223
-0.08908844 1.0011363 -0.59922063 -0.19431895 0.76192415 0.36802614 -0.0059892163 0.52837634

fc2.weight f4 [64, 64]
00000000: 7e52 883d 2cde 833d 4ed9 103e bd17 94bd
00000010: 3a39 293e a59c a5bd e68a fb3d f373 a63d
00000020: 2e02 173e c4da 923d 43be 0a3d 1ac1 173e
00000030: 1c02 21be a312 a33e 44ed f13e 42ed d7bd
00000040: 8446 333e ea39 83bd 31c3 d03e d41e 533e
00000050: b71c 623e 7b70 77bc 14e2 92bd 2825 59bd
00000060: 92be 7b3e afd8 c9bd 4dd8 a33c d297 c53d
00000070: 7f3e 1fbd b5db c93e 7210 2b3b ac13 72bd
00000080: 4e66 ad3c 2493 103e 75b1 063e 40cc 223e
00000090: 8ec9 b73d 4505 55bd cdbd ca3e b734 3b3e
000000a0: 9d5c 2ebe 4c06 dabc 6938 b9bd d7c4 fbbd
000000b0: cf4c 7c3e 860c 423e 0843 0c3e 13d6 d43d
000000c0: 8070 4e3e 0481 32bc ab4e cb3d 1d0a 40bd
000000d0: 0dce 783d fec7 403d 4a5c f1bb 6261 12bd
000000e0: 33ec 9a3e ae06 243e fc61 cbbd dbd5 4a3d
000000f0: f589 c23e 1487 1e3e 924a a63d 5aba 403e
00000100: a745 ebbd f874 143b e880 08bd d51b c1bc
00000110: 19c6 91bd e9e8 f63d b729 3ebd 7bb0 ecbd
00000120: 0ac1 3c3e 5cb0 99bc ea4a 273e 88d3 cf3b
00000130: a28a 6a3e 6f3a c9be 0605 8ebd 9c7f 463e
00000140: fc40 933d c0c4 643b c89a e03d f546 7c3d
00000150: 7fb4 8bbc a34d a73e 9461 b63d 9851 953d
00000160: f645 18be e900 ff3d 677f 833b aacb e03c
00000170: 1d37 e63b 3536 e3be 4bcb bb3d 99b3 8fbc
00000180: 972b b63d 0d8a 4f3d 435c b9bd 0c15 d0bd
00000190: 1428 473e 1136 bebc d86b 92be 2edf 37bd
000001a0: ee9f d43e ac1c 273e 3778 9ebd 0205 903e
000001b0: 5163 8b3c 87e2 29be ca3a 9abc c2b2 48bd
000001c0: 74fe 9abd 9ae1 8f3d a448 863e bada 873d
000001d0: 52ec f63d b087 75bd 209b 1d3d 72e0 a73d
000001e0: e1df abbd 2568 8a3b 7481 083e 1745 96bd
000001f0: 653f f93c 6f7a 90bb 0fbe 21bc bc5d e73d
00000200: fcf3 063e 5652 d2bb f5a7 adbd 7186 27bd
00000210: 7f2d fe3d 7e4b 483e 0103 0cbd 256a 87bc
00000220: 8079 683e 16b9 27be 472c 82bd 55d3 343e
00000230: 7827 f33c 287f 423e d1fc 823e b9e7 8a3c
00000240: ea38 723e 6ee3 95bd 67f4 173f 30a1 6a3e
00000250: 2d10 e43b d08a 8ebe f300 c53d c754 7dbc
00000260: 557a 0cbe 3700 543b 0029 6a3e 6092 163e
00000270: e41c a2bd 1d51 91be 6fd0 593e 04e8 8e3d
00000280: 161e 6e3d 1206 7f3b b87c f83d b443 c3bd
00000290: 895c b53d 65b7 923d 6195 2d3e f337 4d3d
000002a0: fd3b babc 9eed a83c 2de2 953d 0d52 3abd
000002b0: ce93 0b3e a63d d8bb 93d3 be3d c692 69be
000002c0: 5f2e 1dbd 5069 12be 0633 7dbe 090d ba3d
000002d0: 00d6 9b3d af6c c3bd c916 d8bd 71e1 6a3e
000002e0: 08ea c9bd cb1b 3dbe a1fa 16be dbc4 ba3d
000002f0: f839 94bc f7e2 043e 2649 bf3d 4d90 aabd
00000300: 0fa7 c83d c5bf 90bd a45d 213d 64da 98bc
00000310: 1cd9 bfbd 2ad6 98bd bd6c 153e 28c0 22bb
00000320: 5a87 d73d da6e 733e 9416 f23d 1ee2 0d3e
00000330: 4221 813d 6c5d 06be b91d 5f3d 12ae 873e
00000340: ac57 693e 84b5 933d 39f7 adbc 7a50 85bd
00000350: 3db6 eabd efbc 68bd 5477 2d3e b1a6 243e
00000360: 2ea5 30be 67d4 81bd 8f8a 883e 94db 82bc
00000370: 9e0e b9ba 47e4 f43a 85f9 8a3d 67b0 9fbc
00000380: 8f92 01bd b3a9 53be 023c 65bc 1f94 1b3c
00000390: be51 623e f26c 653d 0a8e 023d afef b9bd
000003a0: e52b a53e 228d 1b3e 3e45 563d 5527 823e
000003b0: e592 e3bd 8aed 5f3c 5a4c 703c fa64 16bd
000003c0: c873 1a3d 8a0e 5c3d 0a7b cb3e 60ab 183d
000003d0: 3bea 7e3d c510 d43a 63e8 3dbd 9a48 e5ba
000003e0: 625d eb3c 473f b63d 07f1 963d eec4 1a3e
000003f0: 6c07 c73d 197b 4abd 135f 093d 8470 c23e
0.06656359 0.0643886 0.14145395 -0.0723109 0.16525736 -0.08086518 0.12282352 0.08127584
0.14746925 0.071706325 0.033872854 0.14819756 -0.15723461 0.31850156 0.47251332 -0.105433
0.17507368 -0.064075306 0.4077392 0.20617229 0.22081266 -0.015102501 -0.07172027 -0.05301395
0.24584416 -0.09855782 0.020000601 0.09648098 -0.03887796 0.39425436 0.0026102331 -0.05910079
0.021166947 0.1411863 0.13153632 0.15898228 0.089739904 -0.05200698 0.39597932 0.18281828
-0.17027517 -0.02661433 -0.090439625 -0.122934036 0.24638675 0.1895009 0.13697445 0.10392394
0.20160103 -0.010895018 0.09927114 -0.046884645 0.06074338 0.047065727 -0.007365738 -0.035737403
0.3025833 0.16018173 -0.099307984 0.049520355 0.37995878 0.15481216 0.08119692 0.18821087
-0.114878945 0.0022652727 -0.03332606 -0.023572842 -0.07117862 0.12056143 -0.0464265 -0.115570985
0.18433014 -0.018760853 0.16337171 0.006342355 0.22904447 -0.39302394 -0.06934552 0.19384617
0.07190129 0.0034907311 0.10967022 0.061591107 -0.01705384 0.3267642 0.0890533 0.072909534
-0.14870438 0.124513455 0.0040129903 0.027440865 0.007025613 -0.44377294 0.091696344 -0.017541694
0.08895033 0.050668765 -0.09050801 -0.101602644 0.19448882 -0.02321914 -0.28597903 -0.044890575
0.41528267 0.16319531 -0.07737773 0.2812882 0.017015131 -0.1659032 -0.018826861 -0.0489986
-0.07568064 0.07025452 0.26227295 0.06633516 0.12056793 -0.059943855 0.038478017 0.081971064
-0.08392311 0.004223841 0.13330632 -0.073373966 0.030425737 -0.0044091265 -0.009871974 0.11297175
0.1317901 -0.0064185066 -0.08479301 -0.040899698 0.124110214 0.19560048 -0.034182552 -0.016530106
0.22702599 -0.16379198 -0.063561015 0.17658742 0.029681906 0.18993819 0.2558351 0.016956197
0.23654523 -0.073187694 0.59357303 0.2291305 0.006959936 -0.2784028 0.09619322 -0.015462107
-0.13718541 0.003234876 0.22867203 0.14704275 -0.07915667 -0.28382197 0.21270917 0.06977847
0.05813416 0.003891353 0.12133163 -0.09534398 0.0885554 0.07163886 0.16951515 0.050102185
-0.022733683 0.020621117 0.0731853 -0.045488406 0.13630602 -0.006599146 0.09317698 -0.22809896
-0.0383743 -0.14297986 -0.24726495 0.090845175 0.07609177 -0.09542214 -0.10551221 0.22937562
-0.09859091 -0.18467633 -0.14744045 0.091195785 -0.018094048 0.12977205 0.09340124 -0.083283044
0.09797489 -0.07067827 0.039395943 -0.018658824 -0.09367582 -0.074627236 0.14592262 -0.0024833772
0.10523863 0.23772755 0.11820713 0.13855788 0.063051715 -0.13121575 0.054471705 0.26499993
0.2278735 0.07212356 -0.021236049 -0.0650949 -0.114605404 -0.056820806 0.16940051 0.16079213
-0.17250511 -0.06339341 0.26668212 -0.015973844 -0.0014118736 0.0018683755 0.06785873 -0.019493295
-0.03163391 -0.20670204 -0.013991358 0.009495764 0.22101495 0.0560121 0.03187374 -0.09078919
0.3226005 0.15190557 0.05231213 0.25420633 -0.11112002 0.013667474 0.014666641 -0.036717393
0.037708074 0.053724803 0.3974231 0.03727281 0.0622351 0.0016179314 -0.0463642 -0.001749295
0.028731052 0.08898788 0.07370191 0.15114185 0.097182125 -0.0494338 0.033537935 0.37976468

fc2.bias f4 [64]
00000000: 390c 7b3e cb24 803e 3a2d 783e c5fa 043f
00000010: 5bad f13e 33aa 3e3e 4340 b23d 90e0 e43d
00000020: c036 4a3b fcec 2d3e 82dc 043f c67f b23e
00000030: f41c 36bf 1c87 49be 0c44 343c d336 4e3e
00000040: e166 113d 7d9d 243d 582c 893d d426 d83e
00000050: bd6f f03d 5abb 773e d9ef 593e 4580 3cbe
00000060: da33 383f a557 5c3d 0a16 4cbe 8972 8b3e
00000070: 965f 41be b14d 6d3e d0ec 083f 5aab d03d
00000080: 702e ff3e 2840 b3bc 3dc9 c93e 688d 843e
00000090: b43a 0a3f 8a0b dc3d 0b12 a93e 209b e7bd
000000a0: 98ac ba3e 8bc9 febc b296 893e 9598 d7bd
000000b0: 4024 4fbd 6656 213f a0e0 72be 435f 16bd
000000c0: d376 0b3f 270a e63e 0049 e73e ff7a 653e
000000d0: a9e5 9e3d 3b7e 83be ceb0 1ebd cd36 083e
000000e0: d92c 753e e5f0 043e 3694 09be 070c 333e
000000f0: f36d e1be a99f 493c fd2d 10bd 1370 fe3e
0.24516381 0.2502807 0.24236003 0.51945144 0.47202572 0.18619613 0.08703663 0.111756444
0.0030855387 0.16984934 0.5189897 0.34863108 -0.7113793 -0.19680446 0.011002552 0.20138101
0.035498504 0.040189255 0.06697911 0.42217124 0.117400624 0.24192563 0.21282901 -0.18408306
0.7195412 0.05379452 -0.19930282 0.2723582 -0.1888412 0.23174168 0.5348635 0.10188933
0.49840117 -0.021881178 0.39411345 0.25889134 0.53995824 0.107443884 0.33021578 -0.113088846
0.36459804 -0.031101963 0.26872784 -0.105271496 -0.05057168 0.6302246 -0.237185 -0.036711942
0.54478186 0.4492962 0.45172882 0.224102 0.07758648 -0.25682244 -0.038742833 0.13302155
0.2394289 0.12982519 -0.13435444 0.17485057 -0.44029197 0.012306132 -0.035200108 0.4969488

fc3.weight f4 [2, 64]
00000000: 9c5a f6bd 1a69 dc3d f87b 683e f3e1 aabc
00000010: 1ab4 fb3e 9366 4ebe 2def a4bc 1117 11be
00000020: ecac 9cbd bef9 cabc 141e 253e ea66 d7bd
00000030: c6de eebe 8bb7 613d aea1 f9be 276a e03d
00000040: ed34 00bd 5227 a8bd 3d9a 5b3e a180 8b3e
00000050: 7307 b2bd add9 26be 95b9 a03e d496 bcbd
00000060: de0c 54bd 0a09 9abc 47af 3a3f 4e07 443e
00000070: ab32 31be 8fab b2bd fdf3 d93d 1639 b6be
00000080: 33b0 263e 820d a9bd e2f8 983d 1f54 89bc
00000090: 0ec0 c93d 88bd f73d eee8 a33d e202 533e
000000a0: fcb9 403e 0b2d 0e3d 02c0 07bc 7ddd 2dbe
000000b0: 142f 93bd 648b 093f 4d19 773e 8f17 c3bd
000000c0: 0dc2 943e 16ce 67bd 99d5 003e 7d29 723e
000000d0: 224d d93e 0f41 2cbe 1631 15be bca4 943e
000000e0: cca8 2abe 0b9e 94bd 5d9d 3c3e 4541 4ebe
000000f0: f0f2 bebe ca3b cfbd e7e2 3dbe 7bf9 c93c
00000100: a73d 723e 9307 9dbd 66af 59bb 0e9e 9cbc
00000110: 4a1d cebd a725 653e ce8f 8dbc 995a 28be
00000120: 00b0 0cb8 7147 a0be 8dcf bc3e 1ba8 a53e
00000130: c1df 13be 4bc9 cabd 191a 13bd 953f c63e
00000140: 3cd2 82be 4cd1 bdbd de36 f0be daa1 dbbd
00000150: 2933 b73c 1dc4 623e 9e42 3fbe 2f4a 9ebe
00000160: fdac 8f3e 1902 c33d e286 86bd 8a0e 98bd
00000170: fcad 29be 176f 813e e2ea 3c3e 54be 8fbe
00000180: 09f2 7e3d 506e 9abd 0af1 5cbd 1783 793e
00000190: a7f4 323e f21b cabd b2c1 babd 7e3c 9abe
000001a0: 6afa 043f aee4 ae3d e0b9 87bd aefd 87be
000001b0: e89d a73c d7cf f1bd 7144 36be e792 453c
000001c0: 2dfc ec3d 4f84 423e 13bb 3e3e f706 003e
000001d0: 4128 d63d 5088 97bd 7dbe 86bc 2617 463e
000001e0: 8f68 353e 8f05 65be 0a55 74be 3dc2 243e
000001f0: 88f3 35be 4e9b 71be 73e1 85bd f2a8 ac3e
-0.12029001 0.10762234 0.2270354 -0.020859694 0.49160844 -0.20156316 -0.02013358 -0.14168955
-0.0765017 -0.02477729 0.16124755 -0.10517676 -0.46654338 0.05510668 -0.48756164 0.10957747
-0.031300474 -0.08210625 0.21445556 0.27246574 -0.08692827 -0.16293974 0.31391588 -0.09208456
-0.051770084 -0.018803138 0.729237 0.19143412 -0.17304485 -0.087241285 0.1064224 -0.35590428
0.16278152 -0.082545295 0.07469346 -0.016763745 0.09851085 0.12096697 0.08003412 0.20606568
0.18820947 0.034710925 -0.008285524 -0.16979022 -0.07186714 0.5372832 0.24130745 -0.09525978
0.290543 -0.056593023 0.12581481 0.23648639 0.4244166 -0.16821693 -0.14569506 0.29031932
-0.16665953 -0.07256707 0.18419404 -0.20142086 -0.37294722 -0.10118826 -0.18543588 0.024655094
0.23656331 -0.0766746 -0.0033216118 -0.019118335 -0.1006418 0.22377644 -0.017280485 -0.1644081
-3.3542514e-05 -0.31304505 0.368771 0.32354817 -0.14440824 -0.09901675 -0.03591356 0.38720384
-0.2555102 -0.09268436 -0.4691686 -0.1072423 0.022363262 0.22145124 -0.18677756 -0.30915973
0.28061667 0.095218845 -0.065686956 -0.07424648 -0.16570276 0.25280067 0.18448976 -0.28074896
0.06224254 -0.07540572 -0.05394081 0.24366413 0.1747614 -0.098686114 -0.09118976 -0.30124277
0.519446 0.08539711 -0.0662725 -0.2656073 0.020461038 -0.118072204 -0.17799546 0.01205895
0.11571536 0.18995784 0.1862605 0.12502657 0.104568966 -0.073990464 -0.016448254 0.19344768
0.17715667 -0.22365402 -0.23860565 0.16089721 -0.17768681 -0.235944 -0.06537142 0.33722645

fc3.bias f4 [2]
00000000: e8be 353e 44a6 453e
0.17748606 0.19301707
