sat-code/models/maddpg_20250712-135635/checkpoint_1300/actor_agent_1.pth (torch, 21533 bytes, 6 tensors)

fc1.weight f4 [64, 4]
000000 2b 0b 93 bd 8a c1 45 3e 4d bf f2 be cd bb c8 be
       -0.071798645 0.1931211 -0.47411576 -0.3920578
000010 6a 35 48 be 61 86 d2 3e 15 38 45 bf f3 38 ff bd
       -0.19551626 0.41118148 -0.770387 -0.12462034
000020 fa 96 32 3d 1d 70 a3 3d 97 8d 01 bf 99 1a 01 3f
       0.043601014 0.07980368 -0.50606674 0.5043121
000030 05 b4 eb 3d 63 e2 35 3c 51 64 fd be 4c fc 12 3f
       0.115089454 0.011101338 -0.49490598 0.57416224
000040 1a 22 84 3d 3c 7a 68 3d 5b d3 aa be e5 4f 11 bf
       0.06451817 0.056757197 -0.33364376 -0.56762534
000050 ac 21 94 be 12 42 c1 bb be 03 52 3f c3 9b a5 be
       -0.2893194 -0.005897769 0.8203696 -0.323454
000060 46 bd be bd 6e 05 a1 3e fa 4a af 3e 4c 3d b0 be
       -0.09313445 0.31449455 0.3423689 -0.34421766
000070 60 96 d4 3e 41 3f 21 be eb 87 66 3d 53 54 9e be
       0.41520977 -0.15746786 0.056281965 -0.3092371
000080 dd f7 48 bf 1d 46 18 3d cc ac 27 3e 1c 7b b9 3d
       -0.7850321 0.03717624 0.1637451 0.090566844
000090 16 b0 6e be ff 75 f2 3e 55 8f 0f 3f e0 0d 48 bf
       -0.23309359 0.4735565 0.5607808 -0.7814617
0000a0 6e d5 cc bd 38 fd e8 3e a0 b5 22 bf 4e 9b a2 3d
       -0.10001646 0.4550569 -0.6355839 0.07939778
0000b0 f6 9e 08 3e f5 80 d4 be 76 3a 81 bd 6f 5c ef be
       0.13341889 -0.41504636 -0.06309979 -0.4675021
0000c0 2f 82 98 3e 87 0c e2 3d 70 5c 03 bf 9b 61 bc bd
       0.29786822 0.11037546 -0.51312923 -0.09198304
0000d0 6f fe 27 be 15 1c 8d 3e eb db 92 3e 3b 5c a0 3e
       -0.16405652 0.27560487 0.2868341 0.31320366
0000e0 78 e7 c0 3e 88 b0 96 bd 01 22 1a bf 99 e9 34 be
       0.37676597 -0.073578894 -0.60208136 -0.17667235
0000f0 7c 90 17 3d 6c 55 8e 3d ef 98 28 bf e6 d1 3a bf
       0.037003025 0.06949887 -0.6585836 -0.7297653
000100 bc 80 e0 3e ce 4f 71 bd a7 f4 65 3e c5 6f 06 bf
       0.43848217 -0.058914 0.22456609 -0.52514297
000110 ba d1 cb 3d 3e f5 b7 be 13 db 9b be 96 8f 14 3f
       0.099521115 -0.35929292 -0.30440578 0.58031595
000120 da a4 5a 3e 6c 4b 04 3e cb 7a 0a bf bf 84 e5 3e
       0.21351948 0.12919396 -0.5409362 0.4482784
000130 ab ea 79 be 18 f9 0e be f7 1c 10 bc 24 8e bc 3e
       -0.24405925 -0.13962209 -0.008795968 0.36827195
000140 4b 42 75 3e dd 14 c8 3e bc 1c a1 bd a3 30 7e be
       0.2395107 0.39078417 -0.07866809 -0.24823241
000150 d3 16 78 be b5 97 c5 3e b3 14 15 bf 7e 1d 01 3f
       -0.24227457 0.38592306 -0.5823471 0.50435627
000160 fe 5c 68 3e 37 e7 72 be 7d 4c c2 bd a1 3f 1b 3f
       0.22691724 -0.23721014 -0.09487245 0.60643965
000170 55 dd fa 3e 84 5e 52 3e eb 5f 19 bf 8f be ff 3c
       0.48996988 0.20543867 -0.59911984 0.031218795
000180 13 cb d1 3e b9 a2 9b be 72 9d c1 be ba ea db bd
       0.40975246 -0.30397585 -0.37815434 -0.1073813
000190 22 63 db bd ef e3 9a be 39 b2 c6 3e 6f 0e d5 3e
       -0.107122675 -0.30252025 0.38807848 0.41612574
0001a0 0b 0e 8d bd 23 de 9e 3e 1e f3 17 3f 0b af 03 be
       -0.06887444 0.31028852 0.5935534 -0.12859742
0001b0 46 0e d8 3e b4 63 fa 3b 5a ea 1d be 2c 2b f3 be
       0.4219839 0.00764128 -0.1542143 -0.47493875
0001c0 5d 75 0a 3c 04 db e3 3d 09 e8 52 3d 33 9d eb 3d
       0.008450833 0.11125758 0.051490817 0.11504593
0001d0 e9 95 93 be 5f ab 0e 3e eb f0 35 3f f9 be c8 be
       -0.2882531 0.1393256 0.71070737 -0.392082
0001e0 15 dd 53 be fd 8c 0d 3f c1 14 a9 3e fb cd a8 be
       -0.20689805 0.55293256 0.33023646 -0.3296965
0001f0 c3 11 94 3e 03 63 7c be e6 c3 85 3e 9f 80 b9 be
       0.289198 -0.24647145 0.2612602 -0.36230943
000200 9b ff 79 3e 57 68 cd 3e 31 97 d4 3d d1 ad df 3e
       0.24413912 0.40118667 0.103804 0.436873
000210 20 38 bd be 66 3e 06 3f fa f9 78 be 54 44 00 bf
       -0.36956882 0.5243896 -0.24314108 -0.5010426
000220 ef e7 00 bf cb ba 90 3d 35 36 03 bf eb 71 1a 3f
       -0.503539 0.07066878 -0.5125459 0.60330075
000230 fa d7 c2 3d 4a 02 84 3e a1 26 fb be 3e 37 62 bd
       0.095138505 0.25782996 -0.4905291 -0.055228464
000240 21 db 4e be 8c bd 89 3e 63 54 46 3f 4c 4a e5 be
       -0.20200779 0.26902425 0.77472514 -0.44783247
000250 04 e6 c4 3e 53 4c ea 3e cb 8a d1 be 3f a5 f5 3e
       0.38456738 0.45761356 -0.40926203 0.47977635
000260 ed c3 c4 3e 02 ea bc bd a0 08 2e 3f cd b1 9e be
       0.3843073 -0.09224321 0.6798191 -0.30995026
000270 98 97 0d bf d6 2b f4 3d fa 4e 46 bf 47 11 88 3e
       -0.5530944 0.119224235 -0.7746426 0.26575682
000280 9e 89 db be 9b 9d 89 3e 15 90 b2 be ff ba 8a 3d
       -0.4287843 0.26878056 -0.3487555 0.06773948
000290 aa cd 07 3f 76 b4 da be a6 22 27 3f 40 fe 1c bf
       0.53048193 -0.42715806 0.65287244 -0.61325455
0002a0 67 74 a1 be f8 bf ce 3e 2f d1 0c bf 7a 90 14 bf
       -0.3153412 0.40380836 -0.5500669 -0.58032954
0002b0 a9 10 19 be 00 df 49 3e a2 2c 01 3f 66 cb 77 be
       -0.14947762 0.19713974 0.5045873 -0.24198684
0002c0 33 08 20 bd f9 40 5f be 1a 6c 8b be f5 7f c6 3c
       -0.03907032 -0.21802129 -0.27230912 0.024230937
0002d0 8b dd 8f 3d 2d cb a0 3e 21 ab d3 3e da b0 47 3e
       0.07024678 0.3140501 0.41341498 0.19501057
0002e0 af 58 b9 3d 39 f0 a5 be b2 6f 7a bd 9b 36 6a 3d
       0.09050118 -0.32409838 -0.061141677 0.057180982
0002f0 b7 a5 ad 3d d0 1f 37 3e 5c 2a 89 be 36 ba c7 3e
       0.08478873 0.1788323 -0.2679013 0.39009255
000300 4a c1 33 be 59 ff 19 3f 25 a4 39 3e 63 f6 f7 bd
       -0.17554203 0.60155255 0.18129022 -0.121075414
000310 e9 a1 5f be 2b 65 02 3f 0b 8b 2c bf e7 d2 9a bc
       -0.21839108 0.5093562 -0.6739966 -0.018899394
000320 61 38 4f 3e 19 b2 da bd 0f 52 b9 be c8 e1 0d be
       0.2023635 -0.10678501 -0.36195418 -0.1385566
000330 d5 2a 9b be 7b 4b fe bd c4 ff a5 bd 8a d9 c3 ba
       -0.30306116 -0.124167405 -0.08105424 -0.0014942151
000340 93 fd c9 be cd b7 85 be 60 09 8a be 3a 25 30 bf
       -0.39451274 -0.2611679 -0.26960278 -0.68806803
000350 1f 21 ed 3e 1a c1 ed 3d ee ce fd bd b9 4b 8e be
       0.46314332 0.11609097 -0.12392984 -0.27792147
000360 53 e3 92 3d b2 10 82 3d e9 f8 04 be 36 22 bd be
       0.07172265 0.06350841 -0.12985577 -0.36940163
000370 7b 01 58 be 45 29 a1 be c7 c7 d3 3c f9 d2 7b bd
       -0.21094315 -0.314768 0.025852097 -0.061480496
000380 50 cf 57 3e 36 22 7d 3e 6d 85 bf bc e8 18 f4 3d
       0.21075177 0.24720082 -0.023379052 0.11918813
000390 0e 46 54 be e3 3f b8 3d 62 15 cd be 69 a2 17 3f
       -0.20729849 0.089965604 -0.40055376 0.59232193
0003a0 56 f4 12 bf 90 7f c8 3e f8 72 9c be 48 16 86 3e
       -0.5740408 0.39159822 -0.30556464 0.26188874
0003b0 e1 a2 6b bd 2b b8 d6 3d 6e 06 04 3e a7 40 3b be
       -0.05752838 0.10484346 0.12893078 -0.18286382
0003c0 2a 76 60 3e f1 7e 54 bd 8f 56 81 3e 99 d5 3d 3e
       0.21920076 -0.051878873 0.2526135 0.18538512
0003d0 08 6e df 3e 27 72 96 bd c8 17 84 be 63 ef 19 3f
       0.43638635 -0.073459916 -0.25799394 0.601309
0003e0 d4 3e 80 3e 31 47 b3 3e 46 75 0f be a7 bc 2c 3f
       0.25047934 0.35015252 -0.1400958 0.6747536
0003f0 03 5b 89 be fe 58 a7 3e 41 84 b4 be ce 43 0a 3f
       -0.2682725 0.32685083 -0.35257152 0.5400971

fc1.bias f4 [64]
000000 db 32 84 3f fb a6 de 3e 4a 1d 95 3f 3d fb a0 3f
       1.032802 0.4348677 1.1649563 1.2576672
000010 ac 19 19 3f 79 3e 82 3f 0d ff 3b 3f 77 01 80 be
       0.598048 1.0175315 0.7343605 -0.25001118
000020 d5 25 7c 3f 18 b8 1a 3e 7e bd b3 3e 49 4f fa 3d
       0.9849523 0.15109289 0.3510551 0.12222154
000030 6e e7 aa bf 0c 3d 0f 3f 0e 8f 38 3f c3 e4 8b be
       -1.3351877 0.55952525 0.72093284 -0.2732297
000040 f3 cf 11 bf 15 93 3a 3f 87 48 85 bf 5d d1 81 be
       -0.5695793 0.7288068 -1.0412759 -0.25355044
000050 1a 5c 0a 3f 2e 68 38 3f 60 5c 0b 3f 29 19 d0 bf
       0.54046786 0.72033966 0.5443783 -1.6257678
000060 36 23 9c be b8 2f 8c be 3b 5b a3 3f ff f1 8b 3f
       -0.30495614 -0.27380157 1.2762216 1.0933226
000070 19 b5 ad be 2b 15 95 3f 89 2d 08 3c 1c f6 dd be
       -0.3392723 1.1647085 0.008311638 -0.4335183
000080 b2 20 dc 3e f5 58 21 bd c1 32 24 3f b1 b1 c8 3f
       0.42993695 -0.039391477 0.64139944 1.5679227
000090 ee be 23 bf 51 08 8b bf 67 00 9c be 85 0f b0 3e
       -0.6396321 -1.0861913 -0.30469057 0.3438684
0000a0 72 84 ea bd ba ca 1c 3f 80 dc 1c bd 84 1d 66 3e
       -0.11451043 0.61246836 -0.038296223 0.22472197
0000b0 30 49 46 3f 31 10 15 be 56 d7 3a 3d a2 37 51 bf
       0.77455425 -0.14556958 0.045615517 -0.81725514
0000c0 44 06 ba be 5c ea 8a 3e d0 17 15 3f 2a 86 30 3f
       -0.36332905 0.27131927 0.5823946 0.6895472
0000d0 37 8d 93 bd 2a a2 32 bf a0 a8 e0 3f c8 fb 36 3f
       -0.07204669 -0.6977869 1.755146 0.7147794
0000e0 78 53 6e bf 17 52 3d 3f a0 4b 29 bf 71 46 a7 3f
       -0.93096113 0.73953384 -0.6613102 1.3068372
0000f0 be e5 23 be 28 67 0c be a9 1c ff be 20 63 72 3e
       -0.16005608 -0.13711226 -0.49826553 0.23670626

fc2.weight f4 [64, 64]
000000 e9 de 3c 3e 05 77 0c 3e 28 8e 8c bd b3 cb 8e 3d
       0.18444408 0.13717277 -0.06863052 0.06972446
000010 da 8d 1a 3d 35 eb 24 bf d5 1e 17 3e 52 d0 d5 3d
       0.037732936 -0.644214 0.14757855 0.104401246
000020 2d b9 43 be 8d 23 eb bc 9a 7c 85 bd e1 f5 a8 3d
       -0.19113608 -0.028703475 -0.065179065 0.08250023
000030 8a cf 17 bd 19 9e f9 be 46 aa c4 3d b1 66 0a be
       -0.03706316 -0.4875343 0.096027896 -0.13515736
000040 48 af ba 3d 08 3b 33 be ca 48 9c 3d 3e 43 b3 bd
       0.091154635 -0.17502987 0.07631071 -0.0875306
000050 af bf 95 bd 87 51 f1 be b1 d4 52 3d 5b a8 e9 bc
       -0.07311951 -0.47132513 0.05147237 -0.028522661
000060 37 0a ab 3d 25 8a 33 3d 61 af 2b bc 31 4d 75 bc
       0.08351558 0.043832917 -0.010478825 -0.014972017
000070 1b 73 b8 bd bc 63 ae be 35 8b 79 3e 76 cf 05 3e
       -0.090063296 -0.34060466 0.2436951 0.13067421
000080 a9 d1 de 3d 5d fb a2 be b5 06 94 be e9 7f d8 3b
       0.10879833 -0.318324 -0.28911367 0.006607045
000090 2b 7e 8f bd 3e 96 d7 3d ad 6d 30 3d 96 c6 a2 be
       -0.070064865 0.10526703 0.043073345 -0.31792134
0000a0 7a 21 fd be 16 09 07 3e ab f5 08 be 88 73 81 3c
       -0.49439603 0.1318706 -0.13374965 0.01580216
0000b0 43 62 d8 bb eb 0f 35 3e a0 46 1c 3e 74 a6 a6 be
       -0.0066035106 0.17681853 0.15261316 -0.3254887
0000c0 40 ac 8e bc cb d9 26 be d6 39 49 3c 94 2d 93 bd
       -0.01741612 -0.16294019 0.012281856 -0.07186428
0000d0 bf 4a c5 3d 8b b2 8f bc e3 46 34 3e b5 5d ef be
       0.09633397 -0.01754119 0.17605166 -0.4675118
0000e0 d8 32 1e 3d d9 dd 67 be be 69 7a be fa de 69 3e
       0.038622707 -0.22643222 -0.244544 0.22838965
0000f0 86 e6 04 3e 19 a8 c8 3d e2 4c 8f bd a0 bc 36 bf
       0.12978563 0.09797687 -0.06997086 -0.7138157
000100 97 87 8d 3e 94 34 0c 3e 05 df 99 3e e5 a8 06 3e
       0.2764251 0.13691932 0.30052963 0.13150366
000110 2d 47 cc 3d 29 f1 fd 3e 8d 82 19 3e fe 88 83 3d
       0.09974513 0.49598053 0.14991207 0.064226136
000120 04 0e b5 3e ef ff 9c 3c 8b e5 68 3b 4c c5 1f 3e
       0.35362256 0.019165007 0.003553721 0.15602607
000130 d3 47 8e bd 3c 67 3c 3c 39 8e 3a 3e 8b 92 08 3f
       -0.06947293 0.011499222 0.18218316 0.53348607
000140 19 4c 18 be 4c 63 90 be 1a b7 0d be 17 8e b0 3d
       -0.14872779 -0.28200758 -0.13839379 0.086208515
000150 c8 73 99 3d e0 ea df 3c 8a 97 39 3d bc 17 26 be
       0.07492787 0.027333677 0.045310535 -0.16219991
000160 ff f0 0d be 51 39 64 3d f1 b2 25 3e 69 de 7c 3d
       -0.13861464 0.055718724 0.16181542 0.061735544
000170 b4 a9 04 3d 47 82 ce 3e c6 b5 96 bd 7c b4 00 be
       0.032388404 0.4033377 -0.07358889 -0.1256885
000180 57 de d5 3d 57 94 94 bc bd 81 33 be 62 aa 0a 3e
       0.104427986 -0.01813714 -0.1752996 0.13541558
000190 1a 83 98 be 94 64 ec bd 01 44 24 be 07 9b 27 3e
       -0.29787523 -0.11542621 -0.16041566 0.16367732
0001a0 6e f0 fe bd 8a 0f f9 3d cf e2 80 bd 0e c6 ff bc
       -0.12448202 0.12161167 -0.0629326 -0.03122237
0001b0 3d 27 d5 be 63 d9 5c 3d 1f 98 2c 3e 90 77 23 be
       -0.416315 0.053918254 0.16854905 -0.15963578
0001c0 73 0d 1c 3d 33 80 9b bc b1 c9 3c 3e 80 00 9c be
       0.038098764 -0.018982029 0.18436314 -0.3046913
0001d0 32 a9 68 3e 9a bc e4 bc a1 70 06 3e 37 04 a7 be
       0.22720793 -0.027921963 0.13128902 -0.32620403
0001e0 67 c6 9d bc ca 80 80 3e 86 f1 26 3d 5e 94 e3 3e
       -0.019259645 0.25098258 0.04075768 0.44449133
0001f0 37 44 ab bc fc f3 38 bd 45 06 9e 3d 4b 3a 68 be
       -0.02090655 -0.045154557 0.077160396 -0.22678487
000200 c3 70 92 3c a1 9e 3d be c7 2a 29 be 54 50 8f 3c
       0.017876035 -0.18517543 -0.16520225 0.017494358
000210 3a 97 dd 3d 1a fa 02 bf d7 c0 53 3e 8c 2a cc 3d
       0.1081986 -0.51162875 0.20679031 0.09969053
000220 d3 35 3b be 3b 22 89 3e ac 07 c4 3d 55 e0 5c 3e
       -0.18282251 0.26783928 0.09571776 0.21569951
000230 a3 44 01 3e d2 36 cc 3d d9 01 b7 3d ec 5d 6a be
       0.12623839 0.09971394 0.08935899 -0.22887391
000240 31 86 22 3c bb 65 3c bd 09 11 d7 3d 27 b9 95 bc
       0.009919689 -0.045995455 0.10501296 -0.018276764
000250 01 3e ce 3d 1e 57 a3 bd aa 83 b3 ba d1 31 d9 3d
       0.1007042 -0.07975601 -0.0013695855 0.10605205
000260 97 e0 67 3e be 1d 52 bd 8d 5a 0e 3d 37 cc 87 3d
       0.22644268 -0.051297896 0.034754325 0.06630748
000270 26 b8 9e bd b0 de f1 be e4 48 6e 3d 7c 35 cd 3d
       -0.07749967 -0.4724021 0.058174983 0.10019967
000280 77 2e f0 ba 74 63 a9 3d 58 aa 81 be 83 bd 2e 3d
       -0.0018324394 0.08270922 -0.25325274 0.0426612
000290 e7 d4 83 3e 48 16 c7 3d 13 e4 30 3e 5f b4 8a be
       0.2574837 0.09721047 0.17274503 -0.27090737
0002a0 22 c6 ef bd 83 b1 ba 3d 30 5e e2 3c b3 d7 9a 3e
       -0.11707713 0.09115889 0.027632803 0.3024269
0002b0 5b bd f5 3e ec 98 fe 39 33 cc 5e be aa 8f d4 bd
       0.4799603 0.0004856059 -0.21757583 -0.10378964
0002c0 60 1b af bc 97 81 fd 3d 70 c2 17 3e 7a 1d 99 3e
       -0.021375358 0.12378233 0.14820266 0.299053
0002d0 72 fa af be c0 94 76 3c d1 7d 11 bd 42 e9 82 3e
       -0.34370762 0.015050113 -0.03552038 0.25568587
0002e0 91 ed 78 bd 38 dd 53 be 1e 43 a8 bd 53 c2 c5 3c
       -0.060773436 -0.20689857 -0.082159266 0.024140513
0002f0 b7 3a 67 3e bc 11 24 3e bc a5 fe bc 72 89 ef bc
       0.22580992 0.1602239 -0.031084888 -0.029240344
000300 67 3f c8 3d 4b 21 a2 3e 06 66 34 3e 27 89 32 3d
       0.09777718 0.31666026 0.17617044 0.04358783
000310 ac bf 62 3d ca 10 a5 3e 5d aa f7 3d 16 08 8a 3d
       0.055358574 0.32239372 0.12093041 0.067398235
000320 ea 26 a8 3e 10 d5 97 be 66 a2 70 3c 0c 5d c1 3d
       0.3284219 -0.2965474 0.014687156 0.094415754
000330 80 85 d1 bc ab 89 85 be 31 2a 75 3c 23 26 08 3f
       -0.025576353 -0.26081595 0.0149636725 0.5318319
000340 f8 93 ab bc 34 42 98 be 4c f4 24 be 9a c7 e3 bd
       -0.02094458 -0.2973801 -0.16108817 -0.11122055
000350 77 33 21 3e c9 3e 46 be d2 bd 8b 3e 19 99 b0 3d
       0.15742289 -0.19359888 0.2729326 0.08622951
000360 8b a5 56 3d 84 73 d8 bc 2d c3 d3 3d f5 86 c4 3d
       0.052403968 -0.02642227 0.10339961 0.095960535
000370 fc 73 07 bd 9d cc 1a 3e f0 43 c3 3d 59 2c 87 3d
       -0.033069596 0.15117116 0.095344424 0.066002555
000380 69 6b 11 bd ae 97 b8 bd b5 6e 98 3d b9 7f 14 3d
       -0.035502825 -0.090133056 0.07442991 0.03625462
000390 36 c7 64 be b5 17 62 3d e6 69 2f bc 73 3a cb 3e
       -0.22341618 0.05519839 -0.0107064005 0.3969303
0003a0 52 16 92 3c 5c 07 8f 3d 69 a8 97 3c 15 07 01 bd
       0.017832909 0.069838256 0.018512921 -0.031500895
0003b0 d3 f8 9f be 5d 58 c7 3d ca 7e 04 3f bd c0 0d be
       -0.31244525 0.09733651 0.51755965 -0.13843055
0003c0 02 d9 3c bd 9c aa d0 bd 90 c1 c0 3d 72 b3 e9 be
       -0.046105392 -0.10188791 0.09411919 -0.45644718
0003d0 ef f9 06 3e 5f 78 86 bc 84 b3 5a 3e af 28 fe be
       0.1318128 -0.01641482 0.21357542 -0.49640414
0003e0 71 45 08 bd 43 55 d7 3e a5 8d 88 bc 19 bd 99 3e
       -0.03326935 0.42057237 -0.016669104 0.30027083
0003f0 38 84 a1 bd 67 34 07 3e 50 4c b2 bd 95 77 ab be
       -0.07886547 0.13203584 -0.08705962 -0.3348967

fc2.bias f4 [64]
000000 94 ed db 3e dd b8 9c 3f 63 27 b8 be 43 f7 45 3f
       0.42954695 1.2243916 -0.3596755 0.77330416
000010 a3 a4 36 3f 8e 05 49 3e 47 53 84 3f 00 3e 39 bf
       0.71344966 0.19631025 1.0337914 -0.7236023
000020 2c 63 e4 bc ad 3d 1d bd 7a 3e 0d bd 64 55 93 3e
       -0.02787932 -0.038388897 -0.03448341 0.28776085
000030 72 ba 48 3d a7 2e eb 3e 87 aa f7 3e 99 e4 2f be
       0.049005933 0.4593403 0.4837229 -0.17177047
000040 01 8e 99 bf 74 17 09 3c 91 15 fd 3d 39 47 06 3f
       -1.1996461 0.008367408 0.12357629 0.5245243
000050 bd 51 32 3f 45 dc 08 bf 27 0b 34 bf 8b 12 8e bc
       0.6965597 -0.53461105 -0.7032952 -0.017342826
000060 5d 0b a3 3c 6d b8 58 3f 30 f0 c4 bd 69 d8 ae 3d
       0.01990288 0.8465641 -0.09616125 0.08537371
000070 77 67 98 3d 87 b0 d5 3e 1d 27 e6 be ad ef f3 3d
       0.07441609 0.41736242 -0.44951716 0.11910949
000080 72 ba b1 3d 01 34 d5 3e 8e 27 14 3f f1 72 57 3f
       0.0867814 0.41641238 0.57872856 0.8415976
000090 d0 90 0b 3e 43 f5 82 be ef cb 5c bf 4c 15 f5 3a
       0.1362946 -0.25577745 -0.8624868 0.0018698364
0000a0 60 f8 1b bf fe d7 69 3f fd ce 01 3e a0 0c be bc
       -0.60925865 0.913452 0.12676616 -0.02319938
0000b0 af da 78 3f f4 95 7a 3e 75 81 83 3f f5 86 fc 3e
       0.97208685 0.24471265 1.0273882 0.49321714
0000c0 45 b6 56 3f d0 f6 05 bd b4 8d d8 3e 06 86 2b be
       0.8387187 -0.032706082 0.4229561 -0.16750345
0000d0 81 e3 4b bf 9f 15 a5 3d 6f 13 58 3f 28 58 cd be
       -0.7964402 0.080607645 0.84404653 -0.4010632
0000e0 5f 25 64 3f ea 5d 67 3e a4 ed 64 bf 48 0a 80 3f
       0.89119524 0.22594419 -0.8942511 1.0003138
0000f0 ee de 8d 3f 75 68 3a bf d1 71 99 bc 7f 4e 77 3e
       1.1083658 -0.7281564 -0.01873103 0.24151038

fc3.weight f4 [2, 64]
000000 ec 5a 56 3e 8b 08 9d 3e c7 c2 2a be 42 83 42 3e
       0.20933121 0.3067058 -0.16675864 0.18995383
000010 a2 63 56 3e 0f c6 88 3e 70 68 42 3e 2f df 31 be
       0.20936444 0.26713607 0.18985152 -0.17370294
000020 12 cc e1 bd 68 18 6b be 0e 49 ff bc f8 b0 f4 bd
       -0.110252514 -0.22958529 -0.031162765 -0.119478166
000030 ca 6e 94 be 76 4d a5 3d a3 8f f9 3d 2c bb 71 be
       -0.28990775 0.08071415 0.121856 -0.23606557
000040 da f0 10 be 29 c8 5a bd 95 0a 1e bd f8 d1 8f 3e
       -0.14154378 -0.053413544 -0.03858431 0.2808988
000050 ab 9a b9 3e 3c e3 c5 bd bb 63 07 bd b2 39 91 be
       0.36250815 -0.09662482 -0.033054095 -0.2836433
000060 5c 97 15 bd c0 3f ad bc 38 f0 3a 3d f7 04 05 bd
       -0.0365213 -0.021148562 0.045639247 -0.032475438
000070 46 dd 79 3c 70 af 8e 3e 45 fc ec be 70 3a aa be
       0.01525051 0.27868223 -0.46286216 -0.3324771
000080 09 ad 0b 3e d1 77 06 3e 5f 8b 8a bd f7 38 89 3e
       0.13640226 0.13131644 -0.06764864 0.26801273
000090 17 c9 58 be 47 e1 6a be 43 e4 1d be 39 ba 41 bf
       -0.2117046 -0.22937499 -0.15419106 -0.7567478
0000a0 3b d6 78 bd 3c 6c 5a 3e 0d 00 02 3f 1c 57 88 bd
       -0.06075118 0.2133035 0.5078133 -0.0665724
0000b0 6b 33 16 3e d2 0c 0a 3e e5 61 ac 3e 8e d8 72 3e
       0.14668052 0.13481453 0.33668438 0.23715422
0000c0 2b 55 91 3e cf a6 a3 bd 10 1e f9 3e f6 b4 fc bc
       0.2838529 -0.079908006 0.48655748 -0.030848008
0000d0 7d 3c d2 bd 0b 68 41 bd 25 41 e8 3e 88 2b 4b be
       -0.102654435 -0.047218364 0.453622 -0.19840825
0000e0 06 60 97 3e aa 99 a4 3e c7 cb de bd 4a fc 9a 3e
       0.29565448 0.32148486 -0.10878711 0.30270606
0000f0 ee 2d 2b 3e e9 7d a8 bd ab fa 57 3d ec 4c bd 3e
       0.1671674 -0.082271405 0.05272929 0.3697275
000100 c0 49 a0 3e ec b3 74 be db 16 a6 3c 37 33 72 3d
       0.31306267 -0.2389676 0.02027457 0.059130874
000110 18 5d 35 bd 3f b6 2f be de 88 08 3e d5 7e 25 be
       -0.044278234 -0.17159365 0.1333346 -0.16161664
000120 a0 ec 36 3d c8 f5 d1 3e e0 c9 a7 3d 34 25 3d 3e
       0.044659257 0.4100783 0.081928015 0.18471223
000130 ac 5b 8a 3e 72 c8 bf 3e 80 b7 c6 3e 17 dc b7 3d
       0.27023065 0.37457615 0.38811874 0.08977526
000140 9e a5 1b be 36 fd db bd 47 a9 54 be 04 b0 8f bc
       -0.15199897 -0.107416555 -0.20767699 -0.017539985
000150 05 f1 87 bc 83 0c 0c be 5b 63 ac bd 5a f4 21 be
       -0.01659442 -0.13676648 -0.08417388 -0.15815869
000160 71 64 64 be 28 ab aa 3e 60 57 d7 bd 9c aa 82 3c
       -0.2230394 0.33333707 -0.10514712 0.015950494
000170 87 ae eb bd ba c5 a1 be d0 61 78 be 64 08 13 3f
       -0.11507898 -0.31596166 -0.24256063 0.5743468
000180 91 4e 5d bd c1 5e ba bd 0a 75 49 3e 0e aa d1 3d
       -0.054030005 -0.09100104 0.19673553 0.102375135
000190 4d 56 d4 3e d4 a9 1f bd 51 08 68 be 83 f2 fe bc
       0.41472092 -0.03898032 -0.22659422 -0.031121498
0001a0 96 62 47 be 1c 7c fc 3d 01 97 d0 3e 06 fd f7 3d
       -0.19471201 0.123283595 0.40740207 0.12108807
0001b0 5d 2a 92 3e 78 ef bf 3e c4 f7 c2 3e ab 06 03 be
       0.28547946 0.37487388 0.38079655 -0.12795512
0001c0 c0 8f dd 3e 25 05 dd 3d 39 6c c6 3e 0c e1 ef be
       0.43273735 0.10791997 0.38754442 -0.46851385
0001d0 95 73 60 be f0 ea e8 3d fe 7d 0c be 8f 4e 5b bd
       -0.21919091 0.11372936 -0.13719937 -0.053541716
0001e0 c8 12 32 3d 1a 0d 94 be 83 19 80 be 36 49 f7 3e
       0.043474942 -0.28916246 -0.25019464 0.48298043
0001f0 10 0c 8e 3e 10 be 0c be 1c e9 e8 3d 09 35 84 be
       0.27743578 -0.13744378 0.11372587 -0.25821713

fc3.bias f4 [2]
000000 44 9b f8 3e 44 47 20 3f
       0.48555958 0.6260874
