sat-code/models/maddpg_20250712-135635/checkpoint_1300/critic_agent_2.pth (torch, 24873 bytes, 5 tensors)

fc1.weight f4 [64, 18]
00000000: 2665 e6bd d1aa afbd bc3c aebe 84aa 17be
00000010: 3f1a 5abe 700b dfbd ebd1 efbe f64a b03e
00000020: 0117 eebd 5930 a6bd 68b1 ed3e 4ed4 ca3e
00000030: e78b efbe 2051 bfbe 9a08 ddbe cfc2 933e
00000040: a5c9 fe3e 1aca f53e be65 713e b438 c4be
00000050: 114c a53e 8ba9 92bd 1624 4d3d 32a3 343e
00000060: f3c0 173f 3ac0 9f3c 2d92 a1be 91fc f83d
00000070: cd89 03be c0f6 0d3f a2eb bb3e 6e61 a1be
00000080: 22d1 cf3e 545a c93d bc50 bbbd 2a26 203f
00000090: ee96 49bc a653 e0be 0e87 d43f 6469 a4bd
000000a0: bc15 08bf 52a5 56be 928a d03e e6bc 493d
000000b0: 40da a2be 79d3 3ebf 235d 973e 416d 55be
000000c0: 8985 d83f aaf3 93be 5c15 413f 9bfa 233e
000000d0: b92f 443e 8d25 f9be ff60 b03e 4d68 ce3e
000000e0: cf04 913e 1497 63bf 2698 9f3e ad41 473e
000000f0: 1e4f 2f3f 2ed5 c0be bea7 6bbf 275b bfbe
00000100: c251 37bf 8223 81be 2b2e 563d db7f 5bbf
00000110: 09ab 2d3f 1082 75be 6b1c 85bf 90ef 8dbe
00000120: b26d 6a3c 65e5 123e 7e3f 113f 03ba 1e3f
00000130: 7843 1ebe 56bb c3be 1e94 20bf eda3 f6bd
00000140: ae26 523e 4b62 5b3e 4a29 91be b5bc b7be
00000150: e068 053f c82d 3e3f 4f50 33be a2a6 90bd
00000160: 6380 0bbf 24a0 58be b52c 6f3d e875 933e
00000170: 422d 89bf 90f2 a0be 5454 763e cbad c23d
00000180: a1a8 253f 9b93 20be cc89 4b3d 18af 60bc
00000190: b3b1 b6be 9159 b2be 47a9 97bf 7a5e d2bd
000001a0: 9550 d13e 539e 0fbe 2e15 93bd fb9d adbe
000001b0: d7e8 323e e8d4 a13e 2a76 b6bd dab5 013f
000001c0: bdf9 663e a6a2 bdbe f4f0 113f 8102 7cbf
000001d0: 8529 5a3e 350a 823e cf34 b63d 16b0 bf3d
000001e0: 6d1c 1b3d f702 023f 63bf de3e 21b2 81bf
000001f0: 5113 043e 6f9f b03d 9343 cbbe d886 6bbd
00000200: e288 9b3d a7a6 233e cf0f 5fbe 1f5c 73be
00000210: acaf 74be eb70 99bd 6499 1d3c f0ce e2bd
00000220: 6c89 b33d 6769 933f f381 073f 92b2 e8bd
00000230: 2b32 bebb 5433 1bbf a681 c3bd 04e5 d33e
00000240: c4ed 4a3e 8b95 233e 80fa 3abc cbad a9be
00000250: 555f a13e 3ea2 7a3e d97d a33f 0395 113f
00000260: 348e a43c a9e2 9dbd 5a18 f43e c844 33bf
00000270: 93a5 50be 1257 78be a3cb a83f 6c8c 343f
00000280: 8e00 643e c84d 05bf ec01 7ebe f0a2 2dbe
00000290: d24c 5b3d 8f08 cfbc 523a 8cbe b44c b4be
000002a0: 8f89 89be 5024 7cbe f3fa 9bbd 4cc6 45bd
000002b0: 49a1 b13d 11c8 783f e27e 50be 7ac5 39bf
000002c0: 9600 783d e927 9bbd b649 2abc 2128 a03f
000002d0: 553e 7f3e fa2f 8dbf ec34 503e 0663 c53e
000002e0: 595b 9d3e c848 723e 2fbb c8bd 576a cbbc
000002f0: 7952 a5bc 2635 a9be 9b43 b43e 80a0 d63e
00000300: 94e7 a03e 085b a83d 3f73 d3bd 8dce fdbd
00000310: 9b79 f43e f287 873e e2fc 8f3d ef85 d03d
00000320: f8fe 07bf b82a 0a3f 3c92 ea3d 5b24 d03d
00000330: e510 a43e 7e23 93bf ae26 173e cbbb d83d
00000340: ad94 b7bd 00bc a8be 5b01 b9be ec0c 273f
00000350: 3b46 ae3e b255 93bf e8bc 743e d82e f7be
00000360: 9dd6 7ebe 557e bc3d 7a67 0abe 6613 913e
00000370: 2cd8 90be b8a3 c0be 015a 72be 1f19 20bf
00000380: 9102 9ebf 41f7 f9bd 9562 9d3d 57d3 5fbe
00000390: 375d d33c 849c 093f e179 d5be 896e ddbe
000003a0: ae3d babe b041 10be 17da 1c3e 3f95 423e
000003b0: 8f64 3f3e 9407 35be 622d afbd 002e 4cbd
000003c0: fd8a acbf 8301 9f3e 306a 4d3e 344f bb3e
000003d0: ad44 103f b6ae 883e c53d 203e d0bf 31be
000003e0: 015e c9bf 9b22 ea3c 5cae 273f 14cf e43e
000003f0: b81b 2abe b227 1dbe 732f 5f3f 8da7 c43d
-0.11249761 -0.085775025 -0.34030712 -0.1481114 -0.21299075 -0.108908534 -0.46839842 0.3443219
-0.116254814 -0.0811469 0.46424413 0.396151 -0.46786425 -0.3736658 -0.43170625 0.28859565
0.49763218 0.48005754 0.23573968 -0.3832451 0.32284597 -0.07161244 0.050083242 0.17640379
0.5927879 0.01950084 -0.31556836 0.12157548 -0.12845536 0.55454636 0.3670321 -0.31519645
0.40589243 0.09831682 -0.09146258 0.62558234 -0.012304051 -0.4381382 1.6603715 -0.08027914
-0.53158164 -0.20961502 0.4073072 0.049252413 -0.31807137 -0.7454143 0.29563245 -0.20842458
1.6915752 -0.28896838 0.75423217 0.16013567 0.1915883 -0.4866146 0.34449002 0.4031395
0.2832398 -0.889024 0.31170768 0.19458647 0.684801 -0.37662643 -0.9205283 -0.3737423
-0.7160913 -0.25222403 0.052290123 -0.85741967 0.67839104 -0.23975396 -1.0399297 -0.27721834
0.01430838 0.1434532 0.56737506 0.6200258 -0.15455425 -0.38228863 -0.6272601 -0.12042985
0.20522568 0.21424215 -0.28351814 -0.3588616 0.5211315 0.74288607 -0.17511104 -0.07063033
-0.5449278 -0.21154839 0.058392245 0.28800893 -1.0716937 -0.3143506 0.24055606 0.09505805
0.6471043 -0.15681307 0.04969196 -0.013713621 -0.3568245 -0.3483396 -1.1848534 -0.10271926
0.40881792 -0.1402524 -0.07181774 -0.33909592 0.17471634 0.31607747 -0.08909257 0.5066811
0.22556205 -0.37038153 0.5700829 -0.9844132 0.21304901 0.25398412 0.08896791 0.093597576
0.037868906 0.50785774 0.4350539 -1.0132486 0.12897994 0.086241595 -0.39699993 -0.057501644
0.07594468 0.15981542 -0.21783374 -0.2376561 -0.23895139 -0.074922405 0.009619091 -0.110746264
0.087664455 1.1516541 0.5293266 -0.113621846 -0.0058043203 -0.60625196 -0.09546213 0.41385663
0.19817263 0.15975015 -0.011412263 -0.33140406 0.31518045 0.24475953 1.2772781 0.56868
0.020087339 -0.077092476 0.4767483 -0.70026827 -0.20375662 -0.24251965 1.3187145 0.70526767
0.22265837 -0.5207181 -0.2480542 -0.16956687 0.05354006 -0.025272636 -0.27388245 -0.3521477
-0.2686276 -0.24623227 -0.07616224 -0.048284814 0.08673341 0.9718028 -0.20360902 -0.7256695
0.060547434 -0.07575972 -0.010393551 1.2512246 0.24926122 -1.1030266 0.20332688 0.3855211
0.30733755 0.23660576 -0.098013274 -0.02483098 -0.020180928 -0.33048362 0.3520783 0.41919327
0.3142668 0.08220488 -0.10324716 -0.12392912 0.47749028 0.26470906 0.070306554 0.10181796
-0.53123426 0.53971434 0.11453673 0.10163184 0.3204414 -1.1495206 0.14760849 0.10582694
-0.089639045 -0.32955933 -0.36133847 0.6525409 0.34037957 -1.1510527 0.23900187 -0.48277926
-0.24886556 0.092037834 -0.13516036 0.28335112 -0.28289926 -0.37624907 -0.23667146 -0.6253833
-1.2344533 -0.12205363 0.07684819 -0.21857964 0.025801284 0.5375445 -0.4169455 -0.43248394
-0.36375183 -0.14087558 0.1531757 0.19002245 0.18690704 -0.17678672 -0.08553578 -0.049848557
-1.3479916 0.3105584 0.20060039 0.36583865 0.5635479 0.26695794 0.15648563 -0.17358327
-1.5731813 0.028580954 0.65500426 0.44689238 -0.16612136 -0.15347174 0.87181777 0.0960227

fc1.bias f4 [64]
00000000: 4f7d 31bf 10ac 2140 b5ea 1040 6b6d 0dbf
00000010: 5896 49bf b420 60c0 a6e1 9c3e 02db b9be
00000020: e573 42c0 2dd9 64bd cf2c 9abf 3216 97c0
00000030: 445e 70bf 3598 9b40 57cc 4abd 6118 b93f
00000040: eda3 963f 41f2 1140 20cf 2ebc 661c a8bf
00000050: 3def 9440 1895 d5bc fae9 08bf 1a6f dbbd
00000060: 49ea 913f cd7c 873f 1498 dcbc 32a1 7bbf
00000070: 4fa7 863f f467 0040 767f 8b3f f87e 9540
00000080: 2625 c4be d396 a6be a1c6 34be 17e1 b3be
00000090: 9ffc 8abf c825 cc3f 187d 41be 7050 11bf
000000a0: e0b3 13bf a5c2 7b3f 674d 1540 0dd5 b7bf
000000b0: fc80 d53f 04e9 0dbf 9d76 35c0 1b4c 993a
000000c0: aa5e b5bf 405c edbf 1330 6340 109c 3340
000000d0: cc06 7dc0 9884 8cbf 33b9 f2bf 57e3 32bf
000000e0: 80e7 bb3e c676 9bc0 83ba a23f 8397 8140
000000f0: bf43 49bf 7784 fdbf 4a5e 02be d5a1 f73f
-0.6933183 2.5261269 2.2643254 -0.55245084 -0.7874503 -3.501996 0.30640906 -0.36299902
-3.0383236 -0.055871177 -1.2044924 -4.7214594 -0.9389384 4.86233 -0.04951128 1.4460565
1.1768776 2.280411 -0.0106695 -1.3133667 4.654204 -0.02607207 -0.5348202 -0.1071455
1.1399623 1.0584961 -0.026927985 -0.9829284 1.0519809 2.0063448 1.0898273 4.671749
-0.38309592 -0.32536945 -0.17653896 -0.35132667 -1.0858344 1.594903 -0.18895376 -0.5676336
-0.5769634 0.9834388 2.3328493 -1.4361893 1.6679988 -0.5543368 -2.8353646 0.0011695655
-1.4169514 -1.8543777 3.5498092 2.8064003 -3.9535398 -1.0977964 -1.8962768 -0.69878143
0.36700058 -4.8582487 1.2713169 4.049745 -0.78619 -1.980605 -0.12731281 1.9346262

fc2.weight f4 [64, 64]
00000000: d14d b7be 1021 92be ad4a ffbd ef6d 99bc
00000010: 18a3 febd 2f92 64bf 1846 d0be f6f3 acbd
00000020: 71c5 65bf d4dc 983e 58b0 ddbc dfe8 13bd
00000030: bcc5 96be ae4c 34be 7ab9 95be 9485 a63d
00000040: e82b 5bbd 6bf9 96be c907 94bd 345b edbd
00000050: 860f 3fbe a8a8 95bc 1e76 87be ad9d 423d
00000060: c0c7 ebbe 2c43 15be e792 7dbe 91e1 51be
00000070: 3406 97be 9b3e 36bb 294f ee3d cdf1 c7bd
00000080: 7a5b a4be b935 933e 3672 323e 16a7 51bf
00000090: 8f4c 07be 07cb 24be f7e3 0e3d 5878 c83e
000000a0: 5491 be3d 420d 8bbd e82c 5f3e e866 163d
000000b0: c8fe c73d 9182 07bf 4ec6 45be 28ce b23d
000000c0: feeb 15bc 6d71 c23e 5819 16bd 61a8 1c3e
000000d0: 3835 50be 73b9 613c 163a fabd 0386 f7be
000000e0: a352 d0be c394 edbe 7e7c 30be 9f47 debe
000000f0: edbc b53d abe0 4c3d 3c3c debd 3a92 783c
00000100: 9313 9bbd 4043 ffbd c3a6 e7bd 6322 133d
00000110: e082 d7bb 0a55 eabc 9049 e438 3244 02bd
00000120: a65f 9e3d 20b7 bdbb 9be8 af3d 7b6c cebd
00000130: 3c82 c0bd 3861 d63c 2fdb 12be 0848 9d3d
00000140: 4f27 bbbd 35bb 503c 7791 3fbe 1e8b 2dbe
00000150: 3911 93bd 26f8 e6bd bdd5 b5bd 1d7b 86bd
00000160: efa1 08bd 4954 ef3c f728 50bd 77f0 adbc
00000170: 3388 d3bc 316e 0dbe 356a d1bc 1e7b ebbd
00000180: df6d acbb ab83 6dbd 4ef6 c13d 0bf4 c9bc
00000190: 19b3 b9bc 0422 133e 504b 853d bb4c 47bd
000001a0: 960a af3c 9328 e73d 35fd 0dbe d4a0 83bd
000001b0: 2bdc b6bd 9a7e 47ba 6019 00be e092 1ebd
000001c0: 2d80 6abd 5ab8 2ebe ee92 13bd 94e1 2bbe
000001d0: e41b 29bd 074a 2a3a 55e7 983d 70bc 1fbe
000001e0: 43f9 31be 53b9 a23d b7e2 11be 10c3 c8bd
000001f0: 1bc7 553c b005 613c 9422 fb3d 382f 80bb
00000200: bfc1 dbbb 0493 a8be ef22 163e 3f1e 14bf
00000210: 13c8 a6bd e39d 26bd f27d 44bf e669 29bc
00000220: 7c38 1b3e b056 463d 0320 93bf 4344 ffbe
00000230: 7ced 763e ba61 023f 4c73 ba3e a334 3cbf
00000240: 3030 163f b970 a73d 935a 833e 1012 033e
00000250: 786c 29bf 2a5f c1bd f7ba 4abd 765b ae3e
00000260: 58b5 28bf df89 a73e c032 2fbd 0dff 913d
00000270: 02b0 f7be 8d06 173f 4a6e 663f 2b8f 1cbe
00000280: 1198 05be 4090 eebc 948e 9b3e c7bd 6c3f
00000290: dfe0 493e 3bbe 10be cf53 d4bd bda2 ee3e
000002a0: b0e0 c8be 4e3e 003f 5ca7 cd3e 6db7 33bf
000002b0: 9abe 733d 3d74 2e3e 5367 a03d faaa e0bd
000002c0: 62a6 073f fef9 63bf 47f5 4cbe 2118 9cbe
000002d0: c832 28bf 191e 5ebd e884 33bf 23b4 91bf
000002e0: a405 863e 303d 71be ac8f 643d bd8f f53d
000002f0: 24df 58be 565a e5bd 1e95 ecbd e178 393d
00000300: 1a5e 80bc 8beb 74be f74b 80be 8a1c 38be
00000310: f668 8bbc 9358 e23d 54fb ef3c 1dca 80bd
00000320: 341d b2be 4e87 a43e d90e acbd 55d0 fbbc
00000330: c57d 79bd 12b3 0abd 205e 943c 9061 4cbe
00000340: 302b 97bc 8c5e 2cbe cf2d bebd 7bc5 05bd
00000350: a459 c9bd 20f7 cdbc 6b41 51be 3d52 b9be
00000360: 0453 c93d 4269 c8be e876 22bf 953d 223e
00000370: 6cdf a7be 0883 72bd c1b7 8b3c 9608 8cbd
00000380: 29aa 033d dc2e ef3d f838 1e3e 74de 32bb
00000390: a7e5 33bd 94ff 43be 37b5 7e3d 3805 d3bd
000003a0: 0592 ccbd a7ef 173b 732a 973e 6e0e debc
000003b0: 10db 7dbd fbf1 23be 9118 16be 2414 0dbd
000003c0: 045c a0be 3587 543d 9068 093e 4fec 59be
000003d0: 8aa7 dabd 2a1f a2be a66c 003e cd2e 09bf
000003e0: 9234 93bc ff52 193d 5e95 fbbd c98a 2bbd
000003f0: 5c2c 66bb bbd0 acbe 4896 5b3d 5553 ccbe
-0.35801557 -0.2854085 -0.12465415 -0.018729178 -0.124334514 -0.8928556 -0.40678477 -0.08444969
-0.89754397 0.29855978 -0.027061626 -0.036110755 -0.29447734 -0.17607376 -0.2924307 0.08130947
-0.05350867 -0.29487166 -0.072280474 -0.11589661 -0.18658265 -0.018268898 -0.26457304 0.047513653
-0.46050835 -0.14576405 -0.2476307 -0.20496203 -0.2949692 -0.0027808312 0.11636192 -0.09762917
-0.3210104 0.28751925 0.1742638 -0.8189558 -0.13212799 -0.16093074 0.034885373 0.39154315
0.09305063 -0.06789638 0.21794474 0.036719233 0.097653925 -0.52933604 -0.19313928 0.087307274
-0.009150503 0.37977162 -0.036645263 0.15298606 -0.20332801 0.013777125 -0.1221811 -0.4834443
-0.40688047 -0.4640256 -0.1723499 -0.43414018 0.08873925 0.050018948 -0.108513325 0.015171582
-0.07572093 -0.12463999 -0.11311104 0.035921466 -0.006576881 -0.028605003 0.00010885589 -0.031803317
0.07733087 -0.0057896525 0.08589288 -0.10079285 -0.0939984 0.026169404 -0.14341424 0.076797545
-0.09138357 0.012739946 -0.18707834 -0.169476 -0.07181019 -0.11277799 -0.08878658 -0.06566451
-0.033357557 0.029214995 -0.050820317 -0.021232827 -0.02582178 -0.13811566 -0.025563339 -0.11498092
-0.005262121 -0.057986896 0.09470807 -0.024652502 -0.022668408 0.14368445 0.06508505 -0.04865716
0.021367352 0.11287036 -0.13866122 -0.0642716 -0.089287125 -0.00076101127 -0.1250968 -0.03871429
-0.057251144 -0.17062512 -0.036028795 -0.1678527 -0.041286364 0.0006496016 0.07465998 -0.15599227
-0.17380242 0.07945504 -0.14246641 -0.0980283 0.013047959 0.013734266 0.12262455 -0.003911879
-0.006706446 -0.32924664 0.14661764 -0.5785865 -0.0814363 -0.040677916 -0.7675468 -0.01034019
0.15158266 0.048422515 -1.1494144 -0.49856767 0.2411403 0.5093037 0.3641609 -0.7351782
0.5866728 0.08175797 0.2565504 0.12799859 -0.66181135 -0.09441979 -0.04949471 0.34054154
-0.6590171 0.32722375 -0.04277301 0.07128725 -0.4837647 0.5899437 0.9001204 -0.15288989
-0.1304629 -0.029121518 0.30382216 0.9247708 0.19714688 -0.14135067 -0.10367548 0.46608534
-0.39233923 0.5009507 0.40166748 -0.7020176 0.059507944 0.17036529 0.078322075 -0.10970111
0.52988255 -0.8905333 -0.20015441 -0.3048716 -0.65702486 -0.054227922 -0.70124674 -1.1383098
0.26176178 -0.23558497 0.05580108 0.119903065 -0.21178871 -0.11198871 -0.11551879 0.045281295
-0.015669871 -0.23917978 -0.25057957 -0.17979637 -0.017017823 0.110520504 0.029294647 -0.0628855
-0.34787905 0.3213448 -0.084012695 -0.030738989 -0.06091096 -0.03386218 0.018111289 -0.19959092
-0.01845321 -0.16832942 -0.09286081 -0.032659035 -0.09831551 -0.025142252 -0.20435111 -0.36195555
0.09830287 -0.39142805 -0.63462687 0.15843804 -0.32787645 -0.059206992 0.017055394 -0.06837575
0.0321447 0.116788596 0.1545142 -0.0027293237 -0.043920185 -0.19140464 0.06218454 -0.1030373
-0.099887885 0.0023183615 0.29524574 -0.02710649 -0.061976492 -0.16010277 -0.14657809 -0.034443036
-0.31320202 0.051886756 0.13418794 -0.21281551 -0.10676487 -0.316644 0.12541446 -0.5358704
-0.017969403 0.037432667 -0.12284349 -0.041880403 -0.0035121655 -0.33753 0.053610116 -0.39907327

fc2.bias f4 [64]
00000000: ae17 8e3e ed00 80bd 6264 0ebd a1d6 6b3c
00000010: d438 aebf 6fdf 52bc 768e fabc 1636 bbbd
00000020: 8056 16be 7537 493d cccb 90bd 7331 92bd
00000030: e7ce f4be 4bff 69bf 1e90 523c dc1c ef3e
00000040: 2c34 84be fc77 aabd 4ccb 0d3f 4ca0 24be
00000050: 67b8 643c 3c26 f83f 1cba 38c0 99a5 b23d
00000060: ea70 c8bd c0ac 0bbe cb25 8bbc f8ac 9c3e
00000070: 0522 58be e268 45bb f5fd c1bd f6c2 d3bd
00000080: fed1 d3be e0fd 9ebd 8368 33be 086f 8abe
00000090: c7e6 4c3d 5fc4 783c e13b 313d e9d5 e63e
000000a0: 45b0 b0be f60b 77be 790a c3be 3d58 76be
000000b0: 3431 dbbd 9206 313e 8c4e 36be 18d6 32bd
000000c0: f092 0dbe 9ad6 363f 14d4 93be 9f50 a6be
000000d0: b4d9 f5bd 6273 453e 0fbd 06bd a64c 35bc
000000e0: c734 f9bd 1911 2440 3df5 a33d 4a0c bc3e
000000f0: 67e6 01bc 6795 6540 82e9 9e40 a152 75bd
0.2775244 -0.062501766 -0.0347637 0.014394433 -1.3611093 -0.0128706535 -0.030585509 -0.091411754
-0.14681435 0.049125154 -0.07070121 -0.07138338 -0.47814104 -0.9140517 0.012851743 0.46701705
-0.25821054 -0.083236665 0.5538833 -0.16076773 0.013959981 1.9386668 -2.8863592 0.087229915
-0.09787162 -0.13640118 -0.016985795 0.30600715 -0.21106727 -0.003012233 -0.094722666 -0.1033992
-0.4137115 -0.077632666 -0.17520337 -0.27037835 0.050024774 0.015183537 0.043269996 0.45085075
-0.34509483 -0.24125656 -0.38093928 -0.24057098 -0.10702744 0.17287663 -0.17803401 -0.043661207
-0.13825583 0.71421206 -0.2887274 -0.32483384 -0.12004414 0.19282296 -0.032895144 -0.011065638
-0.121682696 2.5635436 0.0800576 0.36728126 -0.007928467 3.5872438 4.9660044 -0.059893254

fc3.weight f4 [1, 64]
00000000: 2d3e a03c 295f f5bc 40e2 48bd 99c2 b83b
00000010: 4839 f9bc edcf 053d 465a d1bc 8472 3f3c
00000020: 3aa9 1fbd 820e 793d 6be7 ad3d fa81 583d
00000030: be88 55bb aa92 c2bc 1552 dcbd cb6b 993c
00000040: d8c8 ba3c 0482 69bc a377 b3bd 6af9 9a3b
00000050: b8e4 92bc 9b7c 8e3d 4965 8fbc 5931 3abb
00000060: a06c 69bd 7844 c2bc e8cb 3fb8 fe06 903b
00000070: a047 8b3c 0299 51bc 9d51 94bc 769c b7bc
00000080: 8526 a33e 160c 8c3c adde 583e 96e6 e1bc
00000090: 5045 c2bd 46a0 1abc 947c edbc 1bc6 ba3d
000000a0: 2e64 0ebd ba2c f13d b11d 193e ed26 a03e
000000b0: ad43 753d 84f1 0abe d395 6a3c 9ea0 09bd
000000c0: 7619 19bd 1269 2ebd 0f79 b23d ffd9 603d
000000d0: 823d 823c 454f 29bd ed53 1bbb 6230 393b
000000e0: 4032 ba3d 3d92 1c3e 8dce 7bbe 6423 c43c
000000f0: 6998 853b d18c 6d3c fd88 cc3d 7944 433e
0.019560898 -0.029952602 -0.049043894 0.005638432 -0.030422822 0.032668997 -0.025555741 0.0116850175
-0.038979746 0.06080485 0.08491405 0.05285833 -0.0032582725 -0.023751575 -0.107578434 0.018728158
0.022800848 -0.01425219 -0.08763053 0.0047294395 -0.017931327 0.0695736 -0.017504351 -0.002841076
-0.05698836 -0.02371429 -4.572785e-05 0.004395365 0.017001927 -0.012792828 -0.018105322 -0.022413474
0.31865326 0.017095607 0.21178694 -0.027575772 -0.094858766 -0.009437626 -0.028990068 0.09119817
-0.034763508 0.11776109 0.14952733 0.31279698 0.059878994 -0.13568693 0.014317947 -0.033600442
-0.037377797 -0.04258067 0.08714496 0.054895397 0.01589847 -0.041335363 -0.0023701147 0.0028257598
0.09091616 0.1529016 -0.24590512 0.023942657 0.0040770066 0.014498905 0.09987066 0.19069089
