sat-code/models/maddpg_20250712-135635/checkpoint_2000/actor_agent_1.pth (torch, 21533 bytes, 6 tensors)

fc1.weight f4 [64, 4]
00000000: ef90 09be 5e00 043e 7298 11bf 2085 06bf
00000010: 4b52 6dbe af59 b83e 8ec0 6abf 9eaa 50be
00000020: 2917 b13c b684 c13c 206b e2be 43e0 c73e
00000030: 2160 b13d e285 a3bd 5f36 bbbe b177 0e3f
00000040: 44c9 bcbd 575c 7d3c c662 7fbe d641 01bf
00000050: 9851 1abe 7b5e 6e3d 0bf3 693f 3615 f2bd
00000060: ebde 9cbd f440 a73e 72fa 873e 269a d6be
00000070: 5f36 b93e 5bd7 3dbe bcd6 3bbd 97d8 db3c
00000080: 673d 5cbf a46d 003c a262 e4bc b871 4e3e
00000090: 61da f5bd 5a2c 073f e10c 0a3f f04a 30bf
000000a0: 392f b7bd 1338 d53e a991 35bf 5499 62bd
000000b0: 46b6 393e e4a1 a4be 59e4 0c3b 41e1 2ebf
000000c0: d894 a03e d96b 183e f64a 00bf c400 3dbd
000000d0: 16f8 6ebd 5652 aa3e 3414 b23e 7fe0 913e
000000e0: 885e a73e 7441 99bd fe49 1cbf 236a a5be
000000f0: 5254 1a3d e1b6 623d 05ce 05bf 71a7 48bf
00000100: 05ba dd3e c561 763c 23a0 283e 2c25 ecbe
00000110: 5501 283e 658f 65be 0519 8abe 2c58 1e3f
00000120: fc2e 6d3e e45a fc3d 4c29 03bf 6f38 0a3f
00000130: 1b28 7fbe d114 7bbd dc01 aabd 2252 de3e
00000140: 2ea6 6c3e 7ae4 6d3e 92fb d33d 5362 a7bc
00000150: 97f4 f8bd 5718 df3e 87a0 dabe 2279 413f
00000160: d050 2d3e 7a29 afbe 0812 373e d76c 623f
00000170: 3d5a 073f 3b61 7c3e 4944 24bf c7c2 2d3d
00000180: 29ac 373e 9049 1ebf 898a 8cbe 5333 8cbe
00000190: 7d3d d9bb 69f9 e4be 8403 bd3e 9b9b a53e
000001a0: be65 aebd d138 8a3e 31e1 303f 4b8b dcbd
000001b0: ba8f a83e 0025 09be 3d33 57bd ff63 1cbf
000001c0: cfb1 d43c f6d6 0c3e 2636 043e 528c 8b3e
000001d0: a467 04be 262d 693e 84f6 4e3f 5ec5 bbbe
000001e0: 8bc4 57be 7c74 173f fa86 793e 42ac c5be
000001f0: c74e 733e b085 9cbe 4977 383e da09 f0be
00000200: 8d5c 703e a775 983e 88d6 893e 3220 2b3f
00000210: 33f2 4bbe 07a2 1c3f 367f 67bd ae8e e1be
00000220: 0b00 01bf 6893 b03d f3e0 a2be 974f d73e
00000230: 85a6 853c 6888 393e f436 f5be 59ff 02be
00000240: 0ccd 3bbe 5a27 803e 5c17 683f e780 ccbe
00000250: 41c7 bb3e f637 c83e 8942 77be 0b45 253f
00000260: b27a bd3e cf1e 38bd 1c7a 243f 9b95 9cbe
00000270: 4501 16bf 6fd4 923d 05b0 7abf 7e5a 873e
00000280: c245 31be 67b1 cc3e d9b5 7fbe ecfa a63c
00000290: e1d8 df3e f285 ffbe 3bd1 0a3f bb33 4bbf
000002a0: 3d8e 48be b43e f33e 698e fabe 581a e2be
000002b0: db0a 2fbe d1d0 353e b2e5 e03e 45e3 cebd
000002c0: 5326 afbb e949 5abe d81b 1fbd 9069 8a3d
000002d0: 291f 653d 4432 9d3e cc9d a83e c1fd 463e
000002e0: e9ad ee3d a01b a3be 9d66 dc3d b0aa b93d
000002f0: 74f4 ea3d 0407 713e ea5b 89be 76e7 103f
00000300: f1f1 39be ad61 203f de04 423e e7a9 013d
00000310: 7194 3ebe 7806 003f da7d 11bf 0357 483e
00000320: 331e 3a3e 25ae a7be 4b37 a4be 9a93 03be
00000330: 65b1 8dbe 70b5 0dbd 08f2 ffbd 76bc 4e3d
00000340: 1cbc acbe 96d5 83be cf9c 99be 1d62 3ebf
00000350: 248c fd3e ed2f 173e bbef 1ebe 1ad9 edbd
00000360: 0838 8f3c e404 84bc 9722 8abd 34d2 bfbe
00000370: 512b 71bd faec 55be 30ce 433e 6fc3 93bd
00000380: 4b15 5f3e d2c7 9a3e 3d97 babd acba 013e
00000390: 2b81 e8bd 6df1 3b3d 8221 3fbf 3dbe 303f
000003a0: f565 eabe 3747 e03e cabd 04be 270b 313e
000003b0: 4737 83be 6513 873d 9f70 5f3b a4a7 87be
000003c0: 77ef 543e f7cb 1dbe d041 803e c00a 993e
000003d0: 8265 c53e e75a 04bd a80b 93be a75e d93e
000003e0: 1ac4 863e 23fd b73e 55fd ca3c 3beb 6f3f
000003f0: 98af b5be 4965 913e 006a 8cbe 5f46 223f
-0.13434194 0.12890765 -0.5687324 -0.5254688 -0.23175924 0.36005923 -0.91700065 -0.20377585
0.021617489 0.023622852 -0.44222355 0.39038286 0.08660913 -0.079845205 -0.3656492 0.55651385
-0.09218076 0.01546391 -0.24940023 -0.5049108 -0.15070188 0.058195572 0.9138648 -0.11820452
-0.07659706 0.32666743 0.26558262 -0.4191448 0.36174294 -0.18539183 -0.045859084 0.026836677
-0.8603119 0.00783864 -0.027879063 0.20160568 -0.12004543 0.5280205 0.539259 -0.68864346
-0.08944554 0.41644344 -0.70925385 -0.055322006 0.18135938 -0.32154763 0.002149841 -0.6831246
0.3136356 0.1488489 -0.5011438 -0.04614331 -0.058342062 0.33265942 0.3478104 0.2849159
0.3268931 -0.07483187 -0.61050403 -0.32307538 0.03767807 0.05535019 -0.52267486 -0.78380495
0.43305984 0.0150379585 0.16467337 -0.4612211 0.16406758 -0.22417982 -0.26972213 0.6185329
0.23162454 0.123220235 -0.5123489 0.5399236 -0.24917643 -0.06129915 -0.08301136 0.43422037
0.23110268 0.23231688 0.103507176 -0.020432627 -0.12156027 0.43573257 -0.42700598 0.7557546
0.16925359 -0.34211332 0.17877972 0.88447326 0.5287207 0.24646465 -0.64166695 0.042422082
0.17936768 -0.61831 -0.27449444 -0.27382907 -0.0066296444 -0.44721535 0.36916745 0.3234528
-0.085154995 0.26996472 0.69093615 -0.107687555 0.32922155 -0.1339302 -0.0525391 -0.6109008
0.025963692 0.13753876 0.12911281 0.27255493 -0.12930161 0.22771129 0.80844903 -0.36674017
-0.21071069 0.59162116 0.24367896 -0.38607985 0.2376052 -0.30570745 0.18014254 -0.46882516
0.23472805 0.29777262 0.26921487 0.66846 -0.1991661 0.61184734 -0.056517802 -0.44054168
-0.5039069 0.086218655 -0.31812248 0.4205291 0.016314754 0.18118441 -0.47893488 -0.1279272
-0.18339938 0.25030023 0.90660644 -0.39942095 0.36675456 0.39105195 -0.24146475 0.64558476
0.37007672 -0.044951256 0.64248824 -0.3058289 -0.5859569 0.07169425 -0.97924834 0.26436228
-0.17311767 0.39979097 -0.24971713 0.02038332 0.43720153 -0.4990688 0.5422551 -0.7937581
-0.1958551 0.47508776 -0.48936775 -0.44160724 -0.17093985 0.17755438 0.43925244 -0.10101942
-0.005345145 -0.21317257 -0.038844913 0.06758416 0.05593792 0.30702412 0.3293289 0.19432737
0.116542645 -0.31857014 0.107617594 0.09065759 0.11472407 0.23537832 -0.26827937 0.5660318
-0.181587 0.6264904 0.18947169 0.031656172 -0.18611313 0.5000987 -0.5683266 0.19564442
0.18175583 -0.3275005 -0.32073435 -0.12849274 -0.27674404 -0.03459686 -0.12497336 0.0504727
-0.33737266 -0.2574889 -0.30002448 -0.7436846 0.4952098 0.14764376 -0.15521137 -0.116136745
0.017482772 -0.016115613 -0.06744879 -0.3746506 -0.0588792 -0.2089118 0.19121623 -0.072150104
0.21785466 0.30230576 -0.09110878 0.12668866 -0.11352762 0.04588454 -0.74660504 0.6904028
-0.45780912 0.43804333 -0.12963024 0.1728941 -0.2562811 0.06595496 0.0034094227 -0.26495087
0.20794474 -0.15409838 0.2505021 0.29891014 0.38554007 -0.032313254 -0.2871983 0.42455027
0.2632149 0.35935315 0.024779001 0.9371831 -0.3548553 0.28397587 -0.27424622 0.6338863

fc1.bias f4 [64]
00000000: 0b0f 583f ecf0 d93e fad4 9a3f e697 a33f
00000010: a02b 163f 0989 933f d993 2b3f 1410 4dbe
00000020: 23f9 823f 9b3b d43e 5c6e 9b3e c253 0e3e
00000030: 62ae a5bf 3ef9 743f 0ea6 2b3f b779 97be
00000040: b9a7 23bf 2549 893f 1d63 72bf f70d 45be
00000050: 7c7c 383f b2a6 9b3f eb1a 0d3f a7ad d0bf
00000060: 57c7 13bf 9911 0fbe a889 b83f c577 633f
00000070: 2bdb 89bd c9ca a63f 14d0 07bd f69d 35bf
00000080: 2574 253f a79c 723e 89b4 043f 5843 bc3f
00000090: 8364 12bf a163 80bf 8d3d e9be f865 843e
000000a0: 51d4 243e 7bdb 9a3e 198e 563e dde2 8f3e
000000b0: 55b9 693f 3b9b 86bd bcd9 af3d 9d70 2abf
000000c0: c385 05bd fc48 343f 55f7 2d3f 4f49 463f
000000d0: 07c3 043c 5b94 13bf 9ca4 e13f ffee 583f
000000e0: 2692 7cbf 5d64 1f3f f417 25bf 774f 953f
000000f0: 72c2 80bc 6b0b 01be 6a11 69be 39a7 673e
0.84397954 0.4256662 1.2096245 1.2780731 0.58660316 1.1526195 0.6702247 -0.20025665
1.023228 0.41451725 0.30357635 0.13899139 -1.2943842 0.95692813 0.67050254 -0.2958505
-0.639278 1.0725447 -0.94682485 -0.19243608 0.7206495 1.2160246 0.551192 -1.6302994
-0.57726043 -0.13971557 1.4417009 0.8885463 -0.06731256 1.3030635 -0.033157423 -0.70944154
0.6463035 0.2369257 0.51837975 1.4708052 -0.5718462 -1.0030404 -0.45554772 0.25859046
0.16096617 0.30245575 0.20952643 0.2810277 0.9129842 -0.065725766 0.085864514 -0.66578084
-0.03259827 0.70423865 0.67955524 0.7745561 0.008103139 -0.5764825 1.762836 0.8473968
-0.98660505 0.6226252 -0.64489675 1.1664876 -0.015717719 -0.12602012 -0.22760549 0.22622384

fc2.weight f4 [64, 64]
00000000: fdc1 493e 3631 6c3e 3a2e 62be f4fe 70bd
00000010: ea53 1d3e ba11 41bf 34b0 513e 1213 ed3d
00000020: 11d8 42be afef 313e b99d 223d 71eb 173e
00000030: 8545 98ba 9a44 f9be 9a68 bc3d 31d8 dabc
00000040: e47e f03d f667 6cbe 47a6 bd3d 3e43 b3bd
00000050: e90f 95bd f682 19bf dd49 9bbc e5be 4dbb
00000060: 4dfa 813d 3c97 ddbd d73b b9bd 99a8 9abc
00000070: d47e 86bd 06de e0be 70b9 993e 7f66 3a3e
00000080: 6b2a ca3d 9625 5dbe abe8 93be 5612 debc
00000090: 5cd9 103c 69da f33d 3200 7d3d 9a20 9dbe
000000a0: 142d 98be 3725 0a3e 2e83 e63a 0be9 3cbd
000000b0: e3a3 fcbd 1db1 503e 3508 143e cd38 a5be
000000c0: b607 203c 6dd5 62be 776a 04bd 0694 2cbd
000000d0: 602c 033e 7faf c03a e4ee 883d aa5e 0bbf
000000e0: 2019 883d a2d3 a9bd 83bd a2be efb6 263e
000000f0: eede 033e 84a8 c43d e32f 90bd 46da 5bbf
00000100: d716 a33e ac05 1e3e a25d c63e be63 843e
00000110: 8127 04bd a61d 243f e43e 383e 3d86 253d
00000120: bf34 463d f2de 0a3d 7d0f 443c c6ca 883c
00000130: 3a97 ccbd 6aa0 173d 9b4c 423e 16af e03e
00000140: eb4c 34be 05bf 89be c0b9 1bbe 6af8 1e3e
00000150: 5159 d43d 58fa 0f3d 4e8a e63d 4cae 2ebe
00000160: 8275 7bbe 6553 5c3e 3120 6a3e ea42 923d
00000170: e13a 143d 1644 e83e 8c01 86bd e71c bcbe
00000180: 19bd 153e 94cd 8fbc a3dc 4abe 6f19 333e
00000190: 0a2e 93be 5f85 d8bd 80f2 33be 6190 c23c
000001a0: 7eae c1bd 3b21 843d 61cb 53bd 2ba6 1bbd
000001b0: 8ed1 b8be 5bb2 bf3d 7323 763e a8a3 22be
000001c0: b981 263d 35de 85bc 6c00 393e ed8a 30be
000001d0: 5a2b 743e 9433 debc d5e8 713e ada7 a3be
000001e0: ab17 78bc 74a4 743e 0894 febb 06e9 d03e
000001f0: 0bff 86bd 3921 37bc a0e1 d83d 70d0 9cbe
00000200: 4ffe e5bd 6b34 afbe 8ac0 7cbe 754f 70bd
00000210: 1e99 b53d 3578 fcbe 614a 393e 4d8c 9e3d
00000220: 0a85 6a3e ad6d 7b3e 5482 4f3d ddc6 4f3e
00000230: 38aa db3d b172 893d 130d 8e3d 2251 66be
00000240: 7acb 173c 7826 0ebe 50c1 9f3d 27b9 95bc
00000250: f4ef 9a3d 43c7 05be ee20 bebd b004 ad3d
00000260: e510 483e 6458 2f3e 7be9 dc3b 12d3 3c3d
00000270: 70d7 b8bd 4a7c e3be a0f5 cd3c 3b68 db3d
00000280: 1635 e6bc ad8e 123d 5e79 98be aabb b73a
00000290: 7cd9 9c3e 11a5 993d 64b1 313e 99af 75be
000002a0: 4bfa 56be 87df 8f3d 0d99 88bd 4148 a93e
000002b0: c4eb 133f 5d24 48bc fb54 b7be 5b38 f5bd
000002c0: cdc9 48bd 6bb1 9f3d 1ad4 9a3d 0e98 943e
000002d0: 077d b3be 3a8e 95bb 9650 ccbd c714 913e
000002e0: e9ab a3bd ef9e d3be 49d6 3abe ecaa 743d
000002f0: 2893 423e 0211 0f3e 4498 66bd 22f0 7bbd
00000300: d003 9c3e 8f54 be3e bfc2 4f3c 3806 4cbd
00000310: 118d f13d 7a86 9f3e 1d5f b03c 7d25 633d
00000320: 33e6 d13e ecd6 a5be 4591 93bd 3ca4 0f3e
00000330: c4db 79bd 6f68 1abf 1765 fbb8 c0a4 103f
00000340: 3341 24bd 8120 88be 22ff 6bbe 98f1 e4bd
00000350: 331c b73d 4b97 e0be 0ae2 873e ea66 313d
00000360: 5b64 993d 04fe 69be 5d85 e33c 203e 9c3d
00000370: 364d 80be 6bc8 413e f52a 293d e396 923d
00000380: 4dbb 0abe e067 58be 8be8 073d 7dc0 1bbd
00000390: 00c5 bfbe 4d7b babc 9d7d 17bd 960b c33e
000003a0: b5ea e9bc 207f 943d 3271 9d3d 1187 84be
000003b0: 5726 ebbe b86f debd 7c98 193f 71c0 9ebe
000003c0: 5a3b cfbd 47a5 1abe 1059 1a3e 6a6a f8be
000003d0: 7669 dd3d 532e 5cbd a809 5a3e 7de9 1cbf
000003e0: 7f81 d4bd 7cf7 e33e efd2 1cbd 91d4 023e
000003f0: 46b7 a0bd 6eaf c53d 25fa 40be 3c05 08bf
0.19702907 0.23065647 -0.22087947 -0.058836892 0.15364042 -0.75417674 0.20477372 0.11575903
-0.19027735 0.17376588 0.039701197 0.14835908 -0.0011617398 -0.4868515 0.09199639 -0.026714416
0.117429525 -0.23086533 0.092602305 -0.0875306 -0.07278425 -0.59965456 -0.01895612 -0.00313943
0.06346569 -0.10819861 -0.09044617 -0.018879222 -0.06567159 -0.4391939 0.3002429 0.18203162
0.09871372 -0.21596369 -0.2888845 -0.027108353 0.008840885 0.11906893 0.061767764 -0.30688936
-0.29721892 0.13490759 0.0017586702 -0.046120685 -0.123359464 0.20380063 0.14456256 -0.32269898
0.009767463 -0.22151728 -0.032328095 -0.042133354 0.12809896 0.0014700739 0.0668619 -0.5444132
0.06645417 -0.08292319 -0.3178521 0.16280721 0.1287801 0.09602454 -0.07040384 -0.85879934
0.31853363 0.15431851 0.3874331 0.25857347 -0.032264236 0.6410774 0.17992741 0.040411223
0.048390146 0.033904023 0.011966583 0.016698252 -0.09989782 0.037018217 0.18974535 0.4388358
-0.17607467 -0.2690355 -0.15207577 0.1552445 0.10368598 0.035150856 0.11256848 -0.17058676
-0.24556544 0.21516187 0.22863843 0.07141669 0.036188964 0.45364445 -0.06543264 -0.367408
0.14622916 -0.017554082 -0.19810729 0.17490171 -0.28746063 -0.105723135 -0.17572975 0.023750486
-0.0945711 0.06451651 -0.05170763 -0.038000267 -0.36097378 0.093601905 0.2403696 -0.15882742
0.040651057 -0.016341308 0.18066567 -0.17240496 0.23844662 -0.027124204 0.23623975 -0.31963864
-0.015142362 0.23890859 -0.0077691115 0.40802783 -0.06591614 -0.0111773545 0.105899096 -0.30627775
-0.11230146 -0.3421968 -0.24682823 -0.058669526 0.088670954 -0.4931046 0.1809478 0.07741604
0.22902313 0.24553557 0.0506614 0.20290704 0.10725826 0.06711329 0.069360875 -0.22491887
0.009264821 -0.13881862 0.07800543 -0.018276764 0.07565299 -0.13064294 -0.092836246 0.0844816
0.19537695 0.17123562 0.0067417 0.04609973 -0.090254664 -0.44430763 0.025141537 0.1071324
-0.028101485 0.035780597 -0.29780096 0.001401772 0.30634677 0.07502187 0.17352825 -0.23992766
-0.20993917 0.07025056 -0.06669817 0.33062938 0.57781625 -0.012215701 -0.35807022 -0.119736396
-0.049020577 0.07797512 0.075599864 0.2902226 -0.35056326 -0.004564074 -0.09976308 0.28336164
-0.07991774 -0.41332194 -0.18245806 0.059733316 0.19001448 0.13971332 -0.056297556 -0.061508305
0.3047166 0.37173888 0.012680708 -0.04981062 0.117944844 0.31157285 0.021529729 0.055455673
0.4099594 -0.32390535 -0.07205442 0.14027494 -0.0610006 -0.60315603 -0.00011987442 0.5650139
-0.04010124 -0.265873 -0.23046544 -0.11178893 0.089409254 -0.43865427 0.26539642 0.043311037
0.074898444 -0.22850806 0.027773554 0.07629037 -0.25058907 0.1892411 0.041300733 0.071576856
-0.13548012 -0.21133375 0.033180755 -0.038025368 -0.37454987 -0.022763873 -0.03698503 0.38094777
-0.0285543 0.0725081 0.07687606 -0.25884297 -0.45927688 -0.108611524 0.599983 -0.31006196
-0.10118742 -0.15102111 0.15073037 -0.48518687 0.10811131 -0.053755116 0.21292746 -0.61293775
-0.10376262 0.44524753 -0.0382871 0.127764 -0.07847457 0.09652601 -0.18845423 -0.5313299

fc2.bias f4 [64]
00000000: 7876 1a3e 79b4 b73f 3a61 02bf 19c2 413f
00000010: 0a3f 313f bb99 9b3e 92a2 6a3f 259a 16bf
00000020: 2c63 e4bc 0239 3cbe 7a3e 0dbd 7da5 d83d
00000030: 1cfb 70bc ab14 be3e 6dfb cb3e 982e b1be
00000040: 65f4 88bf 0ce2 c73d 9115 fd3d f66c ee3e
00000050: f47d 343f dfc8 ccbe 0d63 1ebf 15c1 b83d
00000060: eaff e53b 85cc 683f 30f0 c4bd 3a65 a43d
00000070: 7767 983d 689b 1a3f b4c6 a7be 0206 abbd
00000080: 4e05 b0bd c7e7 a73e 6350 d43e dc59 4e3f
00000090: 1183 993d cbfb 94be 2196 39bf 4586 5a3d
000000a0: 2f6e febe 8320 6e3f f187 b5bd a00c bebc
000000b0: b7ef 7d3f a108 b23e f220 8e3f 6648 1f3f
000000c0: 0cb4 673f f64a 64be 3edb 8b3e e57f 6dbe
000000d0: cf8e 2cbf 11fa 973d 46eb 563f 4f6f dabe
000000e0: dd8b 5c3f 2e20 d33e 83cb 45bf 7424 663f
000000f0: fb61 903f c563 18bf d171 99bc a363 873e
0.15084255 1.4351951 -0.50929606 0.75686795 0.69236815 0.30390725 0.9165431 -0.58828956
-0.02787932 -0.18381122 -0.03448341 0.105784394 -0.014708307 0.37125143 0.3984026 -0.3460586
-1.0699583 0.09759912 0.12357629 0.46567506 0.7050469 -0.39997002 -0.6186989 0.090212025
0.0070190327 0.9093707 -0.09616125 0.0802712 0.07441609 0.6039338 -0.32768786 -0.08350755
-0.08594762 0.3279402 0.4146758 0.80605865 0.07495702 -0.29098353 -0.72494704 0.053350706
-0.49693438 0.9301836 -0.088638194 -0.02319938 0.991939 0.34772208 1.1103804 0.62219846
0.90509105 -0.2229422 0.27315706 -0.23193319 -0.6740541 0.07420743 0.8395275 -0.42663047
0.86150914 0.4123549 -0.7726366 0.89899373 1.1279901 -0.59527236 -0.01873103 0.26443204

fc3.weight f4 [2, 64]
00000000: 8ec7 8d3e 0194 5c3e f69f 06be 0b25 b83e
00000010: 04b0 3f3e e930 813e 3ff7 773e 8e48 29be
00000020: 12cc e1bd 1a8c 77be 0e49 ffbc 7a96 b0bd
00000030: ab74 a0be 21c3 9a3d 7008 653d 8edc 56be
00000040: caa1 fabd a2b8 2dbd 950a 1ebd df0a c73e
00000050: d623 ce3e d9b3 c6bd b69a 21bd 2a36 89be
00000060: 13b2 0dbd 01b5 0fbd 38f0 3a3d f704 05bd
00000070: 46dd 793c 6c0b 883e dc49 ebbe 9a72 8dbe
00000080: aa89 083e 0cea 063e da45 b7bd 9802 b23e
00000090: f6fa 5dbe 4482 6ebe 3a24 16be 39ef 7ebf
000000a0: 2181 8bbd 0bdf a63e c0a0 023f 1c57 88bd
000000b0: e066 083e fe5f 143e 365d 943e fb0c 5f3e
000000c0: 98ce c13e de2c 80bd 6080 f93e 2abb 31bd
000000d0: f384 f2bd 0b68 41bd 429a 653f 7bba 4bbe
000000e0: 31d6 f63e 0a0e aa3e bb11 debd 4437 fe3e
000000f0: d257 3b3e 443d 99bd abfa 573d 791a c63e
00000100: 9572 b73e 742e d5be 693f c03d 01a0 51bb
00000110: e497 87bb c9c6 ffbd d79f f73d a3b1 cdbd
00000120: a0ec 363d dcc5 033f e0c9 a73d b8ed 643e
00000130: 4f4b a33e 8e3b d03e 36ee fb3e 109b f93d
00000140: 3d3d aebd 12c4 81bc 47a9 54be a08e 83be
00000150: 3266 e0bd 5c19 8dbd d88e edbb 30d6 b0bd
00000160: 6320 9abe bc85 e03e 6057 d7bd 952e 2d3c
00000170: 87ae ebbd c7ff 88be ef29 3bbe 9a2f 383f
00000180: a3fc 8a3d d3c4 983c 5cc2 543e 7cf5 8e3d
00000190: 9ef2 e53e 4a32 c43c ce07 25be a39f a43c
000001a0: 0ffd 01be d8b0 3b3e d170 a33e 06fd f73d
000001b0: 065d b63e ab71 d43e ba74 093f 78c7 bfbd
000001c0: deb5 073f 4b51 283e 05ff cc3e eb01 ecbe
000001d0: 5cfe 24be e51e e13d 3a09 87be 3f2c 963c
000001e0: e168 a1bd a0ae 63be 6f5e 3bbe ed8c fe3e
000001f0: b18d 9a3e 3f5d 95bd 1ce9 e83d c5d7 28be
0.2769131 0.21540834 -0.13146958 0.35965762 0.18719488 0.25232628 0.2421541 -0.16531584
-0.110252514 -0.24174538 -0.031162765 -0.08622451 -0.3133901 0.07556749 0.05591625 -0.20982572
-0.1223789 -0.042412408 -0.03858431 0.3887548 0.40261716 -0.09702272 -0.039454184 -0.26799136
-0.034593653 -0.03508473 0.045639247 -0.032475438 0.01525051 0.26571214 -0.45954788 -0.27626497
0.13333765 0.1317522 -0.0894887 0.34767604 -0.21677765 -0.2329188 -0.14662257 -0.99583775
-0.06811739 0.32592043 0.51026535 -0.0665724 0.13320494 0.14489743 0.28977364 0.21782295
0.3785293 -0.06258558 0.48730755 -0.043391384 -0.11841764 -0.047218364 0.89688504 -0.19895355
0.4821029 0.33213836 -0.108432256 0.4965154 0.1829522 -0.074823886 0.05272929 0.38692072
0.35829607 -0.41637003 0.093870945 -0.003198624 -0.00413798 -0.12489087 0.12091034 -0.10043647
0.044659257 0.51473784 0.081928015 0.22356308 0.31893393 0.40670437 0.49205178 0.12187779
-0.08507774 -0.015840564 -0.20767699 -0.25694752 -0.10956992 -0.068896025 -0.0072496943 -0.08634603
-0.30102834 0.4385203 -0.10514712 0.010570188 -0.11507898 -0.26757643 -0.18277715 0.71947634
0.06786468 0.01864854 0.20777267 0.06980416 0.44911665 0.023949761 -0.16116259 0.020095652
-0.1269419 0.1832918 0.3192201 0.12108807 0.35617846 0.41492972 0.53693736 -0.093642175
0.5301188 0.16437261 0.40038314 -0.46095213 -0.16112655 0.10992221 -0.26374227 0.018331645
-0.07881332 -0.22234583 -0.18297742 0.49716893 0.30186227 -0.07293176 0.11372587 -0.1648856

fc3.bias f4 [2]
00000000: 22ff f83e dd84 043f
0.4863215 0.51765233
